hw1/models/Baseline_final.pth (torch, 250522 bytes, 10 tensors)

conv1.weight f4 [6, 1, 5, 5]
00000000: 734a 053d dc0b cd3c 9404 25be 204b a43d
00000010: 8969 603d db95 0dbc 62a8 d83d a4d0 a3be
00000020: 0948 2e3e a6e8 df3d 3882 043e 0142 bb3e
00000030: 9c8b 09bf 7a41 2f3e 4f83 533e ddf6 443e
00000040: b6c1 953e 1ce5 e9be 87f1 e4bd 3605 a53e
00000050: 71a8 293d 2c92 303e 9f16 6cbe 256b 433b
00000060: 63d1 973e 1760 26bd 273e 383c 378c 333e
00000070: b150 843c a50d 13be eb52 013e f093 11be
00000080: 9670 7bbe bcbb 6dbe 9f3b 1fbe 3054 bbbd
00000090: 850c cfbd f6dc 4fbe b308 13bf 94c7 86be
000000a0: b5fd 3cbd 4a4f df3d 011f efbd b99e c0be
000000b0: 8340 adbd 2df6 813e da1d 493e ce82 b53d
000000c0: ba4b 45be bd90 1dbe 9173 053e 755c c5be
000000d0: c2e0 e63e afde bbbd 6ad1 beba da54 4dbe
000000e0: 6415 fcbe 8e93 243f 17aa ab3d 80d3 71bd
000000f0: 837e 9dbe e598 9dbe fc86 d63e f85c 283e
00000100: 87dd 5e39 b9fb 853e 63db a13e c5e4 8cbe
00000110: 5927 f4be b76b 203e e251 8d3d dbce 883e
00000120: 0a8c 65be 4113 583c 9016 03be 48f1 40be
00000130: bfcd 5ebe 21f0 b13d 985c eb3c daf4 a33e
00000140: e8cc efbe 3eaf 37be 1897 48be 7443 873e
00000150: 2dbd 463e 2e01 e1be 1b56 c2be bed0 55be
00000160: 357f be3e 9bd2 163d 25ed dc3d 49dc 4e3c
00000170: 81e3 d63d c352 823c 96a0 b03e bcab fabd
00000180: 029f 963c bb5d c43d 5ba4 633e 0283 cd3c
00000190: 191e 483e 3dc2 5a3e fff1 9fbe d49a 8bbe
000001a0: 496b 21be 97f4 963e c104 0abd 96f0 f33c
000001b0: 47a6 afbd 61d3 44bd 92b6 f93e 06bd 5ebd
000001c0: ad78 23be b234 90bd ef40 47be ed5d e63e
000001d0: 2930 23be 729c b4be 7309 093e d30f 8c3e
000001e0: a49f d23e ad52 3ebe 8bb3 c7be 86a9 4cbe
000001f0: 1d22 153e cb35 97be 1345 7fbe 2224 cebd
00000200: e8cd bc3e baa9 753e 8d37 203d 390d a73c
00000210: e2b4 993e 83f6 a13e 9c92 15be 63cd 123e
00000220: dcf4 053e 3f8e 853d 73bd 36bc 592e 803c
00000230: 8ea0 1e3d 610f 613e 4045 ad3d 6d05 393e
00000240: 482b 753e 3a5d 59be 99ed 143c 9bf9 30bd
00000250: 32d9 18bf b214 98be
0.032541703 0.025030069 -0.16115028 0.080221415 0.054788146 -0.008641685 0.105789915 -0.31995118
0.17019667 0.10933046 0.129403 0.36573794 -0.5372865 0.17114821 0.20655559 0.19234796
0.29249352 -0.4568261 -0.1117888 0.32230538 0.041420404 0.1724326 -0.23055504 0.0029818502
0.29651937 -0.040618982 0.011245287 0.17533956 0.016151758 -0.14360674 0.12629287 -0.1421659
-0.24554667 -0.23216146 -0.15550087 -0.09146917 -0.1010981 -0.20299134 -0.5743515 -0.2632414
-0.04614039 0.10903795 -0.116758354 -0.37621096 -0.0845957 0.2538313 0.19640294 0.0886284
-0.19267169 -0.15387245 0.13032366 -0.38547102 0.45093352 -0.09173333 -0.001455826 -0.200519
-0.4923507 0.6428765 0.083820514 -0.059039593 -0.30760583 -0.30780712 0.4189986 0.16441715
0.00021254095 0.26168612 0.3161269 -0.27518287 -0.4768627 0.1566609 0.069003835 0.26720318
-0.22416702 0.013188184 -0.12801576 -0.18842041 -0.21758173 0.08688379 0.028730676 0.32022744
-0.4683602 -0.17937943 -0.19588888 0.2641865 0.19408102 -0.43946213 -0.37956318 -0.2088041
0.37206426 0.036821943 0.10787419 0.012625762 0.10492612 0.015908604 0.34497517 -0.12239787
0.018386368 0.0958819 0.22230665 0.025086883 0.19542731 0.21363159 -0.31239316 -0.27266562
-0.15763582 0.29483482 -0.03369594 0.029777806 -0.08576637 -0.04805315 0.48772103 -0.054379486
-0.15964003 -0.07041301 -0.19458364 0.44993535 -0.1593634 -0.35275608 0.13382511 0.27355823
0.4113742 -0.18586226 -0.39004168 -0.19986543 0.14563794 -0.29533228 -0.24928693 -0.100654855
0.36875844 0.23990527 0.039115477 0.020392047 0.30020815 0.31633386 -0.14606708 0.14336161
0.13081688 0.06521272 -0.011153567 0.0156471 0.038727336 0.21978523 0.08460474 0.18068476
0.23942292 -0.2122697 0.009089851 -0.043206792 -0.59706414 -0.2970329

conv1.bias f4 [6]
00000000: 3290 d5bd b416 15bf a454 e93a f348 273e
00000010: 4024 ac3b 2b50 403e
-0.10427894 -0.5823777 0.0017801714 0.16336422 0.005253345 0.18780582

conv2.weight f4 [16, 6, 5, 5]
00000000: adde 083d 42a4 59be cacb 21be 007c 2dbc
00000010: e241 59bd 9379 e53d 2f7f c83d d40c 9abd
00000020: 364b 80bd 508f c1bb 67ac e93c 2c83 273d
00000030: 3a24 a4be 6d37 8dbd 7271 aabc 84db d3bd
00000040: 01af 00be 9894 6dbe f299 3fbd 1081 f0bc
00000050: 28a5 81bb db0c 33bd 8afa 8bbd 82c6 ccbd
00000060: 81f0 923d e5d0 cbbc 9c01 cbbd b41f c33b
00000070: 2b21 1c3d 58e6 ccbd 1526 8e3c dc9b 853d
00000080: 03f1 173e 6d29 cb3d f65b 27be e58f 053e
00000090: f2d9 403e 67e7 453d 118c b6bd 34d4 89be
000000a0: 6d46 8c3e 5ced be3e 53cc 883d c438 7a3d
000000b0: 2af4 d0bd 582f 183c 202a 823e 3ecb 3ebd
000000c0: 5b82 35bd eae4 34be 1bf2 9c3d 377e a03e
000000d0: 9faa a13d 101c 11be 0a0d efbe 97b2 d9bd
000000e0: 18a4 98be 7b21 a3be 8cd9 053e b705 923e
000000f0: cb14 ceba 2e21 d0bd e0a1 7a3d 9132 5b3e
00000100: f77f 1a3d 9007 c0bd 6f53 06bf 09a8 cdbd
00000110: 8d64 a13e fd3c 093e 0669 08bf 988e 1fbf
00000120: f11c cfbd fa81 013e 9285 703d 9d7d b9bd
00000130: 1f07 e3bd af38 2fbe 4602 03be 6251 acbd
00000140: 3961 8ebe 6361 abbe d154 8e3d 80f7 cb3d
00000150: 0fdf 893d 6ab4 9cbd e5d4 8dbe 15ac 2d3e
00000160: e3ca 2e3e 7f6c cf3d a4d7 18bf 29dd c7be
00000170: fa0b 893e 7eae a23c 12f7 a1bd 7c36 c03c
00000180: 1395 5dbd 36c8 a33e 046b 37ba 5653 483d
00000190: fe9e e13d 34c6 ac3d 5eeb 07be 60a0 f73d
000001a0: e373 b2bc df80 843d ddbd cb3c 535f b7bd
000001b0: 8db7 1b3e aecb 1dbe 7c10 debd 790c ef3d
000001c0: a5cc 6d3c 29f4 253e 7497 b7bb 0f65 d7bd
000001d0: 8f66 b73b 4a79 1abd 434f e1bd f31b 23be
000001e0: c303 2cbd 1883 11bd c229 6abd a5b0 21be
000001f0: cbd2 8ebe 55b2 883d a671 a93d 2845 883d
00000200: 369a b83c 7731 fdbd c05a 2a3d 9583 093e
00000210: ba2b 843d a7d0 55be 501c 89be 88b8 063e
00000220: 9fea 1c3e 2cda 24bd 5789 2b3c 71d4 a7bd
00000230: 98a8 6b3e 2e95 ad3d 6103 5f3d 6222 ee3d
00000240: 33ab 6bbd 954a d53c 683f be3b e8f9 9abc
00000250: dd3b 9bbe 1e9a 2abe 16f4 00be 46fe 593d
00000260: 0a42 b3bc 7d94 073e e47c 363e 3785 873d
00000270: 3090 92be df1c 0d3e 0508 0d3e a33d 833e
00000280: b6cf 833c 12f5 5abe d3d8 08be 8552 783e
00000290: e2c1 523e d3f6 9c3c d1a8 24be b7e7 8dbd
000002a0: 75d3 b53d f48a 303e 0b74 8b3d 09dd ce3d
000002b0: 10b8 2bbc 9344 503e 70cb 473e 586e f2bc
000002c0: 7207 52bd 6f20 963b b2c5 d1bd 2df1 b0be
000002d0: 49b6 57bc 72b1 1b3c 0614 183e 951e 80bd
000002e0: 3850 893c 866d 293d eb02 a43d 1f8f 853d
000002f0: 3f88 113c fd7a 813d 9b5b 38be de53 d63d
00000300: 5493 223e 4610 42be 320d bfbb 624e 5dbe
00000310: 5555 0e3e 4b89 f03d 5774 ddbd 3aec 73bd
00000320: 3319 21bd 2b1a 213d bb6e f8be d31d 85bd
00000330: 1f44 10be 538c 173e 1442 273d ced1 253d
00000340: 5129 c83c bc12 693e 1ee9 c83d 9916 a43e
00000350: b32d c8be 73fd e13d 6a52 293e 49d2 b83d
00000360: c95f 4a3e 3f62 4d3e b50a 603e 4c58 093e
00000370: 5a14 583e 130c 93bd dea4 303d e8de e83e
00000380: 683f b23e 8058 09be cab5 05be 6f2b dfbd
00000390: f52e 1b3e 20bf 693e 3844 d2bd d3ac ecbd
000003a0: 9c91 76bc 0a06 a83d 32a2 e33d d94c 49bc
000003b0: 6c2c bebd 197f 4ebd 1c65 bd3d 393f 4cbd
000003c0: 64ba 753d 44e7 b6bc 7b08 1dbe 985a 4a3d
000003d0: 638b a4bd a512 e8bd 1805 83bc 9d33 af3d
000003e0: 3855 4b3e 337a d33c de96 2ebe b706 843d
000003f0: 26ef 80be e7a5 44be 2356 1e3e d643 1c3e
0.033415485 -0.21254066 -0.15800396 -0.010588646 -0.053041346 0.11204829 0.09789883 -0.07521978
-0.06264345 -0.0059069768 0.02852459 0.04089658 -0.3205889 -0.06895337 -0.020806048 -0.10344604
-0.12566759 -0.23201215 -0.046777673 -0.029358417 -0.0039564557 -0.04371343 -0.06834896 -0.099988
0.07174779 -0.024879882 -0.09912416 0.005954707 0.03811757 -0.10004872 0.017352143 0.065238684
0.14838032 0.09920011 -0.16343674 0.13043173 0.1883314 0.048316386 -0.08913434 -0.2691971
0.2739748 0.37290466 0.06679597 0.061089292 -0.102028206 0.009288631 0.25422764 -0.046580546
-0.04431377 -0.17665449 0.076633655 0.31346294 0.078938715 -0.14170861 -0.46689636 -0.106297664
-0.29812694 -0.3186148 0.13071269 0.28519985 -0.001572275 -0.101625785 0.061189532 0.21406008
0.037719693 -0.093764424 -0.5247106 -0.10041816 0.31522027 0.13402171 -0.53285253 -0.62326956
-0.10112942 0.12647238 0.058721133 -0.09057162 -0.110853426 -0.17111467 -0.12793836 -0.0841396
-0.2780855 -0.33472738 0.06949771 0.09959316 0.06731998 -0.07651599 -0.27701488 0.16960175
0.17069583 0.10128116 -0.5970404 -0.3903592 0.2676695 0.019858595 -0.07908453 0.02346348
-0.054097246 0.31988686 -0.00069968426 0.0489076 0.110166535 0.08436242 -0.13273379 0.12091136
-0.021783775 0.06469893 0.024870807 -0.089537285 0.15206738 -0.15409729 -0.10842988 0.11672301
0.014514123 0.16206421 -0.0056027714 -0.10517322 0.0055969427 -0.037713327 -0.11001446 -0.1592863
-0.041995775 -0.03552541 -0.05716873 -0.15790041 -0.27895197 0.06674639 0.0827363 0.066538155
0.022534471 -0.1236295 0.041590452 0.13429101 0.06453653 -0.20880376 -0.26779413 0.1315633
0.15323876 -0.040247127 0.010469756 -0.08194817 0.23013532 0.084757194 0.05444658 0.11627652
-0.057536315 0.02603654 0.0058058985 -0.018917993 -0.3031911 -0.16660354 -0.12593111 0.05322101
-0.021882076 0.13240238 0.1782108 0.066172056 -0.2862563 0.13780545 0.1377259 0.25632963
0.016090255 -0.2138255 -0.13363962 0.24250229 0.20581773 0.019160664 -0.16080023 -0.06928962
0.08878223 0.17240506 0.06809243 0.10100753 -0.010480896 0.20338659 0.19511199 -0.029593632
-0.05127663 0.004581503 -0.102427855 -0.34559003 -0.013166019 0.0095027555 0.14851388 -0.06255833
0.016761884 0.041364215 0.08008369 0.06521439 0.008882581 0.06322286 -0.18003695 0.10465215
0.15876514 -0.1895152 -0.0058304304 -0.21611932 0.13899739 0.117449366 -0.10813206 -0.059551455
-0.039330672 0.039331596 -0.4852198 -0.06499829 -0.14088486 0.14799623 0.0408345 0.04048329
0.024433764 0.22761053 0.098100886 0.3204849 -0.39097366 0.1103467 0.16535345 0.09024484
0.19763102 0.20057009 0.21879084 0.13412589 0.21101514 -0.07180037 0.04312598 0.45482564
0.34814 -0.13412666 -0.13057628 -0.10896956 0.15154631 0.22826815 -0.10266918 -0.11556401
-0.015049364 0.08204277 0.11114921 -0.012286388 -0.092858166 -0.05041418 0.09247801 -0.04986498
0.05999221 -0.022327073 -0.15335266 0.049402803 -0.080343984 -0.11331681 -0.01599364 0.08554766
0.19856727 0.025815105 -0.17049739 0.06446593 -0.25182456 -0.19203912 0.15462546 0.15260252

conv2.bias f4 [16]
00000000: 4d66 433c c55d 7d3c 29aa a03e 4899 d3bc
00000010: f42e c83d 4594 ebbd e7f7 5fbd cad9 803d
00000020: e6d6 88be 4118 023d 7b15 dc3d cdad 4dbc
00000030: 33ea 48bd e7a1 3d3e 4780 43bd d664 7bbb
0.011926246 0.015464251 0.31379822 -0.025829926 0.097745806 -0.115028895 -0.054679777 0.0629154
-0.26726454 0.03176141 0.107462846 -0.012553644 -0.049051475 0.18518792 -0.047729757 -0.0038359663

fc1.weight f4 [120, 400]
00000000: 553f af3d d7bc 0c3c 8057 b4be c99b a6be
00000010: 493c 303e 6445 7a3d 8e4a 66be f501 053e
00000020: c9c6 6cbb f3ec bf3d d877 8dbc 6610 eebd
00000030: 2df7 7d3e 488f 0e3c 8c30 b23d e94b 94bc
00000040: 0d18 6e3d 0b21 14be fb33 063d c64b 903d
00000050: 2939 4b3d b827 8e3d e5ef 8cbd f03a 09be
00000060: 22e4 afbd a01a 073e 2425 643e 3422 9abe
00000070: 0546 55bf 8d66 f1bd ab1f 78bd 91a8 d5bd
00000080: 6f6c 04bd 4dfc f93c 8084 34be 4b79 ad3d
00000090: a75d 8d3d 6f81 2cbe b48e 10bd 4b4a 08be
000000a0: 2692 8e3d 47f6 82bd 18d2 8cbe 6048 92bd
000000b0: 8b4d ea3b c09f 463d 217c 86be 3256 813d
000000c0: b22a 173d 453e 943d 9467 68bd 6f42 61bd
000000d0: ec5a 04bf 4895 c23d c456 493e c81b cd3c
000000e0: a29e 0dbd 8f32 e7be 1239 e63d b482 8a3d
000000f0: 3b6a 3b3e 50fe 4fbe 979c b9be 9b42 87bd
00000100: 63d6 00bc 3fef b43d c3cc c93d 9c55 c9bd
00000110: 62af 42bc 6279 f8bc 60fd a6bd f549 3e3a
00000120: bcd2 95be 2405 70be 2ee1 eb3d 4e95 963c
00000130: 9a8f 43be 1120 edbd 16a5 573e 06ba 67be
00000140: e8e0 663e a976 3fbe 2300 68be 6a8f 873e
00000150: 16f8 893e e55f c8bd 20c0 8dbe 3c83 2bbe
00000160: 01b1 523d c546 b23d 48b9 61be 9010 0fbe
00000170: c0fd 13be cf01 843e 950c b9bd af75 29bd
00000180: 86b7 efbd e704 dc3b 8f1d bdbd 0fb6 1c3e
00000190: 4e05 ffbd 79de fb3d 7841 243e 758f d4bd
000001a0: 66c2 dd3c 197f d8bc 785a ad3d 66d5 293d
000001b0: 61cb 143e b87f 5f3e f5ac 4f3d a810 033e
000001c0: 8c4c 993d 9763 13bd 488b 43be dc62 6c3d
000001d0: a840 f53a e392 0dbe 49cd 273e f7eb 9b3c
000001e0: 9e05 cb39 0bc0 77be ce94 99bd 471b 673e
000001f0: 48d5 443d d1b0 12bb a768 debe 3503 bb3e
00000200: bd98 39bd 4ed3 eabe 80a9 d0bd 736e a8bd
00000210: 6f91 5ebd 13d1 69be 9b45 e1bd e953 0abe
00000220: acbb 2abe 1260 43be 6e75 d9bc e156 69bd
00000230: 5ebe b8be af5e e8be 831f 9b3d 40ef efbd
00000240: 6d13 30be 6b29 66be d477 073e b952 403d
00000250: 70a2 7bbe 9150 4a3e 194e a3bd ac30 0abd
00000260: 22f4 3bbe 438e 393e af64 453a 74ca 10be
00000270: e0b7 e73c f38c 0abe 1fdc dfbb a6c4 693d
00000280: ba67 6d3c 509f 063e fa26 fbbd db47 a33d
00000290: 444e 2fbd 5051 9fbc d7b7 573e 46e7 1abd
000002a0: c45b 4b3e 8c89 653c 5c7f bcbc 2b52 663e
000002b0: 4600 e4bd c308 3f3c 796b f43c 2da0 023c
000002c0: e4c0 b8bd ba85 a73d 09e8 85bd 4549 2ebe
000002d0: 8543 b83d 95c0 f73d 9737 873e 4294 903c
000002e0: 3438 433e a026 b03b 08b5 973d 3b20 97bd
000002f0: 57f1 e83d 923b fa3c 5bf1 b13d 7645 3d3d
00000300: cb6c 04bd 4515 11be 2588 863b f833 503c
00000310: 6123 593b cb8c febd c77b 8f3d 9087 563e
00000320: b1c8 363d b810 0bbd 2b0c e2bd afc6 c9bd
00000330: b345 b23c b6e0 f13b 8f91 013e 43cb 63bd
00000340: 1065 613e a3fa 143d ea59 b2be 1d2e ac3d
00000350: f86b fa3d 2254 febd a1a3 ed3d acde 383e
00000360: 1e44 d63d cd57 2fbb b21b 11be feaa ed3d
00000370: fb2e 413e 2d1f e0bc 6c58 ac3d eeef f2ba
00000380: d920 81bc 872d 13bd 2549 8e3c d7b5 a73d
00000390: f67a b8be 5e7c b8bb 2875 cabd 5791 4c3d
000003a0: 3bca 01bd d56b 463d c6a1 053d 9b00 0fbd
000003b0: 5aac 723d 331b ea3d d696 4a3e f4f2 d1bd
000003c0: 00e0 913d 3828 b73b d3f2 91bc 493b 3f3d
000003d0: 59bb 633b 33db 183e bf2b a43d f250 863d
000003e0: 62f9 133c 37dd 333e 1d8e 7bbd 79bf 4a3d
000003f0: da50 13bf 11ba 423d 4324 293d 136f 1b3d
0.085570015 0.008589945 -0.35223007 -0.3254073 0.17210497 0.061101332 -0.22489378 0.12989028
-0.0036129227 0.09371366 -0.01726906 -0.116242215 0.24801321 0.008701153 0.08700666 -0.018102603
0.058128405 -0.1446573 0.032764416 0.07045703 0.04961506 0.069411695 -0.06881694 -0.13401389
-0.08588435 0.1319375 0.22279793 -0.3010422 -0.83309966 -0.11787138 -0.060577076 -0.10432542
-0.032329973 0.030515814 -0.1762867 0.084704004 0.069026284 -0.1684625 -0.035292342 -0.1330959
0.06961469 -0.0639463 -0.2750404 -0.07142711 0.007150357 0.048492193 -0.26266578 0.063152686
0.03690595 0.072384395 -0.056739405 -0.054994997 -0.51701236 0.095011294 0.19662005 0.025037661
-0.034575112 -0.4515576 0.11241354 0.06763211 0.18302242 -0.20311856 -0.3625228 -0.06604501
-0.007863614 0.08834695 0.09853508 -0.09830782 -0.011882635 -0.030331317 -0.08153796 0.0007258945
-0.2926234 -0.23439461 0.11517559 0.01838174 -0.19097748 -0.11578382 0.21059069 -0.22629556
0.22546732 -0.18697609 -0.22656302 0.26476604 0.26947087 -0.097839154 -0.27685642 -0.1674928
0.051438335 0.087049045 -0.22043335 -0.13971162 -0.14452267 0.2578263 -0.09035603 -0.041371997
-0.11704926 0.0067144516 -0.092341535 0.15303825 -0.12452184 0.12298293 0.160406 -0.10378925
0.027070235 -0.026427792 0.08464521 0.04146328 0.14530708 0.21826065 0.050702054 0.12799323
0.07485303 -0.03598365 -0.190961 0.057711467 0.0018711286 -0.13825564 0.16386904 0.019033415
0.00038723362 -0.24194352 -0.07499085 0.22568999 0.048054963 -0.0022383223 -0.43439218 0.36525884
-0.04531168 -0.45864338 -0.101885796 -0.082241915 -0.054337915 -0.22833662 -0.10999604 -0.13508572
-0.16673154 -0.19079617 -0.026545253 -0.05696762 -0.3608274 -0.45384738 0.0757437 -0.11715555
-0.1719491 -0.22476737 0.13229305 0.04695389 -0.24573684 0.19757296 -0.0797388 -0.033737823
-0.18354848 0.18120675 0.00075299566 -0.1413973 0.02828592 -0.1353033 -0.0068316604 0.057072304
0.014490062 0.1314671 -0.122632936 0.0797269 -0.04279925 -0.019447953 0.21066223 -0.037818216
0.19859225 0.0140098445 -0.023009948 0.22492282 -0.11132865 0.011659804 0.029836403 0.007972759
-0.09021166 0.08179803 -0.06538398 -0.17020138 0.08997253 0.12097279 0.264096 0.01764882
0.19064409 0.005375698 0.07407576 -0.07379194 0.11374157 0.030545983 0.08688613 0.04620882
-0.032330316 -0.1416827 0.004105585 0.012707703 0.003313266 -0.12429198 0.070060305 0.2095015
0.044624988 -0.03395149 -0.11037477 -0.09852349 0.02176175 0.007381524 0.12653182 -0.055613767
0.22011209 0.03637184 -0.34834224 0.08407233 0.12227625 -0.12418391 0.11603475 0.18053693
0.10462211 -0.0026755214 -0.14170721 0.1160488 0.18865578 -0.027358616 0.08415303 -0.0018534639
-0.015762733 -0.03593209 0.017368862 0.0818898 -0.36031312 -0.00563006 -0.09885627 0.049943294
-0.031687003 0.04844268 0.032624982 -0.034912687 0.0592464 0.11430969 0.19784102 -0.10251418
0.07122803 0.0055895112 -0.017815983 0.046687398 0.003474912 0.14927368 0.080161564 0.06558408
0.009031625 0.17564856 -0.061414827 0.04949901 -0.57545245 0.047540728 0.041294347 0.037947726

fc1.bias f4 [120]
00000000: 65d1 e53d cd39 953d 2cd4 9abc 3f71 b93c
00000010: 1f9b 20bb 7246 013d 6c87 de3a 1de9 183e
00000020: 2ea5 803d bda9 633d f450 b53d 32de 7dbd
00000030: e347 813c 047c 5d3e c66d 6dbd b2f2 ac3d
00000040: e321 f1bc 0801 423c 6cb1 403b d6c9 dd3c
00000050: a5e7 f83b 2416 36bd 8e95 98bd e997 903d
00000060: 753e c03b 5139 c93d 6d6e 80bd 7fc3 303b
00000070: 345f 46bc d341 75bd a1ad fc3d f8c5 40bd
00000080: 8431 8a3c bf46 f2ba 271f 3dbd 602f 9a3d
00000090: 788f 4b3d f07e adbc 117b 7d3d 11a9 05bd
000000a0: 7f6c 15bd 3c66 fabc 40e8 6dbd 43ad 553d
000000b0: d438 df3d c7e1 953d f892 1f3e cfb1 95bc
000000c0: 9fa6 873d bede 043e 923b ba3c 39eb b4bc
000000d0: 4344 72bb 468b 783d 97dc 0fbd 938e 4e3d
000000e0: be5e d83d b8d6 dd39 a28f e43d 2b93 043d
000000f0: e88d a83d bf98 acbb 3fc7 643d 04e0 5f3d
00000100: 766a 073d 492f 69bd 5bb2 a43d cbc1 49bd
00000110: 32f1 0abd 314d 3bbd 4b6f 9ebc 6875 e0bc
00000120: e9e3 99bc aa01 533b 0072 a9bc e706 cc3c
00000130: 5b36 a33c 18cf e63d 8b44 08bd f3cf 733c
00000140: d744 7d3d 2adc 973b 15fe 583b 6418 53bc
00000150: 110b 013e 3876 febc a6f9 4fbc 8531 68bd
00000160: 09f1 cabb 99e4 92bc 5050 963d 664a 60bd
00000170: bd52 ae3a 8202 fc3d 2a09 56bd e2f2 d2b9
00000180: b888 9dbb 114c 22bd 2470 fd3d ef54 a73d
00000190: a15d 01bd 0287 8dbd 0849 3bbd 1aa8 923d
000001a0: 18bb 0abd c49a a6bd 48f9 d63d 5ec6 8fbc
000001b0: 98c6 a3bd 2726 6b3b 92c5 653d b827 6a3d
000001c0: 6e7b 9bbd 7e03 f5bc f913 5e3d a82b 10bd
000001d0: b8f5 b43d b4d3 5d3d a7ba 28bc 8d56 053d
0.112215795 0.07286415 -0.0189 0.022637008 -0.0024506522 0.031561323 0.0016977615 0.14932676
0.062815055 0.055581797 0.08853331 -0.06197948 0.015781349 0.2162934 -0.057966016 0.08444728
-0.029435104 0.011841066 0.0029402627 0.027073782 0.0075959736 -0.04445471 -0.074504 0.070602246
0.0058668205 0.09825385 -0.06271062 0.0026971994 -0.012107659 -0.059877228 0.123378046 -0.047063798
0.016869314 -0.0018484219 -0.046172287 0.07528567 0.04969737 -0.021178693 0.061884943 -0.032631937
-0.036480423 -0.030566327 -0.05808282 0.05216719 0.10899511 0.07318454 0.15583408 -0.018273262
0.06623577 0.12975594 0.022733483 -0.02208482 -0.0036966957 0.060679697 -0.03512248 0.050428938
0.10564946 0.00042312383 0.11160208 0.032366913 0.082301915 -0.005267232 0.05585408 0.054656997
0.033060513 -0.05692986 0.08041831 -0.04925708 -0.033921428 -0.045727912 -0.019340178 -0.027399734
-0.018785434 0.0032197037 -0.020684242 0.024905635 0.01992338 0.11269969 -0.033268493 0.014881122
0.06183323 0.0046344 0.003311043 -0.012884233 0.12601878 -0.03106223 -0.012693798 -0.05668785
-0.0061932844 -0.01793127 0.07339537 -0.054758452 0.0013299804 0.12305166 -0.052254833 -0.00040235283
-0.004807558 -0.039623324 0.12374905 0.08170497 -0.031583432 -0.06910516 -0.045723945 0.07160969
-0.033869833 -0.08134988 0.104967654 -0.017550644 -0.07996863 0.0035880895 0.05609662 0.057166785
-0.07591902 -0.029908892 0.054218266 -0.035197884 0.0883593 0.054156974 -0.010298408 0.032553244

fc2.weight f4 [84, 120]
00000000: 5709 94be f65d 343e ae7a a93c 48c1 353d
00000010: bf29 60be 983e e9bd bcc7 11be 354a 6fbe
00000020: 16ad b0be c3fa 6a3d ba1b 89be af0f 3bbe
00000030: be58 ccbd d2cc 4ebe 2813 b83d 401c 713b
00000040: 82b4 f0be d718 67be a703 2abc 7855 203e
00000050: 105e b5be 5ad0 2dbe 004e cbbb 85e3 94bd
00000060: c4d9 bb3c 4d8d 213c a46a 10be 2aa6 4239
00000070: 36c1 61be 6146 87bd 6318 a83e a09a 033e
00000080: 9646 15be ad3d 143d 7590 81bd f2c5 21bd
00000090: 361e d6bd c197 bc3b 460f 6d3e d3f5 19bc
000000a0: 2702 93bd f68f 38bd c003 58bc 189e dabd
000000b0: 0bcd 37bd d01a dcbd d785 d23d 8e99 af3d
000000c0: f7c5 18be 5e14 afba fa82 aabd ddb2 37be
000000d0: 9180 e9bc 2c99 743d bcaa 9ebc 0a77 91be
000000e0: 65dc a8bb 462a 68bd 0738 b0bd f342 93bd
000000f0: a6b3 febd 04cb 893d bb7b 61be a01e 913e
00000100: b863 2abc 22a5 57bd b3a2 4c3e 1b24 29be
00000110: 5956 5cbe 85fa febd 74a7 f7bd b1ca 623e
00000120: 6df6 b8be 55ae 74be 0084 b238 426f 81bd
00000130: 9e12 b63d ef6a 17be eb5d c4be 8647 f9bd
00000140: efd8 e0be b8f4 1bbd 8137 81be 7c80 103d
00000150: a2c8 8ebe 787f 0f3e 0c0e b2bc 6c7a aa3d
00000160: 6846 81bd 606b 2c3e 350e 913d d02b 56bc
00000170: 8a17 ab3d 29d3 543e b4a9 8ebc d089 cdbc
00000180: 662e a7ba 34b0 363d 099b 8c3d 5ded 8d3b
00000190: 986e 2a3d 305c f3bc 502c a93d e9be 0e3e
000001a0: f7d8 be3d d5b6 b7be 835a f0bd ac4c 463e
000001b0: f23a b23d 9189 473e baee 4bbe 85d9 9bbc
000001c0: 4a28 24bb eedc 953d fbf2 b9bd b06f b3bb
000001d0: 1c1b 2f3d caca 58bd db59 3ebc 86bb 013c
000001e0: f2b0 81bd c7a4 1dbe d3a8 133e f420 5abd
000001f0: edef 813d 0866 023e fcdf 1d3d f7a1 1f3d
00000200: cdc0 7f3e 3899 883c 5c6b 473d 762f aa3e
00000210: e029 b63d 3375 c13c e424 9c3d 758c 48be
00000220: 3339 213e 1e65 d2be 289f 653e 4e65 0cbe
00000230: 591c 52be 0a79 0f3c 39da 413d 0c73 ba3d
00000240: 0620 a1bd 27fb c33d 2fae f63d 5c41 693d
00000250: 88c6 6bbd a544 a9bd a201 df3c 6109 673d
00000260: 3fd3 f73d af21 97bc 9405 b63d 270e 333e
00000270: 6863 973d cb47 2bbd 6195 1bbe 301c 55bd
00000280: 05da 86bd 2ded 10bd 09d1 4ebd c2b4 52bd
00000290: bd92 613d 59b9 803d 037a 05be dd13 373d
000002a0: b420 50bd 1fb5 88bd dff6 843d b2cc b93d
000002b0: e488 093e c25e afbe 1966 663d 8374 80be
000002c0: e868 0e3d ed87 cc3d dc27 513c fef5 1dbe
000002d0: 4b60 3a3d d32d a7be f60e f93d 96f6 aebe
000002e0: e406 2dbd 656a ebbc 36f3 183e 1fc0 113d
000002f0: f508 9ebd d634 0cbc c660 823d 1e3d 963d
00000300: f297 a8bd 96b0 01be ffe8 233d 8e5d 9b3d
00000310: a76e c8bc e371 77bd 4831 a73d d8f7 cc3d
00000320: f61f c43d 36b4 c6bd f43f cb3d 87b3 31bd
00000330: e118 f63d bd68 a33d 122f 47bd 0b0d 10bd
00000340: 9181 1fbd 9928 613d def7 003e c212 5abd
00000350: c403 953d 6232 033e 5a44 48bc b3f1 573d
00000360: 91fa 09bd fa88 08be 6cc8 a53c af53 e7be
00000370: ec3a c1bd ae25 473e 0024 c83d cd45 31be
00000380: ba80 c33d b022 283e 0470 8dbd 78ab 9bbb
00000390: 09bc 0ebd 816b af3d 6a5e 223e d108 ecbe
000003a0: c5ea b63d 1e28 7e3c 88ba aa3b 3481 8bbd
000003b0: 34e4 9ebc 58dc 4a3a ace3 5c3e edd9 0c3d
000003c0: c322 8ebe 3563 7e3e d239 10bf 5b63 ebbd
000003d0: 1625 97bd c9af 713d 226e c83c 4cba 7dbe
000003e0: eb9f 113b d96b e2bc ad68 c5bc bb98 653e
000003f0: eb5e 19be b7c8 223e 7f62 c6bd 07f2 1d3e
-0.28913376 0.17613968 0.020688381 0.04437378 -0.21890925 -0.11388892 -0.14236349 -0.23368151
-0.34507054 0.05736805 -0.26778966 -0.18267702 -0.09977864 -0.2019532 0.08988029 0.003679052
-0.47012717 -0.2256807 -0.010376847 0.15657604 -0.35423326 -0.16974011 -0.0062043667 -0.072699584
0.022930987 0.009860349 -0.1410318 0.00018563183 -0.2204636 -0.066052206 0.32831106 0.12851954
-0.14577708 0.03619163 -0.06326381 -0.039495416 -0.10454981 0.005755395 0.23150358 -0.009396988
-0.07178145 -0.045059167 -0.013184488 -0.10674685 -0.04487328 -0.107473016 0.10279434 0.0857421
-0.14919268 -0.001335751 -0.08325763 -0.17939325 -0.028503688 0.05971639 -0.019368522 -0.28411132
-0.005153226 -0.05668094 -0.08604436 -0.07190504 -0.12436609 0.06728175 -0.22019856 0.28343678
-0.010399751 -0.052647717 0.1998394 -0.1651768 -0.21517314 -0.124501266 -0.12092486 0.22147633
-0.36125508 -0.23894627 8.512288e-05 -0.06320049 0.0889027 -0.14786886 -0.38352904 -0.12171845
-0.43915507 -0.03807518 -0.2523766 0.035278782 -0.27887446 0.14013469 -0.021735214 0.08324131
-0.06312257 0.16837835 0.07082788 -0.013071969 0.08354099 0.20783676 -0.017414905 -0.025090128
-0.0012754917 0.044601634 0.06865508 0.0043312744 0.041609377 -0.029707044 0.08260405 0.13940014
0.093187265 -0.35881677 -0.11736014 0.19365185 0.08702649 0.19486071 -0.19915286 -0.01902462
-0.0025048428 0.073175296 -0.09079548 -0.0054759607 0.042750463 -0.05292777 -0.011618103 0.007918244
-0.06332578 -0.15394889 0.1441987 -0.053254083 0.0634459 0.12734234 0.038543686 0.03897282
0.24975891 0.016674623 0.04868637 0.33239335 0.08894706 0.023615455 0.07624224 -0.1958483
0.15744476 -0.4109277 0.22423995 -0.1371052 -0.20518626 0.008756885 0.047327254 0.09103975
-0.07867436 0.09569388 0.12044942 0.056947097 -0.05756238 -0.08265046 0.027222458 0.05640543
0.12100839 -0.018448679 0.08887783 0.17485867 0.07392007 -0.041816514 -0.15193702 -0.052028835
-0.06584553 -0.03538244 -0.05049232 -0.051441915 0.05507158 0.06285352 -0.13034825 0.044696677
-0.050812438 -0.06675171 0.064923994 0.09072246 0.13431126 -0.34251982 0.05624971 -0.2508889
0.034768015 0.09986863 0.012765851 -0.1542587 0.04550199 -0.3265215 0.12161057 -0.34172505
-0.0422429 -0.028737256 0.14936528 0.03558361 -0.07716552 -0.008557519 0.06366114 0.07335876
-0.08232106 -0.12665018 0.040017124 0.075862035 -0.024466826 -0.060411345 0.081636965 0.1000821
0.095764086 -0.09702341 0.099243075 -0.0433841 0.12016464 0.079789616 -0.048628874 -0.03516869
-0.038941924 0.054970358 0.12594554 -0.053240545 0.07276109 0.12812188 -0.0122233275 0.052720737
-0.033686224 -0.13333502 0.02023717 -0.45181033 -0.094350666 0.19447967 0.097724915 -0.17311783
0.09546037 0.16419482 -0.06906131 -0.0047506653 -0.034847293 0.085654266 0.15856329 -0.46100476
0.089314975 0.015512494 0.0052102245 -0.06811753 -0.019395925 0.0007738522 0.21571225 0.034387518
-0.27760896 0.24842532 -0.56338227 -0.1149356 -0.073801205 0.059005532 0.024466578 -0.24778098
0.0022220563 -0.027639316 -0.024097765 0.22421543 -0.14977615 0.15896879 -0.096867554 0.15424357

fc2.bias f4 [84]
00000000: 683c 9dbc af05 2e3c 091d 073e a3a7 efbd
00000010: 8129 e5bd bc86 cfbd 7959 643d 9346 97bb
00000020: f548 b33d 55c4 a1bd 75c7 87bd 0392 9fbd
00000030: 24d5 193e 317b b43c b446 fdbd fd84 923d
00000040: 63ee ae3d f5d3 91bd deed 043d 635e 023e
00000050: 9ae3 c0bd abde af3d 918d b23d bc5e f5bd
00000060: 7153 0bbe e54d 87bd 2a7c b8bd 6851 273d
00000070: 246e e83d 8b10 c13d 9f16 ca3d 8eef d93d
00000080: d2a4 3f3e f7f7 87bd a8e0 943c 1a3e fc3d
00000090: 8154 9fbd f76d 7a3d 0abb 4dbd b6ac 0a3d
000000a0: 6f36 b43d aa0a 183d 0a38 f1bd 3419 b1bb
000000b0: d4db 253d e67c d03c 2d42 0e3e c4aa 1b3e
000000c0: 614b e03d c6eb fbbc 3afd c63d 0d17 573e
000000d0: ad27 c23d f230 4d3d dbfd 5ebd 2b44 9a3d
000000e0: e025 503c 69cf 3ebd 3bf8 11bd e2a6 723d
000000f0: 3511 783c b070 313e b2fb 92bd c15e b2bd
00000100: ea59 d83d 170f 373e 3ba8 b7bd 2c69 8a3d
00000110: 5769 f0bd f723 7cbd a7b5 2dbe 05d8 0d3d
00000120: 60ba dd3d 7306 86bc dc49 2bbd f400 d9bd
00000130: caaf 3c3d 8342 c73d b29e cf3d 980f 243d
00000140: 1548 d23d a4a6 62bd 77a6 13be a218 653d
-0.019193843 0.010621472 0.1319467 -0.11701896 -0.11189557 -0.101331204 0.05574939 -0.0046165674
0.0875415 -0.078987755 -0.0662984 -0.077915214 0.15022713 0.022031398 -0.12367001 0.07154272
0.085415624 -0.07120506 0.03245341 0.12731318 -0.094184116 0.085873924 0.08718408 -0.1198096
-0.13606049 -0.06606654 -0.090080574 0.04084912 0.11349133 0.094269834 0.09867596 0.106413946
0.18715218 -0.066390924 0.01817353 0.123165324 -0.0777979 0.061140027 -0.050227202 0.033856116
0.08799445 0.037119545 -0.11778267 -0.005404616 0.040492848 0.025450181 0.13892432 0.1520186
0.109518774 -0.030752074 0.09716268 0.21004887 0.09480224 0.050095506 -0.054441314 0.07532533
0.012704343 -0.04658452 -0.03563712 0.059241183 0.015140821 0.17328143 -0.07176913 -0.08709479
0.10564025 0.1787685 -0.08967634 0.06758341 -0.11738842 -0.061557736 -0.16963826 0.03462984
0.10826564 -0.016360497 -0.041818485 -0.10595885 0.046066083 0.09729483 0.101376906 0.040053934
0.10267655 -0.055334702 -0.1441897 0.055931695

fc3.weight f4 [10, 84]
00000000: e472 43be 74c4 1e3d 75e6 923e ed9d 48bd
00000010: 805e ebbe 303f 36be 64e3 743c aa79 723c
00000020: bc01 0cbe b5c8 faba 049e bcbd ef5f 283b
00000030: 613d 80be cafe b83c 72e5 bdbc d220 cebe
00000040: 0a8b 82be b02a f93d 9610 febd c889 1fbd
00000050: cd39 35be 38ec dabe 36f1 36be 4330 6ebc
00000060: bf09 50bd 2f72 d83e 9bff dabc 5da8 cd3c
00000070: 6df9 9bbe d390 923d 436d da3c 8b33 903e
00000080: 42a3 7e3d a066 ca3d 26bb 9abe d939 9ebd
00000090: d551 143e 7bb5 9f3d 95df 733d 40f4 783e
000000a0: 2ce8 f3be 24c7 30bb 8efe 133e 086d c33d
000000b0: 3623 f53c ec9f 173e f3c3 bf3e 5062 bcbe
000000c0: 7c34 6c3d fe67 16bf 1c21 693e 39b4 7dbd
000000d0: d374 723d dee5 dbbe 3928 ec3d 17d2 1fbf
000000e0: 118d b4be 4b21 a1be 198e b4bc df04 a83d
000000f0: 5155 e4be da0b 80be 5094 92bd 2820 ad3e
00000100: 8111 e23c 1fc8 d2bd f5ab efbd 06b1 e4bd
00000110: 4157 8b3e 573e 033e bc7c 4d3c 94cd 3b3c
00000120: 5854 91be 9006 0fbe dbc9 ae3d fa3c 513e
00000130: 888f 313e 418c 79be 0af5 aabd e5d3 62bd
00000140: 0160 9c3c 94a6 193e 245f 2abe df8e cc3d
00000150: 48c0 76be 72c3 e0bd 2525 3e3d 2b9f b4bd
00000160: 5a86 6a3e 12c3 af3e 2682 493d e877 8d3d
00000170: ba50 bb3d f396 00be 0a02 0cbe 4f4f 6cbd
00000180: 2dcc 40be 7dfc 73be 0e60 84bb 7e09 fd3e
00000190: e405 d9bd 3849 d0bd 41f5 813e a198 8fbe
000001a0: f38d a0bd 2caa 313e 644d 31be cfa4 0cbd
000001b0: 0678 27bd 05f2 42bd 3cac 50bf 39ed 38be
000001c0: 591c 4e3e 2d2b c1be d4bc 18bf 00d1 843d
000001d0: ccd7 483e fb3f 0d3e f201 6c3d ea40 6abe
000001e0: a6c7 0abe 8dab 5cbe e337 06bf 68da 22bf
000001f0: 17df 18bd 75f7 65bc 70fe 0ebe 7c7e 5d3d
00000200: 614c 363e da3a 183e 25a0 723d 104b a7bd
00000210: 709e 09bf e797 6ebd 421f 30bf 2c35 b4be
00000220: a0e1 2bbf 8b7a 19be 8da0 613e 8d7a 7ebd
00000230: 67c6 45bd 32fc 233e e166 8b3d de52 1dbd
00000240: 4cc1 853d b9d3 c03c 7f09 29be 94ff a13e
00000250: b793 f5ba 99be 8dbe d3ad 823e 9f55 24be
00000260: 8964 cdbe ba4a 563e 4fd7 94be d5fe e2be
00000270: ffbd dcbe a3ec 56bc 70d0 093e b161 87be
00000280: 79a9 c53d 1a9e 93be 5b2e 0fbf 94b3 79bc
00000290: 0685 bbbe c489 3cbe 46a1 9fbb 181d 2c3d
000002a0: e29a c13e d339 ec3d 1f52 3d3e a1d3 e9bc
000002b0: d3db 513e ec10 1a3d 49e0 5bbd f7ad f0bd
000002c0: 0e98 793d 6e22 26be eef0 843d c1a9 903d
000002d0: 5b44 bd3d ae47 c83d cfb7 71bd c069 91bd
000002e0: 4728 61bd 1f42 03be bf6e 733e 89c3 143e
000002f0: b81c 093c f43d a6be 5233 8abe 7ce0 9f3c
00000300: 0c5c d1bc 5e94 91be ad70 17bd 9a93 a63d
00000310: 3b59 afbd 5948 86be 0a96 163e 8915 1ebf
00000320: 12bc e83d b40a a33d 4d7c 9f3e fd8d 153e
00000330: 2948 71bd 412d ffbe e7b7 d13d 1f84 a9be
00000340: 3b6e 0d3e 7d5a e3be f8dd 27be 6bd4 fc3d
00000350: 1d26 093e a74b 28bd 6fcb 693e 57e3 7d3d
00000360: 0d75 b7be e7ed e23d 8050 a43d 4c8e 293e
00000370: bb45 063e 8e11 433e c2f9 6fbe 6962 97bd
00000380: dca4 e13c 3dd2 7c3b ba7a 89bd bcdc 60bd
00000390: d506 a03e 2c59 abbe 07f0 e1bd 9308 5e3e
000003a0: 9efc 52be 1265 f63c 4fba 243d f9e6 db3d
000003b0: 9aeb bf3e bcba bf3e a893 37be 32c6 6a3d
000003c0: f207 053c de6c 82be 4bae 39be 6cd1 8ebe
000003d0: dd50 463e e606 08bf 3764 d6bd 1b89 b5bb
000003e0: 4d59 dd3d daa4 74be 17e8 14be 6e4b 33bf
000003f0: b9d1 8fbe 1295 82bd e835 3b3e 99ec 53bd
-0.19086796 0.03876157 0.2869145 -0.048978735 -0.45970535 -0.17797542 0.014946792 0.014799515
-0.13672537 -0.0019133302 -0.092098266 0.0025691947 -0.25046828 0.02258243 -0.023180697 -0.40259415
-0.25496703 0.12166345 -0.12405507 -0.038949758 -0.1769783 -0.42758346 -0.17865452 -0.014537874
-0.050790545 0.42274615 -0.02673321 0.025104696 -0.30463734 0.07156529 0.026663428 0.28164324
0.062167414 0.098828554 -0.30220908 -0.07725877 0.14484341 0.077982865 0.059539396 0.24311924
-0.4763807 -0.0026974166 0.14452574 0.095422804 0.029924016 0.14807099 0.37454185 -0.36793756
0.05766724 -0.5875243 0.22766536 -0.06193945 0.059193444 -0.42948812 0.11531109 -0.62429947
-0.35263875 -0.31470713 -0.022040414 0.08204054 -0.4459634 -0.25009042 -0.071571946 0.33813596
0.027596237 -0.10292076 -0.1170272 -0.11166577 0.27215007 0.1281675 0.012541946 0.011462588
-0.28384662 -0.13967347 0.085345946 0.20433417 0.17339909 -0.24369909 -0.08347519 -0.05537786
0.019088747 0.15004951 -0.16637856 0.09988188 -0.24096787 -0.10974778 0.046422143 -0.088194214
0.22902814 0.34328514 0.049196385 0.06907636 0.09146257 -0.12557583 -0.13672653 -0.057692822
-0.18827887 -0.23826785 -0.004039771 0.49421304 -0.10596827 -0.10170215 0.25382426 -0.28046134
-0.07839575 0.17350072 -0.17314678 -0.03433686 -0.040885948 -0.04759409 -0.8151281 -0.18059243
0.20128001 -0.37728253 -0.5966313 0.06485176 0.1961357 0.13793938 0.057619043 -0.22876325
-0.13552722 -0.21549816 -0.52429026 -0.6361451 -0.03732213 -0.014036049 -0.13964248 0.054075703
0.17802574 0.148662 0.059234757 -0.08168614 -0.5375738 -0.058250334 -0.68797696 -0.35196817
-0.6714115 -0.14988153 0.22033902 -0.062128592 -0.048284914 0.16014174 0.06806732 -0.038409106
0.06531009 0.023538457 -0.16507529 0.31640303 -0.0018736039 -0.27684477 0.25523242 -0.16048287
-0.40115765 0.20926943 -0.29070517 -0.44335046 -0.43113706 -0.013117942 0.13458419 -0.2644172
0.09651465 -0.2883156 -0.5593011 -0.015240569 -0.36624926 -0.18411928 -0.00487152 0.042019933
0.3781348 0.115344666 0.18488358 -0.028543295 0.20494013 0.037613794 -0.053680692 -0.11751931
0.060936026 -0.16224071 0.06491266 0.07063628 0.092415534 0.09779297 -0.059013184 -0.07100248
-0.054970052 -0.12818192 0.23772715 0.14527716 0.0083686635 -0.3246914 -0.2699228 0.019516222
-0.025556587 -0.28433508 -0.03697269 0.081336215 -0.08561941 -0.26227072 0.14705673 -0.6175161
0.113639966 0.07961026 0.3114952 0.14604945 -0.058906708 -0.49839213 0.10240155 -0.33108613
0.13811581 -0.44404975 -0.16393268 0.12345203 0.13393445 -0.041087773 0.2283151 0.061984386
-0.3583149 0.110805325 0.08023167 0.16558188 0.13112538 0.19049665 -0.23435119 -0.07391817
0.027544431 0.003857746 -0.06712861 -0.05489801 0.31255212 -0.3346647 -0.1103211 0.21682958
-0.20604178 0.030077491 0.04021674 0.10737414 0.37484437 0.37447155 -0.1792742 0.05731792
0.00811957 -0.25473684 -0.18132894 -0.2789415 0.19366784 -0.53135526 -0.10468333 -0.005540026
0.108080484 -0.23891011 -0.1454166 -0.7003697 -0.28089693 -0.06376089 0.18282282 -0.05173931

fc3.bias f4 [10]
00000000: c59b 05be 9de3 a0bd 45fa 823d 4b7e 1e3d
00000010: 7dd1 97bd b9f9 33be 0182 aa3d 7038 ff3d
00000020: 0636 a5bd 81ad 8bbd
-0.13047703 -0.07855914 0.063953914 0.03869466 -0.074130036 -0.1757573 0.083255775 0.124619365
-0.08066945 -0.068202026
