hw1/models/Baseline_best.pth (torch, 250508 bytes, 10 tensors)

conv1.weight f4 [6, 1, 5, 5]
0.022832546 0.02998137 -0.15139471 0.057090152 0.0467253 -0.005498845 0.1120685 -0.28671306
0.16421875 0.11164521 0.12374637 0.3288722 -0.48486677 0.13845117 0.1892596 0.18142956
0.2691841 -0.44160965 -0.10403086 0.31117964 0.0334612 0.16877756 -0.20112115 0.013347167
0.26984212 -0.01414259 -0.006937586 0.15071306 -0.020436615 -0.1290505 0.116728075 -0.1317252
-0.2415275 -0.21984062 -0.14832065 -0.09103586 -0.07784177 -0.16475418 -0.5514506 -0.27769202
-0.04633223 0.085905075 -0.1344284 -0.34756762 -0.09745361 0.23045951 0.18344963 0.086919665
-0.1809037 -0.16435695 0.12787473 -0.35539106 0.4131273 -0.08077882 -0.0015450373 -0.2106526
-0.43242994 0.57920855 0.07460011 -0.0407251 -0.30095953 -0.27859253 0.37216452 0.1651623
-0.0046009175 0.2489741 0.2788861 -0.24101004 -0.44039384 0.14801371 0.057661753 0.24031182
-0.19623537 0.0136955865 -0.12986393 -0.1943959 -0.2127561 0.079021744 0.024290333 0.2967107
-0.43518785 -0.17244181 -0.16910383 0.23318836 0.18216158 -0.42642495 -0.35727745 -0.18536068
0.3485266 0.038027514 0.096749984 0.008525351 0.08228829 0.027108686 0.3328131 -0.14707403
0.009963643 0.08910151 0.22227477 0.042989645 0.18785879 0.19375244 -0.2893366 -0.24054888
-0.1334935 0.27487606 -0.0477095 0.025512611 -0.065896206 -0.058000773 0.4455098 -0.054071054
-0.16631922 -0.07013589 -0.17872787 0.40420553 -0.12786779 -0.31685317 0.14028333 0.2562657
0.37724787 -0.16645579 -0.3667329 -0.20735744 0.11984545 -0.2655253 -0.2187615 -0.06990446
0.34375384 0.21430457 0.058347635 0.015542651 0.26083663 0.2999258 -0.1326734 0.13932376
0.12190071 0.070286654 -0.009413263 0.027838277 0.03988584 0.20027997 0.0613439 0.16517259
0.21783148 -0.20699674 -0.016082386 -0.019988153 -0.54983723 -0.25491816
00000000: 520b bb3c 7d9b f53c 3707 1bbe 5dd7 693d
00000010: 0763 3f3d a82f b4bb 2b84 e53d 0ecc 92be
00000020: f628 283e 3ea6 e43d bd6e fd3d f061 a83e
00000030: 7540 f8be 25c6 0d3e 45cd 413e acc8 393e
00000040: 80d2 893e a91a e2be 220e d5bd f052 9f3e
00000050: 9c0e 093d 06d4 2c3e b4f2 4dbe 13ae 5a3c
00000060: bf28 8a3e 52b6 67bc b054 e3bb 8654 1a3e
00000070: b06a a7bc d025 04be 210f ef3d f9e2 06be
00000080: fc52 77be e61d 61be 5ee1 17be 0271 babd
00000090: 826b 9fbd 52b5 28be de2b 0dbf a62d 8ebe
000000a0: ddc6 3dbd 00ef af3d 99a7 09be 62f4 b1be
000000b0: c295 c7bd 94fd 6b3e 38da 3b3e f002 b23d
000000c0: d23e 39be 304d 28be 98f1 023e d1f5 b5be
000000d0: 6c85 d33e 5e6f a5bd d982 caba 51b5 57be
000000e0: 7567 ddbe 0347 143f f1c7 983d 5dcf 26bd
000000f0: 5e17 9abe aea3 8ebe 598c be3e 4e20 293e
00000100: 4bc3 96bb 11f3 7e3e 29ca 8e3e 56cb 76be
00000110: 4d7b e1be e890 173e bb2e 6c3d 4d14 763e
00000120: edf1 48be 7463 603c 0dfb 04be b80f 47be
00000130: bcdc 59be 27d6 a13d 85fc c63c 77ea 973e
00000140: f1d0 debe 9694 30be 8e29 2dbe eec8 6e3e
00000150: 9188 3a3e 5f54 dabe 12ed b6be 31cf 3dbe
00000160: 1472 b23e bdc2 1b3d db24 c63d eaad 0b3c
00000170: c386 a83d 0913 de3c 7b66 aa3e 939a 16be
00000180: 8c3e 233c da7a b63d ff9b 633e e915 303d
00000190: 0e5e 403e 0a67 463e ed23 94be 7252 76be
000001a0: 85b2 08be 8ebc 8c3e 096b 43bd d3ff d03c
000001b0: 97f4 86bd 3892 6dbd dc19 e43e 9c79 5dbd
000001c0: 964f 2abe 68a3 8fbd 7004 37be 07f4 ce3e
000001d0: c6ef 02be 943a a2be 6fa6 0f3e 4235 833e
000001e0: a226 c13e 6373 2abe 6ac4 bbbe 8255 54be
000001f0: 8871 f53d eff2 87be 0403 60be 122a 8fbd
00000200: 8100 b03e a872 5b3e eefd 6e3d 9aa6 7e3c
00000210: 618c 853e e08f 993e 89db 07be e3aa 0e3e
00000220: 14a7 f93d 73f2 8f3d 163a 1abc 190d e43c
00000230: 565f 233d 3116 4d3e be43 7b3d 0123 293e
00000240: 370f 5f3e f4f6 53be 35bf 83bc 32be a3bc
00000250: 22c2 0cbf a284 82be

conv1.bias f4 [6]
-0.07554791 -0.5318984 0.021456812 0.1848718 0.028852385 0.2089809
00000000: ddb8 9abd 7e2a 08bf 32c6 af3c 084f 3d3e
00000010: d65b ec3c 17ff 553e

conv2.weight f4 [16, 6, 5, 5]
0.04295739 -0.1723723 -0.15099469 0.012391442 -0.035091236 0.13714398 0.07591217 -0.09277428
-0.03377734 -0.010013364 0.0354119 0.07265696 -0.2848719 -0.058613192 -0.023335857 -0.12364017
-0.11814682 -0.21281047 -0.018355167 -0.035465118 -0.017868266 -0.028069792 -0.01090677 -0.071295746
0.018306006 -0.034497555 -0.10865277 -0.008069383 0.02275134 -0.11906684 0.016249983 0.06962827
0.12407275 0.07834789 -0.15390924 0.13259763 0.18165554 0.09381186 -0.075236335 -0.2304943
0.24432923 0.32377252 0.070505604 0.059883088 -0.08666176 0.024732068 0.25071648 -0.010822836
-0.05183054 -0.17115553 0.08379041 0.25910506 0.0708497 -0.11537596 -0.39289594 -0.104475446
-0.22724904 -0.21552968 0.09465966 0.2409531 -0.010341244 -0.08687633 0.01737944 0.2176506
-0.002522847 -0.10254434 -0.5085731 -0.1490451 0.23648019 0.09681789 -0.493861 -0.58175474
-0.0454959 0.12400713 0.04360621 -0.03703764 -0.08059004 -0.119795844 -0.0647488 -0.073442996
-0.21801284 -0.28479555 0.06833834 0.09089283 0.05806689 -0.0636637 -0.24972655 0.14073662
0.18174694 0.10314181 -0.52236235 -0.35801408 0.227204 0.0038357321 -0.066225834 0.009276218
-0.03670393 0.30761346 0.035331763 0.04124407 0.08710495 0.08305554 -0.08670639 0.100259475
-0.021278765 0.0555001 0.05266503 -0.061172485 0.14814945 -0.10728194 -0.0943809 0.12085083
-0.0042881127 0.10369832 -0.012760295 -0.07454063 0.01890645 -0.045370564 -0.094550885 -0.14423165
-0.026149357 -0.045292296 -0.045281585 -0.124881335 -0.26763612 0.0068279756 0.04847796 0.025030596
-0.007755877 -0.090915546 0.06533497 0.15295798 0.041936103 -0.20083342 -0.22115517 0.14716676
0.17721036 -0.03603996 0.013447908 -0.07014566 0.21421082 0.07357377 0.08379366 0.11005568
-0.04637281 0.04268311 0.016201215 -0.008684726 -0.27983037 -0.13795736 -0.08950255 0.05361305
-0.027034737 0.088742465 0.18797858 0.03977931 -0.2560476 0.090347014 0.0978155 0.23863336
0.030588396 -0.185966 -0.16351669 0.20971072 0.18344197 0.01173776 -0.1282092 -0.057465874
0.07056946 0.15929992 0.04698181 0.07428756 -0.034440562 0.18483546 0.16452268 -0.036984757
-0.05824292 -0.00862978 -0.08434206 -0.32484418 0.0023110006 0.009724491 0.15647054 -0.06299007
0.005265373 0.047108993 0.08745009 0.074992314 0.012953497 0.07595313 -0.15537103 0.08284755
0.1197969 -0.16598243 -0.007978511 -0.18579207 0.13786925 0.096106924 -0.07418694 -0.08559297
0.0030235215 0.02769435 -0.45957208 -0.058593538 -0.06640219 0.08652364 -0.0029886463 0.016177159
0.018680623 0.21686585 0.07116577 0.26779756 -0.29717 0.11849195 0.1885599 0.092242025
0.15275843 0.19210233 0.21459562 0.16113201 0.22205065 -0.0034413352 0.051757056 0.38683906
0.30890217 -0.11716194 -0.10489046 -0.107505225 0.11208363 0.17737713 -0.085492946 -0.08948563
-0.039715968 0.06145378 0.14319748 -0.020400625 -0.07036613 -0.0161236 0.11538037 -0.051174175
0.067806564 -0.031497803 -0.12175034 0.066643715 -0.06143686 -0.08897484 -0.023340408 0.04571326
0.19853508 0.06402403 -0.15367785 0.040282674 -0.23975764 -0.2601327 0.062093183 0.16052683
00000000: 17f4 2f3d 5d82 30be 5a9e 1abe 7a05 4b3c
00000010: d4bb 0fbd 796f 0c3e d777 9b3d 7100 bebd
00000020: 1c5a 0abd 180f 24bc 120c 113d 2ccd 943d
00000030: bbda 91be 6314 70bd d72a bfbc 0f37 fdbd
00000040: f6f6 f1bd fdea 59be 935d 96bc df43 11bd
00000050: 7860 92bc 9ff2 e5bc 4fb2 32bc 8103 92bd
00000060: 7af6 953c 4f4d 0dbd 5885 debd 7235 04bc
00000070: 0561 ba3c 51d9 f3bd af1e 853c 4499 8e3d
00000080: db19 fe3d dc74 a03d 629a 1dbe acc7 073e
00000090: e903 3a3e 6f20 c03d 8215 9abd b306 6cbe
000000a0: 7131 7a3e 83c5 a53e 3e65 903d f847 753d
000000b0: b97b b1bd e89a ca3c e95d 803e 4452 31bc
000000c0: 434c 54bd 6543 2fbe 4e9a ab3d 6ba9 843e
000000d0: a619 913d 3b4a ecbd a829 c9be 39f7 d5bd
000000e0: f9b3 68be d0b3 5cbe ecdc c13d 69bc 763e
000000f0: 526e 29bc 38ec b1bd 545f 8e3c cddf 5e3e
00000100: 5956 25bb c402 d2bd d931 02bf 479f 18be
00000110: dd27 723e 7548 c63d 59db fcbe e1ed 14bf
00000120: e959 3abd 73f7 fd3d 6d9c 323d c8b4 17bd
00000130: 640c a5bd 8657 f5bd 059b 84bd 4869 96bd
00000140: c23e 5fbe b9d0 91be f9f4 8b3d 0526 ba3d
00000150: 8cd7 6d3d 1d62 82bd 51b8 7fbe 431d 103e
00000160: df1b 3a3e 033c d33d 8ab9 05bf 9f4d b7be
00000170: 2aa8 683e e860 7b3b 69a1 87bd 47fb 173c
00000180: dc56 16bd 837f 9d3e 0ab8 103d 8bef 283d
00000190: 1464 b23d 0619 aa3d 1f93 b1bd d754 cd3d
000001a0: ce50 aebc 1354 633d 49b7 573d 0090 7abd
000001b0: 7db4 173e a2b6 dbbd c64a c1bd a480 f73d
000001c0: 4c83 8cbb c95f d43d 8e10 51bc c2a8 98bd
000001d0: b3e1 9a3c 7cd6 39bd e5a3 c1bd 76b1 13be
000001e0: 2d37 d6bc 6a84 39bd 2f79 39bd c9c1 ffbd
000001f0: 9a07 89be 36bd df3b d390 463d f70c cd3c
00000200: 0325 febb ee31 babd 57ce 853d 04a1 1c3e
00000210: 31c5 2b3d 47a7 4dbe 8076 62be e2b2 163e
00000220: a276 353e a39e 13bd 9d54 5c3c 87a8 8fbd
00000230: 155a 5b3e d8ad 963d 039c ab3d df64 e13d
00000240: 6af1 3dbd 7cd4 2e3d 69b8 843c 624a 0ebc
00000250: ed45 8fbe b244 0dbe 1d4d b7bd 5c99 5b3d
00000260: f477 ddbc 9cbe b53d 757d 403e a1ef 223d
00000270: ac18 83be db07 b93d 7e53 c83d 4e5c 743e
00000280: 8494 fa3c df6d 3ebe eb70 27be 68be 563e
00000290: 36d8 3b3e bc4f 403c 4649 03be 5661 6bbd
000002a0: b986 903d 851f 233e 0070 403d 1424 983d
000002b0: 8c11 0dbd 8245 3d3e a278 283e 547d 17bd
000002c0: 2190 6ebd ec63 0dbc 88bb acbd fa51 a6be
000002d0: 2874 173b 7953 1f3c d039 203e f000 81bd
000002e0: 2689 ac3b 5cf5 403d 0819 b33d 9295 993d
000002f0: e73a 543c 518d 9b3d 9519 1fbe faab a93d
00000300: 1458 f53d 4cf7 29be 4db8 02bc 4740 3ebe
00000310: 992d 0d3e b5d3 c43d 53ef 97bd 5e4b afbd
00000320: 4626 463b 43df e23c 084d ebbe c7ff 6fbd
00000330: dffd 87bd 4e33 b13d 2add 43bb f685 843c
00000340: 1b08 993c 1512 5e3e 5cbf 913d c31c 893e
00000350: ab26 98be e8ab f23d d915 413e 63e9 bc3d
00000360: b56c 1c3e 79b6 443e f4be 5b3e caff 243e
00000370: 3f61 633e 0688 61bb 35ff 533d c50f c63e
00000380: 6d28 9e3e 99f2 efbd cfd0 d6bd b32b dcbd
00000390: 1a8c e53d 5aa2 353e ed16 afbd 3e44 b7bd
000003a0: 36ad 22bd f5b6 7b3d 5ca2 123e 361f a7bc
000003b0: 1e1c 90bd a415 84bc 8b4c ec3d 039c 51bd
000003c0: 2bde 8a3d d703 01bd 3e58 f9bd 807c 883d
000003d0: 38a5 7bbd 7138 b6bd 6234 bfbc d43d 3b3d
000003e0: c84c 4b3e 081f 833d ba5d 1dbe 72ff 243d
000003f0: 0783 75be 1d30 85be 6c55 7e3d 2561 243e

conv2.bias f4 [16]
-0.018966382 0.014487498 0.28398427 -0.02573282 0.094110206 -0.13151844 -0.04458558 0.08542348
-0.21959782 0.01884859 0.104798846 0.0012253177 -0.034341257 0.16222149 -0.006212427 0.0056636743
00000000: 635f 9bbc f95c 6d3c 6366 913e a3cd d2bc
00000010: dabc c03d c5ac 06be 5e9f 36bd 81f2 ae3d
00000020: 40de 60be 5c68 9a3c c7a0 d63d d79a a03a
00000030: 6ba9 0cbd 641d 263e 9d91 cbbb 5896 b93b

fc1.weight f4 [120, 400]
0.07861199 -0.053613313 -0.23841287 -0.2918268 0.12013164 0.038474217 -0.192723 0.10409175
0.028981889 0.080886245 -0.030521251 -0.08128983 0.28598616 0.014688738 0.06542235 -0.004311213
0.05227568 -0.048526622 0.042110283 0.053075362 0.026436597 0.006990218 -0.029963491 -0.109099634
-0.07300003 0.085439734 0.22508003 -0.33287725 -0.63709706 -0.070017576 -0.05946578 -0.08287109
-0.056540202 0.0044974703 -0.13874862 0.0714701 0.00919794 -0.1571756 -0.03537867 -0.114012964
0.06444214 -0.11748495 -0.24807762 -0.01818959 -0.013937686 0.022749605 -0.16250436 0.0038074467
0.09239787 0.04094186 0.0069254143 -0.037224717 -0.53231275 0.121388756 0.19372624 0.039261296
-0.08190627 -0.4304711 0.08479823 0.03009322 0.10853782 -0.18107492 -0.326896 -0.024328174
0.0023629367 0.021709027 0.081608266 -0.10172247 0.049987692 0.00161217 -0.065135285 0.0075797336
-0.24911325 -0.2067101 0.07321923 -0.0041328776 -0.20980492 -0.12936553 0.1910055 -0.21647142
0.19018193 -0.20873688 -0.17417155 0.21044566 0.22285931 -0.022047529 -0.21589746 -0.12126956
0.014461072 0.09451974 -0.187694 -0.16714282 -0.15635134 0.14232276 -0.10211851 -0.09599882
-0.10843084 0.022870395 -0.07893229 0.14507818 -0.09144556 0.07508 0.15234491 -0.03623664
-0.06932677 0.010403716 0.08516471 0.009236033 0.11012935 0.08446273 0.05028343 0.09739879
0.041849446 0.035854485 -0.17008226 0.042151656 0.036093336 -0.06691954 0.11291021 0.027311532
-0.044138145 -0.16803013 -0.07438595 0.21589634 0.0573896 0.011695725 -0.4134494 0.33841887
-0.007567229 -0.3869778 -0.0977245 -0.08619251 -0.03271314 -0.12355281 -0.1090994 -0.15443312
-0.1333279 -0.18409637 -0.07055236 -0.07332913 -0.32285315 -0.39041463 0.025469538 -0.09886935
-0.21108249 -0.13378637 0.09127184 0.016171016 -0.24736248 0.1735532 -0.04947253 0.039697602
-0.1272883 0.14570063 -0.013639626 -0.10762043 0.08288307 -0.11805856 0.016145965 0.064492114
-0.036323544 0.10606544 -0.09707451 0.086064205 -0.028424896 -0.018645277 0.19315921 0.0077651357
0.16312703 0.016947456 -0.020009583 0.18982416 -0.025189098 0.007686632 0.06114738 -0.11584028
-0.07353592 0.054693766 -0.013955656 -0.14011508 0.12380888 0.094115175 0.22804071 0.068686806
0.14476639 0.050907314 0.06895238 -0.07975235 0.04945897 0.018968167 0.1359441 0.016271846
-0.02101196 -0.090123214 -0.032232113 -0.010537323 0.009405861 -0.1670103 0.058095776 0.15567605
0.017021282 -0.0015641836 -0.13426198 -0.09939815 0.058744147 -0.097649865 0.07602446 -0.024482328
0.18735802 0.048780594 -0.28871733 0.086485356 0.12563284 -0.093923904 0.11172883 0.15490037
0.12235101 0.050107248 -0.120890595 0.09760002 0.16911846 0.028494839 0.077250786 -0.059399705
-0.031228706 -0.03639388 0.0149844475 0.08995836 -0.33789235 -0.011672588 -0.08112422 0.07018931
-0.029681247 0.09659926 0.044556525 -0.009224598 0.058262594 0.044289585 0.19262417 -0.0840568
0.03611668 0.022938963 -0.06911706 0.105876036 -0.029176379 0.10626115 0.07999996 0.121056065
0.032206707 0.14843604 -0.063479476 0.04742491 -0.5344664 0.029620394 0.03182546 0.02043188
00000000: 53ff a03d a299 5bbd 8122 74be 536a 95be
00000010: 9407 f63d 2497 1d3d 2e59 45be 0e2e d53d
00000020: 6d6b ed3c b0a7 a53d b407 fabc 487b a6bd
00000030: c76c 923e 08a9 703c 27fc 853d 1345 8dbb
00000040: 061f 563d dac3 46bd d57b 2c3d 8d65 593d
00000050: 9091 d83c 330e e53b ff75 f5bc a16f dfbd
00000060: 0a81 95bd 07fb ae3d 617b 663e e36e aabe
00000070: cb18 23bf 6065 8fbd 6492 73bd 51b8 a9bd
00000080: b396 67bd 845f 933b 1e14 0ebe ea5e 923d
00000090: f5b2 163c a4f2 20be 39e9 10bd a17f e9bd
000000a0: 3efa 833d f39b f0bd 0f08 7ebe 5602 95bc
000000b0: e45a 64bc 615d ba3c 8b67 26be 5b86 793b
000000c0: 183b bd3d a7b2 273d 96ee e23b f278 18bd
000000d0: a645 08bf ab9a f83d 2c60 463e 74d0 203d
000000e0: 79be a7bd b566 dcbe b2aa ad3d 0e86 f63c
000000f0: 1449 de3d b46b 39be ea5e a7be e14b c7bc
00000100: 80db 1a3b 21d7 b13c 3c22 a73d df53 d0bd
00000110: e5bf 4c3d 734f d33a a665 85bd 6a5f f83b
00000120: 8b17 7fbe d0ab 53be f7f3 953d 176d 87bb
00000130: 1ad7 56be 6678 04be f296 433e afaa 5dbe
00000140: 0dbf 423e 1fbf 55be 075a 32be 117f 573e
00000150: 3b35 643e 059d b4bc 3914 5dbe 2d5c f8bd
00000160: 22ee 6c3c 9193 c13d db32 40be 7d27 2bbe
00000170: 911a 20be 0fbd 113e 8223 d1bd 089b c4bd
00000180: fd10 debd b25a bb3c 41a7 a1bd 608f 143e
00000190: cf47 bbbd 8bc3 993d 4e00 1c3e df6c 14bd
000001a0: 32fb 8dbd 5974 2a3c d66a ae3d bb52 173c
000001b0: 7f8b e13d ccfa ac3d fff5 4d3d 0479 c73d
000001c0: 536a 2b3d 27dc 123d 0b2a 2ebe 37a7 2c3d
000001d0: 9bd6 133d 1d0d 89bd 783d e73d 6fbc df3c
000001e0: 33ca 34bd 1710 2cbe a957 98bd ee13 5d3e
000001f0: 5b11 6b3d 6d9f 3f3c a4af d3be 3d45 ad3e
00000200: 85f6 f7bb f421 c6be c823 c8bd b385 b0bd
00000210: 37fe 05bd 4109 fdbd 826f dfbd b723 1ebe
00000220: 1c87 08be c283 3cbe c17d 90bd 952d 96bd
00000230: 024d a5be 6de4 c7be 7ea5 d03c 047c cabd
00000240: 0226 58be 4bff 08be bbec ba3d 1479 843c
00000250: 974c 7dbe eeb7 313e b5a3 4abd f499 223d
00000260: dd57 02be 8c32 153e bd78 5fbc 1a68 dcbd
00000270: 99be a93d b0c8 f1bd 8b44 843c 7114 843d
00000280: ffc7 14bd d638 d93d 00cf c6bd 6e42 b03d
00000290: 54db e8bc fbbd 98bc 87cb 453e ae72 fe3b
000002a0: c60a 273e 64d5 8a3c 23eb a3bc 4461 423e
000002b0: 5e59 cebc 25e0 fb3b ad75 7a3d ab3d edbd
000002c0: 009a 96bd 9206 603d 44a6 64bc 547a 0fbe
000002d0: 838f fd3d 75bf c03d 8183 693e abab 8c3d
000002e0: a43d 143e 3084 503d e836 8d3d 3355 a3bd
000002f0: 7d95 4a3d 2163 9b3c ee34 0b3e 894c 853c
00000300: 4621 acbc 8592 b8bd d205 04bd bca4 2cbc
00000310: 0a1b 1a3c c004 2bbe d6f5 6d3d 8b69 1f3e
00000320: 3770 8b3c 4b05 cdba f97b 09be 4291 cbbd
00000330: b49d 703d a7fc c7bd b6b2 9b3d 2a8f c8bc
00000340: c8da 3f3e 29ce 473d c2d2 93be 3c1f b13d
00000350: e5a5 003e 2d5b c0bd 16d2 e43d 349e 1e3e
00000360: 2b93 fa3d 423d 4d3d 7d95 f7bd 85e2 c73d
00000370: 642d 2d3e 026e e93c a935 9e3d 1b4d 73bd
00000380: 58d3 ffbc c011 15bd 5481 753c 173c b83d
00000390: 3a00 adbe 623e 3fbc 7424 a6bd 6abf 8f3d
000003a0: 1626 f3bc d5d5 c53d e780 363d c522 17bc
000003b0: c2a4 6e3d ff68 353d 453f 453e f925 acbd
000003c0: 15ef 133d 7eea bb3c 3f8d 8dbd 89d5 d83d
000003d0: 4d03 efbc 729f d93d 05d7 a33d 3eec f73d
000003e0: 2eeb 033d 9eff 173e 8701 82bd 9f40 423d
000003f0: cad2 08bf 78a6 f23c 6a5b 023d c260 a73c

fc1.bias f4 [120]
0.087519415 0.047601633 -0.011767615 0.020778798 -0.0020417767 0.024717422 0.026285501 0.14617872
0.06357152 0.028373703 0.092664905 -0.0547291 0.013691969 0.1978031 -0.057966016 0.1039676
-0.010811513 0.018819395 0.008691802 0.02402824 0.017274007 -0.044905964 -0.024912648 0.073243625
0.0058668205 0.10216465 -0.06829223 0.006027795 -0.014563685 -0.059877228 0.1102341 -0.048478764
0.016969528 -0.012932394 -0.046380766 0.0544378 0.056057274 -0.021178693 0.058184907 -0.032631937
-0.036480423 -0.030566327 -0.05808282 0.056891974 0.09959499 0.063678615 0.14973602 -0.00919806
0.04000911 0.10965612 0.022733483 -0.0097709205 -0.0029379937 0.06603465 -0.03512248 0.03676024
0.10061047 0.00042312383 0.103960015 0.04228065 0.08794172 0.01983805 0.062529184 0.03397212
0.033060513 -0.05692986 0.08432165 -0.036337215 -0.035284583 -0.041965775 -0.030925443 -0.020988515
-0.029561868 0.0026030869 -0.020684242 0.024905635 0.01992338 0.11574238 -0.024018168 0.012450562
0.05985803 0.0046345806 0.025857484 -0.012884233 0.12949848 -0.029847885 -0.012693798 -0.046043232
-0.0061932844 0.0011103876 0.07771478 -0.054758452 0.009571799 0.10027182 -0.052254833 -0.00040235283
0.0011344249 -0.02600185 0.12850657 0.08058767 -0.031583432 -0.041573156 -0.045723945 0.05394106
-0.020870712 -0.07420177 0.111001275 -0.028918432 -0.04281382 0.014173329 0.062043987 0.051939864
-0.06486675 -0.030785851 0.04914501 -0.035197884 0.069246486 0.056686364 0.010362597 0.028554674
00000000: 613d b33d eef9 423d f4cc 40bc 4c38 aa3c
00000010: 54cf 05bb 317c ca3c b154 d73c e0af 153e
00000020: c931 823d f86f e83c 19c7 bd3d 9f2b 60bd
00000030: 4854 603c e58c 4a3e c66d 6dbd f7ec d43d
00000040: c622 31bc 222b 9a3c 0f68 0e3c dfd6 c43c
00000050: 3882 8d3c 51ef 37bd 9c15 ccbc c100 963d
00000060: 753e c03b b33b d13d ccdc 8bbd cf84 c53b
00000070: 869c 6ebc d341 75bd 6ac2 e13d ab91 46bd
00000080: ae03 8b3c 64e2 53bc c2f9 3dbd 2cfa 5e3d
00000090: 509c 653d f07e adbc 4c53 6e3d 11a9 05bd
000000a0: 7f6c 15bd 3c66 fabc 40e8 6dbd 8f07 693d
000000b0: 75f8 cb3d ef69 823d 6654 193e 76b3 16bc
000000c0: 98e0 233d 6393 e03d 923b ba3c 3616 20bc
000000d0: 5b8b 40bb 2d3d 873d 97dc 0fbd e891 163d
000000e0: dd0c ce3d b8d6 dd39 fde8 d43d 7a2e 2d3d
000000f0: ca1a b43d 6883 a23c 4d0f 803d 5a26 0b3d
00000100: 766a 073d 492f 69bd d4b0 ac3d 55d6 14bd
00000110: 9186 10bd 4ee4 2bbd 5b57 fdbc 1bf0 abbc
00000120: bb2b f2bc 8d98 2a3b 0072 a9bc e706 cc3c
00000130: 5b36 a33c 570a ed3d c0c1 c4bc 71fd 4b3c
00000140: b22d 753d aedd 973b 13d3 d33c 6418 53bc
00000150: 409b 043e 8d83 f4bc a6f9 4fbc d497 3cbd
00000160: 09f1 cabb 6d8a 913a ed28 9f3d 664a 60bd
00000170: 09d3 1c3c 505b cd3d 2a09 56bd e2f2 d2b9
00000180: fcb0 943a d501 d5bc 3a97 033e 260b a53d
00000190: a15d 01bd 9d48 2abd 0849 3bbd 4df1 5c3d
000001a0: 0ef9 aabc 19f7 97bd a354 e33d 59e6 ecbc
000001b0: 8b5d 2fbd 4037 683c d621 7e3d e5be 543d
000001c0: dcd8 84bd 9c32 fcbc 474c 493d a82b 10bd
000001d0: 1ad1 8d3d f62f 683d e2c7 293c 7eeb e93c

fc2.weight f4 [84, 120]
-0.17544731 0.090213075 0.006704894 -0.045445748 -0.18796632 -0.074892625 -0.13476136 -0.13522586
-0.19909234 0.027476951 -0.12700108 -0.045205276 -0.04942089 -0.14505725 0.08988029 0.008970097
-0.24747834 -0.113889754 -0.039945737 0.07500577 -0.15534252 -0.1107937 -0.048244257 -0.08067891
0.022930987 -0.05016269 -0.04885708 -0.004250201 -0.17082842 -0.066052206 0.24977778 0.097059846
-0.058258522 0.033544455 -0.15660554 -0.01801116 -0.05402106 0.005755395 0.20051858 -0.009396988
-0.07178145 -0.045059167 -0.013184488 -0.10261395 -0.07707611 -0.11964996 0.01206987 0.06202097
-0.09791364 -0.024784928 -0.08325763 -0.12256935 -0.07504195 0.03767134 -0.019368522 -0.1817612
-0.014921951 -0.05668094 -0.040299587 -0.09353629 -0.11556269 -0.04509901 0.00040563746 0.2182974
-0.010399751 -0.052647717 0.08067558 -0.12862885 -0.26686454 -0.10221712 -0.14030716 0.007888788
-0.23545615 -0.1289435 8.512288e-05 -0.06320049 0.0889027 -0.23261432 -0.276233 -0.07587822
-0.2525358 -0.03807518 -0.21275091 0.035278782 -0.14224978 0.032439847 -0.021735214 -0.048036736
-0.06312257 0.07451679 0.059023734 -0.013071969 0.08155445 0.15355863 -0.017414905 -0.025090128
0.04222998 0.028062837 -0.05943886 -0.016475707 0.041609377 -0.058822367 0.08260405 0.045866672
-0.08482754 -0.303744 -0.20704894 0.09662005 0.06019863 0.12982006 -0.17370825 0.048267778
0.00016573674 -0.007734745 -0.087039225 -0.0054759607 -0.017278813 -0.09723426 0.0028508038 -0.031978764
-0.06421146 -0.11203861 0.1671012 -0.035706274 0.06222076 0.07833557 0.08192041 0.055834386
0.19669916 0.0010845423 0.04129024 0.29513395 0.08166544 0.021887537 0.07624224 -0.17445783
0.11364748 -0.3638925 0.20963241 -0.17058606 -0.12810944 0.023418454 0.017139137 0.07829472
-0.07867436 0.09862438 0.11081508 0.071615 -0.051045958 -0.08265046 0.026770057 0.046447035
0.13007095 -0.013230459 0.08910032 0.15398136 0.045010578 -0.041816514 -0.1452239 -0.052028835
-0.06584553 -0.03538244 -0.05049232 -0.020402737 0.04627459 0.07628106 -0.08478291 0.060804997
-0.0018091142 -0.029297408 0.064923994 0.09449218 0.0929242 -0.3158015 0.05624971 -0.16076112
0.060108308 0.09986863 -0.019886237 -0.16116828 0.05116157 -0.28837913 0.072369836 -0.2676221
-0.0422429 -0.028737256 0.10133357 0.07371591 -0.04667822 -0.0008512692 0.063413545 0.11204135
-0.08628168 -0.11883119 0.040017124 0.075862035 -0.024466826 -0.07850158 0.06954643 0.061657187
0.069732524 -0.09702341 0.082369 -0.0433841 0.07772829 0.06431896 -0.048628874 -0.026121229
-0.038941924 0.058862012 0.11816196 -0.053240545 0.014361127 0.09680046 -0.0122233275 0.052720737
-0.0355623 -0.15223005 0.018756814 -0.35374132 -0.094350666 0.14341687 0.097724915 -0.11258268
0.14320168 0.18472788 -0.047576673 -0.019458212 -0.010751344 0.09013842 0.14263785 -0.36702886
0.05776218 0.037923317 -0.028193763 -0.06811753 -0.01717566 -0.02501417 0.1745126 0.048874475
-0.25909317 0.19499668 -0.35161743 -0.083277166 -0.08287073 0.063921176 0.030165302 -0.20718
-0.014802678 0.016767943 -0.054870356 0.18189871 -0.09476496 0.15095359 -0.096867554 0.14768445
00000000: 76a8 33be a2c1 b83d bab4 db3b 5225 3abd
00000010: 3e7a 40be 4e61 99bd e2fe 09be a678 0abe
00000020: ddde 4bbe 5817 e13c 920c 02be 2b29 39bd
00000030: 8f6d 4abd e389 14be 2813 b83d 50f7 123c
00000040: f66a 7dbe 083f e9bd 249e 23bd a09c 993d
00000050: 1c12 1fbe cfe7 e2bd c59b 45bd fc3a a5bd
00000060: c4d9 bb3c 6577 4dbd 5d1e 48bd 4545 8bbb
00000070: a5ed 2ebe 6146 87bd bfc5 7f3e 50c7 c63d
00000080: 7da0 6ebd e965 093d 345d 20be 248c 93bc
00000090: 3045 5dbd c197 bc3b be54 4d3e d3f5 19bc
000000a0: 2702 93bd f68f 38bd c003 58bc 4327 d2bd
000000b0: 14da 9dbd 0a0b f5bd b4c0 453c b309 7e3d
000000c0: f286 c8bd c309 cbbc fa82 aabd a405 fbbd
000000d0: 98af 99bd 434d 1a3d bcaa 9ebc 9c1f 3abe
000000e0: 337b 74bc 462a 68bd 2e11 25bd f48f bfbd
000000f0: 22ac ecbd bdb9 38bd bdab d439 5b89 5f3e
00000100: b863 2abc 22a5 57bd 3d39 a53d 48b7 03be
00000110: 78a2 88be 3657 d1bd aeac 0fbe fa3f 013c
00000120: 6b1b 71be c409 04be 0084 b238 426f 81bd
00000130: 9e12 b63d 7332 6ebe 696e 8dbe 0a66 9bbd
00000140: 5f4c 81be b8f4 1bbd 60db 59be 7c80 103d
00000150: eda9 11be a5df 043d 0c0e b2bc 2bc2 44bd
00000160: 6846 81bd 429c 983d dfc2 713d d02b 56bc
00000170: 0506 a73d 793e 1d3e b4a9 8ebc d089 cdbc
00000180: 58f9 2c3d 09e4 e53c 2976 73bd 10f8 86bc
00000190: 986e 2a3d b9ef 70bd 502c a93d b1de 3b3d
000001a0: 10ba adbd 5584 9bbe a304 54be bce0 c53d
000001b0: d792 763d 8def 043e 93e0 31be 6fb4 453d
000001c0: 9ec9 2d39 be73 fdbb 9f41 b2bd b06f b3bb
000001d0: 4c8c 8dbc c122 c7bd 8dd4 3a3b 2afc 02bd
000001e0: 4c81 83bd 8074 e5bd 941c 2b3e be40 12bd
000001f0: 32db 7e3d 666e a03d e3c5 a73d 99b2 643d
00000200: 816b 493e 3327 8e3a f41f 293d cc1b 973e
00000210: 3640 a73d 7e4d b33c e424 9c3d 13a5 32be
00000220: 03c0 e83d 1e50 babe e1a9 563e 1dae 2ebe
00000230: 1f2f 03be 0fd8 bf3c 6067 8c3c fb58 a03d
00000240: 0620 a1bd 94fb c93d 04f3 e23d e3aa 923d
00000250: 9115 51bd a544 a9bd e14c db3c 3f3f 3e3d
00000260: 5231 053e 91c4 58bc 3b7a b63d 4aad 1d3e
00000270: 035d 383d cb47 2bbd 93b5 14be 301c 55bd
00000280: 05da 86bd 2ded 10bd 09d1 4ebd a423 a7bc
00000290: 6d8a 3d3d 3f39 9c3d aaa2 adbd a90e 793d
000002a0: cd1f edba 1e01 f0bc dff6 843d 1e85 c13d
000002b0: 0b4f be3d bcb0 a1be 1966 663d 909e 24be
000002c0: 2134 763d ed87 cc3d 76e8 a2bc 4c09 25be
000002d0: cb8e 513d 6ea6 93be a336 943d c405 89be
000002e0: e406 2dbd 656a ebbc fa87 cf3d 5ef8 963d
000002f0: a931 3fbd b527 5fba f6de 813d ef75 e53d
00000300: 73b4 b0bd c45d f3bd ffe8 233d 8e5d 9b3d
00000310: a76e c8bc 70c5 a0bd 5c6e 8e3d 3f8c 7c3d
00000320: edcf 8e3d 36b4 c6bd 14b1 a83d 87b3 31bd
00000330: 0230 9f3d a9b9 833d 122f 47bd 30fc d5bc
00000340: 9181 1fbd 4b19 713d e6fe f13d c212 5abd
00000350: ef4a 6b3c 523f c63d 5a44 48bc b3f1 573d
00000360: c6a9 11bd 32e2 1bbe e4a7 993c 951d b5be
00000370: ec3a c1bd dfdb 123e 0024 c83d c091 e6bd
00000380: 76a3 123e 4e29 3d3e c2df 42bd d466 9fbc
00000390: 6826 30bc 7e9a b83d a80f 123e 35eb bbbe
000003a0: 0998 6c3d 7b55 1b3d 9bf6 e6bc 3481 8bbd
000003b0: f8b3 8cbc 84ea ccbc 6eb3 323e 9a30 483d
000003c0: dca7 84be 36ad 473e 3307 b4be 388d aabd
000003d0: 21b8 a9bd 1be9 823d 391d f73c fe26 54be
000003e0: ee86 72bc ed5c 893c bdbf 60bd a843 3a3e
000003f0: 2214 c2bd 9493 1a3e 7f62 c6bd 983a 173e

fc2.bias f4 [84]
-0.040733743 0.014731683 0.11201125 -0.09555866 -0.064210735 -0.08086173 0.058869176 -0.015113218
0.104242474 -0.07879585 -0.0662984 -0.068022005 0.13807133 0.013523609 -0.11453029 0.059154917
0.06476636 -0.0959518 0.032619167 0.12076892 -0.09538367 0.06845079 0.057622038 -0.09737431
-0.12112545 -0.08310898 -0.06645755 0.050514784 0.09267765 0.080966815 0.106669016 0.13327691
0.1833014 -0.048704542 -0.003777624 0.1196945 -0.062444877 0.03538412 -0.02542729 0.053101428
0.08029264 0.035408422 -0.118873134 -0.020197546 0.0484246 0.032440856 0.14831805 0.17044085
0.105498075 -0.040455803 0.08417821 0.22500597 0.09198959 0.041916437 -0.029303249 0.062558286
-0.028877443 -0.058907524 -0.03563712 0.046093 -0.013731882 0.14112227 -0.07176913 -0.09397472
0.09458606 0.19149734 -0.08105761 0.056375757 -0.08721597 -0.07770682 -0.11999627 0.006441665
0.097869225 -0.010555834 -0.018673863 -0.08499085 0.026706632 0.11889415 0.10326549 0.04363021
0.11555895 -0.027091665 -0.16315192 0.05778638
00000000: 6dd8 26bd 285d 713c 2766 e53d 42b4 c3bd
00000010: eb80 83bd d69a a5bd ce20 713d 6e9d 77bc
00000020: 147d d53d b85f a1bd 75c7 87bd 1f4f 8bbd
00000030: 9262 0d3e 2192 5d3c db8e eabd 6d4c 723d
00000040: 3aa4 843d 6182 c4bd ad9b 053d b255 f73d
00000050: 8358 c3bd ee2f 8c3d 1605 6c3d 2f6c c7bd
00000060: 9f10 f8bd 0a35 aabd e51a 88bd 97e8 4e3d
00000070: c8cd bd3d eed1 a53d 4975 da3d be79 083e
00000080: 5db3 3b3e 6a7e 47bd 0492 77bb 6422 f53d
00000090: 33c6 7fbd f0ee 103d e44c d0bc e280 593d
000000a0: 7870 a43d 6c08 113d c273 f3bd 5375 a5bc
000000b0: e058 463d b4e0 043d b0e0 173e 0c88 2e3e
000000c0: 600f d83d fcb4 25bd a065 ac3d f767 663e
000000d0: 0a65 bc3d 92b0 2b3d 5e0d f0bc 8f1e 803d
000000e0: 6390 ecbc 0449 71bd 3bf8 11bd 03cc 3c3d
000000f0: b0fb 60bc 5b82 103e b2fb 92bd d175 c0bd
00000100: 56b6 c13d e117 443e 8801 a6bd 44ea 663d
00000110: 499e b2bd c124 9fbd 9bc0 f5bd 9a14 d33b
00000120: a96f c83d 60f2 2cbc eef9 98bc af0f aebd
00000130: dec7 da3c c77e f33d db7c d33d 97b5 323d
00000140: 2caa ec3d 57ef ddbc 4c11 27be 69b1 6c3d

fc3.weight f4 [10, 84]
-0.060387447 0.0115971705 0.23969375 -0.04647497 -0.38047883 -0.16906406 0.018904896 -0.012244095
-0.10388138 -0.0019133082 -0.092098266 0.0021426114 -0.19187199 -0.014170383 0.0029333155 -0.3019256
-0.18299982 0.0042329985 -0.109118804 -0.014760421 -0.17589566 -0.3391578 -0.17039877 -0.014347062
-0.07685065 0.322879 -0.019271411 0.021764394 -0.2227778 0.056366857 0.025136376 0.20832597
0.05970583 0.10971156 -0.28445268 -0.067176595 0.13706039 0.04376412 0.06893502 0.19503328
-0.33227065 -0.016223803 0.1218144 0.04343491 -1.6948867e-05 0.14717832 0.3060224 -0.31551328
0.02619708 -0.39620188 0.21290123 -0.04668695 0.06275801 -0.24590214 0.10701598 -0.39279002
-0.2705737 -0.17750987 -0.022040414 0.07498781 -0.35454226 -0.20197353 -0.071571946 0.30137098
-0.026165228 -0.07788039 -0.13328761 -0.10763196 0.21470775 0.07618984 -0.023771679 0.0029047925
-0.20100756 -0.23331329 0.08397136 0.19451992 0.15062317 -0.22081393 -0.06452154 -0.04457375
0.015256074 0.12685446 -0.05044596 0.0834131 -0.14283648 -0.109700285 0.05201291 -0.087167114
0.21193893 0.31811583 0.0491964 0.068293855 0.08156355 -0.12557583 -0.13672653 -0.057692822
-0.12734658 -0.15972385 -0.0021289184 0.41997305 -0.08104001 -0.121419735 0.22928299 -0.19540465
-0.07836545 0.14248717 -0.16181141 -0.034336817 -0.03835192 -0.04022078 -0.6340508 -0.15094529
0.18381865 -0.33687523 -0.46094775 -0.00011972868 0.18049148 0.11229457 0.17951523 -0.1918889
-0.12317671 -0.26593092 -0.41278055 -0.5301373 -0.03320347 -0.0011770203 -0.12927043 0.044233445
0.16767938 0.13403289 0.01857139 -0.11016075 -0.37427273 -0.008075572 -0.52560574 -0.26771542
-0.544241 -0.12606773 0.1824433 -0.0765089 0.0039517954 0.09394925 0.06806732 -0.032610647
0.041838482 0.03813933 -0.16507529 0.27161586 -0.011664741 -0.25437188 0.21160302 -0.09040162
-0.38790435 0.19794533 -0.13998444 -0.34764013 -0.31056744 -0.15406668 0.107032515 -0.2799688
0.106572986 -0.17851771 -0.34693205 -0.014153372 -0.23398207 -0.08768207 0.04285005 0.031176968
0.19081627 0.10810739 0.15101638 -0.028417189 0.122106396 0.014872641 -0.063614115 -0.10070516
0.037911862 -0.16223937 0.06491266 0.070641324 0.09175399 -0.023574991 -0.090660624 -0.01943993
-0.05352343 0.006988459 0.20723541 0.14628793 0.008369484 -0.25004724 -0.21174258 0.019516323
-0.024422474 -0.18344186 -0.052786946 0.06997312 -0.04944611 -0.2301589 0.13324055 -0.5017084
0.1075603 0.06763651 0.1780183 0.12576342 -0.053175103 -0.36599544 0.09450048 -0.31727552
0.097166955 -0.36491024 -0.11188139 0.11590909 0.13148141 -0.031227754 0.20637977 -0.016576434
-0.27732152 0.10033802 0.07548078 0.16671647 0.12761456 0.15542573 -0.17059053 -0.106064565
0.0052655176 -0.030488817 -0.06712861 -0.05257008 0.23588237 -0.20808718 -0.1103211 0.18377313
-0.18445078 0.0148173 0.030185921 0.06886939 0.2514021 0.24929404 -0.09811867 0.061952837
-0.008466673 -0.1906723 -0.14946322 -0.20788746 0.17258911 -0.53209466 -0.076259255 -0.00635386
0.093827166 -0.18936886 0.0019852289 -0.5485468 -0.17583996 -0.05664484 0.15915586 -0.04993082
00000000: d458 77bd 0f02 3e3c 4772 753e 8a5c 3ebd
00000010: 1fce c2be 211f 2dbe 71de 9a3c 759b 48bc
00000020: c3bf d4bd f8c7 faba 049e bcbd 0e6b 0c3b
00000030: 177a 44be e52a 68bc de3c 403b fe95 9abe
00000040: 4e64 3bbe f7b4 8a3b ae79 dfbd b1d5 71bc
00000050: fe1d 34be 17a6 adbe 047d 2ebe f10f 6bbc
00000060: e063 9dbd 6550 a53e 14df 9dbc 3e4b b23c
00000070: dd1f 64be efe0 663d cdea cd3c 6753 553e
00000080: 1a8e 743d 74b0 e03d c8a3 91be e293 89bd
00000090: 8f59 0c3e 0242 333d ce2d 8d3d ceb6 473e
000000a0: 611f aabe c8e7 84bc d479 f93d cee8 313d
000000b0: 6a2d 8eb7 eab5 163e f8ae 9c3e f58a a1be
000000c0: 429b d63c f9da cabe c802 5a3e d13a 3fbd
000000d0: 4687 803d c5cd 7bbe 322b db3d c61b c9be
000000e0: a388 8abe 26c5 35be 198e b4bc 3593 993d
000000f0: 9086 b5be 26d2 4ebe 5094 92bd 4c4d 9a3e
00000100: 7658 d6bc c17f 9fbd 8c7c 08be 256e dcbd
00000110: 59dc 5b3e 6b09 9c3d d3bc c2bc 555e 3e3b
00000120: edd4 4dbe aee9 6ebe 2df9 ab3d 3b30 473e
00000130: f63c 1a3e 0c1d 62be df23 84bd f792 36bd
00000140: 9df4 793c 23e6 013e 6ca0 4ebd 7dd4 aa3d
00000150: ba43 12be 8baa e0bd 7d0b 553d ac84 b2bd
00000160: 8506 593e 14e0 a23e 2a82 493d a6dd 8b3d
00000170: ca0a a73d f396 00be 0a02 0cbe 4f4f 6cbd
00000180: 2467 02be a68e 23be 5385 0bbb b506 d73e
00000190: 4ef8 a5bd e9aa f8bd 29c9 6a3e 2818 48be
000001a0: 117e a0bd 28e8 113e e4b1 25be c3a4 0cbd
000001b0: e716 1dbd 8bbe 24bd 2751 22bf 6791 1abe
000001c0: f53a 3c3e e97a acbe 5801 ecbe d816 fbb8
000001d0: c2d2 383e b2fa e53d d7d2 373e 867e 44be
000001e0: 1244 fcbd 1928 88be f957 d3be 14b7 07bf
000001f0: 5d00 08bd 3f46 9aba 785f 04be 212e 353d
00000200: 25b4 2b3e eb3f 093e 0723 983c f69b e1bd
00000210: ada0 bfbe 674f 04bc 198e 06bf ff11 89be
00000220: 6153 0bbf e617 01be 6bd2 3a3e b3b0 9cbd
00000230: 107e 813b 7768 c03d e166 8b3d be92 05bd
00000240: d45e 2b3d fc37 1c3d 7f09 29be 3c11 8b3e
00000250: 781d 3fbc 083d 82be 76ae 583e 7c24 b9bd
00000260: 669b c6be 2eb2 4a3e 1558 0fbe e3fd b1be
00000270: b202 9fbe a8c3 1dbe dd33 db3d 1258 8fbe
00000280: f042 da3d 59cd 36be 14a1 b1be 8be3 67bc
00000290: ff98 6fbe a892 b3bd 8983 2f3d d766 ff3c
000002a0: 5765 433e 6867 dd3d 0aa4 1a3e 2acb e8bc
000002b0: eb12 fa3d 61ac 733c 1e48 82bd 823e cebd
000002c0: 7849 1b3d 1422 26be eef0 843d 66ac 903d
000002d0: 84e9 bb3d 5720 c1bc 47ac b9bd 7d40 9fbc
000002e0: 623b 5bbd 71ff e43b 8535 543e 81cc 153e
000002f0: 2920 093c 3106 80be 0cd3 58be b2e0 9f3c
00000300: a411 c8bc 2fd8 3bbe 2037 58bd 114e 8f3d
00000310: 0188 4abd c6ae 6bbe 3670 083e f66f 00bf
00000320: 9348 dc3d 0385 8a3d 6e4a 363e 20c8 003e
00000330: 23ce 59bd c163 bbbe 7889 c13d f071 a2be
00000340: 78ff c63d 84d5 babe 1222 e5bd bf61 ed3d
00000350: 10a3 063e 59d1 ffbc 3855 533e 4dcb 87bc
00000360: 16fd 8dbe 057e cd3d ab95 9a3d b9b7 2a3e
00000370: 64ad 023e ec27 1f3e 49af 2ebe 6138 d9bd
00000380: 5d8a ac3b afc3 f9bc ba7a 89bd b953 57bd
00000390: 268b 713e ce14 55be 07f0 e1bd 062f 3c3e
000003a0: aae0 3cbe 43c4 723c 7748 f73c 650b 8d3d
000003b0: c7b7 803e f046 7f3e 71f2 c8bd 42c2 7d3d
000003c0: cdb7 0abc 993f 43be e30c 19be 73e0 54be
000003d0: 33bb 303e 5b37 08bf d02d 9cbd 0a34 d0bb
000003e0: 7528 c03d e9e9 41be 9d1a 023b 906d 0cbf
000003f0: 640f 34be 6b04 68bd c1f9 223e 4284 4cbd

fc3.bias f4 [10]
-0.108630225 -0.049885646 0.082033314 -0.0037878545 -0.09138617 -0.1681399 0.08034831 0.12088011
-0.05291525 -0.06822893
00000000: 8679 debd e454 4cbd 1501 a83d a73d 78bb
00000010: ac28 bbbd de2c 2cbe a88d a43d fe8f f73d
00000020: a9bd 58bd 9cbb 8bbd
