hw1/models/Batch_Normalization_final.pth (torch, 260064 bytes, 26 tensors)

conv1.weight f4 [6, 1, 5, 5]
00000000: 4f5b 63be ab7e b1bd 6fde c4bd e2d1 21be
00000010: 581a 413e bcf7 65bd 2328 2ebe 64d9 1e3e
00000020: 340e e83c 103b a93e e7cc 8abe e97f c8bd
00000030: 752d 88be 0f82 cdbd 2e15 633e 7f37 4ebd
00000040: d442 f1bc 87d1 543c 41b2 983e de22 5d3d
00000050: e503 533e 6a3b fb3d 170b 903d a0e8 a7bc
00000060: 22b9 1cbd 6070 b43b 40f4 f0bb 08a0 1ebe
00000070: 6669 2d3e 6067 e23d df64 043d efd1 e73d
00000080: 883f a5bd cb71 8e3e e374 fdbd 1d20 63bd
00000090: 724d 91bc 0403 1cbe a2bd 743e 2ddd 54be
000000a0: 5c91 3e3e 4947 58bd 9a0b 13be be19 603e
000000b0: 6d24 71be 63fb 12be 1efa fa3d b02a 843e
000000c0: 2009 c23d f3a5 b3be a36a f2bd be88 bbbe
000000d0: 208e acbe f2e3 033e d97e f4bb 62a3 593e
000000e0: 8338 adbe ecbb 093d 9efa 45be 9cc8 34be
000000f0: 4b4d 6abd e21c 5bbd 69d0 813e ebed 1c3d
00000100: 1a40 32be 2079 0ebe b494 8dbd 221f 473e
00000110: cb9e 3e3e 1155 373c 4f48 07bd 3847 233d
00000120: f161 50be bcc0 2d3e 828c fa3c ddcb 10be
00000130: 27b6 1bbd dd55 b83d 0e31 e1bd 5a1a 483e
00000140: 4548 41be 7cee a8bd 731e 453e 4e9d 7a3e
00000150: 058d 7cbe 2a37 f73d 6680 cdbd c93c 353e
00000160: 127e 393e ec41 7fbe c034 17bd 285c 92be
00000170: 8ecc 243e e954 173e efaa a33c 0bfb bf3c
00000180: 81c7 17be dcac fbbd 21a1 0cbe 9a5f 9c3e
00000190: 6b86 94bd 8e23 95bd aca9 14bd 1b9e a9be
000001a0: bfb9 2f3e c2f7 04be d730 3abe 8cdf 993e
000001b0: 8ad6 5fbe 7bf2 54bd 217b 763e 94c1 b03d
000001c0: bb55 783c 1732 813e d94f 40be fd1b 3e3c
000001d0: ca72 873e 79d4 7ebe 88b4 193e 1f78 1b3e
000001e0: 9f17 9db8 e2ec 71be a22f 8c3d c8e0 113e
000001f0: 5eca e9bd 2878 e23c 38e1 843d 30e0 02bd
00000200: 8714 6fbc 913c 8b3d 4eea 613e fa02 723e
00000210: 9f42 7cbe 48d6 8ebe a592 71be 2a3e 0e3e
00000220: 155d 06bd 2a30 5f3e f806 9abe 7ff0 22bd
00000230: cde9 5fbe 82a6 4cbe 0d14 24be 0187 0dbe
00000240: 01c5 40be 7385 f1bc d74e 0abe c774 223e
00000250: 2419 533e 88e5 d33d
-0.222028 -0.08666738 -0.09612738 -0.1580272 0.18857706 -0.05614446 -0.17007498 0.15512615
0.028327085 0.33052874 -0.27109453 -0.09790022 -0.2659718 -0.10034572 0.22176048 -0.050345894
-0.029450811 0.012989408 0.29823497 0.05398833 0.20606954 0.12267192 0.07033365 -0.020496666
-0.038262494 0.00550656 -0.0073533356 -0.15490735 0.16934738 0.110548735 0.03232276 0.113193385
-0.08068758 0.27821192 -0.1237581 -0.055450547 -0.017737124 -0.15235525 0.23900464 -0.20787497
0.18610138 -0.052802358 -0.14359894 0.2188482 -0.23549052 -0.14353709 0.12254737 0.25813818
0.09474397 -0.35087547 -0.118367456 -0.36627764 -0.33702183 0.12879923 -0.0074614105 0.21253732
-0.33832178 0.033626482 -0.19333884 -0.17654651 -0.05720262 -0.05349434 0.25354317 0.038312834
-0.17407265 -0.13913393 -0.069131285 0.1944547 0.18615262 0.011189715 -0.033027943 0.03986284
-0.20349862 0.16968054 0.030584577 -0.14140268 -0.03801551 0.09000752 -0.109956846 0.19541302
-0.18875225 -0.08248612 0.19249897 0.2447407 -0.2466317 0.120710686 -0.10034256 0.17698969
0.18114498 -0.24927491 -0.03691554 -0.28585935 0.16093656 0.14778484 0.019978968 0.023435136
-0.14822198 -0.1228883 -0.13733341 0.30541688 -0.07252201 -0.07282172 -0.036294624 -0.33128437
0.171607 -0.12985137 -0.18182693 0.30053365 -0.21859184 -0.05198906 0.24070407 0.08630672
0.0151571585 0.25233528 -0.1878046 0.011603353 0.26454765 -0.2488574 0.15010273 0.15182541
-7.490743e-05 -0.2362552 0.06845023 0.14245903 -0.114155516 0.027645186 0.064882696 -0.031952083
-0.014592296 0.067986615 0.22062036 0.23633948 -0.24634789 -0.2789786 -0.23591097 0.13890901
-0.032803614 0.21795717 -0.30083442 -0.039780136 -0.21866532 -0.19985393 -0.16023274 -0.13821031
-0.18825151 -0.029482579 -0.13506638 0.1586486 0.20615059 0.10346514

conv1.bias f4 [6]
00000000: 285b 703e 570b 90bd 7d8e f33d 64fd d63c
00000010: 8b1c 78bd 9c63 05bd
0.23472273 -0.07033413 0.11892412 0.026243873 -0.060574096 -0.032565698

conv2.weight f4 [16, 6, 5, 5]
00000000: 8e6f f3bd e9cc 1d3e ff6b d4bd cec0 a6bd
00000010: 5ca3 13bd cc9d 183e ca87 e93d af1a 8dbd
00000020: 486d 39be 1249 2738 6d74 96bd 8457 013e
00000030: 8e6c 563b d8b5 c0bd 4e21 1d3e 6d16 bcbe
00000040: 9c19 653b bcea 813d 5eeb 06be c776 7b3d
00000050: 971c d0bb 1539 8dbd 971e 3e3d c8df c53d
00000060: 2005 89bd 56b8 c1be 032c 73bc f83e 16be
00000070: 5965 253c cf6b 933d c89d 7bbe 761b 703d
00000080: f92a 5f3d 74f1 d93d ee72 f8bd df27 dbbe
00000090: a12d b63d 7e22 a2bd db55 a0bc 6a2e c2bd
000000a0: 5fe5 dbbe b719 9f3d ec44 b3bd 2981 16be
000000b0: 3b1a 573d 438e 29be 35bc 643d 36d1 1dbd
000000c0: 965f 733c 8774 45bd 447b be3d 7bb3 45bd
000000d0: 17a5 a73d 8e52 023e 5e86 07bd 933f c0bc
000000e0: f57b 21be be0c a73c 1dd6 49bd 4a20 fdbd
000000f0: 0d3c f0bd 68f5 723d 38a7 b03d 6476 b7bc
00000100: 22c6 d73d 3ca0 01be 876e e2bd ba9b dbbd
00000110: 44da 92bc e542 ae3d 19df 1c3e f07b 0cbd
00000120: cd3b fdbd 23d2 cc3d 2554 f93c db00 113e
00000130: 6598 43bd 9870 383e 7276 8abd 1b2f aebd
00000140: 8d27 8fbe b490 c2be 8d25 1dbd 1a4d 493d
00000150: c9be 7b3d dcab 9bbe a5fd 06be 9ffa cb3d
00000160: c603 f43d 13f0 2b3e b809 c23d 7f1b c9bd
00000170: 61bb b7bb ff4c be3c f2bd b7bc d1e4 493d
00000180: 0147 88be 5f46 76bc 9e80 8dbd 52d1 e53c
00000190: 7197 913e 5e6f 1b3e d718 1cbe b388 2abd
000001a0: 8351 87bd b0cc 71be f602 9bbe 83c6 73bd
000001b0: 6236 3abd 1bd6 293e 4a60 20be 87c3 31be
000001c0: ca4f c13d 0b3a cf3d 4527 113d 4dcb e03c
000001d0: 2f67 b2be f752 b33d 2f01 1ebe 47da 32bb
000001e0: 5259 b2bc 60bc b53c 26bc 0abe 20de 05be
000001f0: ea13 b7bc 7b02 133d 0bfd 3bbe 9599 8e3d
00000200: a3d5 713c 13cc 30bd 5ae9 39be 038f 20bc
00000210: 08e7 d93d 9e52 3dbe f2b0 93be ba0d 64bd
00000220: 1511 0abe 84b0 493d 8bab 58bd 844b 43bd
00000230: 3dfa f53d e19c a53d b05c 0c3e 0a15 a13c
00000240: b9b4 c0bd d447 653e c0af b93d 6a64 1d3e
00000250: c654 debd c213 c1bd 6f08 88bd db2e 44be
00000260: 56ea 13bd ef88 9dbe 1ee7 5abd 03db dd3c
00000270: c0f8 463d be35 2d3e 61e4 87be dde7 8d3d
00000280: baa3 203e d03f 463e a3c8 62bc 23d3 8abd
00000290: 4e57 923d 52e5 0abd 50a6 ea3d ba5a 343d
000002a0: 4d7e 753d 58ae 24be 1b4a fb3d 605e b93d
000002b0: 84f8 f53c 5792 9e3d a267 f0bd 9409 513e
000002c0: a954 9d3d 2daa 2c3e 1192 abbd f951 913d
000002d0: db3c 84bc 299b 8d3a db71 3c3c 7c96 14be
000002e0: d0ff 003d 39c2 9ebd 10e9 e7bd bbf2 47bd
000002f0: 2158 0b3e e346 a33c 6b87 8a3d bbdb 83be
00000300: f659 a13d 1658 023e 4283 6c3d d11c df3c
00000310: ca53 e4bd 2d92 453d 72a0 eeb9 0a17 49be
00000320: c970 49be 50dc 52be 332e 31bd bbd0 8bbe
00000330: 272b 1abd a90a 12be f77a 593d 523a 52bc
00000340: 8402 06be d428 053d 1072 58bd 5bab 4c3e
00000350: d040 b83d f499 2ebe 293f 3b3d 2e6d 013d
00000360: 03ca 263c b16d 803c c92e 1cbe d3d8 423e
00000370: fa61 2b3e 46dd 623e b92f 3a3e 388f 52bd
00000380: c001 503d d594 023c 2dcd 68be b43c 81bd
00000390: d53d 7f3d c2fd b33d 799d 1a3e 2885 4fbd
000003a0: 3b89 d7bd 222a bcbd a2ea e2b9 848f 8e3c
000003b0: d8f0 d03d 8057 bfbc f6eb 19be d0a5 76be
000003c0: c0d9 c2bc 6573 7ebd 5d23 d53d 4779 82bc
000003d0: 939a 863c 0c10 50bd 3f31 73be 61c4 ac3d
000003e0: 5e9a 153e 24f5 373e 6cb5 d5bd eb15 7bbe
000003f0: bc03 5cbe 030a 8f3d 9292 f73b 0b4b 293d
-0.11886512 0.15410198 -0.10372161 -0.08142243 -0.036044464 0.14903945 0.11402853 -0.06889855
-0.18108094 3.9883955e-05 -0.07346425 0.12631041 0.0032718512 -0.09409684 0.15344736 -0.3673586
0.0034957891 0.063436 -0.13175723 0.06139257 -0.0063510644 -0.06895653 0.04641589 0.096618235
-0.06690431 -0.3783595 -0.014842036 -0.14672458 0.010094964 0.07198297 -0.24571908 0.05861994
0.05448434 0.10641757 -0.12131296 -0.42803857 0.08895422 -0.07916735 -0.01957219 -0.09481509
-0.42948434 0.077685766 -0.0875338 -0.14697708 0.05251525 -0.16558175 0.05584355 -0.038529597
0.014854332 -0.048206832 0.09300855 -0.04826687 0.08185785 0.12726805 -0.033087127 -0.023467815
-0.15769942 0.020391818 -0.04927646 -0.12359674 -0.11730204 0.05931607 0.086256444 -0.02239532
0.10535838 -0.12658781 -0.11056238 -0.10723062 -0.017926343 0.08508853 0.1531948 -0.034297884
-0.12364922 0.10001018 0.030435631 0.14160483 -0.047752757 0.18011701 -0.06760873 -0.085050784
-0.27959862 -0.38001025 -0.03836589 0.049145795 0.061461244 -0.30404556 -0.13182695 0.099599116
0.11914782 0.167908 0.0947451 -0.098196976 -0.005607054 0.023230074 -0.02242944 0.049290482
-0.26616672 -0.015031426 -0.069092974 0.028053913 0.28435853 0.15179202 -0.1524385 -0.041634273
-0.06607344 -0.23613238 -0.30275697 -0.059515487 -0.04546202 0.16585581 -0.15661731 -0.17359744
0.09439047 0.10118493 0.03543784 0.027440691 -0.34844348 0.08756059 -0.15430139 -0.0027290748
-0.021771107 0.02218455 -0.13548335 -0.13073015 -0.022348363 0.035891037 -0.18358247 0.06962887
0.014760408 -0.04316337 -0.18155423 -0.009799722 0.10639769 -0.18488547 -0.28845936 -0.055677153
-0.13483079 0.049240604 -0.05289797 -0.04767944 0.1201062 0.08086563 0.13707232 0.019663353
-0.0940947 0.22390682 0.09066725 0.15370336 -0.10856013 -0.09427597 -0.066422336 -0.19158499
-0.036112152 -0.30768535 -0.053443067 0.027081972 0.04857707 0.16915032 -0.26541427 0.0692899
0.15687457 0.1936028 -0.013841781 -0.067785524 0.07145558 -0.033910103 0.11457503 0.044031836
0.059934903 -0.16082132 0.12269994 0.09051204 0.030025728 0.07742756 -0.117385164 0.2041381
0.07682163 0.16861792 -0.08377469 0.07095713 -0.0161423 0.0010803688 0.011501755 -0.1451053
0.03149396 -0.07751889 -0.1132375 -0.04881547 0.13607837 0.019931262 0.0676411 -0.2575358
0.07878487 0.12728915 0.057742365 0.02723542 -0.11148794 0.048235107 -0.00045514439 -0.19637695
-0.1967193 -0.20591855 -0.04325695 -0.27307686 -0.03763881 -0.14261879 0.053095784 -0.012831287
-0.13086897 0.03250964 -0.052843153 0.19987242 0.08996737 -0.17050916 0.04571453 0.031598262
0.010179999 0.015677305 -0.15252222 0.19028024 0.16736594 0.22154722 0.18182267 -0.051406115
0.05078292 0.007970055 -0.22734518 -0.06310406 0.062314827 0.08788635 0.15099134 -0.050664097
-0.105242215 -0.09187724 -0.00043280894 0.017402418 0.10202187 -0.023357153 -0.15031418 -0.2408669
-0.023785472 -0.062121768 0.10407136 -0.01592697 0.016431129 -0.050796553 -0.23749255 0.08435894
0.14609668 0.17964607 -0.10434994 -0.2452008 -0.214858 0.069843315 0.0075553143 0.041331332

conv2.bias f4 [16]
00000000: ec86 7cbd 96e4 78bd 8040 ce3d 2297 82bc
00000010: bb8a 933d dae2 1739 22c3 86bd 13de 4cbd
00000020: 31df 94bd 361b 04bc 06fc a83d fb5b 7d3d
00000030: 792f f7bc e22f 653d 98f0 84bd aa07 b8bd
-0.06165211 -0.06076487 0.10070896 -0.015941206 0.07204195 0.00014484991 -0.065801874 -0.050016474
-0.07269133 -0.008063128 0.08251195 0.061855298 -0.030174004 0.055953868 -0.06491202 -0.08985837

bn1.weight f4 [6]
00000000: c108 703f 6651 5a3f b40f 8b3f 6209 883f
00000010: 785f 573f 8723 a03f
0.9376336 0.85280454 1.0864167 1.0627863 0.8413005 1.2510842

bn1.bias f4 [6]
00000000: 9b88 993e 6c47 abbc 98e1 64be 3670 413d
00000010: c513 473d 5163 c4be
0.29987034 -0.02090808 -0.22351682 0.047226153 0.048602838 -0.38357022

bn1.running_mean f4 [6]
00000000: 99a2 893e 18f7 f6bd cce2 e33e 8781 a43b
00000010: e89f a3bd 205b 8d3e
0.26881865 -0.12058848 0.4450897 0.0050203237 -0.07989484 0.27608585

bn1.running_var f4 [6]
00000000: 7dc8 993e ec87 023e 4b03 d13e d2bc 103e
00000010: 0649 853d b0da bd3e
0.30035773 0.12747163 0.40822825 0.14134529 0.06508069 0.37080908

bn2.weight f4 [16]
00000000: 372a 933f 986d 803f e4b6 7f3f dc3d 5c3f
00000010: 4a52 643f b21b 813f 6b5b 883f d297 8b3f
00000020: d982 723f 8206 8a3f 0270 873f 00b1 813f
00000030: 8b4b 6e3f 96ab 6e3f 7a40 7c3f 27d1 503f
1.1497258 1.0033445 0.99888444 0.8603189 0.89188063 1.0086577 1.0652899 1.0905707
0.9473091 1.0783236 1.0581057 1.0132141 0.9308402 0.9323057 0.98535883 0.8156914

bn2.bias f4 [16]
00000000: 5dc5 bebe ee13 51be 5237 72be be30 9cbd
00000010: 08b1 01be ccd0 bdbe bbb0 87be 2889 aebe
00000020: e4fc b6bd 5061 82be 7afb 3ebe 08a1 7bbe
00000030: 6b4f 92be 7953 33bd 2559 73be 839c aabe
-0.3725995 -0.20417759 -0.23653916 -0.07626484 -0.12665188 -0.37073362 -0.26502022 -0.34089017
-0.08934954 -0.2546487 -0.18650618 -0.24573147 -0.28576216 -0.043780778 -0.23764475 -0.33322534

bn2.running_mean f4 [16]
00000000: 5681 3ac0 9793 3abf 4477 b0bf 248d ccbe
00000010: 08a5 2cbf 1cd7 dabe af3b 18c0 f86f 84bf
00000020: f070 38bf fec2 f8bf be18 48bf 15f2 71bf
00000030: b100 63bf 30f2 8cbf 6c58 cebf a8aa 17bf
-2.914144 -0.72881454 -1.3786397 -0.39951432 -0.6743932 -0.4274224 -2.3786428 -1.034667
-0.7204733 -1.9434507 -0.78162754 -0.9451001 -0.8867293 -1.101141 -1.6120734 -0.59244776

bn2.running_var f4 [16]
00000000: 73f8 5140 d17d d83f 78ae e43f 1ae2 2b3f
00000010: 9185 933f 3451 c83f 6b0d e73f b59f 2140
00000020: 4aa3 7b3f 3b85 0740 9a3c f13f b8ca b63f
00000030: fd01 bc3f 0461 d33f c86d df3f a512 953f
3.2807891 1.6913396 1.7865744 0.6714188 1.1525136 1.5649781 1.805097 2.5253727
0.98296034 2.1175067 1.8846619 1.4280615 1.4688107 1.6513982 1.7455378 1.1646315

bn3.weight f4 [120]
00000000: ac2a 803f ac4a 6f3f 8d0e 773f 8eac 7b3f
00000010: e371 773f e173 6d3f 3eb0 773f f40f 803f
00000020: c942 7b3f 7cef 713f 5246 753f 09af 6f3f
00000030: 1fea 8c3f f5db 783f 1ab3 7a3f dcc9 833f
00000040: 79cd 733f 0813 853f fe14 8b3f 6205 813f
00000050: 19d4 793f 8806 913f b527 823f 0341 7e3f
00000060: 1724 713f 5cb7 7b3f 1fb7 713f fea1 6c3f
00000070: aa70 823f 4db2 813f 75aa 7c3f f46a 843f
00000080: fd83 733f 6e0f 843f acdc 763f 7e32 703f
00000090: 2783 6a3f 6b6a 703f be93 663f b7b9 6c3f
000000a0: 189d 863f 1539 753f cdbb 6c3f b805 8b3f
000000b0: 4526 793f 2ce2 793f 8e39 733f 252e 633f
000000c0: 2924 7f3f e44d 803f bb06 773f b162 773f
000000d0: 8da6 653f 7c20 833f e4b2 753f fde3 763f
000000e0: 9200 783f 338c 843f 62ca 783f 4ece 743f
000000f0: abbb 783f f3eb 733f 2d12 723f 03a1 8b3f
00000100: 07c7 633f 8ccb 793f acef 883f a7e3 853f
00000110: 7d85 833f f7b1 663f 2ca1 763f f59b 663f
00000120: 325f 883f 3612 7a3f e577 7d3f 8de5 763f
00000130: 380a 8c3f 41ef 7d3f 5889 7b3f d9a2 723f
00000140: 8465 833f 1722 823f 1415 773f cca2 8c3f
00000150: e4a0 6f3f 6ccd 6e3f 899d 7f3f 5ccb 7a3f
00000160: 2945 813f c79f 8c3f 60c0 663f f5e2 773f
00000170: 21aa 883f c3bb 773f 90c4 7c3f 43d7 863f
00000180: ed05 5a3f dde0 7e3f c38f 813f 53a4 6f3f
00000190: 882d 763f f65c 6d3f 57a3 6c3f e617 7f3f
000001a0: 9cd8 793f f21d 6d3f 3d01 683f d54b 6f3f
000001b0: bf82 713f 07eb 833f 7d5e 803f 2340 7c3f
000001c0: 070c 6e3f 1c01 7e3f abd3 783f a155 7f3f
000001d0: 86fc 6f3f 71c1 853f 1c36 833f 7013 693f
1.0013022 0.93473315 0.9650658 0.9831017 0.9665815 0.9275494 0.967533 1.0004869
0.9814878 0.9450605 0.95810425 0.9362646 1.1008948 0.9721063 0.9792954 1.0295978
0.952354 1.0396433 1.0865781 1.0079768 0.9758926 1.1330118 1.0168368 0.9931795
0.94195694 0.9832666 0.94420046 0.9243468 1.0190632 1.0132538 0.98697597 1.034514
0.95123273 1.0317209 0.9643047 0.93827045 0.9160637 0.9391238 0.90069187 0.9247088
1.0516691 0.95790225 0.9247406 1.086112 0.9732402 0.97610736 0.95009696 0.88742286
0.9966455 1.002377 0.96494645 0.96634966 0.8970726 1.0244288 0.9597609 0.9644163
0.9687587 1.0355285 0.9718381 0.95627296 0.9716136 0.95281905 0.94558984 1.0908512
0.88975567 0.9757621 1.0698142 1.0460099 1.0275112 0.901153 0.9633968 0.9008172
1.0654051 0.9768404 0.9901107 0.96444017 1.0940619 0.991932 0.98256445 0.94779736
1.0265355 1.0166653 0.9651654 1.0987182 0.93604875 0.932822 0.99849755 0.9796655
1.0099231 1.098626 0.9013729 0.96830684 1.0676919 0.96770877 0.9873743 1.0534443
0.8516529 0.99561864 1.0121998 0.93610114 0.96163225 0.9271997 0.92436737 0.9964584
0.97596145 0.9262382 0.9062689 0.93475085 0.9434013 1.03061 1.0028836 0.98535365
0.929871 0.9922044 0.9719798 0.99740034 0.93744695 1.0449659 1.0250888 0.91045284

bn3.bias f4 [120]
00000000: bf76 8ebe b702 69be 555f a6be 2ed6 89be
00000010: f0ff 7abe 1f0b b5be 8678 6cbe 78b0 38be
00000020: f5a0 20be 7c27 82be 9935 b5be ab2d 91be
00000030: 406f 66be a103 1bbe de1c 5abe d332 87be
00000040: efce 82be 5d1d 5bbe 8554 84be f1a1 afbe
00000050: bf55 1ebe a8e7 6abe e40f c1be 99a7 c2be
00000060: 649f 89be ac45 9bbe 16bc 47be 78e7 83be
00000070: 13d9 73be b61a a6be b96e b2be 3493 81be
00000080: 83ec 9dbe 2276 79be 0bcc 88be f7b9 d9be
00000090: 87bf 41be 68c9 d7be 3033 afbe 6235 aabe
000000a0: e903 ebbd 71bf 58be a151 51be 8966 1cbe
000000b0: da16 63be 20a1 7cbe 06de 8fbe 27a7 2cbe
000000c0: 7a4a 2dbe b3e3 9ebe c6e5 c1bd 795c 91be
000000d0: da0d 9ebe f39d 0cbe 898f 83be 79c9 6dbe
000000e0: 230b b7be 0a19 62be ef0b 72be 29b6 3cbe
000000f0: bdd4 82be 3432 82be a014 93be 4f02 cbbd
00000100: 5118 52be df58 0dbe 22bc cabe 716b 80be
00000110: 08b8 7cbe 3f95 40be f693 05be 98c3 92be
00000120: 1494 5fbe acf5 70be 3049 cbbe 03ae 4bbe
00000130: 8b6a 8abe c40b 95be 26c5 98be a2dc 67be
00000140: 4d2d 4cbe 8dcd 84be 5e40 33be 4ecc 4abe
00000150: 3359 51be 5c11 62be 29c9 3bbe 03e6 07be
00000160: a267 7fbe 889a 90be c035 b1be 0eb0 d0bd
00000170: 1877 83be 0e32 01be 42f4 29be 08ad a4be
00000180: 2f11 d1be 45db b0be ffed 07be 66d4 83be
00000190: 86ad 86be 3c49 aabe 5a05 78be f8f0 82be
000001a0: c460 cbbe 72b8 64be 25be dcbe 6425 42be
000001b0: c4db 99be 5e8c 64bd 8c71 a3be 1675 9fbe
000001c0: dda1 afbe 460f acbd 3b6c a5be 947f 17be
000001d0: f44c 8fbe f934 75be 2296 8fbe eecf 61be
-0.2782497 -0.22754942 -0.32494608 -0.2692122 -0.24511695 -0.35360047 -0.23092851 -0.18036067
-0.156864 -0.2542075 -0.35392454 -0.28355154 -0.22503376 -0.15138103 -0.21300074 -0.26405963
-0.25548503 -0.2139792 -0.25845733 -0.3430324 -0.15462397 -0.22939932 -0.37707436 -0.38018492
-0.26879418 -0.30326593 -0.19505343 -0.25762534 -0.23813276 -0.32442254 -0.348501 -0.2530762
-0.30844507 -0.2436147 -0.26718172 -0.42524692 -0.18920718 -0.42145848 -0.3421874 -0.33243853
-0.11475355 -0.21166779 -0.20441295 -0.15273489 -0.22176686 -0.2467084 -0.28099078 -0.16860639
-0.16922942 -0.31033096 -0.09467654 -0.28390864 -0.30869943 -0.13732128 -0.25695446 -0.23221387
-0.35750684 -0.22079864 -0.23637365 -0.18428864 -0.2555293 -0.25428927 -0.28726673 -0.0991255
-0.20517088 -0.13803433 -0.3959666 -0.2508197 -0.24679577 -0.18806933 -0.13044724 -0.2866485
-0.21833831 -0.23531216 -0.39704275 -0.19890599 -0.2703441 -0.2911054 -0.29837912 -0.22642758
-0.19939156 -0.25938073 -0.17505023 -0.19804499 -0.20444183 -0.22076935 -0.18338455 -0.13271336
-0.24941877 -0.28242898 -0.3461132 -0.1018983 -0.256768 -0.1261675 -0.16597083 -0.32163262
-0.40833423 -0.3454229 -0.13274382 -0.25747985 -0.26304263 -0.33258998 -0.24220791 -0.2557447
-0.39722264 -0.22335985 -0.4311382 -0.18959576 -0.3005048 -0.055797927 -0.31922567 -0.31144017
-0.3430318 -0.08401351 -0.32309136 -0.14794761 -0.27988398 -0.23945989 -0.2804423 -0.22051975

bn3.running_mean f4 [120]
00000000: d9cf f1be 4beb 9bbf b942 e0bf afb6 9c3e
00000010: 80a0 69bf a096 653f 67e3 1bbf f1c7 e4bf
00000020: a3c5 1f40 f084 923e 2955 dfbc 20c9 0d40
00000030: 0e29 e2be d912 c63f 21e9 0cc0 d3f7 f8be
00000040: 1373 8dbf dd64 f83d 0324 abbf 9b0b 5a3f
00000050: 41c6 3c3f 8bf1 0ac0 3edf 10bf 97f6 c3be
00000060: 334d 17c0 3daf efbe 3cba 223e 55aa e1bf
00000070: dd7f 173f 4831 6abf 42b6 4d40 b15b 6c3f
00000080: e767 363f 8f16 0540 d610 29bd ee49 8f3f
00000090: a68b 173e 4c45 efbf 0884 41c0 c29b fc3e
000000a0: d0f3 fabe 82cb 8e3f b5a8 13c0 4a99 4bbe
000000b0: e78a fd3f 2d13 0a3f 6e45 5cc0 b634 bbbe
000000c0: 842e a2bf fc9b ac3f 24fa 18c0 c507 cbbf
000000d0: 9b03 e83e 48c7 39c0 f8b8 dabf d1e0 db3f
000000e0: 520d 41be e12a bcbf 1d04 493f 36ac 46c0
000000f0: ba84 8a3e 5656 0abf b4d8 8fbf 0155 39c0
00000100: 2a72 babf d304 92bf d00d 223f 7e33 e6bf
00000110: 1b90 8fc0 93c4 0f3f f019 5f3f bba1 03c0
00000120: 6b5c d0bf 26f9 be3f c1b8 8b40 6fa1 4abf
00000130: be82 693a 9e86 f2bd f244 dcbf c864 203f
00000140: 93f0 dbbf d26a a7bf 36b3 c7bf 40f9 4dbe
00000150: a40b 74bf 500b febe 77aa 35c0 18a7 49c0
00000160: 5af8 4ac0 4b49 25be 13ee b2bf 78e6 3840
00000170: b9e5 98bd dd53 24bf 0046 a0bf a6a7 0dc0
00000180: be0f b33f 103f 40bf aee8 fbbd ae7c 61bf
00000190: 4e6a 0bbf 6076 33c0 a5b1 0ec0 7187 56bf
000001a0: 17c0 603f d3c3 1fc0 1f64 b5bf 366e e6be
000001b0: 075f c5be d55b f0bf 8500 173f f61e 9d3f
000001c0: 21b4 c4bf b137 973b 5861 3abe 9281 01c0
000001d0: 7e1a cd3c 2cda a6bf f26f b5bf a2be b5bf
-0.47228888 -1.2181181 -1.7520362 0.30608127 -0.9126053 0.8968296 -0.60893863 -1.7873517
2.4964378 0.28617048 -0.027262287 2.2154007 -0.44171947 1.5474502 -2.201729 -0.48626575
-1.1050743 0.12128613 -1.3370365 0.8517396 0.7374001 -2.1709926 -0.5659064 -0.3827407
-2.3640869 -0.46813384 0.15891355 -1.7630106 0.5917948 -0.9148145 3.2142491 0.9232741
0.7125229 2.0795019 -0.04127582 1.1194437 0.14799365 -1.8693023 -3.0236835 0.49337584
-0.4901414 1.1155856 -2.307172 -0.19882694 1.9808015 0.5393551 -3.4417377 -0.36563653
-1.2670445 1.3485103 -2.3902674 -1.5861746 0.4531525 -2.9027882 -1.7087698 1.7177984
-0.18852738 -1.4700586 0.785219 -3.104261 0.27054387 -0.5403799 -1.1238008 -2.8958132
-1.456609 -1.1407722 0.63302326 -1.7984464 -4.486341 0.56159323 0.8714895 -2.0567462
-1.6278204 1.4919784 4.366303 -0.7915258 0.0008907727 -0.118420824 -1.720854 0.6265378
-1.7182792 -1.3079474 -1.5601566 -0.20114613 -0.9533026 -0.49618006 -2.8385293 -3.1508236
-3.1714082 -0.1614124 -1.3978904 2.8890667 -0.07465691 -0.64190465 -1.2521362 -2.2133574
1.3989179 -0.75096226 -0.123002395 -0.8808087 -0.54459083 -2.8041 -2.2295926 -0.8380042
0.87793106 -2.4963272 -1.417118 -0.4500596 -0.38549063 -1.8778025 0.5898517 1.2275074
-1.5367471 0.004614793 -0.18201196 -2.0235333 0.025037047 -1.3035331 -1.4174788 -1.4198802

bn3.running_var f4 [120]
00000000: 0cf1 f93f cdcc db3f bea8 0f40 9f49 3940
00000010: e763 0b40 643f 2840 8ea2 1a40 8229 1440
00000020: afcf f93f 6012 2b40 3d5f 0e40 1b62 f43f
00000030: beda 5b40 7565 2a40 d33a 1540 e28e 0340
00000040: b76c e33f bd68 fe3f 005c 0840 fa77 1640
00000050: d074 2040 da1a 2640 7e92 2040 2fd4 f63f
00000060: 7eaa 5240 b620 5a40 3ef4 9140 b038 6e40
00000070: 8d08 f33f 487b 0240 7951 0240 7097 0440
00000080: 060a 0140 295b d93f 9dab 0740 a0ec 1540
00000090: e581 6940 47c4 3b40 0566 f43f 35ca 3640
000000a0: 44ff 8840 400b 2540 495c 0e40 5c01 5640
000000b0: 15e5 3640 e353 5940 73b1 3640 c60c 1240
000000c0: 57ee 0740 d48b db3f fa13 4440 0b3a 1240
000000d0: fc23 fd3f eed6 2b40 ef0b 5140 8074 3640
000000e0: 9ac4 0240 35c6 3c40 fbbc 1b40 2c03 0240
000000f0: 3575 5940 7d0a 0b40 28e3 0640 5d4b 2a40
00000100: 7cfb 0e40 87e1 4140 834b 0340 d9b7 2a40
00000110: 9128 3840 f904 0040 b1fc 3a40 d578 2740
00000120: b813 1240 33d7 0940 5325 5440 ff0e f63f
00000130: a99a 2640 fba2 2e40 a343 2340 d759 2d40
00000140: ffb6 2940 1fa6 0240 b105 3b40 d266 1740
00000150: 2139 1a40 b1a7 7840 3b5a 0e40 d5a3 5040
00000160: 77b6 1b40 da40 1940 c1ee f43f 633a 3f40
00000170: a211 f93f 7900 fb3f b3b9 5540 762e 0040
00000180: b7d8 2740 11ab d93f d2d1 2940 19a4 4140
00000190: 5354 c13f 081e 1840 4b15 f13f 0134 e53f
000001a0: 3089 e83f fc25 0540 b5e6 0540 ef1a ee3f
000001b0: 1748 2b40 c876 2440 e694 0740 0820 e43f
000001c0: 3752 0940 1b7d b540 2e05 0a40 b2be 3440
000001d0: a3d2 f93f ce28 0540 b75e 3740 4783 9840
1.9526687 1.7171875 2.2446742 2.8951185 2.1779726 2.628869 2.4161716 2.3150334
1.9516505 2.6729965 2.224563 1.909244 3.435226 2.6624424 2.3317153 2.0555959
1.7767552 1.9875714 2.1306152 2.3510728 2.5071297 2.595389 2.5089412 1.9283503
3.291656 3.4082465 4.5610647 3.72221 1.8986984 2.0387745 2.0362227 2.071743
2.0162368 1.6980945 2.1198494 2.3425674 3.6485531 2.9338548 1.9093634 2.8560917
4.2811604 2.5788116 2.2243826 3.343833 2.857732 3.395745 2.8545806 2.2820296
2.123922 1.7152047 3.0637193 2.2847927 1.9776607 2.6849933 3.2663534 2.8508606
2.0432496 2.9495976 2.4334095 2.0314436 3.3977787 2.1725152 2.1076145 2.6608498
2.2340994 3.02939 2.0514839 2.6674712 2.877476 2.0003035 2.921673 2.61675
2.2824535 2.1537597 3.314778 1.9223326 2.6031897 2.7286975 2.5510032 2.7086084
2.6517942 2.0413892 2.9222224 2.3656507 2.4097369 3.885235 2.2242572 3.2599995
2.4330118 2.3945832 1.9135362 2.9879386 1.9458506 1.9609519 3.3394592 2.0028358
2.6226022 1.700533 2.6534314 3.0256407 1.5103859 2.376833 1.8834623 1.7906495
1.8166866 2.0804434 2.0922062 1.860197 2.676275 2.5697498 2.118463 1.7822275
2.145643 5.6715217 2.1565661 2.824139 1.9517406 2.0806155 2.865156 4.766025

bn4.weight f4 [84]
00000000: 923b bf3f 7b55 fc3f d5ac f93f 7852 eb3f
00000010: c67a c93f 00db 0840 2372 cd3f c5b8 bb3f
00000020: 5c13 e43f 929d d73f 587c ba3f 78d6 c03f
00000030: 4106 e33f ceb3 db3f aa19 db3f 8c06 d93f
00000040: 056d cb3f 5de2 e53f 2365 cb3f 393c d03f
00000050: 25eb cc3f 9b5c b63f 496c c13f 9f6e e53f
00000060: cd22 0240 6e43 ca3f 3205 1640 2e47 d63f
00000070: 05d0 d83f d074 0040 8d7e db3f 520e ee3f
00000080: beb7 fd3f 9b27 e13f a5cd d93f ae22 0140
00000090: d7c6 ea3f d6d6 e73f d678 d83f 5083 bd3f
000000a0: 30ef de3f 1969 cf3f d624 e13f 0613 c63f
000000b0: 7399 db3f 36f2 0a40 b0fc 0c40 c419 0240
000000c0: 1e34 e23f db9d d63f 3451 e43f 545c 0540
000000d0: 5971 d53f d469 e13f f210 e93f fd0d ce3f
000000e0: d632 c33f 6807 ca3f 5141 f03f 9ba4 dd3f
000000f0: 2543 bd3f 6012 f73f fdb6 ec3f d98e cf3f
00000100: 6c47 d43f 053a d33f a38c c73f c12f db3f
00000110: a6d4 c43f 73ce 0340 00c0 c83f 0a55 f43f
00000120: 53df d63f ec8a d53f a05c d73f 4480 db3f
00000130: e2e4 0040 9b4c 0a40 2175 ed3f c15b 1f40
00000140: a363 ce3f 367f fe3f 9251 d33f 64b5 fb3f
1.4940054 1.9713587 1.9505869 1.8384542 1.5740592 2.1383667 1.6050457 1.4665762
1.7818408 1.6844962 1.4569197 1.5065451 1.7736284 1.7164247 1.7117207 1.6955123
1.5892645 1.7959706 1.589024 1.6268378 1.600926 1.4247011 1.5111171 1.7924384
2.033374 1.5801828 2.344067 1.6740472 1.6938483 2.0071297 1.7147995 1.859812
1.9821699 1.7590212 1.7015883 2.0177417 1.8341931 1.8112438 1.6911876 1.4805698
1.7416744 1.6203948 1.7589366 1.5474555 1.7156204 2.1710334 2.2029228 2.0328226
1.7672155 1.6766924 1.7837281 2.0837603 1.6675216 1.7610421 1.8208296 1.6098019
1.5249889 1.578351 1.8769933 1.7315859 1.4786116 1.9302483 1.8493344 1.6215469
1.6584296 1.6502081 1.5589794 1.7123948 1.5377395 2.0594757 1.5683594 1.9088452
1.6786903 1.668302 1.6825142 1.7148519 2.01397 2.1609256 1.855137 2.4899752
1.6124157 1.9882572 1.6509268 1.9664731

bn4.bias f4 [84]
00000000: c8bd 283e 7f0d af3e a332 a23e 75d0 6d3e
00000010: afae 323e e664 183e fd9c f63d ae54 243d
00000020: 874b 953e f0f3 4d3e 38c3 473e 5889 423e
00000030: d8ac 7e3e 38f6 463e 82ba 393e 5124 513e
00000040: aed1 133e df8d 663e 0bc0 3f3e 24d4 1c3e
00000050: d7db 7a3e c8ae 6e3e 4b25 1e3e d34b 8f3e
00000060: 567f 943e 43f2 103e 3bed bc3e 141b 203e
00000070: 664f 943e ba5c 973e f88a 373e 0fdd a53d
00000080: aac8 843e ce85 a33e 3e44 223e 30b6 ab3e
00000090: 5574 593e 3e53 bc3e bdd9 793e 6498 203e
000000a0: 8c9a 3c3e 3c88 683e 9a1d c53e 78ab 4c3e
000000b0: 4a11 343e c666 453e 319b ac3e 7b37 943e
000000c0: 6909 963e 95e0 673e b5d0 763e 59e1 c33e
000000d0: 6433 223e 4695 553e 008e e43d c093 433e
000000e0: 4751 6a3e 3185 8c3e 6998 223e 9d05 603e
000000f0: c546 473e 5ced 7d3e d5d3 c13e 330d 6a3d
00000100: 73d9 613e e95f ba3d d9e7 b33d 33e7 1f3e
00000110: ea52 0f3e de71 a53e 71d6 373e 3ec2 763e
00000120: ef1d c83d d2c8 283e 4a8c ab3e 7fc5 623e
00000130: 1a05 a73e 113b e83e 24e5 533e e006 f23e
00000140: 74db 1a3e f832 9a3e 899a c83e 1768 9e3e
0.16478646 0.34189984 0.31679258 0.23224051 0.17449449 0.1488224 0.12041662 0.04011982
0.29159185 0.20112586 0.19508064 0.18997705 0.24870622 0.19429862 0.18137553 0.2042401
0.14435455 0.22515057 0.18725602 0.153153 0.24497925 0.23308861 0.15443914 0.27987537
0.290034 0.14154916 0.36899742 0.1563533 0.28966826 0.29562932 0.17924106 0.08098804
0.25934345 0.31938022 0.15846345 0.33537436 0.21235783 0.3678226 0.24399467 0.15683132
0.1841833 0.2270822 0.38499147 0.19987285 0.1758472 0.19277486 0.33712152 0.28948578
0.29304054 0.22644265 0.24103053 0.38257864 0.15839916 0.20857725 0.11159897 0.19099331
0.22882567 0.27445367 0.15878452 0.21877141 0.1946059 0.24797577 0.37856928 0.057141494
0.22055607 0.09100325 0.08784456 0.15615539 0.13996473 0.32313436 0.17952897 0.24097535
0.097713344 0.16482857 0.3350547 0.22145651 0.3262108 0.45357564 0.20692879 0.4727087
0.15122777 0.3011701 0.391804 0.3093879

bn4.running_mean f4 [84]
00000000: 032c 8bbd 6809 39bf 80cc 0abf 27c6 ce3c
00000010: 6c4d 01bf 5b0a 5fbe 5e91 51bf ccb2 66be
00000020: 64cb e6be 28b7 c83d 1397 67be 8478 a5be
00000030: 1d0d 94bd 21b9 83bf 86bf bd3e 1c1e 1cbf
00000040: ca12 96bd 6ab4 51be 5643 a5be adc8 c7bd
00000050: 7180 bbbe 3f5e f23e 667e 99be 699f 16bf
00000060: 5b82 f63e b792 5fbf 8ec9 11bf f252 a03e
00000070: 91dd e0be c02b 9e3c 8f61 43bf 7665 573e
00000080: 3d63 663f 71d3 d2be abd5 1f3d 9d85 43bf
00000090: b725 fcbe 96ac 8dbf 6452 f9be 4262 4cbe
000000a0: 9179 2a3b 62e1 ebbe d234 d9be 5d35 fcbe
000000b0: 59df a73e e9f4 1b3f c2b6 553d b491 073c
000000c0: 61f2 60be 7b53 adbe f3c7 0abe ce05 91be
000000d0: 0852 4abf f0e6 41be ad1e bbbe 9fad 02bf
000000e0: 4369 41be 87bd 8ebe b617 a03e bd05 4ebe
000000f0: d02a 98be cdcd 96be 954a 07bf 5939 eebd
00000100: d2d6 8ebe 6f68 0ebf bc93 01be af4b 12bf
00000110: 1d5b f9bd c4aa c0be cadd a1be cbe6 50bf
00000120: 8a22 6a3d a3f7 01bf cb07 87be 4944 4cbf
00000130: 4661 d23e 0b24 063f de2f 973e 8dcd 913e
00000140: 307f a2be aee4 e0be f2f7 6c3e c54d 8b3d
-0.06795504 -0.7227998 -0.5421829 0.02524097 -0.5050876 -0.21781294 -0.8186244 -0.22529143
-0.4507705 0.09800559 -0.22616224 -0.3231851 -0.07229064 -1.0290872 0.37060183 -0.60983443
-0.073278025 -0.20478979 -0.32277936 -0.09755073 -0.3662143 0.4733753 -0.29979247 -0.5883699
0.48146328 -0.87333244 -0.56948173 0.31313282 -0.43919042 0.019307971 -0.7632074 0.21034798
0.89995176 -0.41176942 0.03902213 -0.7637575 -0.49247524 -1.1068294 -0.48695672 -0.19959357
0.00260124 -0.4607039 -0.4242311 -0.49259463 0.32787588 0.6092058 0.052176245 0.008274484
-0.2196746 -0.33852753 -0.13552837 -0.2832474 -0.7903142 -0.18935752 -0.3654684 -0.51046175
-0.1888781 -0.27878973 0.3126809 -0.20119376 -0.29720163 -0.2945389 -0.5284818 -0.11632032
-0.2789827 -0.55628103 -0.12654012 -0.57146734 -0.121755816 -0.37630284 -0.31614524 -0.8160216
0.057161845 -0.5076849 -0.26373133 -0.79791695 0.4108984 0.5239875 0.29528707 0.28477135
-0.3173766 -0.4392447 0.23141459 0.06801943

bn4.running_var f4 [84]
00000000: c1e3 c73e 18bc 673f 76b5 293f b708 6c3f
00000010: c519 043f 497f 893f 55f9 fe3e b125 ea3e
00000020: 8007 fa3e 332c 693f 1c35 0b3f 30b3 fb3e
00000030: 092c f83e 7184 d63e 3a6f 103f c115 283f
00000040: 86df 153f 96e4 253f c9a3 1d3f 79fe 383f
00000050: b6cb 0c3f 197a 2f3f 6bbb de3e b21c 213f
00000060: 3dc6 8b3f 86ba e53e 5929 963f 7cba 1b3f
00000070: 47db 353f eb56 a03f 9dc1 123f 0017 f33e
00000080: 7484 653f 82b7 403f 1b57 153f fe15 853f
00000090: bde3 223f a2af 5c3f 4e5f 313f 32a2 1b3f
000000a0: 3987 e63e 73cd 2d3f 7bb9 823f e91a 2f3f
000000b0: 646b 253f 7c88 863f b856 563f eeda 123f
000000c0: 99de 443f dd22 243f a459 363f 2cc4 8b3f
000000d0: 8ae5 083f 1e18 433f 82fb 233f e08d 003f
000000e0: 605a 323f 9f6b 273f 7cb4 0a3f f1fb 263f
000000f0: 3c56 263f 8256 0f3f 36bb 543f 9082 f23e
00000100: 03c2 323f 67f5 f13e 6de9 c13e e546 f93e
00000110: fa76 323f 9a55 813f 14fa 0d3f de44 4b3f
00000120: a728 943f 5d00 2a3f 9499 503f 4041 193f
00000130: 7899 ae3f 151d e03f eb3d 363f 4d6b d43f
00000140: e288 263f e398 753f 95e3 a13f f447 403f
0.3904095 0.90521383 0.6629251 0.922008 0.5160182 1.0741969 0.497996 0.4573188
0.48833847 0.9108307 0.54377913 0.49160147 0.48471096 0.4189792 0.5641972 0.65658194
0.58544195 0.6480192 0.6157804 0.72263294 0.5499834 0.6854568 0.43502364 0.6293441
1.0919873 0.4486887 1.1731368 0.6083143 0.71037716 1.2526525 0.5732668 0.47478485
0.8965523 0.7528001 0.5833604 1.0397336 0.6362875 0.86205494 0.6928605 0.60794365
0.45025042 0.67891616 1.0212854 0.68400437 0.6461699 1.0510402 0.8372607 0.5736531
0.7690216 0.641157 0.7123053 1.0919242 0.5347525 0.76208675 0.64055645 0.50216484
0.6966915 0.6539859 0.5418165 0.6522818 0.64975333 0.55991375 0.8309816 0.47365236
0.6982729 0.4725754 0.37873402 0.486869 0.69712794 1.0104249 0.55459714 0.7940196
1.1574906 0.66406804 0.8148434 0.5986519 1.3640585 1.7508875 0.7118823 1.6595246
0.65052617 0.9593641 1.2647578 0.7510979

fc1.weight f4 [120, 400]
00000000: fc3d a6bd 22af 6d3d 235a ac3d 5344 023e
00000010: f17b 3c3d 8447 793d 340c 3f3e c159 173e
00000020: d201 5a3e 60cd b8bd 19a5 e93d ab9b 0abc
00000030: 7df1 4a3e 5ddf a5be 3b78 a7bd 2e88 1bbe
00000040: 7a07 96bc e657 f3bd a723 89be 2fef a83d
00000050: 1637 b4bd e448 11be bb51 f5bd 2143 f3bd
00000060: d1de c1bd 245f 143d 51e3 013d daa6 9cbd
00000070: 5ed2 95bd 91de 2c3d 6754 2abe 240b 5a3e
00000080: b4e7 99bc 1291 50be 977a d23d 2f6e 03be
00000090: 8936 21bd 86b6 c7bd 5e7b 2b3d edd7 2fbe
000000a0: ebb6 123e 471c 0bbe ad9c 45be b69c 1e3e
000000b0: ea29 34be f272 1dbe 414b abbc e1c8 a13d
000000c0: 3bfa 06be c371 dabc 9505 2f3d 4035 babd
000000d0: 5fbc 0bbe 0c7f 8d3d d4bd df3d e241 0a3d
000000e0: 16f2 34bd 8a37 a3bd 9278 193c 0c38 8ebc
000000f0: c4f8 0a3e 6ccf 50bd 9421 9ebd 30ec dc3d
00000100: 1aa0 143e fe03 8c3e 0268 503e 2d95 82bd
00000110: df24 833e bec8 b83d f1d2 753e 0997 7d3d
00000120: 36cb 303d 09af c2bc 1448 9dbd d58f 083c
00000130: de5c a63d 2cf0 abbc 7b94 66be 0a56 143e
00000140: 807f 773e e1b2 b2bc 95b1 0e3e 604c b0bd
00000150: 4065 e33d 74da 01bd c241 1fbd 2160 b93d
00000160: ed76 98bd 05e9 be3d e0a8 613d 7940 54bd
00000170: 0646 72be 3aa8 43be b6fb 633d 215c 5e3d
00000180: 3999 8dbd 0fa5 51be 39b5 79bd 1259 473e
00000190: d5eb dabd 46a9 753e ec12 a13d 22ac 35be
000001a0: a97d eabd d88b 683d c147 53bd e774 bb3d
000001b0: 9584 82bd 8de5 793d 01c9 4c3d c7a7 1ebd
000001c0: a1b7 d43d 30ec 0fbe 5d08 8fbd 468b 32be
000001d0: 73f2 1ebe edf3 e23c f361 bcbd 5b24 81be
000001e0: 41fc d5bd 4147 cc3d 0774 fc3d c217 753e
000001f0: 0ec7 f7bc 3d7e 3d3e 07cc 85bd e6d0 0fbe
00000200: db2f c23c 5a45 fa3d f477 d83d 6587 583d
00000210: d44b 15bd 609b c73d 97e0 063e 6998 84bc
00000220: 406c c33d 912f e63c 3757 0dbe a018 e9bd
00000230: 4712 e8bd bd84 723c b153 ffbc eef1 7e3d
00000240: 503b c5bc 12b5 2abe 20b3 c1bd 5672 6e3d
00000250: e31e 313d 66cf cc3d fd28 17bd e73d ccbd
00000260: d3a9 e5bd db13 623d 1d8c 973e ed3c be3d
00000270: 42a1 bfbd 9ec8 9fbd 8a47 0dbd b6b9 e53c
00000280: 255f ce3d 6eab 1d3e 528d 153d bfd7 c2bd
00000290: 1031 473e 335d 7ebd b38d 20be 32ec 6d3b
000002a0: d87a 263d 3620 363d 531c 3bb9 1629 073e
000002b0: 6e0e c4bd cd06 ddbc 26b8 d03d ba0c bfbd
000002c0: 77b6 41be 34a7 2b3d 7a96 0d3e 3e71 babc
000002d0: f8e3 d2bd 50b0 b4bd b65e edbd bfb4 7b3d
000002e0: 1681 6cbd 6bcc fe3d 8cdb 5c3d cd77 00be
000002f0: ed2b 993e a107 063e 3557 053e b439 02bc
00000300: ed4d 043e 33f1 473e dad9 a7bd 7b64 953c
00000310: ccba d63c bff3 843e dafa 3bbd 9c4b 43be
00000320: 87e9 b83b e1c5 f23d 213b 60bd 48cb cd3c
00000330: 3999 2c3e 7fd9 da3c f0da 6cbe b8c6 ef3d
00000340: 478f 283e fad3 a7bd 2287 abbd b17e 25be
00000350: d4dd f2bb 5974 86bd 96bd 3dbe 917f 7a3d
00000360: 0de2 47be 2499 17be 7ed9 923d 73dd 69be
00000370: 9f93 98bd eacb 5cbd 4a41 ea3d 5c0d 2b3d
00000380: 0ae5 adbb c4ca 91bd fea9 23be def7 bb3d
00000390: 6b25 263d ecad aebc c0b9 213d 3426 143e
000003a0: a577 553e c73d c6bd aa8f 32bc c20a 1d3e
000003b0: a8c3 b43d 8218 bebd 1daf 68be b95c d9bd
000003c0: 2cb9 e93d 137c 2b3e 00ea 2abd 3cf8 be3c
000003d0: 100a 3a3e c89f 88bc 80a2 883d 3c38 73be
000003e0: 50b1 5d3c 00a5 f03d 27e6 17be dc83 81bd
000003f0: 85fd 323d f761 873d 1f38 673e c4be 84bb
-0.08117291 0.058028348 0.0841563 0.12721376 0.046016637 0.06085922 0.18656999 0.14780332
0.21289757 -0.09023547 0.11408443 -0.008459966 0.19818683 -0.32396975 -0.08177229 -0.15188667
-0.018314112 -0.11882 -0.26785013 0.08248746 -0.08799569 -0.14187962 -0.119784795 -0.11878038
-0.09466327 0.036223546 0.031710926 -0.07649012 -0.07315515 0.042204443 -0.1663376 0.21293312
-0.018787242 -0.2036784 0.102772884 -0.12835 -0.03935865 -0.097516105 0.0418657 -0.17172213
0.1432759 -0.13585006 -0.19298048 0.15489468 -0.17594114 -0.1537588 -0.020909907 0.07899643
-0.13181393 -0.026665574 0.042729933 -0.09092188 -0.13646077 0.06908998 0.10924879 0.033754237
-0.044176184 -0.079695776 0.009367125 -0.01736071 0.13571459 -0.050979063 -0.07721248 0.10787237
0.14514199 0.27346796 0.20352176 -0.06376109 0.25614068 0.090226635 0.24006249 0.061911616
0.043162547 -0.023765104 -0.076797634 0.0083350735 0.08123182 -0.020988546 -0.22517578 0.14485946
0.24169731 -0.021813812 0.1393493 -0.086083174 0.11103296 -0.031702474 -0.03888107 0.09051538
-0.07444558 0.09321789 0.055092692 -0.0518193 -0.23659524 -0.19107142 0.055659972 0.05428708
-0.069139905 -0.20473121 -0.060963843 0.19467571 -0.10689513 0.23990354 0.07864937 -0.17741445
-0.11449749 0.05677399 -0.0515821 0.09153157 -0.06372944 0.061009932 0.04999638 -0.038734224
0.10386587 -0.14054942 -0.06984017 -0.17435941 -0.15522175 0.027704204 -0.0919837 -0.2522305
-0.10448504 0.09974528 0.12326818 0.23934844 -0.030246284 0.18505187 -0.06533056 -0.14044532
0.02370446 0.12220259 0.10569754 0.052863497 -0.03644927 0.09746432 0.13171612 -0.016185956
0.095421314 0.028098853 -0.13802801 -0.1138165 -0.11331611 0.014802155 -0.031167837 0.06224244
-0.024076134 -0.16670635 -0.094579935 0.058214508 0.043242346 0.100004956 -0.036904324 -0.099727444
-0.11214032 0.055194717 0.29599085 0.092889644 -0.09356929 -0.078019366 -0.034492053 0.028042655
0.10076741 0.15397426 0.036511727 -0.095138066 0.1945231 -0.0621006 -0.15679054 0.0036304113
0.040644497 0.044464312 -0.00017844261 0.13199267 -0.09573065 -0.026980782 0.101913735 -0.09328599
-0.18917261 0.041907504 0.13826934 -0.022759076 -0.10297388 -0.088226914 -0.1159033 0.06145167
-0.057740293 0.124413334 0.053920314 -0.125457 0.29916325 0.13088848 0.13021548 -0.007948328
0.12920351 0.19525604 -0.08195849 0.01823639 0.026212119 0.25967214 -0.045893528 -0.19071811
0.005643073 0.11854149 -0.05474389 0.025121346 0.16855325 0.026715038 -0.23130393 0.117078245
0.16460906 -0.08194728 -0.08375384 -0.1616161 -0.007411698 -0.0656516 -0.18529353 0.061156813
-0.19519825 -0.14804512 0.071703896 -0.22838382 -0.074500315 -0.053905405 0.11438234 0.041760787
-0.0053068446 -0.071187526 -0.15982816 0.09178136 0.04056303 -0.021323167 0.039483786 0.14467698
0.20846422 -0.09679752 -0.01089851 0.15336135 0.08826381 -0.09282018 -0.2272305 -0.106133886
0.11412272 0.1674655 -0.041727066 0.023311727 0.18167901 -0.016677752 0.066716194 -0.2375192
0.013531044 0.11750221 -0.1483389 -0.06323978 0.043698806 0.06610482 0.22580002 -0.0040510613

fc1.bias f4 [120]
00000000: 6025 f0bc e330 b83c f043 e63c 9698 eabb
00000010: b3c6 263c ac3d e5bc 7cb7 cebc f07f 053c
00000020: a166 dabc 4494 d53c 94c6 96bc 8d22 863b
00000030: ee7e d23b bc64 4ebd 7ecc 2bbd e22b aabc
00000040: 2436 0c3c 5746 cd3c d569 c43a 891d c2bb
00000050: 4246 1abd c7ca 1bbd bb28 333d c7c1 1e3d
00000060: 5816 42bc 11cb d13b 29e3 063d f5cf 783c
00000070: d78f a3bc e6d1 fd3c 10ce 00bd be0e 2b3d
00000080: 28d2 c13c 3a05 0dbd df12 073d 5e99 6f3d
00000090: 8abf fb3b 089d d13c 4368 2e3d e262 15bd
000000a0: 9373 c7bc 3778 b7bc afb7 46bc f8ad 54bc
000000b0: 9887 4fbd 2a06 973c 853b 8fbc fbac 02bc
000000c0: c33e 843c d2d3 113c e6e5 423d e3f0 ae3c
000000d0: 0869 903c e45e 063d 1102 083d ed63 393a
000000e0: 7d59 6e3a 3ce4 103b 67b6 bd3c 3226 183c
000000f0: 8dff bebc 2a8d 3e3d 972d 1cbd abb6 f93c
00000100: 723b 24bc d3f4 9dbc 8701 bb3c d0c1 6d3c
00000110: 8421 8a3d 1ecc 2bbc 6322 e3bc 444e c93c
00000120: bf06 66bd ede4 b13c 64d2 393d fcc8 1bbc
00000130: 8b24 3c3d ebc7 2abc 2a31 163d 2f73 b93b
00000140: 67f1 51bd 714e 30bd b4df cebc e050 5e3c
00000150: 9266 4c3d b53d 1b3c 13e8 2ebb 9721 a7bc
00000160: 05ae 50bc 7231 02bd 9189 0d3d d210 54bc
00000170: 723e 233d 142b 5cbb efb1 e7bc d975 14bd
00000180: 9efd 43bd 37b6 3a3d 2450 313d a41e 793c
00000190: a0b3 a5bc 9414 1e3d 5104 2dbd 59e2 163d
000001a0: 057f 123d 853a fb39 c3e7 043d b018 bcbc
000001b0: b14e c63a 3d87 013d bebb 39bc b9ca 99ba
000001c0: f214 f3bc 7d2a a2bc 435e 283d 335f 01bd
000001d0: f720 86bb a1bc bb3c 17cd d139 1718 46bd
-0.029314697 0.022484249 0.028108567 -0.007159303 0.0101792095 -0.027983509 -0.025233977 0.008148178
-0.026660265 0.026071675 -0.018405236 0.0040934742 0.0064238226 -0.050389037 -0.041943066 -0.020772878
0.00855783 0.025057955 0.0014985154 -0.005923931 -0.03766466 -0.03803518 0.043740015 0.03875902
-0.0118461475 0.006402381 0.03293148 0.0151863 -0.01996605 0.030983876 -0.031446517 0.041762106
0.02365978 -0.034428813 0.03297698 0.05849587 0.0076827453 0.025587574 0.0425799 -0.036471255
-0.024347102 -0.02239619 -0.0121287545 -0.0129809305 -0.05066642 0.018435556 -0.017484436 -0.007975812
0.016143208 0.0089006 0.04758253 0.021355098 0.017628208 0.03280534 0.033205096 0.000707208
0.0009092314 0.0022108695 0.023158265 0.00928645 -0.023315215 0.046521343 -0.038129415 0.03048261
-0.0100239385 -0.01928178 0.022827877 0.0145115405 0.06744674 -0.010485677 -0.027726358 0.024573453
-0.056158777 0.021715606 0.04536666 -0.009508368 0.045933288 -0.010423641 0.03666798 0.005659483
-0.05125561 -0.043043558 -0.025253154 0.013569087 0.049902506 0.009475161 -0.002668862 -0.02040176
-0.012736802 -0.031785436 0.03455502 -0.012943463 0.039854474 -0.0033595013 -0.028283088 -0.0362452
-0.04784929 0.04558393 0.04328932 0.015205059 -0.020227253 0.038593844 -0.042240445 0.036836956
0.035765667 0.0004791805 0.032447588 -0.02296099 0.0015129653 0.031623114 -0.011336265 -0.001173339
-0.029673073 -0.01979565 0.04110552 -0.03158493 -0.004093285 0.022917094 0.0004001639 -0.048362818

fc2.weight f4 [84, 120]
00000000: 499f 34be 7e6b 2fbe 39bf 423e cc73 a8bc
00000010: 7b9d aa3c 1af4 a93c 997c 9f3c a965 4b3d
00000020: b72d 043e 86ae b6bd 99c2 23be b44c 6d3d
00000030: 062a 75bd 2823 963d 2f7b fabd 5a71 11bd
00000040: 2711 8b3d 0950 60bd bc19 48bd 09c6 b43d
00000050: 6598 c9bd fd4a 8ebd 441c 0ebe 5bec 58be
00000060: e414 62be 6709 5ebd 2a9a 65bb 436e 593d
00000070: c76c 6abe 1ca9 e53c f3ed 293e daf0 8c3d
00000080: 45c2 a23d 08ef 313e ebfc 17be 17be 30bd
00000090: 888f 33bd 153c 8a3d 806d 203e 3f15 963a
000000a0: 1bbc eebd 4936 9dbd 6cab 453d 073e 143e
000000b0: eca6 ab3d 291f 293d f654 06bc 2114 713c
000000c0: 86f2 9b3d 921a 3bbd 1b44 6d3c 72c8 643e
000000d0: bbb4 2d3e f660 14bd aa89 35be 9de0 2e3e
000000e0: fe8a 1fbe 065d 5c3e c6d9 983d 5934 c738
000000f0: 0277 06be 391b 3c3d 8109 473e 92bd 59bd
00000100: e5ed 8c3d 2816 31bd 295d 213e e30d 76bc
00000110: 97ce cabb 9e2a f33c af8b be3c 02b4 8abc
00000120: d819 913e 589a 7dbd 2378 8f3e f6b6 bc3c
00000130: e873 aebc 34f5 a6ba 0a98 49be 9ea4 dfbb
00000140: 948e b8bd c1dd 4dbe 7814 0bbe a747 0e3d
00000150: 98d8 56be c8c3 26be b824 1f3e 246d ddbd
00000160: affd 58bc 72d9 633c b117 04bc 8a9c 723e
00000170: 9dee 51be fbb0 e83d 20ac 1dbd 4c6c d93d
00000180: 2fcf b43c 9857 d1bc 55e9 0bbe 2595 aabd
00000190: 537a 8fbd c38f 113e 2a23 80be f3c0 b63d
000001a0: f3db 3b3e 56b4 65be 55be ea3d 54a2 633e
000001b0: e468 2dbe a379 923d d4f9 d4bd d628 1dbe
000001c0: 52f9 363c a578 f9bd 5743 6fbe bff4 d53d
000001d0: c924 593e 831e 8d3e a54d edbd 3ba2 003b
000001e0: 9816 dabd 402e 4bbd bc9f ca3c bbeb ef3d
000001f0: 6cdd edbd 488b 58bd 1d04 bdbd cc91 8bbc
00000200: c388 943e c316 a9be a356 cd3c eb0d 7c3b
00000210: 4197 5b3d 9014 57bb b829 213d ac11 acbd
00000220: 48a5 51be 5a42 6c3e 8d9f 7ebb a734 b7bd
00000230: b5e8 53be b67b 59be 8166 183d 619a bd3d
00000240: 7ae9 bc3d 962e b3be a23b 2dbe e45f 3ebd
00000250: 35fb 8bbd 0282 40be fdf0 91bc 3fae 18be
00000260: f7e6 81be 4056 c43c 2cb7 28be 58ef 823e
00000270: 16f2 24be 2e14 243e 1a78 6bbd a6e2 1abd
00000280: ad26 a9be 6f54 083d 84d3 093e 7db4 90bd
00000290: 618e 813e 0c55 7c3c 258a 503d e68e bb3d
000002a0: 6615 313d e34e 633e 00ce 5e3c 3856 92be
000002b0: 670a 9dbd e733 a2bd e0e4 b5bc c02e 1e3b
000002c0: 88b9 943d 64f3 85bd bbda 0bbc 2dcf 2fbe
000002d0: a9de 7fbd b25d dc3d f02e 4fbe 6e8a 333e
000002e0: 63ce 2c3c 6d2f 14be 6605 b63b d7a5 873d
000002f0: a292 b93b 60a4 9bbe 6c5e 59bb f17a 4b3d
00000300: 5418 0dbe 8ca4 703d 81c4 69bd e1cd 46bd
00000310: 9129 1f3d 5217 603e dfac 53be 8b3e c0bc
00000320: d799 c3bc 4f55 eebc 394c fabc de32 493d
00000330: 960a 12bd a237 2e3e 3d1e 1f3e 0f21 243d
00000340: 0ebf 31bd 2dec 3c3e bfdf aebc ccd2 6bbe
00000350: 314b 453d c1ec bb3d ac55 b53d 4fb3 bb3d
00000360: 1fbb 003e af78 26be 7809 3fbe e1d6 ab3d
00000370: a94b 283d e657 833d 45b5 bb3d b988 6ebd
00000380: 1c27 48bd a9a4 b13d f36d 923c 06c5 67be
00000390: 6baa babd 6af9 933c bd96 64bd 185a a53d
000003a0: 57fd a7bd fe6e 973d acf3 0ebe 624f 38be
000003b0: 6cbe fb3d 61f9 233c 4cd9 16be a465 0abe
000003c0: 70f2 0f3e 14c4 99bd 72c9 cabd 0100 b63d
000003d0: 005a 21be d413 7a3d f7c9 493d 770a 00bc
000003e0: 8016 643d 410e 013e 7589 03be b9a4 fc3c
000003f0: 7857 f93c 3479 4f3d c443 33be 6326 e13d
-0.17638887 -0.17130849 0.19018258 -0.020563029 0.020827046 0.02074628 0.019468592 0.049657498
0.12908064 -0.089200065 -0.15992202 0.057934478 -0.05985453 0.07330924 -0.12230527 -0.03550849
0.06790381 -0.054763827 -0.048852667 0.08826835 -0.0984352 -0.06947897 -0.1387797 -0.21183912
-0.22078282 -0.054208186 -0.0035034516 0.05308367 -0.22893058 0.02803474 0.16594677 0.06881876
0.0794721 0.1737634 -0.14842574 -0.043150034 -0.043838054 0.06749741 0.15666771 0.0011450424
-0.11656972 -0.0767637 0.048259184 0.14476787 0.08381447 0.041289482 -0.008198967 0.014714272
0.07614617 -0.045679636 0.01448157 0.22342089 0.16963474 -0.03622528 -0.17728296 0.1707787
-0.15580365 0.2151986 0.07463412 9.49881e-05 -0.13131335 0.0459244 0.19437219 -0.053159304
0.06881312 -0.04323402 0.15758194 -0.015017959 -0.006189178 0.029683407 0.023259966 -0.016931538
0.2834003 -0.06191477 0.28021345 0.023036461 -0.021295503 -0.0012737871 -0.19686905 -0.006825044
-0.090115696 -0.20104124 -0.13582027 0.0347363 -0.20981061 -0.16285622 0.15541351 -0.108118325
-0.013244077 0.0139068235 -0.008062289 0.23692527 -0.2050118 0.11361881 -0.03849423 0.10616359
0.02207145 -0.025554463 -0.13663228 -0.08329228 -0.07005753 0.14214997 -0.25026828 0.08923521
0.18345623 -0.22432074 0.11462084 0.22229892 -0.16934544 0.071521066 -0.103992134 -0.15347609
0.011167841 -0.12181214 -0.23365532 0.10447072 0.21205439 0.2756234 -0.11587075 0.0019627947
-0.10648841 -0.049604654 0.02473437 0.11714884 -0.116144985 -0.052867204 -0.092293 -0.017037295
0.2901059 -0.33025178 0.025065726 0.0038460444 0.053611044 -0.0032818653 0.039346427 -0.08401808
-0.20473206 0.23072186 -0.0038852424 -0.089455895 -0.2069424 -0.21238598 0.03720713 0.09257961
0.092242196 -0.3499648 -0.1691728 -0.046478167 -0.06835023 -0.18799594 -0.017815107 -0.1491022
-0.25371525 0.023966908 -0.16476125 0.2557323 -0.16107973 0.16023323 -0.057487585 -0.037813805
-0.3303732 0.033283647 0.13459593 -0.070656754 0.2530394 0.015401136 0.050912995 0.09158115
0.043233298 0.22198062 0.013598919 -0.28581405 -0.07668 -0.07920056 -0.022203863 0.0024136752
0.0726195 -0.06540564 -0.008536036 -0.17168875 -0.062468205 0.107600585 -0.20232749 0.17533275
0.010547253 -0.14471216 0.0055548428 0.06623428 0.005663232 -0.30398846 -0.0033167852 0.049677793
-0.13778812 0.058750674 -0.057072166 -0.048536185 0.038858 0.21883896 -0.20671414 -0.023467323
-0.023877067 -0.029093413 -0.030553924 0.049120776 -0.035654627 0.1701341 0.15538879 0.04007059
-0.043395095 0.18449469 -0.021346925 -0.23029631 0.04816741 0.091760166 0.08854231 0.0916506
0.12571381 -0.16256975 -0.18655956 0.08390594 0.04108778 0.0641325 0.09165434 -0.058235858
-0.048865423 0.086739846 0.017874693 -0.22633752 -0.09114536 0.018063266 -0.055807818 0.08073825
-0.082026176 0.07394217 -0.13960141 -0.17999032 0.122921795 0.010008187 -0.1473133 -0.13515335
0.14057326 -0.07508102 -0.09901704 0.088867195 -0.15756989 0.061054066 0.049264874 -0.007814995
0.05568552 0.12603094 -0.12845404 0.030840265 0.030437216 0.050652698 -0.1750632 0.1099365

fc2.bias f4 [84]
00000000: bc59 57b9 a823 a23d c07f 223d 806c 983d
00000010: f400 8dbd 8be9 47bc 4281 67bc 8156 31bd
00000020: 30e7 9fbd f187 1c3d 00dc 453d e97e 56bd
00000030: 10f1 20bd ca29 d53c f4d9 a33d f677 0b3d
00000040: 5c74 97bc dce6 3ebc 2ba8 50bd 0204 3abd
00000050: 2ead 81bd ac4c cb3d 3421 4a3d 9de3 553d
00000060: 8fb7 0ebc af73 c23c 2061 87bd f319 c2bd
00000070: da70 84bd 97b2 51bd 6140 c23a c67e 3e3d
00000080: 8d93 e1ba 2126 f5bc 7af0 2cbd d9d8 b8bd
00000090: a3f7 77bd 0089 90bd 6da0 5dbd 36bd 383d
000000a0: c334 6bbb 54c4 22bb 0187 993d 7435 38bd
000000b0: cb2a ba3d b5f6 b53d bc99 883c 091e a23d
000000c0: 5dbf 153c 14c9 9b3d b89b f83c 3f24 e73c
000000d0: 82c3 2c3d c684 9dbd 07e6 953d dafc 6e3d
000000e0: 7436 1b3d d346 2a3c 4475 a93d ae3b afbd
000000f0: e1ab b63d 9668 903d d127 f43c 958b 003d
00000100: 148f a4bc 389d 9cbd 5bcb 433d 7eb1 80bc
00000110: 5fce 6d3d eb11 55bc 5423 50bd 488e c5bd
00000120: 1729 9c3d 81e0 a63b 657f c0bb 2024 7cbd
00000130: b6a0 063d 40aa 2a3d b825 1dbb 0b63 9e3c
00000140: fd1b 7a3c 75cf c43c bd82 e1bc 1ef8 a83d
-0.00020537426 0.07916957 0.039672613 0.0744257 -0.068849474 -0.012201677 -0.014129939 -0.043295387
-0.078077674 0.03821558 0.04830551 -0.052367125 -0.039292395 0.026020903 0.08000556 0.03404995
-0.018488102 -0.011651721 -0.050941627 -0.04541398 -0.063318595 0.099267334 0.04934807 0.052219022
-0.008710756 0.023736803 -0.06610322 -0.09477606 -0.06466837 -0.051195707 0.0014820212 0.04650762
-0.0017210111 -0.029925408 -0.042221524 -0.090257354 -0.0605389 -0.07057381 -0.054108072 0.04510232
-0.0035889603 -0.002483626 0.07496453 -0.044972852 0.09090193 0.08884946 0.016674869 0.07915885
0.009139863 0.07606712 0.03034769 0.028215526 0.04217864 -0.0769134 0.07319265 0.058346607
0.037893727 0.010392862 0.0827432 -0.08556305 0.08919502 0.07051198 0.029804142 0.031383116
-0.020087756 -0.076471746 0.047801357 -0.015709635 0.05805814 -0.01300476 -0.05081494 -0.096462786
0.07625025 0.005092681 -0.0058745616 -0.06155789 0.03286811 0.04166627 -0.002397878 0.019334337
0.015265462 0.024024704 -0.027528161 0.082504496
