hw1/models/Batch_Normalization_best.pth (torch, 260030 bytes, 26 tensors)

conv1.weight f4 [6, 1, 5, 5]
-0.17805493 -0.06571904 -0.069426976 -0.105443895 0.13478203 -0.028972251 -0.1575086 0.13267568
0.021145083 0.2578306 -0.21043767 -0.052605957 -0.20916632 -0.084325686 0.17079882 -0.011155831
-0.032991733 -0.018501757 0.22602159 0.05447029 0.13507737 0.09611223 0.074813664 0.0032375292
-0.018451093 0.0046961075 -0.02287274 -0.12971157 0.15191716 0.07642363 0.047855023 0.109434456
-0.06419706 0.21160936 -0.08953026 -0.08127569 0.0016370178 -0.110251315 0.19801222 -0.1817763
0.16596128 -0.049102325 -0.12137998 0.166834 -0.17041337 -0.11989915 0.11323294 0.22056602
0.100935295 -0.3022329 -0.11356252 -0.29515678 -0.26106915 0.088955864 -0.013199198 0.17807062
-0.26127723 0.0015798894 -0.15740222 -0.13935483 -0.074929886 -0.069935314 0.19619106 0.05163877
-0.13414353 -0.12330958 -0.03457569 0.14166021 0.12335745 0.007446291 -0.054071233 0.011472088
-0.12375194 0.11950763 0.02480045 -0.112454176 -0.032479618 0.05633894 -0.08402141 0.167338
-0.16755658 -0.07404151 0.16346082 0.2095556 -0.20706567 0.11759383 -0.08722313 0.14467843
0.16668095 -0.20333092 -0.042317223 -0.20936252 0.13577951 0.1195532 0.029002836 0.00073499006
-0.1366418 -0.09604041 -0.091357306 0.24321477 -0.0613823 -0.064763 -0.06686228 -0.25427926
0.13072217 -0.11430997 -0.15995862 0.25437042 -0.17946275 -0.024768528 0.20115007 0.07589993
0.016356327 0.19411872 -0.15256107 0.030966416 0.2164725 -0.21705069 0.122658394 0.1446262
0.00050579594 -0.18693839 0.060416766 0.119314745 -0.10704025 0.016677443 0.05861325 -0.054316856
-0.011236197 0.032285053 0.119216904 0.14445446 -0.20787628 -0.23099667 -0.18224359 0.14658885
-0.025989968 0.15781288 -0.23650624 -0.010367023 -0.1903383 -0.14295308 -0.12513542 -0.14929612
-0.16259435 -0.017149845 -0.096089505 0.13481565 0.1588066 0.10591907
00000000: 0854 36be b497 86bd bb2f 8ebd f8f2 d7bd
00000010: 4d04 0a3e 3757 edbc ef49 21be 22dc 073e
00000020: 7438 ad3c 5f02 843e f97c 57be 5879 57bd
00000030: b22f 56be f2b2 acbd e3e5 2e3e f2c6 36bc
00000040: 5722 07bd ff90 97bc 3472 673e 3d1c 5f3d
00000050: b951 0a3e 7dd6 c43d e837 993d ba2c 543b
00000060: bf26 97bc cee1 993b 9d5f bbbc 1cd3 04be
00000070: 2c90 1b3e fe83 9c3d a103 443d 2c1f e03d
00000080: c079 83bd 20b0 583e a45b b7bd de73 a6bd
00000090: 3491 d63a 71cb e1bd b7c3 4a3e 9123 3abe
000000a0: c1f1 293e 851f 49bd 1196 f8bd 88d6 2a3e
000000b0: d880 2ebe b08d f5bd ace6 e73d 0fdc 613e
000000c0: 2ab7 ce3d 45be 9abe 7793 e8bd ca1e 97be
000000d0: dbaa 85be 7e2e b63d 7341 58bc 2558 363e
000000e0: 21c6 85be 4b14 cf3a 0c2e 21be 08b3 0ebe
000000f0: d774 99bd 3f3a 8fbd 4fe6 483e 2d83 533d
00000100: ec5c 09be bc89 fcbd 3d9f 0dbd 600f 113e
00000110: d5a2 fc3d 0400 f43b cc79 5dbd 6df5 3b3c
00000120: a871 fdbd 6bc0 f43d 502a cb3c 604e e6bd
00000130: 5909 05bd a9c3 663d 6b13 acbd a75a 2b3e
00000140: f493 2bbe 13a3 97bd 4662 273e be95 563e
00000150: 0609 54be 09d5 f03d 0aa2 b2bd 9526 143e
00000160: 69ae 2a3e fb35 50be d354 2dbd 2163 56be
00000170: c909 0b3e 4fd8 f43d 5b97 ed3c 59ac 403a
00000180: d4eb 0bbe d6b0 c4bd 8a19 bbbd 4b0d 793e
00000190: 026c 7bbd 77a2 84bd 17ef 88bd e430 82be
000001a0: 08dc 053e 581b eabd 31cc 23be d73c 823e
000001b0: 15c5 37be 5ee7 cabc 49fa 4d3e 6c71 9b3d
000001c0: b4fd 853c 0fc7 463e f838 1cbe 48ad fd3c
000001d0: f8aa 5d3e 8942 5ebe 5334 fb3d e418 143e
000001e0: 6497 043a c76c 3fbe 9277 773d 4a5b f43d
000001f0: eb37 dbbd 229f 883c 7214 703d 5a7b 5ebd
00000200: 0718 38bc 553d 043d fe27 f43d dfeb 133e
00000210: 85dd 54be 648a 6cbe 109e 3abe 631b 163e
00000220: eae8 d4bc b399 213e b12e 72be 72da 29bc
00000230: 0be8 42be 4b62 12be 8023 00be 15e1 18be
00000240: 227f 26be d57d 8cbc 93ca c4bd 1d0d 0a3e
00000250: 339e 223e 19ec d83d

conv1.bias f4 [6]
0.16690312 -0.1285942 0.21161985 -0.028736535 -0.07733525 0.0064410097
00000000: a7e8 2a3e 33ae 03be e0b2 583e e268 ebbc
00000010: f261 9ebd 1b0f d33b

conv2.weight f4 [16, 6, 5, 5]
-0.050609417 0.11854123 -0.041262604 -0.062734455 -0.032154992 0.06508128 0.09625251 -0.03471327
-0.08560144 -0.024437103 -0.0320974 0.037935823 0.01966301 -0.0043401294 0.09681232 -0.15655653
-0.0128656505 0.011185754 -0.06843938 0.07527053 -0.034024123 -0.0448439 0.035309486 0.09435788
0.01889395 -0.20883118 -0.017349262 -0.096674696 0.0037765978 0.051440973 -0.1803908 -0.028699892
0.029368296 0.08607583 -0.07961169 -0.23993155 0.03504426 -0.044455994 -0.008079173 -0.059991468
-0.2288315 0.0362241 -0.072410285 -0.082539536 0.015548261 -0.032446835 -0.034138218 -0.0496747
0.0032792115 -0.040145013 0.036555596 -0.0618479 0.00825082 0.08605087 -0.01130891 0.036685444
-0.08382472 -0.024443977 -0.019795623 -0.08643049 -0.080415346 0.03415976 0.025380434 -0.03198525
0.06710757 -0.08748072 -0.08679009 -0.08192466 -0.038744934 0.08006409 0.09872286 0.023408921
-0.06390526 0.03918978 -0.010173232 0.0618522 -0.052334417 0.11533423 -0.044819664 -0.068109244
-0.12880594 -0.2524167 0.010832417 0.031522967 0.033668604 -0.19377506 -0.08966195 0.041888345
0.026738795 0.09466267 0.072893634 -0.015069489 -0.00038870572 0.02377409 0.0054438873 0.044253904
-0.15835324 0.020420998 -0.03461055 0.0063254065 0.13559167 0.104997 -0.06507832 -0.027730096
-0.07775244 -0.12333211 -0.16489302 -0.049154032 -0.04184177 0.11972263 -0.08215229 -0.038929097
0.05275338 0.04585983 -0.040033195 0.03481256 -0.14870985 0.021353517 -0.08625369 0.014537208
-0.04388446 -0.027377633 -0.061317973 -0.11932269 -0.021691956 0.06544538 -0.087890774 0.01635799
0.023788039 -0.075574234 -0.08731498 -0.041229893 0.040943705 -0.10547903 -0.13074453 -0.058486894
-0.03346055 0.044810113 -0.03337299 -0.024689566 0.039600965 0.09878733 0.09590795 0.04350558
-0.077520356 0.18021598 0.082593866 0.023011936 -0.059510406 -0.08250045 -0.0387492 -0.084848955
-0.017477125 -0.22717509 -0.040433023 0.0076878034 0.035878576 0.12795024 -0.08692254 0.0037192735
0.11723753 0.09329665 -0.018412627 -0.032733113 -0.007466508 -0.048323248 0.069775805 0.008776469
0.014011298 -0.07660852 0.031257693 0.026418883 0.060617667 0.013201383 -0.047853902 0.10185409
0.064529315 0.08969387 -0.026099667 0.001738744 0.008449547 -0.029971642 0.019345064 -0.089195825
0.012584549 -0.05684501 -0.026210248 -0.021775814 0.06747651 -0.0040520965 0.08384646 -0.14138082
0.036397256 0.053530287 0.037756816 -0.002915182 -0.09217053 0.0151380105 -0.010747759 -0.09581546
-0.15281631 -0.12907906 -0.043041777 -0.10416675 0.081843965 -0.07898891 -0.039080683 -0.006895641
-0.08292703 0.04478358 -0.025341086 0.06609032 0.08649202 -0.1011235 -0.013357501 -0.029804558
0.055344675 0.0017312664 -0.06510883 0.10381623 0.115739375 0.14578685 0.07860222 -0.04140062
0.01879183 -0.0053746896 -0.12669416 -0.03796601 0.034887806 0.09314178 0.09526093 -0.009807241
-0.061327104 -0.07066242 -0.0076785735 0.02141641 0.08627555 0.0017599675 -0.06169852 -0.11171789
0.015325493 -0.048376232 0.069785796 0.016838903 0.0428038 -0.030892175 -0.10517267 0.050198514
0.0880681 0.04180274 -0.042697776 -0.12716253 -0.14675653 0.014148194 -0.048282202 -0.02047578
00000000: d24b 4fbd bfc5 f23d fa02 29bd ec7a 80bd
00000010: f4b4 03bd 5649 853d 0920 c53d 802f 0ebd
00000020: cf4f afbd 5230 c8bc 9078 03bd 9862 1b3d
00000030: 5214 a13c a537 8ebb 8a45 c63d 5b50 20be
00000040: 73ca 52bc 7444 373c f229 8cbd 7027 9a3d
00000050: e15c 0bbd 3dae 37bd aea0 103d b43e c13d
00000060: 7cc7 9a3c d7d7 55be 0a20 8ebc 62fd c5bd
00000070: cc80 773b c5b3 523d 5eb8 38be 091c ebbc
00000080: c895 f03c 8648 b03d 740b a3bd 9eb0 75be
00000090: 928a 0f3d 7d17 36bd 825e 04bc 9db9 75bd
000000a0: ce52 6abe b95f 143d d84b 94bd 7d0a a9bd
000000b0: 22be 7e3c f9e6 04bd 84d4 0bbd b377 4bbd
000000c0: 0ae8 563b 196f 24bd 52bb 153d 3954 7dbd
000000d0: 732e 073c 703b b03d 0249 39bc 7a43 163d
000000e0: 4bac abbd bc3e c8bc 6e2a a2bc 7802 b1bd
000000f0: cdb0 a4bd 1beb 0b3d a1ea cf3c f702 03bd
00000100: b26f 893d 1729 b3bd 01bf b1bd 1ec8 a7bd
00000110: 02b3 1ebd a4f8 a33d 362f ca3d 11c4 bf3c
00000120: c3e0 82bd 7685 203d a1ad 26bc bc58 7d3d
00000130: 9d5c 56bd 5a34 ec3d d394 37bd dc7c 8bbd
00000140: b4e5 03be c33c 81be 737a 313c 3a1e 013d
00000150: 17e8 093d f86c 46be afa0 b7bd 1d93 2b3d
00000160: 510b db3c 80de c13d 4249 953d 05e6 76bc
00000170: 33cb cbb9 e1c1 c23c a362 b23b 9543 353d
00000180: 5a27 22be f049 a73c cbc3 0dbd 5b45 cf3b
00000190: 8bd8 0a3e ab08 d73d c847 85bd 3a2a e3bc
000001a0: ac3c 9fbd 8c95 fcbd b7d9 28be bd55 49bd
000001b0: 4762 2bbd 2331 f53d 763f a8bd 1e74 1fbd
000001c0: ee13 583d 84d7 3b3d d9f9 23bd 9d97 0e3d
000001d0: 6547 18be 92ed ae3c c6a5 b0bd 782d 6e3c
000001e0: 31c0 33bd 0f47 e0bc 8e28 7bbd 745f f4bd
000001f0: 54b3 b1bc 3a08 863d 1400 b4bd 3101 863c
00000200: 22df c23c aac6 9abd 32d2 b2bd ade0 28bd
00000210: 96b4 273d 6405 d8bd e5e1 05be f48f 6fbd
00000220: ee0d 09bd cf8a 373d 1eb2 08bd c641 cabc
00000230: 9f34 223d 0351 ca3d 636b c43d e832 323d
00000240: fec2 9ebd 8a8a 383e f926 a93d 8783 bc3c
00000250: 2fc1 73bd fff5 a8bd 7bb7 1ebd 4ac5 adbd
00000260: 302c 8fbc 96a0 68be 199d 25bd f8e9 fb3b
00000270: 6af5 123d 6305 033e 7204 b2bd 0ebf 733b
00000280: 3b1a f03d 5012 bf3d 14d6 96bc 2813 06bd
00000290: 9ca9 f4bb 99ee 45bd 9ee6 8e3d 2ecb 0f3c
000002a0: a58f 653c ede4 9cbd 1108 003d 6a6c d83c
000002b0: 3b4a 783d 9d4a 583c 7402 44bd e198 d03d
000002c0: f227 843d 6bb1 b73d f8ce d5bc 91e6 e33a
000002d0: f86f 0a3c 1787 f5bc 8a79 9e3c 4dac b6bd
000002e0: 6d2f 4e3c 50d6 68bd e0b6 d6bc 3163 b2bc
000002f0: 2031 8a3d 73c7 84bb b1b7 ab3d 22c6 10be
00000300: 4a15 153d 9342 5b3d e4a6 1a3d a30c 3fbb
00000310: e7c3 bcbd 6b05 783c 5e17 30bc e53a c4bd
00000320: e17b 1cbe 4d2d 04be 934c 30bd 6155 d5bd
00000330: cf9d a73d f0c4 a1bd 1113 20bd d4f4 e1bb
00000340: a6d5 a9bd fd6e 373d 1c98 cfbc 5d5a 873d
00000350: ba22 b13d d619 cfbd 6bd9 5abc b028 f4bc
00000360: 19b1 623d a9eb e23a c757 85bd 9b9d d43d
00000370: c408 ed3d 2649 153e 33fa a03d b293 29bd
00000380: 53f1 993c 2a1e b0bb 1dbc 01be 3f82 1bbd
00000390: 84e6 0e3d 1ec1 be3d 2a18 c33d 8dae 20bc
000003a0: 2132 7bbd 75b7 90bd 8b9c fbbb 7871 af3c
000003b0: 3cb1 b03d b6ae e63a 96b7 7cbd 59cc e4bd
000003c0: c717 7b3c 2826 46bd dbeb 8e3d bdf1 893c
000003d0: 0a53 2f3d 9611 fdbc c564 d7bd f59c 4d3d
000003e0: 0c5d b43d 5a39 2b3d dde3 2ebd e536 02be
000003f0: 5847 16be d4cd 673c 8fc3 45bd d3bc a7bc

conv2.bias f4 [16]
-0.06605109 -0.053185225 0.05414155 -0.049501922 0.03878684 -0.037581995 -0.077572174 -0.04261809
-0.09581281 -0.045671057 0.06341581 0.05649603 -0.0066583315 0.0034129776 -0.063891046 -0.08409984
00000000: cb45 87bd c0d8 59bd 88c3 5d3d 87c2 4abd
00000010: f3de 1e3d 94ef 19bd 29de 9ebd 4e90 2ebd
00000020: 8239 c4bd 9311 3bbd 26e0 813d 6268 673d
00000030: 222e dabb 43ac 5f3b 4fd9 82bd 893c acbd

bn1.weight f4 [6]
0.9582838 0.850188 1.0851057 1.076215 0.8669525 1.1815965
00000000: 1652 753f eca5 593f bee4 8a3f 6ac1 893f
00000010: 99f0 5d3f 8e3e 973f

bn1.bias f4 [6]
0.25758347 0.019924974 -0.17100488 0.03352114 0.061054137 -0.2964004
00000000: fbe1 833e b339 a33c e71b 2fbe 774d 093d
00000010: e713 7a3d cbc1 97be

bn1.running_mean f4 [6]
0.18738715 -0.1772775 0.5144916 -0.053553317 -0.08346726 0.29092172
00000000: 6be2 3f3e 3c88 35be b9b5 033f b95a 5bbd
00000010: e2f0 aabd b1f3 943e

bn1.running_var f4 [6]
0.18893515 0.0918925 0.33529115 0.110794984 0.048748724 0.29385582
00000000: 3778 413e 2332 bc3d 48ab ab3e 7be8 e23d
00000010: beac 473d 4574 963e

bn2.weight f4 [16]
1.0853362 0.97333056 0.9709818 0.90952003 1.0159287 0.9822732 1.028602 1.1314591
0.98540545 1.0073694 1.0378093 1.0026686 0.9024303 1.0025162 1.0488238 0.87890995
00000000: 4cec 8a3f 312c 793f 4392 783f 4ed6 683f
00000010: f409 823f 4276 7b3f 3ba9 833f a7d3 903f
00000020: 8843 7c3f 7bf1 803f efd6 843f 7257 803f
00000030: ac05 673f 7352 803f dc3f 863f 3e00 613f

bn2.bias f4 [16]
-0.21093403 -0.15584709 -0.12791538 0.04422256 0.018283334 -0.22464459 -0.13358401 -0.20461416
-0.021200454 -0.1312543 -0.045646288 -0.10983669 -0.15199137 0.01953018 -0.081892945 -0.17183352
00000000: 17ff 57be 6196 1fbe 40fc 02be b722 353d
00000010: eec6 953c 3b09 66be 3fca 08be 6086 51be
00000020: 93ac adbc 8767 06be 9af7 3abd 0ff2 e0bd
00000030: a0a3 1bbe c2fd 9f3c 7db7 a7bd 20f5 2fbe

bn2.running_mean f4 [16]
-1.8010104 -0.4141662 -0.8096491 -0.2986134 -0.29259697 -0.17998049 -1.6846919 -0.60383326
-0.33491346 -1.2169386 -0.3631653 -0.47833136 -0.3298551 -0.37036595 -0.93974626 -0.0045049055
00000000: 8287 e6bf 980d d4be 2a45 4fbf dbe3 98be
00000010: 45cf 95be ce4c 38be fca3 d7bf d194 1abf
00000020: c779 abbe a5c4 9bbf cdf0 b9be d9e7 f4be
00000030: c5e2 a8be 9ba0 bdbe 3693 70bf e39d 93bb

bn2.running_var f4 [16]
1.0598665 0.65426534 0.6586502 0.24696818 0.47778082 0.6386218 0.7150448 0.9558354
0.39152238 0.7770476 0.7904317 0.570566 0.61818796 0.61063856 0.6434016 0.5043636
00000000: b5a9 873f ef7d 273f 4d9d 283f 3ae5 7c3e
00000010: b09f f43e b87c 233f 2d0d 373f a1b1 743f
00000020: 9f75 c83e 97ec 463f bb59 4a3f 9d10 123f
00000030: 9141 1e3f cf52 1c3f f8b5 243f f91d 013f

bn3.weight f4 [120]
1.0431564 1.0073757 0.9777979 1.02303 0.9625591 0.9580737 0.98237264 1.0323387
1.0196611 0.9984957 0.9612691 1.0019681 1.1182704 0.95489305 1.0209155 1.0451864
0.9929829 1.0160608 0.9854848 0.985552 1.026409 1.0580118 1.0410501 0.9961005
0.98819625 0.9400195 0.91752756 0.94048905 0.9976447 0.9947238 1.0387381 1.0130161
1.0263408 0.94774115 0.9653115 1.0010065 0.9740529 0.9691856 0.93155277 0.9569481
1.0344914 0.9971334 0.9541848 0.9992357 0.9912738 0.9187968 1.0049716 0.9839058
0.9958604 0.99705327 0.9670219 0.96192664 0.9116874 1.0159023 0.979659 1.0025092
0.95194346 0.9968578 1.0199683 1.0004387 0.9516244 1.0038633 0.95175517 1.0184633
0.9655423 0.9789128 1.0670455 1.0676595 1.0744609 0.8923507 1.0120765 0.92519194
1.0680563 0.9874384 1.0401586 0.92829996 1.0016171 1.0046022 0.91290706 0.9828376
1.039099 1.0383618 0.99190986 1.1319296 1.0014354 0.9405019 1.048996 1.0235406
0.982516 1.0408522 0.9692602 1.0055854 1.0095592 1.0072336 1.0525717 1.0146528
0.908944 1.0432562 1.0637282 0.9642885 0.9866572 0.93339324 0.95974475 0.99152803
0.94741935 0.94904786 0.95628405 0.97763044 0.9519891 1.0663761 1.0291148 1.0199891
0.90939844 1.0145661 0.96852154 1.0347129 0.9174067 1.0077792 1.0083519 0.88020146
00000000: 2686 853f b0f1 803f f750 7a3f a6f2 823f
00000010: 466a 763f 5144 753f c67c 7b3f ad23 843f
00000020: 4184 823f 6a9d 7f3f bb15 763f 7e40 803f
00000030: 7c23 8f3f df73 743f 5cad 823f abc8 853f
00000040: 2134 7e3f 480e 823f bb48 7c3f 234d 7c3f
00000050: 5f61 833f ee6c 873f 2141 853f 7100 7f3f
00000060: 6efa 7c3f 1ea5 703f 16e3 6a3f e4c3 703f
00000070: a565 7f3f 38a6 7e3f 5ff5 843f 83aa 813f
00000080: 235f 833f 2a9f 723f a81e 773f fb20 803f
00000090: 885b 793f 8c1c 783f 3e7a 6e3f 8dfa 743f
000000a0: 376a 843f 2244 7f3f 7445 743f e9cd 7f3f
000000b0: 1fc4 7d3f 4436 6b3f e9a2 803f 40e1 7b3f
000000c0: b5f0 7e3f e23e 7f3f bf8e 773f d340 763f
000000d0: 5864 693f 1609 823f efca 7a3f 3952 803f
000000e0: 91b2 733f 1332 7f3f 528e 823f 600e 803f
000000f0: a89d 733f 987e 803f 3aa6 733f 015d 823f
00000100: c82d 773f 079a 7a3f f294 883f 11a9 883f
00000110: ef87 893f 1871 643f b98b 813f 61d9 6c3f
00000120: 12b6 883f c3c8 7c3f eb23 853f 11a5 6d3f
00000130: fd34 803f ce96 803f 47b4 693f 3f9b 7b3f
00000140: 3201 853f 0ae9 843f ceed 7d3f 12e3 903f
00000150: 092f 803f bcc4 703f 8045 863f 6103 833f
00000160: 2b86 7b3f a53a 853f 7021 783f 06b7 803f
00000170: 3c39 813f 08ed 803f abba 863f 25e0 813f
00000180: 8eb0 683f 6b89 853f 3f28 883f 9cdb 763f
00000190: 9195 7c3f dcf2 6e3f d5b1 753f c8d4 7d3f
000001a0: 138a 723f cdf4 723f 08cf 743f fd45 7a3f
000001b0: 8fb5 733f 037f 883f 09ba 833f 018f 823f
000001c0: 56ce 683f 4ddd 813f 07f1 773f 7971 843f
000001d0: 2adb 6a3f e9fe 803f ad11 813f e254 613f

bn3.bias f4 [120]
-0.15039764 -0.10267964 -0.09356524 -0.1000268 -0.095294565 -0.18676952 -0.05229516 -0.10778999
-0.049532894 -0.12308887 -0.18354598 -0.09683292 -0.046304476 -0.06451659 -0.071415 -0.1369956
-0.10090051 -0.06884911 -0.15869622 -0.16049203 -0.0342432 -0.09112529 -0.180788 -0.18190376
-0.09155402 -0.18603073 -0.13051039 -0.12834643 -0.07702427 -0.116677046 -0.15071198 -0.07596967
-0.10757282 -0.11890368 -0.09076075 -0.18054108 -0.06578823 -0.2159976 -0.16222747 -0.1136732
-0.053781576 -0.09524316 -0.12340844 -0.04048504 -0.09219051 -0.12303067 -0.035035063 -0.044325616
-0.046720996 -0.123419285 -0.042440336 -0.08305424 -0.15866506 -0.090751536 -0.11475832 -0.08698661
-0.17841028 -0.07479729 -0.0606317 -0.101192944 -0.109603465 -0.09137008 -0.0863123 -0.021073012
-0.09794915 -0.05172385 -0.17175137 -0.0325214 -0.052238688 -0.087303996 -0.08262902 -0.12425215
-0.056899577 -0.09364235 -0.18494959 -0.052320823 -0.12726149 -0.12556696 -0.11226458 -0.1277668
-0.027081205 -0.2068193 -0.025013268 -0.03684207 -0.0914529 -0.09928159 -0.06595727 -0.028774835
-0.08710525 -0.10579864 -0.1955678 -0.085516624 -0.16136461 -0.05506821 -0.033034395 -0.12966344
-0.21203692 -0.17947976 -0.02655693 -0.08788553 -0.09311832 -0.15333816 -0.118057966 -0.037808686
-0.12498183 -0.03510037 -0.23646125 -0.0814758 -0.112705186 -0.017416598 -0.12859869 -0.08165262
-0.18843672 -0.021949613 -0.16918454 -0.031718656 -0.1594991 -0.09447596 -0.13463348 -0.13382338
00000000: d701 1abe b449 d2bd 229f bfbd dada ccbd
00000010: cc29 c3bd 8240 3fbe 7333 56bd 00c1 dcbd
00000020: 01e3 4abd 0416 fcbd 7af3 3bbe 5750 c6bd
00000030: c3a9 3dbd 4621 84bd 0742 92bd 9348 0cbe
00000040: eda4 cebd c300 8dbd 4381 22be 0658 24be
00000050: 9942 0cbd e59f babd 7d20 39be fb44 3abe
00000060: ad80 bbbd d77e 3ebe 84a4 05be 3f6d 03be
00000070: e7be 9dbd 60f4 eebd 3e54 1abe fd95 9bbd
00000080: 234f dcbd c683 f3bd c6e0 b9bd c3df 38be
00000090: fbbb 86bd 7a2e 5dbe f51e 26be 7fcd e8bd
000000a0: 124a 5cbd d90e c3bd 90bd fcbd a4d3 25bd
000000b0: 61ce bcbd 81f7 fbbd ed80 0fbd c78e 35bd
000000c0: 845e 3fbd 40c3 fcbd ebd5 2dbd 5718 aabd
000000d0: 1879 22be f1db b9bd 6906 ebbd 0926 b2bd
000000e0: 2fb1 36be 522f 99bd f258 78bd 3f3e cfbd
000000f0: c877 e0bd 3d20 bbbd 81c4 b0bd 4fa1 acbc
00000100: 9099 c8bd 63dc 53bd 97df 2fbe 2935 05bd
00000110: 3cf8 55bd 70cc b2bd 6739 a9bd e977 febd
00000120: 880f 69bd 8fc7 bfbd 6d63 3dbe 5c4e 56bd
00000130: d650 02be a094 00be f9ea e5bd 4dd5 02be
00000140: 67d9 ddbc 70c8 53be a0e8 ccbc b6e7 16bd
00000150: a84b bbbd 2554 cbbd 9b14 87bd 34b9 ebbc
00000160: 3d64 b2bd f5ac d8bd ed42 48be 5723 afbd
00000170: c43c 25be 348f 61bd 134f 07bd 7ec6 04be
00000180: 3520 59be 8bc9 37be eb8d d9bc 54fd b3bd
00000190: d1b4 bebd ae04 1dbe 60c8 f1bd 48dd 1abd
000001a0: 79f6 ffbd 68c5 0fbd e622 72be c9dc a6bd
000001b0: fad1 e6bd 41ad 8ebc 60af 03be 7d39 a7bd
000001c0: 8ef5 40be adcf b3bc b63e 2dbe 6ceb 01bd
000001d0: bb53 23be 9d7c c1bd 5cdd 09be ff08 09be

bn3.running_mean f4 [120]
-0.29749605 -2.2351754 -1.4731907 0.33577502 -0.80026424 1.7929003 0.0449264 -2.1431038
1.4204421 0.43251225 0.088085756 2.0166855 0.012152964 1.1771926 -1.1426172 -0.6341908
-1.1480104 1.1101604 -0.18868509 0.6989066 -0.9080274 -1.9441675 -0.016526965 -0.23663637
-2.0510492 0.34650603 0.68041515 -0.6801261 -1.05355 -1.326287 1.7384762 1.1953534
0.9352755 1.245253 -0.25565007 -0.45042643 1.0468324 0.44818115 -2.309472 0.32305202
-1.366911 0.4614457 -1.8586205 -0.05233915 0.28827533 0.40214327 -2.108354 0.461162
-0.9531484 1.0047802 -2.1460261 -0.35786968 1.3612505 -2.3202648 -1.3058237 0.6851363
-0.577282 -1.651793 0.39521244 -2.199559 0.49018055 -0.94653326 -0.016619012 -1.9847364
-1.8944398 -0.53583246 -0.70495874 -0.5023334 -2.6234677 1.060144 1.7283704 -1.4281098
-1.1149788 1.4391509 3.6129367 -1.1229861 -0.42115295 -0.35323557 -0.45638096 0.115116686
-1.8418515 -0.6324608 -0.41285083 -0.7333666 -0.33418727 -1.5392886 -2.599283 -0.79275197
-1.6394823 -0.80522114 -0.44987962 1.4259825 -0.2637059 -0.707779 -2.5608685 -0.57022184
0.9458287 -1.1552656 1.0203934 -0.4265246 0.38619876 -3.2452884 -1.1261203 0.010865593
1.6754677 -2.1035476 -1.33467 0.20332171 0.20473774 -1.5186194 0.35039946 1.5605111
-0.08482562 -0.3577559 0.9799163 -1.4644607 0.49113068 -1.4300843 -2.1802225 -1.2977672
00000000: 6751 98be 1d0d 0fc0 8391 bcbf b4ea ab3e
00000010: 1ede 4cbf c27d e53f bf04 383d 9d28 09c0
00000020: 0cd1 b53f 3f72 dd3e 4e66 b43d 6011 0140
00000030: 3a1d 473c 3fae 963f 4841 92bf 545a 22bf
00000040: 01f2 92bf bc19 8e3f aa36 41be 8beb 323f
00000050: 7c74 68bf 7bda f8bf 8f63 87bc ce50 72be
00000060: 6444 03c0 3d69 b13e b02f 2e3f be1c 2ebf
00000070: bada 86bf c6c3 a9bf 6386 de3f 5701 993f
00000080: 376e 6f3f 7364 9f3f 91e4 82be 4b9e e6be
00000090: 9bfe 853f 0078 e53e 64ce 13c0 1367 a53e
000000a0: f1f6 aebf 9c42 ec3e 47e7 edbf 9461 56bd
000000b0: d398 933e b9e5 cd3e 46ef 06c0 6d1d ec3e
000000c0: 8901 74bf a39c 803f 7e58 09c0 b23a b7be
000000d0: 753d ae3f 387f 14c0 3b25 a7bf 1865 2f3f
000000e0: c1c8 13bf f46d d3bf 4959 ca3e 93c5 0cc0
000000f0: f2f8 fa3e 0150 72bf 9824 88bc d80b febf
00000100: 017d f2bf 512c 09bf 2d78 34bf ec98 00bf
00000110: e5e6 27c0 ccb2 873f 3e3b dd3f 4dcc b6bf
00000120: a0b7 8ebf 1936 b83f 5b3a 6740 02be 8fbf
00000130: 5ca1 d7be 4bdb b4be c4aa e9be 4cc2 eb3d
00000140: cac1 ebbf f3e8 21bf 2f61 d3be eabd 3bbf
00000150: 981a abbe 6907 c5bf a75a 26c0 cbf1 4abf
00000160: 8eda d1bf f922 4ebf 9f56 e6be 9886 b63f
00000170: 7604 87be 0131 35bf 45e5 23c0 0ffa 11bf
00000180: d421 723f bedf 93bf 409c 823f 6f61 dabe
00000190: d8bb c53e ceb2 4fc0 b624 90bf 9a05 323c
000001a0: ba75 d63f 86a0 06c0 77d6 aabf 9133 503e
000001b0: c5a6 513e 1f62 c2bf 8f67 b33e d4be c73f
000001c0: 0eb9 adbd c82b b7be cbdb 7a3f 7373 bbbf
000001d0: 7b75 fb3e 010d b7bf c488 0bc0 3c1d a6bf

bn3.running_var f4 [120]
0.92365956 0.79432786 1.028296 1.1372572 0.9698546 1.4674668 1.5061144 0.9992238
0.9738039 1.2206405 1.432323 0.76948464 1.4994665 1.5361007 1.3000151 0.9627526
0.8788307 1.0156456 1.1301986 0.95715356 1.2994987 1.2574421 1.148521 1.3356221
1.4083126 2.3067136 2.1800578 2.0903103 0.9856817 1.0516284 0.81853926 1.2259847
1.0774018 0.78767335 1.4869647 1.0727329 2.3733337 1.7567445 0.98036474 1.2189212
1.5718068 1.5552576 1.3169597 1.8751996 1.2481843 2.048132 1.3001459 1.0528971
1.2229607 0.98053473 1.1776193 1.6439148 1.3041216 1.1196169 1.1575602 0.96797657
0.9102755 1.1086955 1.5216254 1.2653757 2.8989053 1.1326389 1.6059926 1.4031656
1.2749625 1.5705516 1.0140139 1.1464471 1.2051576 1.8198767 1.8331797 1.7949824
1.1012254 1.107501 1.482179 1.060396 1.2365247 1.080199 1.3660754 1.3582417
1.1590952 0.78440654 1.5776887 1.3019979 1.1178049 1.7630479 0.9436012 1.1999438
1.47114 1.3804363 0.9591077 1.6102188 0.9671205 1.0679113 1.95947 0.80395216
1.6020336 0.69975364 1.1095645 1.6897076 0.90521145 1.1202675 1.1882836 0.81014633
0.89282256 1.5063275 0.90180916 1.3027312 0.68919766 1.3824489 0.8339239 0.83829147
1.1020652 2.1063766 0.75872374 1.4487473 0.9958737 0.7955798 1.1782709 2.5611572
00000000: f474 6c3f 1259 4b3f 349f 833f a591 913f
00000010: 6448 783f f4d5 bb3f 5bc8 c03f 22cd 7f3f
00000020: 364b 793f f33d 9c3f 5c56 b73f f2fc 443f
00000030: 85ee bf3f f39e c43f e566 a63f f476 763f
00000040: 0cfb 603f ad00 823f 59aa 903f 0408 753f
00000050: f955 a63f ddf3 a03f bc02 933f aaf5 aa3f
00000060: 9643 b43f 32a1 1340 1186 0b40 a5c7 0540
00000070: a355 7c3f c29b 863f ca8b 513f 11ed 9c3f
00000080: 4de8 893f f6a4 493f dc54 be3f 504f 893f
00000090: b3e4 1740 01dd e03f 2ff9 7a3f 9c05 9c3f
000000a0: f730 c93f ae12 c73f 2392 a83f 8a06 f03f
000000b0: 81c4 9f3f 9814 0340 2e6b a63f 55c5 863f
000000c0: fa89 9c3f 5304 7b3f 3bbc 963f cd6b d23f
000000d0: 75ed a63f 9b4f 8f3f ef2a 943f 50cd 773f
000000e0: d107 693f bce9 8d3f 9fc4 c23f d5f7 a13f
000000f0: aa87 3940 50fa 903f 2a91 cd3f ee9a b33f
00000100: f931 a33f d607 c93f 35cb 813f c7be 923f
00000110: 9b42 9a3f b8f1 e83f a2a5 ea3f fcc1 e53f
00000120: f4f4 8c3f 98c2 8d3f 0bb8 bd3f 0ebb 873f
00000130: 7146 9e3f f643 8a3f 8fdb ae3f ddda ad3f
00000140: 3b5d 943f dece 483f b4f1 c93f dea7 a63f
00000150: 3b14 8f3f 8eab e13f d98f 713f c297 993f
00000160: 514e bc3f 23b2 b03f 1588 753f a61b ce3f
00000170: 3695 773f 51b1 883f eacf fa3f cfcf 4d3f
00000180: 700f cd3f 0e23 333f 3606 8e3f 5748 d83f
00000190: f0bb 673f ed64 8f3f ad19 983f c065 4f3f
000001a0: 0590 643f 57cf c03f f7dc 663f e5bf a63f
000001b0: 426f 303f 16f4 b03f 097c 553f 459a 563f
000001c0: 7910 8d3f e0ce 0640 b83b 423f 8d70 b93f
000001d0: 94f1 7e3f 1eab 4b3f 95d1 963f 00ea 2340

bn4.weight f4 [84]
1.2405039 1.3856114 1.3514724 1.3917615 1.2452251 1.4361066 1.2547377 1.2130132
1.3366971 1.2717285 1.233659 1.1897348 1.289935 1.292056 1.3361437 1.3059353
1.2384796 1.3668627 1.2393205 1.2737353 1.2766811 1.2196143 1.213175 1.3206193
1.3702463 1.2081288 1.4773334 1.2629372 1.2954212 1.3782088 1.3164966 1.3929714
1.3982034 1.3145226 1.2891409 1.3918675 1.3607119 1.2917308 1.2762158 1.1851853
1.3410228 1.2554352 1.3206263 1.2357242 1.3091238 1.43248 1.495747 1.3997431
1.3162432 1.2793564 1.2895046 1.4118685 1.308344 1.3719472 1.3053472 1.2816522
1.2309511 1.2927744 1.332216 1.2937824 1.2155149 1.3877462 1.3715222 1.2896976
1.3149914 1.3404969 1.2524503 1.2860161 1.2302607 1.3881572 1.2620178 1.3755817
1.3041891 1.3569204 1.3194668 1.2700472 1.3841524 1.3896726 1.3125403 1.4715384
1.2507776 1.4181484 1.2862169 1.36939
00000000: d5c8 9e3f b75b b13f 0cfd ac3f 3e25 b23f
00000010: 8963 9f3f 57d2 b73f 3f9b a03f 0444 9b3f
00000020: e418 ab3f 00c8 a23f 8ae8 9d3f 3b49 983f
00000030: 971c a53f 1762 a53f c206 ab3f e328 a73f
00000040: 8086 9e3f 5bf5 ae3f 0ea2 9e3f c209 a33f
00000050: 496a a33f 521c 9c3f 5249 9b3f 0e0a a93f
00000060: 3b64 af3f f7a3 9a3f 4319 bd3f eda7 a13f
00000070: 5dd0 a53f 2569 b03f f682 a83f e34c b23f
00000080: 54f8 b23f 4742 a83f 9202 a53f b728 b23f
00000090: cf2b ae3f 6f57 a53f 0a5b a33f 27b4 973f
000000a0: a3a6 ab3f 1ab2 a03f 480a a93f 362c 9e3f
000000b0: 5e91 a73f 815b b73f a374 bf3f c82a b33f
000000c0: a87a a83f f3c1 a33f 7d0e a53f 1bb8 b43f
000000d0: d177 a73f f79b af3f 9e15 a73f 2e0d a43f
000000e0: ce8f 9d3f a279 a53f 0e86 aa3f a99a a53f
000000f0: fe95 9b3f aba1 b13f 0a8e af3f d014 a53f
00000100: a351 a83f 6795 ab3f 4b50 a03f 2d9c a43f
00000110: 2f79 9d3f 23af b13f cd89 a13f 1013 b03f
00000120: abef a63f 91af ad3f 4ae4 a83f e890 a23f
00000130: e82b b13f cbe0 b13f 5201 a83f 5f5b bc3f
00000140: 7b19 a03f e385 b53f c1a2 a43f 2c48 af3f

bn4.bias f4 [84]
0.1295313 0.27347046 0.20772558 0.2067853 0.13157277 0.1661454 0.11822707 0.08792413
0.20022997 0.14801337 0.17756455 0.14094193 0.20861317 0.18293177 0.16058452 0.16623291
0.164243 0.1552364 0.19908515 0.12054608 0.16957787 0.17025791 0.15905541 0.20171884
0.24728604 0.10891336 0.26644665 0.11092879 0.16894664 0.17916754 0.15544973 0.13537157
0.18293926 0.19026631 0.12921923 0.21606326 0.17268816 0.20216535 0.19614203 0.098662615
0.19130524 0.18199061 0.20322037 0.16220775 0.15829319 0.17957409 0.19824038 0.2230851
0.20747957 0.18725868 0.21008585 0.26224828 0.161199 0.14998034 0.16410375 0.1997956
0.15330218 0.19681701 0.19606484 0.121329084 0.14649498 0.19002277 0.21037968 0.12043765
0.19224311 0.14247274 0.11567304 0.13750014 0.09651043 0.22404261 0.15831093 0.1752079
0.13702692 0.16967195 0.2355331 0.14635827 0.20504293 0.2572527 0.18207875 0.29606414
0.14756997 0.20211056 0.1960846 0.18354408
00000000: daa3 043e 5204 8c3e 04b6 543e 87bf 533e
00000010: 03bb 063e 0522 2a3e 0921 f23d 9111 b43d
00000020: 1609 4d3e d190 173e 7bd3 353e 1553 103e
00000030: b19e 553e 7752 3b3e 4570 243e f638 2a3e
00000040: 512f 283e 4af6 1e3e fadc 4b3e dde0 f63d
00000050: d2a5 2d3e 1758 2e3e 6cdf 223e 628f 4e3e
00000060: 8d38 7d3e f80d df3d b26b 883e a22e e33d
00000070: 5900 2d3e b277 373e 372e 1f3e d89e 0a3e
00000080: 6e54 3b3e 2cd5 423e 0c52 043e b03f 5d3e
00000090: 2ad5 303e 6f04 4f3e 75d9 483e a00f ca3d
000000a0: 85e5 433e bf5b 3a3e 0019 503e ca19 263e
000000b0: 9c17 223e 45e2 373e 87ff 4a3e 6c70 643e
000000c0: 8675 543e bdc0 3f3e bf20 573e 6845 863e
000000d0: 5a11 253e 7294 193e d00a 283e 3897 4c3e
000000e0: 3ffb 1c3e 668a 493e 39c5 483e 627b f83d
000000f0: c802 163e 5495 423e c56d 573e 04a8 f63d
00000100: 61db 443e 60e4 113e fde5 ec3d d6cc 0c3e
00000110: 43a7 c53d 6d6b 653e 431c 223e b369 333e
00000120: c950 0c3e 7cbe 2d3e 972f 713e f1de 153e
00000130: c6f6 513e a0b6 833e da72 3a3e b895 973e
00000140: 951c 173e 12f6 4e3e 67ca 483e fbf2 3b3e

bn4.running_mean f4 [84]
-0.03866719 -0.5277905 -0.28245196 -0.24536183 -0.37668496 0.17286175 -0.6147531 -0.3428801
-0.7605758 0.2675218 -0.46736845 -0.4478558 -0.1525067 -0.61692965 0.4401389 -0.26113594
-0.06791654 -0.327671 0.090188116 -0.16349733 -0.6398178 0.042793155 -0.12839855 -0.72604746
0.11244416 -0.33385772 -0.19320786 0.21165769 -0.27566853 0.1467324 -0.6206955 0.26144662
0.08866387 -0.032103077 0.2145726 -0.13130684 -0.24533446 -0.49231142 -0.39098448 -0.2886228
-0.29293352 -0.5838413 0.057579607 -0.35331592 0.43577212 0.13302606 0.08637143 -0.09296866
-0.47351056 -0.7209506 0.13378783 0.013592057 -0.48065412 0.04587859 -0.1040682 -0.55311275
-0.18554552 -0.22571096 0.17746024 0.021614974 -0.16817655 0.08989171 -0.39116132 -0.43017262
-0.46009946 -0.32098082 -0.24724434 -0.34821972 0.08953988 0.042427067 -0.43337923 -0.24676785
0.08904944 -0.3591495 -0.5665699 -0.3769518 0.09806429 0.1813348 0.23050426 0.3692255
-0.023984155 -0.1494879 0.25003988 0.2797405
00000000: 7d61 1ebd 471d 07bf 8b9d 90be 2240 7bbe
00000010: dadc c0be ac02 313e 7660 1dbf fb8d afbe
00000020: 18b5 42bf 9ef8 883e eb4a efbe 5b4d e5be
00000030: b72a 1cbe 1aef 1dbf e359 e13e 9cb3 85be
00000040: d417 8bbd 7ec4 a7be 8cb4 b83d d86b 27be
00000050: 19cb 23bf e047 2f3d e97a 03be 3fde 39bf
00000060: 2049 e63d 66ef aabe 48d8 45be cbbc 583e
00000070: 6d24 8dbe 0541 163e e6e5 1ebf 55dc 853e
00000080: 6795 b53d 847e 03bd ebb8 5b3e 4d75 06be
00000090: f538 7bbe 3e10 fcbe 1e2f c8be 5ec6 93be
000000a0: 62fb 95be a076 15bf 98d8 6b3d d3e5 b4be
000000b0: 861d df3e fc37 083e 81e3 b03d 5a66 bebd
000000c0: fa6f f2be 3890 38bf adff 083e 38b1 5e3c
000000d0: 4c18 f6be 30eb 3b3d b521 d5bd cc98 0dbf
000000e0: a5ff 3dbe c620 67be 23b8 353e e311 b13c
000000f0: 7936 2cbe 2519 b83d 4c46 c8be 963f dcbe
00000100: 2892 ebbe 9957 a4be 9f2d 7dbe db49 b2be
00000110: af60 b73d 01c8 2d3d e2e3 ddbe b6b0 7cbe
00000120: 8e5f b63d 71e2 b7be ba0a 11bf d4ff c0be
00000130: eed5 c83d d4af 393e 4f09 6c3e 200b bd3e
00000140: 6b7a c4bc 5b13 19be 3a05 803e 263a 8f3e

bn4.running_var f4 [84]
0.34067 0.5454275 0.4081468 0.5671184 0.3610649 0.61379635 0.30372825 0.2772087
0.46493703 0.64443964 0.46919098 0.36645454 0.37536362 0.346824 0.36761543 0.39496574
0.3701398 0.4667342 0.55989563 0.4117885 0.35224345 0.4132619 0.33170822 0.6132744
0.84146 0.31605476 0.9605423 0.3937482 0.3750013 0.7286758 0.357345 0.24972086
0.8139351 0.35743997 0.44768903 0.604175 0.35613406 0.5583088 0.5286816 0.42803365
0.3549591 0.6489616 0.5073062 0.44103378 0.4423714 0.4482974 0.59338593 0.2889395
0.50356114 0.5435854 0.3266884 0.5754048 0.35225287 0.41994348 0.27047476 0.44764587
0.47347826 0.36532927 0.3338616 0.50505906 0.5292153 0.39059058 0.5659032 0.30295828
0.4107183 0.31825092 0.2945719 0.26497814 0.40878767 1.0590136 0.42021275 0.5177059
0.54482156 0.39382204 0.53191423 0.35924485 0.7907952 0.72984225 0.38768777 1.102264
0.38507742 0.52965957 0.648176 0.44453573
00000000: 4c6c ae3e 23a1 0b3f 9ef8 d03e ac2e 113f
00000010: 80dd b83e c221 1d3f 4582 9b3e 4cee 8d3e
00000020: 3a0c ee3e fff9 243f cd39 f03e ee9f bb3e
00000030: a92f c03e ea92 b13e 1738 bc3e f338 ca3e
00000040: f782 bd3e c9f7 ee3e 5255 0f3f f1d5 d23e
00000050: 4159 b43e 1097 d33e a9d5 a93e 8dff 1c3f
00000060: ec69 573f eed1 a13e 1ae6 753f 5d99 c93e
00000070: 2c00 c03e 7f8a 3a3f edf5 b63e d3b6 7f3e
00000080: 0d5e 503f 5f02 b73e 7f37 e53e 36ab 1a3f
00000090: 3457 b63e 53ed 0e3f ad57 073f 3a27 db3e
000000a0: 33bd b53e 5922 263f d2de 013f 2ecf e13e
000000b0: 817e e23e 3d87 e53e 24e8 173f e1ef 933e
000000c0: 62e9 003f 6a28 0b3f b443 a73e bb4d 133f
000000d0: 7d5a b43e d502 d73e ab7b 8a3e d731 e53e
000000e0: be6b f23e 700c bb3e e8ef aa3e 8d4b 013f
000000f0: a77a 073f 7dfb c73e 08df 103f 591d 9b3e
00000100: ab49 d23e c9f1 a23e 21d2 963e 37ab 873e
00000110: 9e4c d13e c28d 873f 2026 d73e 6088 043f
00000120: 6d79 0b3f 0ba3 c93e 882b 083f f1ee b73e
00000130: 8e71 4a3f f1d6 3a3f 037f c63e fd16 8d3f
00000140: de28 c53e c597 073f ddee 253f 309a e33e

fc1.weight f4 [120, 400]
-0.041665 -0.0116997855 -0.010199242 0.026459377 -0.005260049 0.015416291 0.12938087 0.07550739
0.050422683 -0.04359759 -0.008989591 -0.013717705 0.08737746 -0.16272628 -0.020746218 -0.07508476
-0.04133744 -0.07864633 -0.0819435 0.037601512 -0.052822363 -0.08276265 -0.049651925 -0.017147966
-0.010827576 -0.015330468 0.07263208 0.01325231 -0.036568202 0.0037607532 -0.08935264 0.11082513
-0.018244188 -0.07986862 0.024595069 -0.14643602 -0.025656622 -0.027785782 -0.02797806 -0.07195732
-0.0142639205 -0.0769407 -0.057454485 0.024733376 -0.1708519 -0.053265996 -0.037666075 0.012397329
-0.028751608 -0.068388306 0.04219808 -0.023803933 -0.09964699 0.03902079 0.056155935 0.007902728
0.03376733 -0.06347979 -0.0135894045 -0.007370683 0.057718255 -0.01477622 -0.06743311 0.09139003
0.063420266 0.13153858 0.1345 -0.15023282 0.10884093 0.012780365 0.09740572 -0.043713666
0.011532322 0.032971777 -0.040399365 0.004502288 0.04480563 0.000531803 -0.11698708 0.04957326
0.049852766 0.046808597 0.020564532 0.0048921844 0.0065807453 -0.07442043 -0.020503346 0.016560515
-0.0045137797 0.0869052 -0.013382557 0.027473778 -0.12540954 -0.0411799 0.021981271 0.070125684
0.007615133 -0.10736929 -0.081724204 0.072694756 -0.06411184 0.16437644 0.046822254 -0.12558153
-0.036835924 0.03463231 -0.003219337 0.07900934 -0.01527784 -0.012169008 0.028928481 -0.042632442
0.054842804 -0.06043052 -0.04350699 -0.096565165 -0.11005209 0.067912035 -0.06855145 -0.116536915
-0.01854958 0.11336157 0.08426144 0.09250388 -0.017241914 0.08649694 -0.06721078 -0.09030716
-0.0014133152 0.06112022 0.104072385 0.055255625 -0.025532886 0.11327746 0.09673051 -0.060402595
0.013764901 -0.014111252 -0.034567043 -0.05904993 -0.04187218 -0.01869693 -0.13262871 0.015447427
-0.05370353 -0.096804045 -0.06954871 -0.013743219 0.01981707 0.04665896 -0.014470976 0.0047334684
-0.031591054 0.08527596 0.13551077 -0.010964534 -0.004969558 -0.041018534 -0.001501163 0.04617055
0.034784302 0.07907572 0.04238704 -0.04090666 0.12255958 -0.042969406 -0.059909042 -0.046635587
-0.0072001796 0.03131002 -0.034642663 0.093400255 -0.01254095 -0.0012283111 -0.015337551 -0.03756835
-0.06680295 -0.07941794 0.094164856 -0.0213056 -0.016433762 -0.05954836 -0.09226009 0.10329561
-0.01563162 0.06470706 -0.031425633 -0.0041325926 0.18231003 -0.007679895 0.030582288 -0.040178884
-0.021692358 0.10712419 -0.05652268 -0.023047268 -0.016920242 0.07538301 -0.103088714 -0.046824194
0.0752836 0.04898669 -0.016493319 -0.06364965 0.12877719 0.022850538 -0.11908122 -0.05178503
0.097963914 -0.023216136 -0.06516301 -0.03659632 -0.057396326 -0.023822436 -0.026394375 -0.03454057
-0.12290946 -0.09051866 0.0069888597 -0.07303911 -0.06788242 -0.011135246 0.09129797 0.0040426794
-0.049566615 0.023224203 0.0483581 0.062085003 -0.083585456 0.029186705 0.029239196 0.066225626
0.12077618 -0.02643704 0.01840665 0.109487 0.049318716 -0.054612543 -0.1354473 -0.010611418
0.06350725 0.098281175 0.04113724 -0.02614047 0.04789735 -0.003489505 0.086839125 -0.1261298
-0.021848693 0.11522236 -0.064838976 0.011533344 0.06253591 -0.007676239 0.06380092 0.00597605
00000000: eba8 2abd 75b0 3fbc b91a 27bc 56c1 d83c
00000010: 7d5c acbb 9c94 7c3c 6b7c 043e 9ea3 9a3d
00000020: 0488 4e3d 6393 32bd 1449 13bc 3ac0 60bc
00000030: f4f2 b23d b8a1 26be f9f3 a9bc 0ac6 99bd
00000040: 7351 29bd 5411 a1bd fed1 a7bd 0b04 1a3d
00000050: 435c 58bd 777f a9bd d15f 4bbd e479 8cbc
00000060: 2566 31bc a52c 7bbc 21c0 943d 3820 593c
00000070: 8ac8 15bd f876 763b 84fe b6bd 49f8 e23d
00000080: d674 95bc 2992 a3bd 997b c93c 53f3 15be
00000090: d62d d2bc 029f e3bc 3f32 e5bc 5c5e 93bd
000000a0: 38b3 69bc 1693 9dbd 6555 6bbd a69d ca3c
000000b0: cdf3 2ebe 722d 5abd be47 1abd 2b1e 4b3c
000000c0: 7e88 ebbc 2b0f 8cbd e5d7 2c3d 7700 c3bc
000000d0: b913 ccbd 44d4 1f3d c403 663d 727a 013c
000000e0: 9d4f 0a3d b101 82bd 18a6 5ebc c585 f1bb
000000f0: fa69 6c3d f517 72bc 5f1a 8abd b22a bb3d
00000100: 7ce2 813d 0db2 063e 5eba 093e a2d6 19be
00000110: fee7 de3d bc64 513c a67c c73d 1a0d 33bd
00000120: 10f2 3c3c 6a0d 073d ce79 25bd ee87 933b
00000130: 1c86 373d b268 0b3a ec96 efbd 550d 4b3d
00000140: 6a32 4c3d 5fba 3f3d f376 a83c 9e4e a03b
00000150: 4ba3 d73b bd69 98bd a2f6 a7bc eba9 873c
00000160: 54e8 93bb 5afb b13d 8342 5bbc b010 e13c
00000170: 5c6b 00be 41ac 28bd 1112 b43c 0e9e 8f3d
00000180: 5e88 f93b 6ee4 dbbd 055f a7bd fde0 943d
00000190: 124d 83bd 4c52 283e b1c8 3f3d 7298 00be
000001a0: 44e1 16bd 9cda 0d3d 83fb 52bb a6cf a13d
000001b0: e84f 7abc 8560 47bc 6cfb ec3c 5b9f 2ebd
000001c0: d9a2 603d fe85 77bd 6334 32bd f5c3 c5bd
000001d0: fd62 e1bd 7715 8b3d b464 8cbd e8aa eebd
000001e0: 4af5 97bc 1c2a e83d 4391 ac3d ad72 bd3d
000001f0: ea3e 8dbc 4f25 b13d cea5 89bd f6f2 b8bd
00000200: fd3e b9ba 3259 7a3d e723 d53d b953 623d
00000210: 582a d1bc 03fe e73d a51a c63d b668 77bd
00000220: 2e86 613c e132 67bc 2c96 0dbd 57de 71bd
00000230: 2a82 2bbd 4e2a 99bc d2cf 07be 3417 7d3c
00000240: 3cf8 5bbd 3341 c6bd 8e6f 8ebd 3d2b 61bc
00000250: 6857 a23c 771d 3f3d ac17 6dbc 361b 9b3b
00000260: 9f65 01bd 2aa5 ae3d 56c3 0a3e 97a4 33bc
00000270: add7 a2bb 0d03 28bd acc2 c4ba 551d 3d3d
00000280: fc79 0e3d 73f2 a13d 089e 2d3d be8d 27bd
00000290: 8400 fb3d b000 30bd 2f63 75bd f504 3fbd
000002a0: 7cef ebbb ef3e 003d 77e5 0dbd a248 bf3d
000002b0: 8f78 4dbc 48ff a0ba 5a4a 7bbc 45e1 19bd
000002c0: fccf 88bd dfa5 a2bd 81d9 c03d 1589 aebc
000002d0: 19a0 86bc fbe8 73bd dcf2 bcbd a68c d33d
000002e0: e20d 80bc 2385 843d 2ab8 00bd b36a 87bb
000002f0: 7baf 3a3e a1a7 fbbb b587 fa3c 9d92 24bd
00000300: 2cb4 b1bc ed63 db3d 5384 67bd a0cd bcbc
00000310: 529c 8abc 6862 9a3d 2d20 d3bd baca 3fbd
00000320: 4a2e 9a3d 44a6 483d ff1c 87bc bf5a 82bd
00000330: 2bde 033e 0d31 bb3c dbe0 f3bd 8a1c 54bd
00000340: 4ea1 c83d c42f bebc 2f74 85bd 06e6 15bd
00000350: 6918 6bbd 4527 c3bc 0439 d8bc 6a7a 0dbd
00000360: f4b7 fbbd d961 b9bd ce02 e53b 8795 95bd
00000370: f005 8bbd 9b70 36bc 6efa ba3d 7478 843b
00000380: 5d06 4bbd af40 be3c 2513 463d d84c 7e3d
00000390: da2e abbd f518 ef3c 0a87 ef3c 4da1 873d
000003a0: 8059 f73d 7e92 d8bc 8bc9 963c b83a e03d
000003b0: 6c02 4a3d 67b1 5fbd b2b2 0abe 83db 2dbc
000003c0: 1710 823d a447 c93d 867f 283d 8a24 d6bc
000003d0: 0330 443d 2eb0 64bb b6d8 b13d 2c28 01be
000003e0: 08fc b2bc b3f9 eb3d 4cca 84bd 5af6 3c3c
000003f0: d412 803d f688 fbbb 0faa 823d bed2 c33b

fc1.bias f4 [120]
-0.01264524 0.015669644 0.010019886 -0.009842245 0.017896645 -0.024445854 -0.03097798 0.006898818
-0.036348052 0.02124462 -0.016994812 -0.008845939 0.010444265 -0.0473593 -0.039733782 -0.015043352
0.0026432818 0.023534168 0.012634788 0.0022455612 -0.03575015 -0.03881923 0.046059065 0.039251715
-0.01534369 0.01012725 0.03196714 0.011731218 -0.015748546 0.032283053 -0.032796726 0.04813273
0.011735307 -0.04006982 0.03714812 0.05376648 0.009318459 0.030769223 0.038144566 -0.031838994
-0.032734994 -0.024052234 -0.020638242 -0.017002258 -0.05317165 0.012374802 -0.015125327 -0.012127648
0.017699244 0.014049865 0.04726612 0.029601185 0.020725733 0.03328632 0.034886163 -0.0011178502
-0.0037008675 0.004425574 0.017683929 0.0068585617 -0.02542639 0.03987802 -0.04485656 0.028560005
-0.0149336895 -0.018240634 0.024286699 0.004669045 0.051988646 -0.009586339 -0.022711696 0.037737343
-0.05319363 0.02253911 0.027307207 -0.009997924 0.042928234 -0.0067054415 0.037705522 0.009928474
-0.049041424 -0.032357402 -0.026843423 0.026502717 0.04679183 0.0037457445 -0.004795935 -0.021646777
-0.019363597 -0.029591596 0.028034445 -0.010166604 0.038030628 0.00083594973 -0.025809363 -0.0452967
-0.046803523 0.03697636 0.04342768 0.020051142 -0.019637715 0.045076087 -0.038490504 0.03706625
0.03651058 0.0035905181 0.027832102 -0.029982036 0.006500881 0.019218769 -0.015960835 0.0026645411
-0.030341841 -0.018535608 0.04104737 -0.037309498 -0.012109291 0.027119553 0.005043636 -0.048440576
00000000: fb2d 4fbc a05d 803c 732a 243c 5e41 21bc
00000010: fc9b 923c ac42 c8bc 88c5 fdbc 7b0f e23b
00000020: b2e1 14bd 3309 ae3c b438 8bbc 8fee 10bc
00000030: 6c1e 2b3c d3fb 41bd e4bf 22bd 6478 76bc
00000040: e93a 2d3b baca c03c 2402 4f3c 442a 133b
00000050: c06e 12bd ea00 1fbd 6ea8 3c3d 68c6 203d
00000060: 1a64 7bbc c4ec 253c faef 023d 4b34 403c
00000070: 1803 81bc 3c3b 043d dc55 06bd d326 453d
00000080: 7245 403c 4020 24bd a128 183d 3e3a 5c3d
00000090: 73ac 183c bd0f fc3c 7a3d 1c3d 9b69 02bd
000000a0: 2115 06bd 3109 c5bc 8811 a9bc 5248 8bbc
000000b0: 84ca 59bd aebf 4a3c 38d0 77bc 0bb3 46bc
000000c0: 01fe 903c 6831 663c 1e9a 413d 2f7e f23c
000000d0: 03c9 a93c 3c57 083d cbe4 0e3d d484 92ba
000000e0: 418a 72bb 6804 913b e3dd 903c c9bd e03b
000000f0: 014b d0bc 2257 233d 83bb 37bd acf6 e93c
00000100: 6fac 74bc 626d 95bc e6f4 c63c cafe 983b
00000110: 0cf2 543d 0510 1dbc e10d babc 7992 1a3d
00000120: 90e1 59bd f1a3 b83c 5db3 df3c 55ce 23bc
00000130: 84d5 2f3d 52b9 dbbb 1b71 1a3d 0aab 223c
00000140: a9df 48bd 3289 04bd bde6 dbbc 3a1c d93c
00000150: caa8 3f3d 2a7b 753b 3827 9dbb 9554 b1bc
00000160: 68a0 9ebc 136a f2bc 7ea8 e53c d491 26bc
00000170: 01c6 1b3d a323 5b3a 286e d3bc 0889 39bd
00000180: 0db5 3fbd 8674 173d 39e1 313d 4b42 a43c
00000190: 46df a0bc b4a1 383d 38a8 1dbd c8d2 173d
000001a0: 1e8c 153d e64e 6b3b 2600 e43c e39c f5bc
000001b0: 5805 d53b ae70 9d3c 4cc0 82bc 959f 2e3b
000001c0: 748f f8bc fdd7 97bc 4921 283d d8d1 18bd
000001d0: 0c66 46bc d329 de3c 1645 a53b a069 46bd

fc2.weight f4 [84, 120]
-0.13195814 0.00066473545 0.020245807 0.03382133 0.020478321 -0.043091632 0.042280495 0.06293478
0.07519145 -0.054025147 -0.083587326 0.05466459 -0.063335896 0.021072876 -0.079674534 0.011493692
0.0337509 -0.054972947 -0.0153345475 0.039013263 -0.08621521 0.0036132233 -0.09923081 -0.1150087
-0.15898785 0.025252063 0.057812333 0.03640618 -0.16945025 0.056286167 0.12806262 0.029789709
0.08492062 0.0935312 -0.0799192 -0.05299998 -0.07868645 0.019527564 0.11937859 0.04259328
-0.070191935 -0.03555241 0.08778984 0.052116532 0.05413441 -0.025366925 -0.027137237 0.011093369
0.063460946 -0.028125599 0.062317293 0.11282666 0.08612687 -0.055557735 -0.073326305 0.059056636
-0.10766956 0.10964284 0.043989956 0.02642382 -0.055867635 0.014061389 0.08499011 0.031768646
0.027804242 -0.04815974 0.0044889995 0.019240253 -0.07434793 0.030351475 0.023339191 -0.07476488
0.1512833 0.0016260989 0.1961191 -0.03682094 0.009925553 0.02828917 -0.12694839 -0.1032591
-0.09118115 -0.15824047 -0.08252538 -0.0242405 -0.15873913 -0.022155564 0.10431371 -0.03750232
0.027208293 0.048720855 -0.030773988 0.05356829 -0.10729414 0.04399565 -0.06535963 0.084845714
0.029564895 0.0022674638 -0.056802075 0.029518997 -0.086819634 0.11170542 -0.07490389 -0.00095304946
0.16091838 -0.052101184 0.084036924 0.07319724 -0.06637621 0.08965322 -0.022895113 -0.082016066
-0.020548144 -0.11473928 -0.042787522 0.101373926 0.06910392 0.14159103 -0.0342413 -0.0072293924
-0.07443518 -0.056436673 0.046184883 -0.0481534 -0.040090207 0.006616468 0.03243707 -0.037259784
0.15205404 -0.24300532 -0.032834318 -0.10332121 0.032984298 0.053844623 0.05746264 -0.13561991
-0.13234526 0.15138656 -0.015838347 -0.08137156 -0.1544276 -0.16629724 0.019933997 0.06831511
0.06627319 -0.18265593 -0.1109125 -0.0709121 -0.08288553 -0.09535586 -0.007246943 -0.09688428
-0.14260444 -0.03253523 -0.0344089 0.10346638 -0.04087885 -0.039916806 -0.022032369 0.046570897
-0.17339036 -0.004766967 0.019957248 -0.058331043 0.14871477 -0.03246065 0.08806772 0.03476116
0.04739311 0.072401814 0.03811655 -0.13255374 0.016358536 -0.06203042 -0.053471975 0.014335623
0.041215528 -0.08305165 -0.051567487 -0.11091543 -0.002449978 0.01406202 -0.1617343 0.04254327
0.0107162045 -0.14409211 -0.049966287 0.06955993 -0.012188166 -0.10734073 0.0814351 -0.0071383077
-0.029358802 0.046104256 -0.02886436 0.07360313 -0.0064063594 0.11620836 -0.052960735 0.031391233
-0.009875709 -0.07288763 0.020616781 0.046076987 -0.0016805988 0.13913774 0.09708876 0.00979891
0.015921386 0.058352932 -0.0349524 -0.15335096 -0.031527694 0.09610407 -0.00048251313 -0.0027980506
0.056122825 -0.13019158 -0.09461314 0.05133998 0.041007966 0.022125876 0.08574988 0.010168692
0.059504095 -0.011243703 0.060410704 -0.05586994 -0.06324958 0.03458256 -0.11594406 0.046932764
0.001344878 0.03527951 -0.10380967 -0.15651616 0.10728817 0.048406508 -0.072136454 -0.008972824
0.15601921 -0.0878939 -0.08339776 0.07468997 0.0028573808 0.04373811 0.046347942 0.009321652
0.044919148 0.015006933 0.009238963 0.062862806 -0.0035923594 0.01726038 -0.076124094 0.08593131
00000000: 0920 07be a441 2e3a 89da a53c 3c88 0a3d
00000010: 27c2 a73c da80 30bd 502e 2d3d f3e3 803d
00000020: fafd 993d 7949 5dbd d52f abbd fae7 5f3d
00000030: 40b6 81bd 06a1 ac3c 672c a3bd 0a50 3c3c
00000040: 623e 0a3d 502b 61bd c13d 7bbc 5fcc 1f3d
00000050: 9a91 b0bd d4cb 6c3b 8639 cbbd ae89 ebbd
00000060: b6cd 22be 6add ce3c a0cc 6c3d a61e 153d
00000070: 5e84 2dbe 538c 663d d922 033e 8c09 f43c
00000080: ddea ad3d 498d bf3d adac a3bd 8216 59bd
00000090: 5d26 a1bd 45f8 9f3c c37c f43d 4b76 2e3d
000000a0: cac0 8fbd 679f 11bd 29cb b33d 2578 553d
000000b0: 0bbc 5d3d 4cce cfbc e94e debc f6c0 353c
000000c0: d0f7 813d a867 e6bc 6b40 7f3d aa11 e73d
000000d0: 4963 b03d 8290 63bd 1a2c 96bd 5fe5 713d
000000e0: dc81 dcbd 6d8c e03d d02e 343d c476 d83c
000000f0: 76d5 64bd bd61 663c 4b0f ae3d d71f 023d
00000100: b9c5 e33c 2643 45bd 7518 933b bc9d 9d3c
00000110: ba43 98bd a8a3 f83c d531 bf3c 541e 99bd
00000120: 02ea 1a3e d322 d53a 72d3 483e 8ed1 16bd
00000130: c99e 223c b0be e73c c2fe 01be 8279 d3bd
00000140: 2fbd babd ca09 22be 1103 a9bd 0394 c6bc
00000150: 838c 22be 967f b5bc 6da2 d53d 089c 19bd
00000160: ede3 de3c 858f 473d bb19 fcbc 6c6a 5b3d
00000170: 08bd dbbd c834 343d 45db 85bd 97c3 ad3d
00000180: 1432 f23c bb99 143b 4ba9 68bd d3d1 f13c
00000190: 7ece b1bd d0c5 e43d 3667 99bd 11d6 79ba
000001a0: cac7 243e 0d68 55bd 8d1b ac3d 6fe8 953d
000001b0: 40f0 87bd 1b9c b73d 888e bbbc 0af8 a7bd
000001c0: 9554 a8bc 6dfc eabd f841 2fbd 229d cf3d
000001d0: 5b86 8d3d 3dfd 103e 9b40 0cbd 8ae4 ecbb
000001e0: 7971 98bd 242a 67bd 5c2c 3d3d 803c 45bd
000001f0: a135 24bd f5ce d83b bcdc 043d b79d 18bd
00000200: 0eb4 1b3e 63d6 78be 477d 06bd 129a d3bd
00000210: 8b1a 073d 2e8c 5c3d f25d 6b3d f2df 0abe
00000220: 8485 07be 1405 1b3e 6cbf 81bc 22a6 a6bd
00000230: 4522 1ebe d349 2abe 9f4c a33c cbe8 8b3d
00000240: 3dba 873d 280a 3bbe 1826 e3bd 5d3a 91bd
00000250: e4bf a9bd ef49 c3bd c477 edbb 446b c6bd
00000260: e606 12be a943 05bd 59f0 0cbd 2ee6 d33d
00000270: 9570 27bd ce7f 23bd 3a7d b4bc 20c1 3e3d
00000280: 3e8d 31be 3834 9cbb 627d a33c 88ec 6ebd
00000290: af48 183e 75f5 04bd d95c b43d b861 0e3d
000002a0: 471f 423d 6747 943d 1920 1c3d 2bbc 07be
000002b0: 5602 863c 9c13 7ebd 6e05 5bbd f6df 6a3c
000002c0: 9dd1 283d fc16 aabd 6e38 53bd a127 e3bd
000002d0: cf8f 20bb 6364 663c ad9d 25be da41 2e3d
000002e0: 0593 2f3c e28c 13be 73a9 4cbd 7075 8e3d
000002f0: e0b0 47bc 75d5 dbbd 72c7 a63d 77e8 e9bb
00000300: df81 f0bc d1d7 3c3d f374 ecbc 3dbd 963d
00000310: 70ec d1bb a6fe ed3d 5bed 58bd 1894 003d
00000320: bacd 21bc 1c46 95bd 86e4 a83c 39bb 3c3d
00000330: 8a47 dcba 207a 0e3e 79d6 c63d 9b8b 203c
00000340: 916d 823c 7c03 6f3d 3f2a 0fbd 0908 1dbe
00000350: 2f23 01bd 36d2 c43d d1f9 fcb9 805f 37bb
00000360: 0ce1 653d f150 05be 89c4 c1bd df49 523d
00000370: f8f7 273d 5341 b53c a29d af3d 969a 263c
00000380: 91ba 733d 8237 38bc 3771 773d e1d7 64bd
00000390: ff88 81bd 71a6 0d3d 1474 edbd 923c 403d
000003a0: 9e46 b03a 3f81 103d 2a9a d4bd c645 20be
000003b0: e6b9 db3d e745 463d 47bc 93bd c002 13bc
000003c0: 80c3 1f3e b801 b4bd 72cc aabd 0ef7 983d
000003d0: e542 3b3b bc26 333d 57d7 3d3d d8b9 183c
000003e0: 24fd 373d a4df 753c 055f 173c 37be 803d
000003f0: ca6d 6bbb a465 8d3c f3e6 9bbd c1fc af3d

fc2.bias f4 [84]
-0.027812768 0.08635412 0.040251944 0.07534851 -0.07770671 -0.012841732 -0.012451199 -0.043243803
-0.0843366 0.03881223 0.03349547 -0.05909773 -0.03984762 0.012630186 0.07648382 0.03927084
-0.025259418 -0.013435256 -0.04626097 -0.053898912 -0.06787951 0.09026683 0.045184374 0.049421996
-0.010957653 0.012924515 -0.060236093 -0.09057793 -0.06739498 -0.05432625 0.007909971 0.02964445
-0.0008096087 -0.033156916 -0.06601799 -0.08403731 -0.080797 -0.07674901 -0.058434498 0.04716278
-0.011616399 -0.0005260262 0.07158138 -0.04211559 0.08717717 0.08842678 0.004394188 0.08344147
0.013447201 0.055852976 0.02497535 0.0319085 0.03869367 -0.07756903 0.0678415 0.055266302
0.039401375 0.005093701 0.07894022 -0.08507718 0.07911347 0.07618467 0.026106648 0.0365584
-0.032154724 -0.08582924 0.031559743 -0.027189672 0.058558322 -0.010452794 -0.059975974 -0.09236413
0.07348844 0.0009491146 -0.005042766 -0.06234534 0.03208742 0.040846355 -0.015527168 0.022227217
0.0066218013 0.031459868 -0.03415535 0.088173516
00000000: 9ad7 e3bc 6eda b03d 39df 243d 5250 9a3d
00000010: b224 9fbd 2166 52bc 1d00 4cbc 6a20 31bd
00000020: abb8 acbd 93f9 1e3d 8c32 093d 7610 72bd
00000030: 4237 23bd d7ee 4e3c 8da3 9c3d 76da 203d
00000040: d7ec cebc 8c1f 5cbc 257c 3dbd 1bc5 5cbd
00000050: 6a04 8bbd d1dd b83d 4013 393d b86e 4a3d
00000060: ba87 33bc 58c1 533c 1fba 76bd ec80 b9bd
00000070: 6106 8abd 3485 5ebd d398 013c ebd8 f23c
00000080: ec3b 54ba 8ccf 07bd 7134 87bd c11b acbd
00000090: e678 a5bd 962e 9dbd 0359 6fbd c22d 413d
000000a0: b552 3ebc 05e5 09ba 4299 923d 6681 2cbd
000000b0: f289 b23d 1a19 b53d 1ffd 8f3b 5de3 aa3d
000000c0: a651 5c3c 17c6 643d 1b99 cc3c 7db2 023d
000000d0: 417d 1e3d 83dc 9ebd 7cf0 8a3d eb5e 623d
000000e0: 5663 213d 10e9 a63b 69ab a13d f23c aebd
000000f0: 3e06 a23d b506 9c3d 9cdd d53c 43be 153d
00000100: acb4 03bd 3ec7 afbd ca44 013d e0bc debc
00000110: dada 6f3d 3242 2bbc 5ea9 75bd 6829 bdbd
00000120: 1b81 963d 01ce 783a ca3d a5bb d45d 7fbd
00000130: 196e 033d 824e 273d aa65 7ebc da15 b63c
00000140: b2fb d83b 10dc 003d 7be6 0bbd 5194 b43d
