hw1/models/Dropout_final.pth (torch, 250572 bytes, 10 tensors)

conv1.weight f4 [6, 1, 5, 5]
000000 9e e9 83 3d bc 8f 55 be ba 4e 4c bd d2 5a 5a 3e
       0.06441043 -0.20855612 -0.049879767 0.21323708
000010 4f 65 65 bd 99 1a c4 be 1c 82 0d bf dd 2d a4 3c
       -0.05600482 -0.38301542 -0.55276656 0.0200414
000020 b5 37 88 3e f9 87 d6 3d 28 7e 86 3c 77 ba 28 bd
       0.26605 0.104751535 0.016417578 -0.04119345
000030 cf 6e 9a 3e 69 94 d9 bc 9f 4c 2e bb ca 56 eb 3e
       0.30162665 -0.026560025 -0.0026595963 0.45964652
000040 b2 17 fd bd 33 42 11 be c8 8d 81 be f7 54 c4 3e
       -0.12358035 -0.14185409 -0.25303483 0.38346073
000050 b4 48 f5 3c ee 22 b2 3d 1c 5f 0d be 99 08 8a be
       0.029941894 0.086980686 -0.13805813 -0.26959684
000060 ce d2 89 3e 0c 2e a0 3c b1 b4 5a 3d 89 a3 34 3d
       0.26918644 0.019553207 0.053394977 0.04410127
000070 24 22 80 bd c8 cc 71 be 5e 5f 08 3c ca 17 0f 3e
       -0.06256512 -0.23613274 0.008323519 0.13973919
000080 03 2b a3 3b 87 19 67 be 49 c4 6a be c2 89 48 be
       0.0049794926 -0.22568332 -0.2292644 -0.195838
000090 6f 75 2e be e0 77 73 be 11 7e cb be ff 2e c2 be
       -0.17036985 -0.23776197 -0.3974462 -0.3792648
0000a0 21 b9 75 3e 1f 1f c7 bd 2d 33 8f bd d6 a3 40 be
       0.23996402 -0.09722733 -0.06992183 -0.18812498
0000b0 61 b8 e6 bd 9f 7e 90 3d 32 86 01 3e f5 e8 c9 3d
       -0.11265636 0.07055401 0.12648848 0.09858886
0000c0 0c d7 74 3c 80 d8 9d bd 32 2c 20 3e 88 69 3b 3d
       0.014943849 -0.0770731 0.15641859 0.04575494
0000d0 fe b5 a6 bb 2e 15 aa be ae c3 c8 3c 03 35 2a be
       -0.005087613 -0.33219284 0.02450737 -0.16621785
0000e0 03 92 14 3d 49 ff b4 bd fa 5c 04 be 2c bd 1c 3e
       0.03627206 -0.08837754 -0.12926093 0.15306538
0000f0 8d 1a f6 be 26 44 ed be d9 45 b5 be 1d bf a1 bd
       -0.48067132 -0.46341056 -0.35404852 -0.0789778
000100 e9 e5 dd 3e 87 5e 75 3d 36 1b 8d bd 13 52 44 bc
       0.4333947 0.0599046 -0.06889956 -0.011982459
000110 dc ed 92 3e a3 0c 61 3e 56 d1 62 3c 7c fa 66 3d
       0.28697097 0.21977477 0.013843855 0.056391224
000120 f2 82 39 3d 2a f2 cf 3e ab be b0 bd 87 2e 5b bc
       0.045290895 0.40614444 -0.08630117 -0.013377792
000130 43 bb 92 3e 21 2d a4 be ee 98 79 3e b6 f0 1a be
       0.28658494 -0.3206568 0.24374744 -0.15130886
000140 bd 60 cc 3d cb fb 1b 3e 6b 01 e6 be 66 54 a3 3e
       0.09979389 0.1523277 -0.44922957 0.31900328
000150 85 df 39 3e a8 93 45 3e c0 4d ea 3d f5 b2 df be
       0.18151672 0.19294608 0.11440611 -0.4369122
000160 62 ba c8 3d ac 73 3e 3e 8d 5e 75 3e c0 38 30 be
       0.09801175 0.18598813 0.2396185 -0.17209148
000170 d0 f4 6d be 21 c1 f9 3d 1c 26 1d 3e 8f 34 50 3e
       -0.2323792 0.121950395 0.15346569 0.2033255
000180 b3 55 f0 bd 06 99 d3 be 2f a9 c7 3d 3f 00 a0 3d
       -0.11735096 -0.41327685 0.09749066 0.07812547
000190 20 a4 01 be bd d0 d9 3d 23 c4 3b 3e 95 ed 05 3e
       -0.12660265 0.10635517 0.18336539 0.13078912
0001a0 54 e9 9f 3e 51 f9 6e be 41 23 3e be cc 61 2a 3e
       0.31232703 -0.23337294 -0.18568136 0.16638869
0001b0 54 d7 b5 3e b5 46 35 3e b1 9d e1 be 50 3b fa be
       0.35515845 0.17702754 -0.44065621 -0.48873377
0001c0 83 ae 60 3a 3c 88 e4 3d 7f d8 ed 3d e2 5a 87 be
       0.0008570926 0.11158797 0.11613559 -0.26436526
0001d0 3b cc 8b be 8a df 99 be 04 d3 0e be 00 6b 2b bd
       -0.27304253 -0.3005336 -0.13947684 -0.04185009
0001e0 2b 7e 9c 3e 89 bf 69 3d 0f 26 e0 bd d4 d7 75 be
       0.3056501 0.057067428 -0.10944759 -0.24008113
0001f0 e1 c3 8d bc fa c4 bc bc b5 a2 6f 3e a7 b9 1c 3d
       -0.017305316 -0.023043144 0.23401912 0.03826299
000200 e5 a9 bb 3e 77 60 a3 3e 10 10 f2 bc 60 65 ad 3e
       0.36653057 0.31909534 -0.029548675 0.33866405
000210 43 15 a4 bd c0 a8 fb bd bd e9 89 3e cc 1c 80 3e
       -0.08011868 -0.12288046 0.2693614 0.2502197
000220 57 87 1e 3e bd c5 a4 be 1c 99 bd bd 70 b0 01 be
       0.15481316 -0.32182112 -0.09257719 -0.12664962
000230 03 eb 56 3e 6e 53 45 3c a0 fb a1 be b8 45 e8 be
       0.20988087 0.012043817 -0.31637287 -0.4536569
000240 a5 1e 16 be af 33 c5 bd a3 58 d1 3d cd bc 85 be
       -0.14660127 -0.096289985 0.10221984 -0.26120606
000250 fd 5c a2 be da dc 61 bb
       -0.3171157 -0.0034463913

conv1.bias f4 [6]
000000 47 db a2 bc 11 fd 86 bf 5e 23 0d be ec 56 14 bd
       -0.01987995 -1.054598 -0.13783023 -0.036215708
000010 54 3f c9 be 9f f8 6b 3d
       -0.39306128 0.05761015

conv2.weight f4 [16, 6, 5, 5]
000000 37 a0 e3 be ea cf 92 be 7e 0f 0d be 59 07 00 bc
       -0.44458172 -0.2867425 -0.13775441 -0.007814252
000010 d4 ec b4 3d fd 91 10 be e9 57 50 bd 85 59 ea bd
       0.08834234 -0.1411819 -0.050865088 -0.11442856
000020 1e 83 68 be 18 16 64 be 49 be 11 3c cc 19 41 3e
       -0.22706267 -0.22274053 0.008895465 0.18857497
000030 0f 40 0a 3e f0 0b 42 3e ac 0b 24 be 9d a6 17 3e
       0.13500999 0.18949866 -0.16020077 0.14809652
000040 0a 36 62 3e 9f e8 a3 bd 54 c5 8a bd f3 ac 1d be
       0.22090927 -0.08003353 -0.067759186 -0.15398006
000050 12 c0 ff bb 4c ce d6 3d 5d e0 05 bd 08 86 0d be
       -0.007804879 0.10488567 -0.032684673 -0.1382066
000060 9a 3b 81 be d0 25 02 3e ed d2 16 3e d7 47 a6 be
       -0.25240785 0.12709737 0.147289 -0.32476684
000070 84 06 4f 3c cc ca a0 bd 0a 15 d2 3c 3e 1f fa 3d
       0.012635831 -0.078511804 0.025644798 0.1221299
000080 e8 e8 03 be ef 2d 52 3e 9c c3 70 bd 1f 07 d0 3d
       -0.12881815 0.20525335 -0.058780298 0.10157608
000090 1a f3 03 3e ef 31 94 be 6a bb 35 bd b5 00 1d be
       0.12885705 -0.28944346 -0.044368185 -0.15332301
0000a0 cc b8 cf 3d 90 74 46 3e 21 71 65 be df e7 b7 bd
       0.10142669 0.19380403 -0.22406437 -0.08979773
0000b0 be 33 01 3d 88 8f 7b 3d a9 ba d9 3d 01 f8 15 bd
       0.031543486 0.06141618 0.10631306 -0.036613468
0000c0 a1 65 5d 3e 0c a7 38 3e 14 d9 3e be c1 03 9f bd
       0.216208 0.18032473 -0.18637496 -0.07764388
0000d0 b2 bd da bd c6 87 1a be 17 dd 04 be 70 66 a4 bd
       -0.10680713 -0.15090856 -0.12974964 -0.08027351
0000e0 d4 7d 2b 3d 2e 62 96 3d c5 71 a1 bd cd e3 f2 bd
       0.041868046 0.07342945 -0.07883028 -0.11859856
0000f0 8c 97 35 bd 58 37 86 3d e2 53 30 bd 79 79 0f 3e
       -0.04433398 0.06553525 -0.043048747 0.14011182
000100 a9 44 38 be ed ea 0c 3e 5f df ee 3d c4 47 a1 bd
       -0.17994942 0.13761492 0.116636984 -0.07875016
000110 b6 48 f4 3c 9b 3f 3a be 54 7e 2b 3d e2 34 29 3e
       0.029819828 -0.18188326 0.041868523 0.1652408
000120 99 b4 57 be 90 28 1b be ee 08 91 3d 98 fd 4c be
       -0.21064986 -0.15152192 0.07081781 -0.20018613
000130 71 19 54 be af 72 5f 3d 78 b1 f8 3d 04 2d 53 be
       -0.2071283 0.05455273 0.121432245 -0.20622641
000140 90 19 94 be c9 64 04 be 91 bd 71 3d dd 0c b0 3d
       -0.28925753 -0.12929071 0.059018675 0.085962035
000150 fc ce 27 bc 27 7a 99 bd 82 d6 ed bd db ce 1b 3e
       -0.01024222 -0.07494002 -0.1161318 0.15215628
000160 85 72 e9 bd 36 ae ea 3d be 06 b1 bc 47 38 13 bc
       -0.11398796 0.11459009 -0.02160966 -0.0089855855
000170 02 40 5c 3e 2f b5 68 bd 89 1c 21 3e 05 85 01 bc
       0.21508792 -0.056813415 0.15733542 -0.0079052495
000180 e7 7a 30 bd 37 6a 24 3e 4a d4 64 bc f9 ee 2b 3d
       -0.04308596 0.16056143 -0.013966629 0.04197595
000190 32 fc d4 3d 35 9c 7d 3c 73 68 87 bd 8f a6 9f be
       0.10399665 0.015479137 -0.06611719 -0.31181762
0001a0 59 2b 53 3d c6 cc 1b be 26 51 57 3d b5 46 c0 bc
       0.05155501 -0.15214834 0.052567624 -0.023471216
0001b0 c1 2e fd bd 22 c5 12 3a 6e 92 0a 3e 7a f3 22 3e
       -0.12362433 0.0005598833 0.13532421 0.15913191
0001c0 bb b3 eb 3c fa 5b 06 3c 0c 72 43 be 8f 7c cf bd
       0.028772226 0.00820064 -0.19086474 -0.101311795
0001d0 07 31 ce 3c 0b 6f 7a 3d 26 af a5 bd 17 55 c4 be
       0.025169862 0.061141055 -0.080900475 -0.38346168
0001e0 a1 e1 e6 bc 2b cc 1b 3d ea 6c 9c bd c4 8b 12 bb
       -0.02818376 0.038036507 -0.07637961 -0.0022361139
0001f0 f5 8b 40 3e f7 53 f8 3d b9 ee 4f 38 d9 ec 82 3d
       0.1880339 0.1212539 4.9574974e-05 0.06392831
000200 ca 32 f4 bd 53 32 87 bd ef d3 d2 bd e3 41 f4 bc
       -0.1192375 -0.066013955 -0.102943294 -0.029816573
000210 1b 4a 81 bd 72 12 25 be 26 ef 93 3d af 60 89 3e
       -0.063129626 -0.16120318 0.07223348 0.26831576
000220 19 d2 01 3e 26 d8 a7 3b 1d 73 8c bd bc 4f df 3d
       0.12677802 0.0051222024 -0.068578936 0.1090388
000230 a1 fb bf 3c 60 19 29 3d 45 ae 64 3e 67 70 08 bd
       0.023435416 0.041283965 0.22332104 -0.03331032
000240 89 d2 11 3e 9f 9c e4 bd 15 b5 04 be 18 b6 12 3e
       0.14240469 -0.111626856 -0.12959702 0.14327276
000250 b8 f3 97 3d 6c 97 9b 3e 7c f7 6c 3c 80 c7 0c be
       0.074195325 0.30388963 0.014463302 -0.13747978
000260 a7 5c f2 bb bd ee 2f be 1b 88 9d 3d 3d 14 55 bd
       -0.007396299 -0.17180915 0.07691976 -0.052021254
000270 f6 b2 91 bc 76 ec dc 3c 43 70 a0 3a c2 1a 02 3e
       -0.01778553 0.026968222 0.0012240488 0.1270552
000280 da e7 0d 3c 9c 14 a0 3d c6 27 ef 3d c6 40 30 3e
       0.008661235 0.07816431 0.11677508 0.17212209
000290 41 a3 09 3e 50 8e 03 be ca 98 38 bd 33 20 74 be
       0.13441183 -0.12847257 -0.045067586 -0.23840408
0002a0 97 21 72 bb 81 76 85 bd 5f 2f 85 be 7d 87 55 be
       -0.003694629 -0.065167435 -0.26012704 -0.20852466
0002b0 72 6c 61 be e3 79 a7 bd 28 d0 04 3e 73 bb b8 bc
       -0.22014025 -0.08177545 0.1297003 -0.02255032
0002c0 8c 96 7d bd 8f 03 92 bd e7 60 b6 bb 7e 06 23 bd
       -0.06191115 -0.07129585 -0.005565751 -0.039801113
0002d0 63 08 c6 3d b3 d1 b5 bd 9b 2b 5c be ae 20 02 be
       0.096695684 -0.088778876 -0.21501009 -0.12707779
0002e0 17 27 99 3c 5a 35 a2 bc 73 0b 9f be 78 4d 90 be
       0.018695397 -0.01980083 -0.31063423 -0.28184104
0002f0 40 ae 22 3b 0e 7b 5a 3e 4f 92 d5 bd f1 8b 2f 3b
       0.00248231 0.21336004 -0.10428297 0.0026786292
000300 ae b1 21 3e 06 d9 80 3e 97 ea 42 be 20 6c af 3d
       0.15790436 0.25165576 -0.19034801 0.08565545
000310 c6 fb 86 3e cc 83 9f 3e 57 35 58 3d cb 35 a8 be
       0.26363963 0.3115524 0.052785244 -0.3285354
000320 d7 54 15 be 45 2e ff 3d 27 af a9 3d fa fd 85 3d
       -0.14583145 0.12459997 0.08285361 0.06542583
000330 8a c3 9c bd f3 83 f5 3d f3 2e 5a 3e 01 8f 3e 3d
       -0.076544836 0.11988058 0.21306972 0.046523098
000340 9d 67 2f 3e 45 18 f5 bd 07 02 1a 3d 9e a6 7b 3e
       0.17129369 -0.1196752 0.03759959 0.24575278
000350 d8 24 08 be 91 66 74 bd 40 7b 61 3c 25 f6 c7 bd
       -0.13295305 -0.059668127 0.013762295 -0.09763745
000360 64 c2 ac be da 64 a9 bd 0b b6 ec 3c 34 6e ea 3d
       -0.33742058 -0.08271189 0.028895399 0.11446801
000370 bb 8c 24 3d b3 38 3d bd ad c6 0d 3e 97 fa 4b 3e
       0.040173274 -0.04619665 0.1384532 0.19919811
000380 99 aa 3f 3d f8 9e 3b be db 78 96 bd 98 8d 20 be
       0.046793554 -0.1832236 -0.0734727 -0.15679014
000390 3b 85 4c 3c 4e 15 fe 3b e8 ec 63 be 45 1a 26 be
       0.0124829365 0.0077540046 -0.22258341 -0.16220959
0003a0 97 6a 83 be b3 13 0f be 48 c0 d1 3d 35 9c 67 be
       -0.2566726 -0.13972358 0.10241753 -0.22618182
0003b0 87 0d 38 be 88 b3 33 bd 15 62 c2 be 61 b1 36 3d
       -0.1797391 -0.043872386 -0.37965456 0.044602755
0003c0 fe 73 5c bc d1 3b ab 3d 9f 69 a6 bd e4 7e 43 be
       -0.013455389 0.083610184 -0.081256144 -0.19091374
0003d0 86 b1 d8 bd bc 44 03 be f0 e5 37 bd 03 6a b3 3d
       -0.10580735 -0.12819189 -0.04489702 0.087604545
0003e0 66 cb fc bd b3 ee b9 bd 5a 7a bf 3d 35 a8 28 bc
       -0.12343483 -0.090787314 0.093495086 -0.01029401
0003f0 27 e0 a7 bd 6e 26 b8 bd 0b 87 5c bd bd 28 21 3e
       -0.081970505 -0.08991705 -0.053839725 0.15738197

conv2.bias f4 [16]
000000 4d 09 31 bc e6 d8 14 be 91 fc 11 3e 92 43 bb bc
       -0.01080544 -0.14535865 0.14256503 -0.022859368
000010 52 66 00 3d 5a 43 90 bd e4 fd 19 3e c9 76 08 3e
       0.03134758 -0.07044096 0.15038258 0.13326563
000020 19 00 b5 3e 87 1b f5 bc 34 33 3a 3e d0 5d 2b be
       0.35351637 -0.029920353 0.18183595 -0.16735005
000030 3b 30 4b 3d cd 34 4e bd 67 f0 e4 3d ec bb 67 be
       0.049606543 -0.050343323 0.111786656 -0.2263028

fc1.weight f4 [120, 400]
000000 5f 61 0b be 0e 75 b1 3d d4 29 aa 3c dd 57 e7 bd
       -0.13611363 0.086649045 0.020771898 -0.112960555
000010 39 a4 8d be 01 50 e9 3d 2e fa 51 bd 49 a7 50 3e
       -0.27664354 0.11392213 -0.05126398 0.20376314
000020 91 95 a8 3c ab 3b 2f 3b a6 ea 4c 3d 17 89 dc 3c
       0.020579131 0.0026738446 0.050028466 0.026920838
000030 22 8b a3 3c 49 cd ed 3d 86 4b df 3d 36 f3 3a be
       0.019963805 0.11611421 0.10903077 -0.1825684
000040 45 79 91 3d 49 1d 31 bb a8 03 a6 bd 18 51 cf bc
       0.071032085 -0.0027025512 -0.08106166 -0.025307223
000050 56 e3 64 bd 14 a5 2c 3e 4d 8a 49 3e 7b c3 21 bd
       -0.055880867 0.16859847 0.19681664 -0.039493065
000060 86 11 54 bb eb a8 34 be 02 f7 ae bd 03 c7 20 bd
       -0.0032359078 -0.17642562 -0.08543207 -0.039252292
000070 8f a1 2e 3c 44 1b 96 3e d5 9d d7 be e6 70 ea be
       0.010658636 0.29317677 -0.42112604 -0.4578926
000080 cc 35 f1 3d 8f 69 c9 bd b7 a1 bc bb e6 d6 b4 3c
       0.11777839 -0.09834587 -0.0057565826 0.022075128
000090 17 da 89 3d 01 0b 4d 3e bb f3 16 be 94 33 c1 3c
       0.067310505 0.20023729 -0.14741413 0.023584165
0000a0 ff 7f 4b bd 83 67 89 bd 0d 49 8d 3e 0c 55 1d bd
       -0.049682613 -0.067091964 0.27594796 -0.038411185
0000b0 7a bc bc bd 65 0b e9 3d 75 9c b0 3d 9c 0d 09 3e
       -0.092156366 0.113791265 0.08623592 0.13384098
0000c0 0e 4d 2b bb 20 17 5f 3d 27 36 bc 3c ad a3 05 bf
       -0.0026138457 0.054465413 0.02297504 -0.52202874
0000d0 2a f8 94 3d 4b 92 81 3d 89 47 70 be 7a 91 6a 3d
       0.07273896 0.06326731 -0.23464788 0.057267644
0000e0 66 ea a3 be a5 6c 89 3d 20 d7 1a 3d 06 d1 99 be
       -0.3201477 0.067101754 0.037802815 -0.30042285
0000f0 c5 52 be be 17 9d 58 be 34 a7 4f bd 7a c6 1c 3e
       -0.37172523 -0.21153675 -0.050696567 0.15310088
000100 5b 5d 34 be fd 96 a8 3b 11 9c 85 bc 59 f4 e0 3c
       -0.17613737 0.0051449523 -0.01630977 0.027460264
000110 bf 5c 3a bd a1 ad a6 be 57 6f 35 be 89 d1 19 3d
       -0.045498606 -0.32554343 -0.17718254 0.037553344
000120 16 28 21 be 25 f6 b0 bd 24 c0 cb ba b2 10 a0 be
       -0.15737948 -0.08640698 -0.0015544933 -0.31262738
000130 a9 39 5a bd 38 4a 06 3e 18 b6 35 3e 7c 23 bd bd
       -0.053277645 0.1311425 0.17745245 -0.09235284
000140 62 c5 81 be 2e 80 1e be 1d 58 6d bd 0d 32 0f 3e
       -0.25345904 -0.15478584 -0.05794536 0.13983937
000150 17 ea 88 bd 59 25 39 bd 73 38 bf 3c bd 80 13 3d
       -0.06685274 -0.045201633 0.023342347 0.036011446
000160 b5 e0 ab 3d 3d ef 0d bd 80 d5 6e 3d a0 46 1e 3e
       0.08392469 -0.034651984 0.05830908 0.15456629
000170 0c 8f 87 be 39 48 7f 3d d4 ee 5f bd 7c 74 00 3e
       -0.26476324 0.062324736 -0.054671124 0.12544435
000180 87 88 d1 3e 4a c5 bb bd af d1 fc bc 66 ed 8f bd
       0.40924475 -0.09168489 -0.030861704 -0.07027702
000190 32 cc 9b bd 54 d4 12 bd 39 9c 78 bd 1d 0c bc 3b
       -0.076073065 -0.035847023 -0.06069586 0.0057387487
0001a0 24 76 97 3d 94 88 95 3d f9 bf 3d be 05 79 2f 3e
       0.073955804 0.07301441 -0.18530263 0.17136009
0001b0 5c ca 17 bd 7e 01 3d be 76 f4 be 3d 3d 84 8e 3c
       -0.03705822 -0.184576 0.09323971 0.01739704
0001c0 22 5a 98 bc cc 19 1c be 7c cf 0e bd 31 b0 19 3e
       -0.018597666 -0.15244216 -0.03486584 0.15008618
0001d0 8f 5c d6 bd 41 94 01 3e 37 2d 17 be 39 6f ab be
       -0.10466873 0.1265421 -0.14763342 -0.33483294
0001e0 4b d6 13 3d 96 5c eb bc 64 70 4a 3e 11 89 0f be
       0.036093038 -0.028730672 0.19769436 -0.1401713
0001f0 30 29 e9 bd c6 73 47 3c 21 c5 ea 3d 02 92 4b 3e
       -0.11384809 0.012173599 0.114633806 0.19879916
000200 25 19 4f be bc b2 1d bc dc d3 a3 bc 5e e1 68 3d
       -0.20224436 -0.009625133 -0.019998483 0.056855552
000210 9a 0f 63 3e 05 89 ce bd 04 e5 1a be 40 37 84 bc
       0.2217392 -0.10084728 -0.15126425 -0.016139627
000220 bd c0 09 be 41 53 a0 3c db 35 bb 3c 48 fa 47 be
       -0.1345243 0.019570949 0.022852829 -0.19529068
000230 0d a0 a0 3d 57 89 c9 bd 61 83 6a 3d 51 c3 c5 3c
       0.07843027 -0.098406486 0.0572542 0.024140986
000240 c7 09 c3 bd 08 e7 63 3c 3e ee 42 bd 0d e4 1a 3d
       -0.09523349 0.013910063 -0.047590487 0.037815142
000250 4d 94 56 3d 24 78 4f bc 1c 1b a5 3d b7 4d df bd
       0.052387524 -0.012662921 0.08061811 -0.10903495
000260 88 fd 2f be 05 a9 4e 3e e3 43 8a 3d 31 08 37 3d
       -0.17186558 0.20181663 0.067512296 0.044685546
000270 3c 2c 6f bd 1f 22 84 3c 32 47 90 3e 46 53 5c 3e
       -0.058391795 0.016129551 0.28179318 0.21516141
000280 ea 7a 31 be 52 35 a5 bd b9 dc af be 91 67 2f 3e
       -0.17332044 -0.08066811 -0.34348086 0.17129351
000290 ef 99 aa bd 07 f4 3e be 66 cf a7 bd 60 c6 80 be
       -0.08330142 -0.18647777 -0.08193855 -0.25151348
0002a0 1d 7a 80 3e 5b a0 4b be 4f 0f 90 be e2 8c f5 3d
       0.25093165 -0.1988539 -0.2813668 0.11989762
0002b0 54 91 27 bc 67 2d 43 3e 7f 4e a8 3e a1 3e 89 3d
       -0.01022752 0.19060288 0.32872388 0.06701399
0002c0 33 2f 5c bc 30 82 a3 be 44 2a 23 be 13 f2 57 bd
       -0.013438988 -0.31935263 -0.15934092 -0.052721094
0002d0 61 97 99 bd 02 5b d2 3d 74 7a 27 3e 27 f6 0f 3d
       -0.07499576 0.102712646 0.16355306 0.03514686
0002e0 8d 97 b7 3d 55 58 1a 3e 6d e9 d8 bc c1 af 38 be
       0.08964453 0.15072758 -0.026478494 -0.18035795
0002f0 c4 5f d2 3c 68 f3 6e 3e 46 8a 8f 3a 2b ec b6 bd
       0.02568043 0.2333504 0.0010951243 -0.08931764
000300 2d 1a c3 be cb a8 df bc 0b 0a e2 3d c4 db 5f bd
       -0.38105908 -0.027302166 0.11037072 -0.054652944
000310 ce 12 ae be c4 1e 15 be 1d fb 81 bd e8 bd 16 bd
       -0.33998722 -0.14562517 -0.06346724 -0.036802202
000320 12 97 f7 3d 45 73 95 3d 1e dc be bc 7f c5 a5 bd
       0.12089361 0.072973765 -0.02329832 -0.0809431
000330 cd 3e 5f 3d bb b6 e8 3c e3 75 af bd f6 95 5a be
       0.05450325 0.028407445 -0.08567407 -0.21346268
000340 f1 9c d4 bc e7 19 41 3e f0 31 87 bd ff 60 6e bd
       -0.025953742 0.18857537 -0.06601322 -0.05819797
000350 1c 31 b7 be e3 6a f1 be 5b 82 47 3e 15 f4 29 3c
       -0.35779655 -0.4715186 0.1948332 0.010373135
000360 26 32 4b 3c 77 2c e1 bd 02 56 96 be e0 47 84 bc
       0.012402093 -0.10994809 -0.29362494 -0.016147554
000370 e8 1a a4 bc fd 4e a9 3d 6f 89 ea 3d 44 54 e5 bd
       -0.020032361 0.08267019 0.11451995 -0.11197713
000380 77 02 88 be 1b 64 18 3e 24 75 3c 3d b6 05 f0 3d
       -0.2656438 0.14881937 0.04601015 0.11719839
000390 eb f9 74 be 1b e7 8f bd 96 23 9c bd 7f 44 c1 3b
       -0.23923461 -0.07026502 -0.07623975 0.005898058
0003a0 f9 04 39 3e 9b 59 8d bc 99 be a2 3c 16 f1 f8 bd
       0.18068303 -0.017254641 0.019866275 -0.121553585
0003b0 23 ea ac 3d 0f ca 43 39 d5 44 16 3d fb 23 57 3e
       0.084430955 0.00018671922 0.036686737 0.21009819
0003c0 58 ec 3f be a6 7c 7f 3d b9 a4 03 bf 0d a2 8e bd
       -0.18742502 0.062374733 -0.5142322 -0.069645025
0003d0 86 97 de 3d 68 71 43 3d e2 d5 13 be c5 00 21 bf
       0.108687446 0.047715575 -0.14437059 -0.628918
0003e0 61 2b c9 bd 80 ff 56 3e e5 fd 14 3e 01 c3 19 3e
       -0.09822727 0.20995903 0.14549978 0.15015794
0003f0 49 dc dc be da 43 49 be d1 17 c4 bd 57 62 fc bd
       -0.43136814 -0.1965479 -0.09574855 -0.12323444

fc1.bias f4 [120]
000000 69 bd fe bb ef a4 1e bd 20 61 89 3d 1e 7e 73 bd
       -0.0077740443 -0.03873151 0.06707978 -0.059446447
000010 3f 6b 16 bd 91 92 09 3d 8a 16 3b bd c5 f0 9e 3c
       -0.03672337 0.033587042 -0.04567579 0.019401917
000020 8f c6 05 bc 8c f6 99 bd 82 57 0b bd e2 ef 7a 3c
       -0.008165016 -0.07517728 -0.034019 0.015315982
000030 34 a1 6c 3d 22 7e 0a 3d 3c a2 85 bc 0f 10 b4 3d
       0.057770923 0.033811696 -0.016312711 0.087921254
000040 d1 c5 70 3c 33 07 48 bd 9f a4 31 3d 9d d0 28 3d
       0.014695601 -0.04883499 0.043369886 0.041214574
000050 9c 6e 91 bc e4 ed 38 3d a3 f6 d7 bc 6b 98 9b bd
       -0.017752938 0.045148745 -0.026362723 -0.07597431
000060 67 dd 96 bd 34 3f 2a bd 90 6d 13 3d e9 3f 97 3c
       -0.07366448 -0.04156418 0.03599316 0.018463092
000070 da 35 e5 bc 7b da f2 3d d4 b5 2e 3d 3c 30 8f 3d
       -0.02797978 0.11858078 0.042653874 0.06991622
000080 35 7f 01 bd b4 46 64 bd da 88 60 bc d2 07 35 3d
       -0.031615455 -0.05573149 -0.013704503 0.04419691
000090 3b c6 ff bd 83 43 64 be ae f3 80 3d 20 2c 02 3d
       -0.12488981 -0.22291379 0.06296478 0.031780362
0000a0 f9 26 01 3e 93 6c 5a bd 54 a0 65 3d d4 e4 30 bd
       0.12612523 -0.0533262 0.056061104 -0.043186978
0000b0 c9 8c 24 3c 68 48 98 bd 2f 73 56 3c 2e 03 9e 3c
       0.010043331 -0.074356854 0.013088985 0.019288626
0000c0 83 f0 20 3c 2e 6a 84 3c cb fb 97 3c 90 d0 d9 3b
       0.009822967 0.016163912 0.018552681 0.006647177
0000d0 eb 63 fa bd ee 9b 8b 3d a6 97 49 bd c9 01 65 3d
       -0.12226089 0.068168506 -0.04921689 0.055909906
0000e0 6d 03 c1 bc e7 31 d2 bd 3b e4 3b bc 2a be 02 3e
       -0.023561204 -0.10263424 -0.011467989 0.12767854
0000f0 d1 3a de bc 48 1e f2 bd c0 ed 0c bc 0d de 64 3d
       -0.027127655 -0.11822182 -0.008601606 0.055875827
000100 ad b2 a2 bd aa bd c7 bc 35 66 28 3a 67 4b 63 bc
       -0.07944236 -0.024382431 0.00064239214 -0.013872958
000110 24 d9 c4 bc 21 7e 1a bd 9f cd 1a 3d 91 74 d6 b7
       -0.024029322 -0.037717942 0.03779375 -2.5565068e-05
000120 9c f5 ae bc 4c a2 b1 3b ae 8d 64 bd cc 6a 15 bc
       -0.02135735 0.0054209586 -0.05579918 -0.009119701
000130 50 41 c8 3c dc bc ec bd 28 f1 84 bd a6 3a 13 bc
       0.024445206 -0.115594596 -0.064913094 -0.008986151
000140 1c 50 d7 bc 74 05 ca 3c cb 57 a8 bd 0f 1c 75 bd
       -0.026283316 0.024660803 -0.0821987 -0.059841212
000150 94 12 09 bd a5 ad 7c bc 69 6a ce 3d 48 46 6e 3d
       -0.033464983 -0.015422259 0.1007889 0.058172494
000160 6e 50 0f be 23 18 33 3d 05 1c c9 3c 1b 30 09 bd
       -0.13995525 0.04372419 0.024549494 -0.033493143
000170 22 12 48 bd 8a 00 4f 3d dd b2 36 bd 2c 4b 47 3c
       -0.048845418 0.050537623 -0.04460417 0.012163918
000180 9a b1 1e bd 16 92 30 bd 9d c3 7b 3b 75 c1 22 be
       -0.038743593 -0.04310807 0.0038416155 -0.1589411
000190 ff de 03 3e 11 ac 87 ba c3 1d 1f bc e2 ba a4 3d
       0.12878035 -0.0010350962 -0.009711686 0.080434576
0001a0 f8 5d 04 bb 62 fd 4c bd c6 43 24 bc 81 a9 eb bc
       -0.0020197611 -0.050046332 -0.010025924 -0.02876735
0001b0 ee 18 7c 3d 9a 4f b9 bd 3c da 41 3d 6f 72 60 3c
       0.061547212 -0.09048386 0.047327265 0.013699158
0001c0 94 b0 cc bc 9d 6d 91 3b 2b 70 49 bd 62 19 9f 3d
       -0.024986543 0.0044381157 -0.049179237 0.07768513
0001d0 e8 c5 d1 bc 87 27 2b bd b7 a0 51 bd 9c bc 52 bd
       -0.025607064 -0.041785743 -0.05117866 -0.051449403

fc2.weight f4 [84, 120]
000000 04 06 d2 3d c6 9b f0 bd 5e fc 24 bd ec 03 64 3e
       0.10255054 -0.117484614 -0.04027974 0.22267121
000010 26 75 97 3e 52 87 22 3e a5 7e 66 3d 5f c2 b8 3e
       0.29581565 0.15871933 0.05627312 0.36085793
000020 0a 8e d8 3c 2b 7f fc bc 2f fd b0 bc f9 f9 8b 3e
       0.026434917 -0.030822357 -0.021605102 0.27339152
000030 62 10 cb 3c 0e 2f 14 be 76 df a4 bc 2a a8 d8 3d
       0.024788085 -0.14471075 -0.020126086 0.1057895
000040 d1 8c 9d bd e5 be 17 bb 58 2a e8 bc 59 56 8d 3d
       -0.07692874 -0.0023154553 -0.028340504 0.06901235
000050 e0 f9 ee 3d 2c 61 1e 3b 6d 87 8e 3d d8 71 21 bd
       0.116687536 0.0024166806 0.06959424 -0.03941521
000060 64 28 4f 3d 81 98 90 bd 42 79 31 bd e2 1a dd 3d
       0.05057563 -0.07060338 -0.04332853 0.10796143
000070 8e f2 16 bd 8b 1c 8c bd fa 16 04 3f ae 6c 2f bd
       -0.036852412 -0.06841382 0.5159756 -0.042828254
000080 38 10 71 3d 76 e2 64 3d 3f eb 8a 3d e6 02 c2 3e
       0.058853358 0.055880032 0.06783151 0.37892836
000090 8b 2e de bc cb 00 f8 3d 6c 61 72 be 26 f1 be 3c
       -0.027121803 0.12109526 -0.23669976 0.023308348
0000a0 ef c3 ae 3c a6 3c f3 3c 5c 09 e6 bd ac b3 ee 3c
       0.021333663 0.029692005 -0.11232254 0.029138409
0000b0 1d cb 8a 3e ab 7e 0a bc 0b 36 92 bc ed 8a 85 3e
       0.27108088 -0.008453052 -0.017848035 0.26082554
0000c0 2f 30 1c 3e c5 c8 7e bd 89 89 a4 3d 2e af 13 bd
       0.15252756 -0.062203187 0.08034045 -0.036055736
0000d0 d4 67 09 3d 93 3b bb 3e d0 44 85 bd f3 3f 9a bc
       0.033546284 0.3656889 -0.065072656 -0.018829321
0000e0 a7 69 5a 3d c2 f3 11 be 04 70 fa 3a 8c 7d 60 3e
       0.053323414 -0.14253142 0.001910687 0.21922892
0000f0 0f 17 85 3d 80 b0 d3 bd b7 ab 28 bd 26 f0 97 3e
       0.06498539 -0.10336399 -0.041179385 0.29675406
000100 92 ba 7c bd ca 54 94 3d f0 82 5c 3e 18 a4 b4 3d
       -0.061701365 0.07242735 0.21534324 0.08820361
000110 03 5b bb 3c 5a db 8a be 0f 28 8d 3e d8 61 c1 3c
       0.022870546 -0.27120477 0.27569625 0.023606226
000120 40 f2 23 bd f3 ac 13 be b4 79 1c be c0 e6 6d 3d
       -0.04002595 -0.14421444 -0.15280801 0.05808139
000130 68 db 9e 3e 1c af aa 3e d2 73 48 3d 20 b3 28 bd
       0.3102677 0.33336723 0.04893858 -0.041186452
000140 b8 a0 99 3d 69 0b 13 3e 93 e9 c1 3d 17 d1 13 bd
       0.07501358 0.14359821 0.09468379 -0.036088075
000150 22 38 89 3d 61 01 0c 3e 8b 67 10 bd 1b 24 25 bd
       0.067001596 0.13672401 -0.035254996 -0.040317636
000160 24 be 29 3e a0 7c 0e 3e 26 04 47 bd 67 ac 41 bd
       0.16576439 0.13914728 -0.04858794 -0.047283556
000170 69 fd 43 3d fe d1 6c 3e 7b 1d 13 be 77 e5 a6 bd
       0.047849093 0.2312698 -0.14366715 -0.08149236
000180 19 9e 09 3d 50 1a 80 3e 15 9c fe 3d d7 48 74 3c
       0.03359804 0.25020075 0.12432114 0.0149099445
000190 f2 2a 30 bc cd 12 d1 3c 57 e7 a5 3d c8 ba 42 3c
       -0.010752426 0.02552166 0.08100765 0.011885352
0001a0 79 07 ac bc 1a fc 6b bd de ca 80 3d d4 21 9b 3c
       -0.020999657 -0.05761347 0.06288694 0.018937029
0001b0 b1 d7 62 be b2 b8 1c bd 9f a1 2c 3e ca da 99 3d
       -0.22152592 -0.038262077 0.16858529 0.07512434
0001c0 7b 83 12 bd 62 c2 33 bd 70 26 2f 3e 8a 54 0e 3d
       -0.03576992 -0.04388655 0.17104506 0.03474859
0001d0 b2 c1 ea 3c 39 cf a9 bd 11 7d 7a bd 43 d5 98 bd
       0.028656814 -0.08291478 -0.06115443 -0.074625514
0001e0 91 85 3b bb 14 e4 46 be bb 22 b7 3e 09 2b 8b 3d
       -0.0028613547 -0.19422942 0.35768685 0.06795318
0001f0 da 52 86 bd 6d 50 66 3c 92 12 29 3d f0 33 42 bd
       -0.065587714 0.014057261 0.041277476 -0.047412813
000200 43 46 a9 ba 6e 1b 03 3d 21 ca 5b 3c 2a 12 11 be
       -0.0012914616 0.03200858 0.0134148905 -0.14167085
000210 1f cc 27 be c1 07 8a be f7 6c 61 3e 79 40 a5 3d
       -0.1638646 -0.2695904 0.22014223 0.08068938
000220 17 37 ab bc d0 2b d3 ba 25 c5 82 3e dc 75 ca bd
       -0.020900292 -0.001611108 0.25541034 -0.09885761
000230 d4 0e cf 3d 59 42 54 be 79 79 06 3e b5 d6 f9 3c
       0.1011025 -0.20728435 0.13132276 0.030497888
000240 c9 1c dd bd 68 e0 45 bd cc c6 9b be 55 4f 60 be
       -0.10796506 -0.048309714 -0.30425107 -0.21905263
000250 59 39 0c 3d 81 c6 9d 3c 82 dd 85 3e c3 f7 f7 be
       0.03423438 0.019259693 0.2614556 -0.48431215
000260 28 b0 89 3d 50 c6 68 3c 97 ad 81 3c bd 7a b4 be
       0.06723052 0.014207438 0.015829844 -0.35249892
000270 55 8b ac be 88 fc 39 be 4f 2a 81 be 01 cd 12 3e
       -0.33700052 -0.1816274 -0.2522759 0.14336015
000280 7a 5b 09 be 4e 31 86 3e f1 97 bc 3c ed 13 7c be
       -0.13413802 0.26209491 0.02302167 -0.24616976
000290 12 48 3b be 82 75 b3 3d 5a da 3e 3e 55 07 98 be
       -0.18289211 0.08762647 0.18637982 -0.29693094
0002a0 30 b4 96 3d a1 71 37 3e bc 5d 14 bd 90 f8 cb bc
       0.07358587 0.1791444 -0.036222205 -0.024898797
0002b0 75 a8 64 be 53 8a 36 be c2 96 f9 bd 55 91 27 be
       -0.22329886 -0.17826204 -0.12186958 -0.16364034
0002c0 7f cf 73 bc aa d9 68 3d bf 3c a1 be 38 28 7e bd
       -0.014881014 0.056848206 -0.31491658 -0.062050074
0002d0 87 61 22 bc 77 30 49 be 85 d3 a4 3d 85 f0 98 bd
       -0.009910948 -0.19647394 0.08048157 -0.074677505
0002e0 34 a2 38 be 35 d7 bd be 2f d8 ba 3d 1a 09 fe bb
       -0.18030626 -0.37078252 0.09123265 -0.00775255
0002f0 69 82 80 bd 42 fc 63 be 6c aa 60 3d 8d 42 9c be
       -0.06274874 -0.22264197 0.054850027 -0.30519524
000300 72 0a 8c bc 78 c9 55 bd 35 eb 11 be 9f 49 52 3d
       -0.017094824 -0.05219409 -0.1424988 0.05133974
000310 2e 43 dc 3c 79 5c 18 bd 0b 0e 92 bd 89 ae 8a 3e
       0.026887503 -0.037197564 -0.07131585 0.27086285
000320 80 05 a0 bd 9d 0c be be fa e7 45 be d9 48 ca 3d
       -0.07813549 -0.37118998 -0.19326773 0.09877176
000330 01 c8 34 be 52 7f 36 3e 37 68 7d 3e e2 27 9d be
       -0.1765442 0.17822006 0.24746786 -0.3069449
000340 1a e0 4b be da 08 98 be bc 46 96 3d 3f e8 81 bc
       -0.19909707 -0.29694253 0.0733771 -0.015857814
000350 e1 c6 93 bc 8e 26 ed be 9e 67 15 3e 26 ec b4 bc
       -0.018039169 -0.46318477 0.14590308 -0.02208526
000360 d2 38 45 3d 25 3e 93 bd c1 43 7d 3d 4b 1a f2 3c
       0.04814989 -0.071895875 0.061832193 0.029553553
000370 8a f8 85 be f9 e6 2a bd 96 a9 a6 3d 51 02 53 3d
       -0.26166183 -0.04172418 0.08137815 0.05151588
000380 94 3e a7 3d cf 27 8f bd b4 15 b1 bc d8 19 36 bd
       0.08166233 -0.06990015 -0.021616794 -0.04445824
000390 52 88 75 3c 2a 09 87 be ed 18 88 3e 34 29 36 3c
       0.014986115 -0.2637418 0.26581517 0.011118222
0003a0 5b 69 96 be 2b fe a3 bd e3 3d 53 bd 24 01 69 be
       -0.29377255 -0.08007463 -0.05157269 -0.22754341
0003b0 a6 4e 3c bd e2 a7 87 3d 3e 60 86 3d 26 f0 f4 bc
       -0.045973442 0.06623818 0.065613255 -0.029899668
0003c0 54 51 34 be 65 84 e4 bd 39 9d 68 be 53 66 c4 bd
       -0.17609149 -0.11158065 -0.22716226 -0.09589829
0003d0 b9 4e 01 3e 74 ec d8 3d 50 07 1a bd ca f4 e7 3d
       0.12627687 0.10591975 -0.03760463 0.11325987
0003e0 0a 50 ac 3d be 86 a6 bd 3b 7e 74 bd d4 4a 6a 3e
       0.08413704 -0.08131169 -0.059690695 0.22880107
0003f0 b9 84 8d bd ee 36 e3 bd 18 24 98 be e5 89 1c 3e
       -0.069100805 -0.110944614 -0.29715037 0.15286978

fc2.bias f4 [84]
000000 b8 7a 1a 3e 29 c0 c7 3e b8 32 84 3d 58 7f 0a 3e
       0.15085876 0.39013794 0.06454986 0.1352514
000010 6d bd 48 3e 34 b4 70 3e 04 0a 5e 3e b7 70 33 3e
       0.1960351 0.23506242 0.21683508 0.17523466
000020 16 76 a6 3e 92 08 e3 3d 27 6f 18 3e f5 47 a3 3e
       0.32511967 0.11085619 0.14886151 0.31890836
000030 67 98 24 3e fc 89 78 3e 52 53 3b 3e 89 4e af 3d
       0.16073762 0.24271387 0.18293503 0.08559901
000040 10 5b 59 3e c9 ec 8b 3e 86 16 91 3e 82 48 9c 3e
       0.21226144 0.2732909 0.28337497 0.3052407
000050 e4 ae 7a 3e 32 9d 72 bc 10 6c aa 3e 30 d3 7b 3e
       0.24480778 -0.014807986 0.3328557 0.2459228
000060 12 9d 6f 3e 1c 03 1c 3e 22 fd 8c 3e d1 5e 1d 3e
       0.23399761 0.15235561 0.27536875 0.15368201
000070 d8 7c 41 3e 78 e0 79 3e 5a db 6d 3e fb e6 88 3e
       0.1889528 0.24402034 0.23228207 0.26738724
000080 1f f3 e8 3d 67 73 02 3e c8 11 c0 3d 8d 04 88 3e
       0.11374497 0.12739335 0.093783915 0.26565972
000090 de 42 cd 3e 1e aa d3 3e 26 82 71 3e 61 16 c6 3e
       0.40090078 0.41340727 0.23584804 0.3868895
0000a0 83 0f 9b 3e 6e 09 93 3e f5 d4 d4 3e 72 c0 29 3e
       0.30285272 0.28718132 0.41568723 0.16577318
0000b0 3c a8 a7 3e 1e 26 8a 3e 9f f3 88 3e 10 12 49 3e
       0.3274554 0.26982206 0.26748368 0.19635797
0000c0 8a 0f 64 3e 91 f2 7e 3e da 38 37 3e d6 53 cd 3e
       0.22271553 0.24897219 0.17892781 0.40103024
0000d0 d8 71 85 3e 80 89 e7 3d 57 b6 d3 3d be 8a 84 3e
       0.26063418 0.11305523 0.10337513 0.25887102
0000e0 2e 4b c4 3d 02 ef 31 3e 1a c3 62 3e c9 c3 2a 3e
       0.09584652 0.1737633 0.22144738 0.16676249
0000f0 86 e2 a5 3e f5 f2 79 3e bf 75 a8 3e bd d7 52 3e
       0.32399386 0.24409087 0.32902333 0.2059011
000100 a7 46 d0 3e 3d b3 7b 3e 5b 53 7b 3e e8 b5 b8 3e
       0.40678903 0.24580093 0.24543516 0.36076283
000110 63 b7 af 3e 61 1a e0 3e 3e 77 3d 3e 3b b7 7d 3e
       0.343196 0.43770126 0.18502519 0.24776928
000120 d6 5d d6 3e 9a 8c 9d 3d 65 54 81 3e 9f 5b 55 3e
       0.41868466 0.07692833 0.252597 0.20835732
000130 c9 28 15 3e f4 ea 68 3e 85 42 b6 3e 9c 9e 49 3e
       0.1456634 0.22745878 0.35597625 0.19689411
000140 20 0c c2 3e 7c 69 58 3e 9a 0a 51 3e 8b 88 4a 3e
       0.37899876 0.21133989 0.204142 0.1977865

fc3.weight f4 [10, 84]
000000 d2 00 e8 3c 28 bd de 3d 88 4c 11 be 2e b0 9d 3d
       0.028320704 0.108759224 -0.1418935 0.07699619
000010 44 3a 92 3d 77 21 da 3c ec c3 12 be 52 4d e1 be
       0.071400195 0.026627285 -0.14332551 -0.44004303
000020 77 af a9 3d 35 5a b2 bd 81 db 7e 3d 72 75 90 be
       0.082854204 -0.08708612 0.062221054 -0.28214604
000030 8e 2d bf 3b f4 a7 b4 3d 33 1c 82 be da ea d4 be
       0.005834288 0.08821097 -0.2541214 -0.41585428
000040 04 01 10 be 90 98 f4 3d 28 d4 00 3e f3 3c 03 be
       -0.14062887 0.119431615 0.12580931 -0.12816219
000050 f1 ea af 3d 22 a6 de bd 05 88 f3 3d 3f ae 63 3d
       0.085897334 -0.10871531 0.11891178 0.055586096
000060 47 22 95 be 58 86 d4 3d 9d 0e 2c 3d 6e 18 26 bd
       -0.29127714 0.103771865 0.042006124 -0.04055064
000070 41 79 eb be 5a 81 e6 bd c8 5b 40 be d1 f4 e5 bd
       -0.45990947 -0.112551406 -0.18785012 -0.11228336
000080 8b 9a 44 3c 07 c9 63 be 90 56 b6 3a 10 af 08 be
       0.011999737 -0.22244655 0.0013911296 -0.13348031
000090 fd 31 0b 3e 32 65 c0 3d 25 fd 70 bd 1c af d1 bd
       0.13593288 0.093943015 -0.058835167 -0.102384776
0000a0 46 37 9e be b4 e9 ab ba 35 3d 1d 3e 11 c3 3a be
       -0.30901545 -0.0013115914 0.1535538 -0.18238474
0000b0 7a c2 d2 3d 3d 79 83 3d 57 3a cb 3d d9 ae 93 be
       0.10291 0.06419609 0.09923237 -0.28844336
0000c0 63 60 09 bd c7 b0 45 3d fd c9 02 3e eb 88 29 3e
       -0.033539187 0.04826429 0.12772365 0.16556136
0000d0 14 a4 c2 be 2e 7f 0b bd f1 32 b1 bd 43 2c 8e 3d
       -0.38015807 -0.034056835 -0.086522944 0.06942036
0000e0 a0 63 c1 3d 17 b3 7c be ec 09 18 3e da b1 85 be
       0.0944283 -0.24677692 0.14847535 -0.26112252
0000f0 87 a6 0f 3c 65 69 46 be c8 c7 b4 3d f9 f5 2e be
       0.008767731 -0.19376142 0.08827168 -0.17086019
000100 95 97 07 be 28 60 bf 3d 1c bd 8d be e5 ce 05 be
       -0.13241418 0.09344512 -0.27683342 -0.13067205
000110 02 7d 0f bf 99 0e 12 3e 29 32 23 be fa b7 78 be
       -0.5605012 0.14263381 -0.15937103 -0.24288931
000120 17 5d 0d 3e 90 3a 23 be 68 d7 08 3e ed 04 25 be
       0.13805042 -0.15940309 0.13363421 -0.1611516
000130 51 c4 90 3c e5 f0 0d be 88 66 d1 3d 77 34 19 be
       0.017671736 -0.13861425 0.102246344 -0.1496142
000140 f4 02 64 be 87 a9 db 3d 17 3e 48 be a1 c4 0a bd
       -0.22266752 0.10725694 -0.19554935 -0.033878926
000150 b3 ad 51 3d 7b 45 c8 be 9c 13 f6 3d ac 48 d4 3d
       0.051191043 -0.3911551 0.12015459 0.103654236
000160 95 ea dd 3d 54 f1 ea 3d 2e 94 c3 3d ad 8d 14 3e
       0.108357586 0.11471811 0.095497474 0.1450717
000170 46 f9 c0 3d 0d 7e eb be 1b b8 ca 3c 13 cf c7 bd
       0.09422545 -0.45994607 0.024745991 -0.09756293
000180 cf 62 bf be 90 cb 13 be 64 57 d7 3c 84 ac ef be
       -0.37380072 -0.14433122 0.026286788 -0.46811306
000190 8b c0 83 be 0b 18 d7 be 09 15 da be 49 0e 04 3e
       -0.25732836 -0.4201053 -0.42594174 0.12896074
0001a0 59 c0 b5 be b4 7a 18 3e 5c 02 c0 be 96 1e 18 be
       -0.35498312 0.14890558 -0.375018 -0.14855418
0001b0 c5 e5 5b bd 63 b5 fb 3d 81 dc a7 be 76 57 fa 3d
       -0.053685922 0.12290456 -0.3278542 0.12223713
0001c0 b8 cf 50 3d e5 a0 bf be 18 d4 c1 be f1 44 80 3d
       0.050979346 -0.3742744 -0.37857127 0.062631495
0001d0 24 a9 73 3c d8 3a d3 3d 8c 5a 51 3e 4d 6c 94 bd
       0.014871869 0.10313958 0.20444697 -0.07247219
0001e0 f8 d3 90 be e0 f4 07 bf 5d 8a b7 be 6a 73 f4 be
       -0.2828672 -0.53108025 -0.3584775 -0.47744304
0001f0 b9 6e 90 3d be 53 26 bf 07 e2 85 be 73 37 36 3d
       0.07052369 -0.6497153 -0.26149008 0.044486474
000200 8f c8 3c be d1 44 af be 64 47 d1 3d 81 c7 20 be
       -0.18435882 -0.3423219 0.10218695 -0.15701105
000210 b7 dd 1f 3e f0 84 c5 be 10 ca 1a 3e 32 25 d4 bc
       0.15611921 -0.38577986 0.15116143 -0.025896642
000220 73 03 fc be ac 56 81 3d 29 62 4f 3e 44 e6 14 be
       -0.49221382 0.063153595 0.20252289 -0.14540964
000230 31 0f 0f 3e 3e f1 1d 3e 93 ef e0 bd 61 f2 06 bf
       0.13970639 0.15424058 -0.10983195 -0.5271359
000240 5b d8 03 bf 22 12 ec be 64 2b f3 bb 78 5c ac be
       -0.5150201 -0.46107584 -0.007420944 -0.33664298
000250 46 68 13 be df ec 50 be b5 10 2c 3e ad fb f9 be
       -0.14395246 -0.20402859 0.16803248 -0.48824826
000260 95 e3 cb be bf ed 15 be 3c 77 85 3d 3a 8d 4a 3e
       -0.3982207 -0.14641474 0.06516883 0.19780436
000270 ed 5a be be a3 99 c2 be 02 a3 2b bf fb 1d 54 be
       -0.37178746 -0.3800784 -0.67045605 -0.20714562
000280 7d 95 d7 3d 0b fa 13 3e 06 f8 0c 3e f3 51 46 3e
       0.105265595 0.14450853 0.13766488 0.19367199
000290 03 d8 14 bf af 3d 10 be 44 9c 3e be 6c 8c c9 be
       -0.5814211 -0.1408603 -0.18614298 -0.39364946
0002a0 2f 71 8f be c7 fb 02 3e ed ef 1b be 59 f0 59 be
       -0.2801604 0.12791358 -0.15228243 -0.21283092
0002b0 11 35 7c be 80 14 b3 be f6 a5 bb 3c 7f cd ba bc
       -0.24629618 -0.34976578 0.022906285 -0.022803066
0002c0 d8 a5 81 3d a5 78 be be 77 e2 b9 be 97 20 ef 3d
       0.0633046 -0.3720142 -0.3630559 0.11676138
0002d0 bf b8 0e bd 80 99 03 be 26 2a 9a 3d 26 34 ae be
       -0.034844156 -0.12851524 0.075275704 -0.3402416
0002e0 69 db 91 3b d3 07 85 be f4 ba de 3d c2 e8 a5 3d
       0.0044512046 -0.25982532 0.10875502 0.08101036
0002f0 27 1d 69 3d 25 85 b8 be 9e 08 e3 3d 3f 4d 5d be
       0.056912567 -0.3603908 0.11085628 -0.21611498
000300 ff 1c 83 3d d1 55 29 be b6 8c d7 be 35 56 08 be
       0.06402015 -0.16536643 -0.4209954 -0.13314135
000310 81 b9 9a bd fa 2a c6 be e5 04 08 3d 71 9c 2b bd
       -0.07554913 -0.38704664 0.033207793 -0.04189724
000320 d1 17 cd be 9b 8a a3 3b 87 fe 06 3d ee e4 03 bf
       -0.40057233 0.0049908883 0.03295758 -0.51521194
000330 38 c8 d2 3d b5 99 be 3d 08 c1 42 be aa 0f b9 3d
       0.10292095 0.09306661 -0.19018948 0.09036191
000340 0c 66 f3 3c 68 ec 3c bb 6f b5 1c 3e 59 25 7d be
       0.029711746 -0.0028827433 0.15303586 -0.24721278
000350 c7 e2 35 be d5 e3 04 3e f4 14 9f bd 2f 9c c6 be
       -0.1776229 0.12977536 -0.07767668 -0.38791034
000360 b5 b1 42 be d2 57 0d 3d 54 d6 d1 3d 5c 6f 1d bd
       -0.19013102 0.03450758 0.10245958 -0.03843628
000370 77 41 ed 3c 00 25 1d bf 97 44 06 bf d5 ee 65 be
       0.02896188 -0.6138458 -0.5244841 -0.22454388
000380 07 1f 9e 3d 81 9d dc 3d f5 b0 4c bd 62 83 36 be
       0.07720762 0.10772229 -0.049973447 -0.17823556
000390 a5 b6 77 bd 89 21 f4 3d 2b e6 12 be 4d f2 d2 3d
       -0.060476918 0.11920459 -0.14345615 0.103001215
0003a0 20 ac 87 3d 8a 42 66 3d b4 c6 a9 3d 93 b4 90 bd
       0.06624627 0.0562158 0.08289853 -0.07065692
0003b0 e7 f8 5f be a6 47 f3 3d c5 b3 d1 bd 59 03 93 3d
       -0.21872292 0.118789 -0.102393664 0.07178373
0003c0 14 28 09 3e be ea 41 be 38 fd 0e 3e 7e 94 ce 3d
       0.13394195 -0.18937203 0.13963783 0.100869164
0003d0 bc c3 01 3d e1 51 c9 bd 3d c6 8d 3d 60 59 25 3c
       0.031680807 -0.0983007 0.069225766 0.010092109
0003e0 c6 7a e6 3d a7 b5 ed 3d 5e 7f ee 3d 50 db c4 be
       0.11253886 0.11606913 0.11645387 -0.38448572
0003f0 23 11 62 3d 26 11 87 be 55 f0 d2 3d 07 04 ac 3d
       0.055192124 -0.2638027 0.10299746 0.08399206

fc3.bias f4 [10]
000000 c2 6b a1 bd ea d1 2a bf 06 ab 14 3e 42 2a a7 3e
       -0.07881881 -0.66726553 0.14518365 0.32649428
000010 dc c2 20 3e 37 55 e5 be be 79 c4 3d 5e 2c 82 3e
       0.15699333 -0.44791576 0.09593533 0.25424474
000020 48 69 c9 3c 26 39 cb be
       0.024586335 -0.39692038
