hw1/models/Weight_Decay_final.pth (torch, 250578 bytes, 10 tensors)

conv1.weight f4 [6, 1, 5, 5]
000000 85 ed 15 bf 46 2a ad be 38 4e ba 3e 0f 20 33 3d
       -0.5856555 -0.33821315 0.363878 0.043731745
000010 07 c1 57 3e 11 4b 5b be 72 ba ad 3d 44 da 5b 3e
       0.21069728 -0.21415354 0.08482827 0.2146998
000020 aa cb 91 3e f4 27 82 3d ec f8 57 3c 14 0a 4c 3e
       0.28475696 0.06355277 0.013181906 0.1992572
000030 90 0d 3a 3d 62 60 8e 3e ee 37 50 3e a8 8b a6 be
       0.04542309 0.2780791 0.20333835 -0.32528424
000040 1e a4 a9 3e f0 0d 08 3e 08 14 28 3e b2 05 98 3e
       0.33133024 0.13286567 0.16413891 0.29691845
000050 25 93 f5 be 81 e3 74 bc 54 d8 3a 3a 92 9d 9c be
       -0.47963825 -0.014946819 0.00071275723 -0.30588967
000060 36 1c be be 60 86 d7 3d 6d f9 e8 bd b8 51 cf 3e
       -0.37130898 0.10523677 -0.11375699 0.40492034
000070 bc a6 fe bd 4e e6 79 be 0c fd 56 3d ed 45 09 be
       -0.12434146 -0.2440426 0.052487418 -0.13405581
000080 40 65 1d 3f cb 7b 92 bd 50 e0 e6 be e3 6d c0 3d
       0.6148262 -0.07152518 -0.45093012 0.09395959
000090 f5 2b 99 bd 12 fd c8 3e e5 45 3a be 87 12 6e be
       -0.07479087 0.39255577 -0.18190725 -0.23249255
0000a0 f9 e4 e7 bd 50 b2 8d be 87 45 eb 3e 92 df 9a 3e
       -0.1132297 -0.27675104 0.45951483 0.30248696
0000b0 7f 12 bc be 75 3b 3c bd 45 cb 5f be 98 5a 52 3d
       -0.3673286 -0.04595514 -0.21854885 0.05135593
0000c0 8d a2 a1 3e cb 8d de bd d3 90 6e be c4 56 b4 3e
       0.3156933 -0.108668886 -0.23297434 0.35222447
0000d0 54 31 44 bd e2 d0 34 bc c5 5e 0f bd da 94 91 be
       -0.047898605 -0.01103613 -0.03500249 -0.28433877
0000e0 a4 1f 3c 3e 73 10 9f 3d b7 d3 97 3e cb bf 87 be
       0.18371445 0.07766809 0.29653713 -0.26513514
0000f0 0a 6a a7 be 84 60 4e bd 63 7c 89 3e 55 33 8e 3e
       -0.3269809 -0.050385013 0.26852712 0.27773538
000100 d0 44 2b be 31 b2 d5 be aa 49 c2 3e 55 2c 4a 3e
       -0.16725469 -0.41737512 0.37946826 0.19743474
000110 eb b9 c3 bd ce e6 84 bd 3e 59 bc be 75 81 e1 3e
       -0.095569454 -0.06489335 -0.36786836 0.4404408
000120 09 ce a0 3d 59 23 cc bb fd ca 12 be 07 b8 c6 bc
       0.07851798 -0.0062297997 -0.14335246 -0.024257673
000130 3c 61 99 bd 4f 4d 3c 3e 94 49 13 bd d8 ce c2 3d
       -0.07489249 0.18388866 -0.03595884 0.095121086
000140 34 5e 0c be 8b 5e ea bd 77 98 24 be 57 7f 26 bd
       -0.1370781 -0.11443814 -0.16073786 -0.040648784
000150 9a 1b 6b 3d 8d d3 09 bc ee a9 4e be c5 84 6e be
       0.05739937 -0.008412254 -0.2018201 -0.23292835
000160 3d 65 80 be 93 65 9b be 88 a6 f9 3c 15 b6 d7 3d
       -0.2507724 -0.30350932 0.030474916 0.10532776
000170 24 b9 92 be b5 18 8d be 49 6e 85 be be c1 fe bd
       -0.28656876 -0.27557912 -0.26060703 -0.12439297
000180 43 d9 8d 3b e6 83 c9 3d 8b e2 90 3d 53 09 c4 3d
       0.004328878 0.09839611 0.0707446 0.09572091
000190 45 27 be 3e 14 92 0e 3f 5b 51 c8 bd 17 c5 1b 3e
       0.37139335 0.5569165 -0.09781142 0.15211903
0001a0 10 53 9f bd 3e 67 94 3e 3c 48 e4 3d d5 a1 6d be
       -0.07779515 0.28985018 0.1114659 -0.23206265
0001b0 16 09 c3 3d 97 23 a9 3d d2 61 28 3d a8 56 5b be
       0.095232174 0.08258741 0.041108914 -0.21419775
0001c0 ab 17 c8 be 10 19 92 be b9 f0 bc 3e a3 05 15 be
       -0.39080557 -0.28534746 0.36902407 -0.14552931
0001d0 c9 30 1c bf b1 67 b1 be c5 59 4b bd 24 27 71 3e
       -0.6101194 -0.34649423 -0.049646158 0.23550087
0001e0 71 b4 a6 be 1d 14 da be 1c 44 d5 bd 2e 33 46 bc
       -0.3255954 -0.4259347 -0.104133815 -0.012097163
0001f0 31 b9 2b bc 23 f7 45 be c1 5c fc be 8b ba 15 bf
       -0.010481165 -0.19332556 -0.49289516 -0.58487767
000200 ae 06 f9 3d 90 07 47 3e 23 c6 58 be 63 3b 17 bf
       0.12159477 0.19436479 -0.21169333 -0.5907499
000210 c8 8e c4 be 59 de b4 3e 90 24 29 3e 20 91 2f 3e
       -0.38390183 0.35325888 0.16517854 0.17145205
000220 82 63 47 bd 7f 8f 1f 3e 31 a7 1f 3e f3 eb fc bd
       -0.048678882 0.15582083 0.15591122 -0.12349691
000230 b1 9c 3a 3e 76 30 a6 bd 86 51 22 3f f8 a7 13 be
       0.18223836 -0.08114712 0.63405645 -0.14419544
000240 db 57 07 3e 8e 69 0b be a0 d4 69 3e ab fe d7 3e
       0.13217108 -0.13614485 0.22835016 0.42186484
000250 97 0d 49 bd ac 56 ef bd
       -0.049085226 -0.11686453

conv1.bias f4 [6]
000000 22 8d cc 3d fd e0 86 bc 11 ab ac bc 5e b9 23 bf
       0.099878564 -0.016464705 -0.021077665 -0.6395472
000010 14 d3 16 be 4d 0d 90 3d
       -0.14728957 0.07033787

conv2.weight f4 [16, 6, 5, 5]
000000 65 34 cb bd 21 97 4a 3e 17 70 96 3c 70 cd 10 3e
       -0.09922103 0.19784214 0.018363995 0.14140868
000010 ee 67 26 3d e8 0a 95 bd a5 24 4a bd 7a 2b f6 3d
       0.04062646 -0.07277471 -0.049351353 0.12020011
000020 c0 d0 2e be fc 1d f1 3d 10 81 1f 3c 1c a5 28 ba
       -0.1707182 0.11773297 0.009735361 -0.00064332946
000030 44 b8 37 3e 07 88 8f 3e fc 67 4c 3b 09 27 0f 3d
       0.17941386 0.28033468 0.003118991 0.034949336
000040 2d a1 ce 3d 3e 86 0d 3e 51 98 cc 3d a0 f2 78 3d
       0.100893356 0.1382074 0.099899895 0.06077826
000050 e7 36 84 be 12 80 af 3d d5 bf d6 bc 64 59 b2 3d
       -0.25823137 0.08569349 -0.02621452 0.08708456
000060 5b 28 35 be 3c 88 8d 3e 87 2f c0 be 5d 95 a8 3d
       -0.17691176 0.27643 -0.3753626 0.08231614
000070 47 05 89 3e 58 42 31 bd f0 bf 8b 3e a1 9d 8a 3d
       0.2676184 -0.04327616 0.27294874 0.067683466
000080 dc c5 95 be dd 66 2b 3d 1d 5a 15 3d db dd cd bd
       -0.29252517 0.041846145 0.03646289 -0.10052081
000090 22 0b 9c 3d 0d 82 d4 be 58 4b 88 be 7d ab 69 3e
       0.07619311 -0.4150547 -0.26619983 0.22819324
0000a0 2d 5d 58 be 9a 4b a2 3e f4 73 a3 be f3 61 95 bf
       -0.21129294 0.31698304 -0.31924403 -1.1670517
0000b0 64 fb 04 bf 71 58 ca 3d db be 93 3d 8f 34 ef bc
       -0.5194609 0.0988015 0.07214137 -0.029199867
0000c0 dd 9f 78 bf 0a 4b 6c bf dd 89 7b 3d fc 1a c7 bd
       -0.9711893 -0.92302 0.061410774 -0.09721944
0000d0 aa a0 96 3b db da 4c 3d 80 32 ad bd eb 83 5b 3e
       0.0045967894 0.050013404 -0.08456898 0.21437041
0000e0 ea aa 3e be 5d ad 6c 3d 7a 7b 1c bc 83 14 d7 bd
       -0.18619886 0.05778252 -0.0095509235 -0.10501959
0000f0 f0 3d 09 bd ff fa 95 3e f6 b0 f0 bd 96 47 3f be
       -0.033506334 0.29293057 -0.117525026 -0.18679652
000100 6e 43 ad bd bb f5 14 be e7 1c 32 3d cf 42 94 bd
       -0.08460127 -0.14546864 0.043484595 -0.07239305
000110 cf 2b 1b bf 67 10 31 bf 03 cb a3 be d5 d7 4f 3d
       -0.6061372 -0.69165653 -0.31990823 0.050742943
000120 bc 7a c5 bd c8 76 6c be f0 77 3a bf db a0 fc 3d
       -0.0964255 -0.23092186 -0.7283926 0.12335368
000130 2b 20 e1 3d e8 82 0d bd 17 b4 a6 bd d4 ba 32 be
       0.10992464 -0.03454867 -0.08139818 -0.17454082
000140 b7 65 8e 3d da 6d 8f 3e f6 88 ce 3c 79 cf b5 bd
       0.06952994 0.28013498 0.025211792 -0.08877463
000150 93 9b 32 be 73 c0 ab 3d 10 d9 c1 3d 4b 4c 4f 3d
       -0.1744216 0.08386316 0.094652295 0.050609868
000160 a7 7e 27 3c 14 09 c2 bd e2 45 50 bd 95 d4 58 3c
       0.010223067 -0.09474388 -0.050847895 0.013234277
000170 af 66 08 3e f3 b2 3b 3d 32 91 5f be f2 7f bf 3c
       0.1332042 0.045824956 -0.21832731 0.023376439
000180 dd fe 0f 3e b4 76 e5 3d 0b 29 27 3e d1 38 ac bd
       0.14062066 0.112042814 0.1632425 -0.08409274
000190 9c 3c 96 bd 5b e2 ba 3d b0 63 8e 3d 76 d1 49 3d
       -0.07335779 0.09125205 0.06952608 0.049272023
0001a0 fe e2 43 3d 37 24 b5 3d 24 a0 8b 3b cd f4 9f bb
       0.0478239 0.08844798 0.0042610336 -0.0048814774
0001b0 67 63 f2 bc 9a 49 1d bd cd 8b 57 bc dd 5e 44 3b
       -0.029588414 -0.03840027 -0.01315589 0.002996377
0001c0 b4 7e e1 bd 50 ed 3e 3e f5 61 1a 3d dc 78 82 3d
       -0.11010495 0.18645215 0.037691075 0.06370708
0001d0 da 9c 3e bd ca c1 b2 3c b4 50 16 3e 03 5b 41 3c
       -0.046536304 0.021820921 0.14679223 0.011801484
0001e0 47 fc 15 3d 04 13 f6 3d a1 e6 a6 bc ea d1 c1 bd
       0.036617544 0.12015346 -0.020373644 -0.09463866
0001f0 34 80 d0 3b 54 94 12 bd 7e 60 07 bd 79 43 7a bc
       0.0063629393 -0.035785988 -0.033051006 -0.015274876
000200 6c c1 8c 3d 9f 2b ba bd f1 85 42 be 04 aa c9 3d
       0.0687283 -0.09090351 -0.18996407 0.09846881
000210 dd ca 87 3d 68 14 e3 bc d6 e7 d5 3c c8 a3 6d bd
       0.0663049 -0.027719691 0.026111525 -0.058017522
000220 5e 01 5b 3c 55 ee 87 3e ab 8c 8b 3c f6 53 99 bd
       0.013367025 0.2654902 0.01703485 -0.074867174
000230 17 bf a4 3d 03 f6 ae 3d 0d 0c 24 be e3 4f 79 3e
       0.0804426 0.08543017 -0.16020222 0.2434688
000240 96 81 14 be 28 96 b9 bd d4 1d ac bd b7 75 29 be
       -0.14502558 -0.09061843 -0.08404127 -0.16548811
000250 5b f3 52 3e 5d 62 62 bd 24 c6 e1 bd 9f 33 f9 bd
       0.20600645 -0.055269588 -0.110241205 -0.12168049
000260 f7 c2 6e bd 66 75 0b be dc 06 87 bd 2f 34 06 3e
       -0.0582914 -0.13619003 -0.06593105 0.13105844
000270 bb ab 63 be a8 dd 02 be 1f 6b 52 be f4 2d ee 3d
       -0.22233479 -0.12779868 -0.20548676 0.116298586
000280 06 40 e1 3d aa cf 5b be db d1 ae be 7c 45 57 ba
       0.109985396 -0.21465936 -0.34144482 -0.0008211953
000290 99 05 31 3b f8 93 4b 3e fc 53 64 3d 26 e9 82 bc
       0.0027011393 0.19880664 0.055744156 -0.015980314
0002a0 73 b7 cb 3d 95 7c 26 3e 2b 85 77 3c fc 50 88 3b
       0.099470995 0.16258462 0.015107433 0.0041600447
0002b0 b7 5e a7 be 7c d4 09 bc 3b 54 45 3e 16 51 73 3d
       -0.3268945 -0.008412477 0.19270413 0.0594035
0002c0 f5 ab 44 3e 11 2e ce 3d eb 28 fb 3e f3 78 01 be
       0.19206221 0.1006738 0.49054655 -0.12643795
0002d0 25 66 5d bd 46 03 9e 3d 78 ee 81 bd 21 d1 76 3e
       -0.05405249 0.07715468 -0.063443124 0.24103214
0002e0 c9 ba 86 3d 2c ad 1f 3d 8f 55 93 3c 91 94 a5 bd
       0.06578595 0.03898351 0.017985133 -0.080849774
0002f0 a9 1d dc bd 52 80 92 bd 2f 42 2c bc 99 45 17 be
       -0.10747845 -0.071533814 -0.010513826 -0.14772643
000300 f8 70 9f bd 85 16 e7 be 07 28 e4 3c 1a 63 46 3e
       -0.07785219 -0.4513437 0.027851118 0.19373742
000310 26 08 90 bd 0a 9f 96 3d 9d 47 cb be 8a 0c 48 be
       -0.07032804 0.07354553 -0.39703074 -0.19536033
000320 11 68 71 3d ae 04 8d bd 08 0b c0 bc 31 00 3b 3e
       0.058937136 -0.06885658 -0.02344276 0.18261792
000330 f4 0e be 3c d6 1a c2 3d 0c 9d 2f bc 2f 10 00 bb
       0.02320049 0.09477775 -0.010718595 -0.0019540896
000340 16 fd e9 bc ce 1b 0a 3e 72 44 0f 3d 10 2f f1 bc
       -0.028563064 0.13487169 0.034977384 -0.029441386
000350 9b 80 9e be 36 27 33 be 11 1f b0 3d 27 57 d1 bc
       -0.30957493 -0.17495427 0.085996754 -0.025554253
000360 0f b6 64 bd 21 ba de be ce fc fd be 4d 86 82 bd
       -0.055837687 -0.4350138 -0.49606937 -0.06373272
000370 c0 38 8c be 46 01 95 bd b2 eb e8 be e8 09 f6 be
       -0.27387047 -0.072756335 -0.4549232 -0.48054433
000380 53 32 28 3d 0b d2 5a be 3d f7 b1 bd 10 8f 8c bd
       0.041063618 -0.21369188 -0.08689735 -0.068632245
000390 c2 ad 36 3d 4c dc f5 bc 7f 4d f8 bd 37 f8 ff bd
       0.044599302 -0.030012272 -0.12124156 -0.12498515
0003a0 3f 06 ea 3c 63 34 aa bd 59 8e 32 bd ae 5d ad be
       0.028567431 -0.08310773 -0.043592785 -0.33860534
0003b0 af 35 ee 3d 61 94 55 3e f5 d5 a9 3d 7c e7 af 3d
       0.11631333 0.20857383 0.08292762 0.08589074
0003c0 21 6f 33 be c5 85 e4 3d 54 a3 90 3e c5 87 9b 3e
       -0.17522861 0.11158327 0.2824961 0.3037702
0003d0 b3 2f d5 3d b1 76 21 be 1e 17 21 3c d2 65 85 3e
       0.104094885 -0.15767933 0.009832172 0.26054245
0003e0 c0 23 78 3e ed 8c 26 3c f4 1f 01 3e f0 1e 04 be
       0.24232388 0.010165435 0.12609845 -0.12902427
0003f0 2f 3c dd bc 58 9f d2 bd 61 a1 bf 3c 05 1a b3 be
       -0.027006237 -0.10284299 0.023392381 -0.3498079

conv2.bias f4 [16]
000000 ba 25 be 3d 99 99 84 3d 2b bb 11 be 76 d6 42 be
       0.092845395 0.06474609 -0.14231555 -0.19027123
000010 b3 18 89 3d 9e 2d 4a bd 7f a6 f9 3d fb 46 50 3c
       0.06694164 -0.04935991 0.1218996 0.012712236
000020 43 36 ec 3c 47 32 4f be ed a4 df 3d 4e 9b 0e ba
       0.028834468 -0.20234023 0.10920129 -0.00054400123
000030 63 eb db 3d 50 ab 17 be 52 ef 8e bd 49 96 ac 3e
       0.10738256 -0.14811444 -0.069792405 0.33708408

fc1.weight f4 [120, 400]
000000 3f 65 be bc 21 06 8c bc 1d 81 5c 3e 27 31 93 bb
       -0.023241637 -0.017092766 0.21533628 -0.0044919434
000010 13 a2 0d be 4d c2 88 bd f4 36 84 bd dd ae 5d 3d
       -0.13831358 -0.06677685 -0.06455794 0.05412184
000020 3a b2 a7 3b 7f 6e 51 3d c3 f1 39 bd 6b 29 16 bd
       0.005117682 0.051130768 -0.045396578 -0.036660593
000030 0b 32 9c 3d c6 fc b0 3d b3 2d e2 3d 2d e3 10 bd
       0.076267324 0.08641963 0.11043873 -0.0353729
000040 6d 0b b2 bd 8e 27 be 3d 59 a6 27 bc a6 76 49 bd
       -0.086935855 0.09284888 -0.010232531 -0.049185418
000050 e3 a8 4a 3c 7a 36 2e 3e 6d 4e cf 3d 0c 28 0d be
       0.012369367 0.17012969 0.101223804 -0.13784808
000060 9c dd b6 3c f5 2c 7d be f4 17 07 be 62 4d e9 3c
       0.022322468 -0.24724181 -0.13192731 0.028479282
000070 75 0a 85 be 2b 04 17 be f0 ab 3d bd ed c0 91 be
       -0.2598454 -0.14747684 -0.04630655 -0.28467503
000080 50 25 15 3d 9c 9e c8 bd 6b 42 16 bd d2 cd 29 bd
       0.036412537 -0.09795877 -0.036684435 -0.04145605
000090 6b e9 31 be 08 b4 04 3e f9 ec d3 bd a8 63 bf bc
       -0.17374198 0.12959301 -0.10347933 -0.02336295
0000a0 78 93 2f 3d ac d9 03 3e dd 41 aa 3e 34 bb a9 3d
       0.042865247 0.12876004 0.33253375 0.08287659
0000b0 c4 90 51 bd 84 48 af bd 0b b7 ad 3d 77 7c a3 3e
       -0.05116345 -0.08558753 0.08482178 0.31930897
0000c0 a0 f6 1a bd f2 8d a0 bd a6 23 12 3e 33 ff 14 be
       -0.037832856 -0.07839574 0.14271411 -0.14550476
0000d0 58 f6 9e 3d c1 bc b5 bd 7b 24 9b bd 3a 0a 4b 3c
       0.0776183 -0.088738926 -0.075753175 0.012392575
0000e0 2a 71 f7 bd 2c 7e 6a be 5c c9 34 be 5a e5 4b 3b
       -0.12082131 -0.22899693 -0.17654938 0.0031112046
0000f0 5d 13 d5 bd b2 98 b1 bc 05 c4 84 3d 5a 75 07 3e
       -0.10404084 -0.021679256 0.064827 0.1322836
000100 8d 32 83 bd 79 e1 94 bc d4 1d 8f 3c 76 01 dc 3d
       -0.06406126 -0.01817392 0.017470278 0.10742466
000110 c8 8a 1b 3d b2 e7 fc bd 30 28 e2 3c 62 07 de 3d
       0.03797415 -0.1234888 0.027607054 0.10841252
000120 68 52 fc 3d f2 93 bb 3d 25 48 d4 3d 60 3d 1c 3e
       0.12320405 0.09159078 0.10365323 0.15257788
000130 a0 01 8e 3d 6e 96 3b 3e 29 6c c2 3d 0b 59 ea 3c
       0.06933904 0.18319103 0.09493286 0.028606912
000140 96 b6 87 bd 3e 8b 01 3e 34 63 ec 3d e2 15 7f 3d
       -0.066266224 0.12650773 0.11542359 0.06227673
000150 86 31 d0 bd c2 bb 95 bd 8b 46 c0 3c 6e c7 2f bb
       -0.10165696 -0.073112026 0.023471138 -0.002682175
000160 b1 4e 50 3d a7 4b 3c be 7a e5 a0 ba 91 2b 4f be
       0.050856296 -0.18388234 -0.0012275421 -0.20231463
000170 29 71 15 3e 3e c8 be 3c e2 f1 6b bb d6 cc 3f bd
       0.14593948 0.023288842 -0.0036002328 -0.046826206
000180 66 1d d4 3c 88 bc 13 3d 4f 56 14 3b af d8 e5 3d
       0.025892925 0.03606847 0.0022634452 0.1122297
000190 7f b0 16 be 62 15 27 3e f5 15 0f bd 37 55 55 3e
       -0.14715765 0.1631675 -0.03493305 0.20833288
0001a0 fb 2e 54 bd b5 98 58 3d 85 3c 87 3d ed ce 1a bd
       -0.051802617 0.052880008 0.0660334 -0.037794996
0001b0 34 18 34 3d d7 a4 7e bd e0 55 af 3d 7a 9a 70 3d
       0.043968394 -0.062168922 0.08561301 0.05874107
0001c0 68 17 20 3e cc e3 c2 bd 5a 0c 9d 3c c3 9d 74 bc
       0.15633929 -0.09516105 0.019170929 -0.014930191
0001d0 84 0a b7 3c bb 3d f6 3c f3 3c bf bb 58 bd 19 bd
       0.022343881 0.030058732 -0.005836123 -0.037534088
0001e0 53 cd 9c bd 62 53 83 3d 90 b4 d0 3d b7 ba 30 be
       -0.0765635 0.064123884 0.101906896 -0.17258726
0001f0 ce ac f5 3c d2 03 73 3d 2c a7 e4 bd 9e ab a6 3d
       0.029989626 0.059329815 -0.11164698 0.08138202
000200 b9 76 c2 bd 58 c9 1d 3d 55 ad f5 3d 77 6f 73 bd
       -0.09495301 0.038522094 0.11995951 -0.059432473
000210 d9 18 92 bb 56 fd 1a 3e f9 91 a8 bd 3e 1c 95 3d
       -0.0044585285 0.15135702 -0.08230967 0.072807774
000220 d6 c3 7f 3d e6 1c 7e 3b 33 88 22 3d d5 a9 ae bc
       0.062442623 0.003877455 0.03968067 -0.021321217
000230 06 49 3f be 3b 3b 77 3d b1 31 15 3d 48 04 c9 bd
       -0.186802 0.06035922 0.036424343 -0.0981527
000240 e5 a7 32 bb e3 97 3e 3d 30 6a f3 3c 72 b4 56 3d
       -0.0027260717 0.04653157 0.02971372 0.05241818
000250 43 90 68 bd 47 18 d8 bd cb 01 9f 3d 02 51 68 3d
       -0.056778204 -0.105515055 0.07764014 0.05671788
000260 3d 09 da bd e8 a3 72 bd 4d 9a d3 3d 97 e8 c2 bd
       -0.10646293 -0.059238344 0.10332165 -0.09517019
000270 53 94 0c bd 27 6a 71 3d f2 0b 43 bd f1 c1 2f 3e
       -0.03432114 0.058939125 -0.047618814 0.17163827
000280 ea 49 e1 bc 8d ad d2 3d 2d 0c 6a bd 2d 95 9d bd
       -0.027501065 0.102870084 -0.057140518 -0.07694469
000290 ad e1 ef 3d 0e 9f cf bc b3 65 09 3c 03 b2 28 be
       0.11712966 -0.025344398 0.008386063 -0.16474156
0002a0 ac bd b2 bd 44 fe 96 3d e1 5e 2c 3d c2 29 1b 3c
       -0.08727583 0.07372716 0.04208267 0.009470405
0002b0 57 ce 06 3d 90 40 bc 3c 05 bd ec bd 85 92 ce 3d
       0.032911625 0.022980005 -0.1155949 0.1008654
0002c0 96 a3 86 3d 91 ab 93 bd 95 00 23 bb fa 11 19 3d
       0.0657417 -0.07210458 -0.0024872173 0.03737066
0002d0 9c 88 13 bd a5 f6 ff 3b e0 13 b4 3d 9b 8f 5c 3d
       -0.036018953 0.0078113847 0.08792853 0.05384789
0002e0 0b c0 61 3d 50 26 a7 3c da 10 dd bd 26 9b 3a 3b
       0.055114787 0.020404011 -0.1079423 0.0028473823
0002f0 fe 57 57 3d 51 c5 cc bd 54 5b 0a be d9 37 ca bd
       0.05257415 -0.099985726 -0.13511401 -0.09873933
000300 69 b3 af 3d db e7 9c 3c 0e 40 11 bd 09 b4 38 3d
       0.08579142 0.019153526 -0.035461478 0.04509357
000310 93 1c 88 3d d3 6a 34 3e 9e 3c a8 3c 88 2c ed 3c
       0.06646075 0.17618875 0.020536717 0.028951898
000320 50 24 64 3d 11 ce d7 3d b1 25 cc 3d 02 aa 11 3e
       0.055698693 0.10537351 0.099681266 0.14225009
000330 0d 38 00 be 56 b0 3e 3e 4c ca e1 3d b2 11 9f 3e
       -0.12521382 0.18621954 0.11024913 0.31068188
000340 9c af 1a bd 8e 8d b2 bd 5d d9 84 bd 92 c8 98 3d
       -0.03776513 -0.08718406 -0.06486771 0.07460131
000350 ea ca 66 3d c4 2a 2c bd d4 11 23 3d 48 11 bb bd
       0.056345858 -0.042032972 0.039811924 -0.091341555
000360 b1 a5 3c be 45 0c df 3d 94 55 12 bc 7e 19 95 ba
       -0.18422581 0.10891012 -0.008931536 -0.0011375395
000370 f5 67 f7 bc c7 b2 91 bc 27 da 87 bc 6f 9a da 3d
       -0.030200938 -0.017785443 -0.016583515 0.10673987
000380 87 6d 46 3d aa 3d 3c 3d de 1c 20 be e3 b5 7a bb
       0.048444297 0.045957245 -0.15636012 -0.0038255386
000390 4f 6c 8d 3c 03 3a 3c bd bb e7 84 3d b5 b6 59 bd
       0.01726356 -0.04595376 0.064895116 -0.05315276
0003a0 5f ce 89 3c 18 2b 91 3d 5f da 2d 3e ad 4b 14 3c
       0.016822038 0.070882976 0.16977833 0.009051246
0003b0 64 1d cb bd 79 1d 64 bd 2b d1 88 bc f4 96 01 3e
       -0.09917715 -0.05569217 -0.016701302 0.1265524
0003c0 ab 02 cd 3b 5a 03 cc bc 46 85 c3 3d 24 11 05 3e
       0.0062564216 -0.024903942 0.09546904 0.1299482
0003d0 f2 23 9f 3d de 27 ac ba 5c 83 21 3e 92 bd 80 bc
       0.07770528 -0.001313444 0.15772766 -0.015715394
0003e0 08 bc 40 bd 40 5d df 3b 60 fa ee 3d 88 c2 3a be
       -0.04705432 0.006816536 0.11668849 -0.1823827
0003f0 df 06 ca 3c 49 5d f2 bb 73 86 8b 3d e4 52 ee 3d
       0.02466148 -0.0073963744 0.068127535 0.11636904

fc1.bias f4 [120]
000000 37 05 05 3e bb dc 74 3c c8 4b 7a 3d da 0b d1 3d
       0.1299027 0.014945204 0.061107427 0.10207339
000010 ee 22 f1 3c 84 bc 90 bc 13 46 8c bc 91 c8 eb 90
       0.029435601 -0.017668016 -0.017123258 -9.300018e-29
000020 ed 88 00 80 17 5d 5f 3d 89 75 c6 3d d6 8c 31 ba
       -4.912e-41 0.054532137 0.09690387 -0.00067730004
000030 0b dc fc bc 95 2e 5f ab 98 78 8b 3d 07 83 2a 3d
       -0.030866643 -7.929016e-13 0.06810111 0.041628864
000040 ed cf d8 3d fb bf 66 3d b3 f4 9f 3c 38 fe 94 b9
       0.10586534 0.05633543 0.019525861 -0.00028418167
000050 7e 2e 05 3d dc 31 ff bc b0 09 ac a3 cf f8 e5 bb
       0.03251504 -0.031151704 -1.865238e-17 -0.0070181857
000060 0d 4e cc bc 9c c5 00 80 d4 ea 5c ba 41 36 6b bc
       -0.024939561 -7.0889e-41 -0.0008427326 -0.014356197
000070 6f 65 26 3e b0 79 03 be bd 57 2f bd 3b 68 2b 3e
       0.16249631 -0.12839389 -0.042808283 0.1673898
000080 0f 28 97 3d 11 f4 96 3c d4 cf 55 b8 d9 6a 0f 3d
       0.073806874 0.018426927 -5.0976712e-05 0.035014007
000090 ee dd 72 bd 5c 85 dd 3d 39 31 3c bd c9 a8 41 a1
       -0.05929368 0.10816452 -0.04594538 -6.561433e-19
0000a0 71 81 65 bd b3 ec f0 bc f9 38 9d 3d f9 9b 97 bd
       -0.056031648 -0.029409742 0.07676882 -0.07402796
0000b0 85 0f 9d b9 2d b1 82 3d 65 44 73 3d 3b d6 61 3d
       -0.00029956936 0.0638145 0.059391398 0.055135947
0000c0 c5 ee 59 3e f4 7a 75 bc f5 65 02 bc 89 32 91 bb
       0.2128249 -0.014982928 -0.007958879 -0.004431073
0000d0 3f b6 95 bc 6f 27 b4 bd b6 63 a5 3d 02 b8 da ba
       -0.018275378 -0.08796584 0.08075659 -0.0016686919
0000e0 03 f4 a5 bd 15 f6 a7 3d 79 a4 57 b5 b3 52 0a 3c
       -0.08103182 0.08201233 -8.033308e-07 0.008442569
0000f0 7f 84 d0 3d 90 c9 86 bd 59 8e 02 3c 76 96 12 b9
       0.101815216 -0.06581414 0.007968509 -0.00013979696
000100 ad e6 92 3c 8b a9 a9 3d 0e c6 83 ba 70 0a 36 bc
       0.01793226 0.08284291 -0.0010053532 -0.011110887
000110 38 7b 59 3c 2f 0a c9 3c 1e 19 fe 3c d8 5d 6b b3
       0.013274007 0.024540989 0.031017836 -5.480055e-08
000120 55 ea d4 3c e8 ae d6 3c dc 44 22 bd 02 c6 5f ba
       0.025990644 0.026206449 -0.03961645 -0.00085362804
000130 3b eb b3 3c 70 54 84 3d 54 3d a4 3d ff c2 19 3d
       0.021962753 0.06461418 0.0801951 0.03753948
000140 46 d8 4c 3d 00 1e 4d bd 26 3d 34 9b 4c 23 64 bd
       0.050010942 -0.05007744 -1.4909009e-22 -0.055697724
000150 67 9f 46 3d 73 dc af 3c 4f b4 1a b5 38 3e 94 3d
       0.04849186 0.021467423 -5.7631854e-07 0.0723843
000160 63 81 35 bd b4 31 5d bd c4 12 1b bc 6f 58 e2 3c
       -0.044312846 -0.05400248 -0.009464923 0.027630059
000170 d1 18 78 3b 26 23 19 3c db 9e 6c a2 eb 52 ad 3c
       0.0037856589 0.009346759 -3.2068061e-18 0.021157702
000180 c1 86 36 3b 34 af d8 9f ca 3e 5c 3d 6d 80 8b 3c
       0.0027851316 -9.176941e-20 0.053770818 0.017029012
000190 32 a6 4e b9 89 67 d1 3d d2 86 b9 bd c8 b5 31 3d
       -0.00019707603 0.10224826 -0.09058918 0.04338625
0001a0 75 f8 6e 3d 5d 73 bc 3d 84 a3 e1 3d e6 24 9d af
       0.058342416 0.09201691 0.11017516 -2.8584352e-10
0001b0 0e e3 21 ac 10 95 e4 3d cc 79 cd b2 1f 2a 9e bc
       -2.3005517e-12 0.11161244 -2.3920528e-08 -0.019307194
0001c0 b0 46 cf bb 48 0c 9c ba dd 4e 4a 3d eb b1 3f bc
       -0.0063255653 -0.0011905516 0.049391616 -0.011700134
0001d0 ac 63 7a b9 db e0 53 3d 04 77 b8 b1 1d e0 e6 b9
       -0.00023878989 0.05172811 -5.3686353e-09 -0.00044035996

fc2.weight f4 [84, 120]
000000 94 e8 f3 bd c6 dd 28 3d 25 91 d3 bd 73 e2 70 be
       -0.11909595 0.041227125 -0.103304185 -0.23523884
000010 87 bd b9 3c 08 21 44 bc 48 90 1e 3e c6 75 92 33
       0.022673381 -0.011970766 0.15484726 6.820078e-08
000020 a5 be 3d a3 fc 1b 1c be 37 9c 2c 3e 38 8f b7 3b
       -1.0286081e-17 -0.1524505 0.16856466 0.00560179
000030 bf 54 9d bd cc 1e ea b8 d0 29 0d bd fd c2 b8 3c
       -0.0768218 -0.00011163726 -0.034463704 0.022553915
000040 16 fc 0f be 24 52 35 bd 9f 05 a7 bd cd a6 60 ba
       -0.14061007 -0.04426779 -0.08155369 -0.0008569777
000050 2a ca 1b 3c 7c 52 ae 3c 11 f8 75 b4 61 84 19 bc
       0.009508649 0.021279566 -2.2907649e-07 -0.0093699405
000060 10 fa b8 3c ce 6b 7f 32 b5 b7 66 bb 62 9c 77 bc
       0.022580177 1.48674655e-08 -0.0035204713 -0.015112968
000070 ca 13 dc 3d 78 19 91 bc 37 d7 e7 3c cb 03 7b 3d
       0.10745962 -0.01771234 0.028300865 0.061282914
000080 b3 96 b7 3d 8d 43 eb bd 0a eb 2a 3a b3 c3 b3 bd
       0.089642905 -0.11487494 0.0006520009 -0.08777561
000090 12 1f 6c 3d 2c 72 b8 bd 31 9e 85 3d 49 c7 0e 38
       0.05764682 -0.090061516 0.06524313 3.4041037e-05
0000a0 a7 a9 0d 3e 03 1e f2 bd 3c 9c a6 3d 1d 1d 80 3d
       0.13834248 -0.118221305 0.08135268 0.06255553
0000b0 46 5f 32 bc 30 ef 89 bd ec d1 7f 3d 0e 3a 0b 3d
       -0.010886973 -0.067350745 0.062456056 0.033990912
0000c0 7b a4 74 be 0f 1e b3 3d 82 5d eb bd e5 82 6b bb
       -0.2389087 0.087459676 -0.114924446 -0.0035936174
0000d0 d3 68 c8 3d db 17 c7 37 17 b6 36 3d 9e 71 1c 3d
       0.09785619 2.3733757e-05 0.04460725 0.03819429
0000e0 67 2c f8 3c 10 dc 17 3e 2d d9 10 ae 4a da 7d bc
       0.03029461 0.14830041 -3.29347e-11 -0.015493939
0000f0 ce bd 4d bd 08 8d cd 3d 60 f8 e9 bc 0d cd 5d 37
       -0.05022984 0.10036665 -0.028560817 1.3220369e-05
000100 c8 36 94 bc 8b 61 a8 bd aa 74 c3 bd 46 f2 2e 3b
       -0.018092528 -0.0822173 -0.09543736 0.00266947
000110 e1 73 bf 3c a5 47 18 3d 92 6b 1f bd bd 3e a9 3a
       0.023370685 0.0371777 -0.038920946 0.0012912374
000120 96 2e 0e 3e ec 2a 87 3d 51 79 3b 3e 51 e8 db 3a
       0.13884959 0.065999836 0.18307997 0.001677761
000130 ad 25 65 3e 64 94 cb 3d 76 83 2e be 74 25 43 be
       0.22377653 0.09940413 -0.17042336 -0.19057256
000140 04 f6 91 be 24 e5 6d 3c 5e c0 6a a9 8d c5 1e 3e
       -0.28508008 0.014519963 -5.212529e-14 0.15505047
000150 b6 d2 e7 3c 0d a2 63 bd 21 9d 21 b9 b4 70 d5 3c
       0.028298717 -0.055574466 -0.00015412692 0.026054718
000160 7a d7 47 3e 64 03 74 bd e9 03 1b 3e 1b 2a d3 3c
       0.19515792 -0.059573546 0.1513821 0.025776913
000170 e6 6f ea 3c da 3f db 3b 4e aa 44 38 df 5e f8 3c
       0.02861781 0.0066909613 4.688865e-05 0.030318676
000180 08 eb da 3d c8 b2 ae b2 89 c1 b7 3d 28 1e 19 3d
       0.1068936 -2.0337566e-08 0.08972461 0.037382275
000190 8f 6d ed 3b 69 09 27 bc b7 05 07 be 91 b3 c1 bd
       0.0072457264 -0.010195115 -0.13185774 -0.09458078
0001a0 18 d3 fe bd f4 37 1f 3c e6 72 3a 3d bf 09 43 33
       -0.12442607 0.00971793 0.045519732 4.541084e-08
0001b0 2b 23 8b 31 75 f6 85 bd 0c da 9c 37 ab 1e cb 3c
       4.0494306e-09 -0.065411486 1.8698185e-05 0.024794897
0001c0 08 74 cc bc 2a 0e 16 3e b7 9a 1f 3e 66 fb a7 bd
       -0.024957672 0.1465384 0.15586363 -0.08202247
0001d0 28 5b 0f 3e 83 11 9d 3d d8 ca 68 ab 35 0d f1 3a
       0.13999617 0.07669356 -8.270446e-13 0.0018390777
0001e0 4e 7f ac 3d 73 d4 bf 3d 09 30 d2 bd 4b 7a 62 3d
       0.08422719 0.09366693 -0.10263068 0.05529241
0001f0 0d 9b c3 bd 86 ed c0 3c 6c 75 62 be 1e 36 f2 a2
       -0.09551058 0.02355076 -0.22115105 -6.565153e-18
000200 9d 9f 6b 21 af c5 c0 3c e3 51 d7 bd 23 f4 0b bb
       7.9832343e-19 0.023531763 -0.105136655 -0.0021355234
000210 c1 a7 a1 3d c1 b4 23 b8 88 1a 9f 3d b2 0f 16 3d
       0.07893325 -3.903057e-05 0.07768732 0.036636062
000220 53 59 80 bd 67 56 29 3e d7 3f 02 3e ad 5a 3d b4
       -0.06267037 0.16536866 0.12719665 -1.7634984e-07
000230 0b 0f db bd 9d 69 b1 bd 10 c8 fb 32 03 f7 d8 3c
       -0.106962286 -0.08662722 2.9311224e-08 0.026484972
000240 34 56 ad bd 77 c1 0a ab 63 99 29 3c ce f1 07 bd
       -0.084637076 -4.9295935e-13 0.010351512 -0.033189587
000250 e5 46 f1 b9 4e b4 e0 3d a9 4f 3b 3e be bf fd bc
       -0.00046019923 0.109718904 0.18292107 -0.030975219
000260 bd 09 ab bc 93 03 ca 3d 0a f1 a3 3a 0f e3 2d bd
       -0.020878667 0.09863963 0.0012507748 -0.042452868
000270 82 11 42 3d e3 2e ef bd d2 a4 6d bb 0e e2 58 b2
       0.047379978 -0.11678865 -0.003626157 -1.2624254e-08
000280 6f f1 09 bc 95 c1 26 3e 02 b1 2b 3d b8 09 a0 3d
       -0.008419379 0.16284783 0.041916855 0.07814354
000290 c7 54 83 38 79 14 ee bd 41 34 06 3c 0b c5 91 3d
       6.262358e-05 -0.116249986 0.008191169 0.07117661
0002a0 c9 e5 10 3e 9c d9 c7 bc ad a0 a4 3c a4 eb ab bb
       0.14150156 -0.024395756 0.020096147 -0.0052465964
0002b0 09 0e fd bd db 90 4c bd 23 fe 19 3d b4 a1 25 b9
       -0.123561926 -0.049942832 0.03759588 -0.00015795865
0002c0 3f a5 07 be a2 46 c8 bd 9b 02 66 9a d3 5f ca 3d
       -0.1324663 -0.09779097 -4.756499e-23 0.09881558
0002d0 13 cb 0d 3d 8d 10 ac 3d ab 8a ab bd a0 fc 6c b4
       0.034617495 0.08401594 -0.08376058 -2.2071117e-07
0002e0 50 e9 2e bd d0 98 bb 3d 8b 8a 44 3e 7a 6f 51 bc
       -0.042702973 0.09160006 0.19193475 -0.012782926
0002f0 39 f8 45 bd c5 49 d7 bd 39 70 d0 3d 17 73 9b b8
       -0.048332427 -0.10512117 0.10177655 -7.412413e-05
000300 83 8e b5 bd 47 8b 7c bd e6 1a 54 3d 2f 25 75 3b
       -0.088650726 -0.061656263 0.051783465 0.0037406196
000310 2e 29 2d 3e 89 d7 21 3b 9d 5e 19 bd df bb e9 3d
       0.1691024 0.002469512 -0.037443746 0.11412787
000320 20 11 96 3e df bf 8e bd 74 65 e8 2d 5d dd da bc
       0.2930994 -0.0697019 2.64204e-11 -0.026716882
000330 2e 3d 86 3d 96 9e d5 bc 41 8f 27 37 b9 2e 06 bd
       0.06554638 -0.026076596 9.98733e-06 -0.032759402
000340 45 c5 d3 bd d9 b0 74 bd 90 f7 7e bd 38 98 3d bd
       -0.103403606 -0.059738968 -0.062247813 -0.046287745
000350 1d ad ad 3d dc da 9a b9 95 8d 89 35 43 e1 54 3c
       0.08480284 -0.00029536232 1.0248501e-06 0.01299316
000360 71 72 37 bd 1b f5 a4 24 13 8e 53 3c c3 f0 1c 3e
       -0.044786874 7.153889e-17 0.012912291 0.15326218
000370 f1 f4 07 bb b0 9b d5 bd f4 da de 3b 80 0a cc bd
       -0.0020745362 -0.10430086 0.0068010036 -0.0996294
000380 88 16 07 bd 81 81 0b bd 0b a0 ca bc 9f 0e 4a ad
       -0.03298047 -0.03405905 -0.024734518 -1.1485617e-11
000390 89 6a b7 ae 81 f6 b8 3e 6d e1 79 b3 fc 40 7d 3d
       -8.340801e-11 0.36125568 -5.8179854e-08 0.061829552
0003a0 5a f4 53 3d fa a7 a5 bd 03 4e 43 3d 15 1d 2d bd
       0.051746704 -0.080886796 0.04768182 -0.042264063
0003b0 37 73 c1 3d bc db 09 be 75 47 25 30 47 e4 2c 3a
       0.094458036 -0.13462728 6.0128197e-10 0.0006595295
0003c0 9d 82 06 be 7a a7 14 be 50 a1 93 bc ee e1 1e 3d
       -0.13135763 -0.14517012 -0.018021256 0.038789682
0003d0 48 eb 49 3e a0 45 b9 bc 2e 80 7b 3d 4d 6d ae 35
       0.19718659 -0.022616208 0.06140154 1.2995821e-06
0003e0 4a 90 e5 b4 f7 db fe bc b1 66 b3 3d db 68 0e bc
       -4.2759558e-07 -0.031110747 0.08759821 -0.008691992
0003f0 c7 68 f2 39 74 fb 07 b8 f2 ac 2d 3e 02 cf 98 3d
       0.00046235902 -3.2420692e-05 0.16960505 0.074613586

fc2.bias f4 [84]
000000 f5 de e6 3c 61 2f c5 bc e9 21 36 3e 11 b0 af bc
       0.028182486 -0.024070444 0.17786373 -0.02144626
000010 64 73 16 3e a5 29 12 bd cc 51 bd 3d 6e bc e7 3d
       0.14692456 -0.035684247 0.09244117 0.11315237
000020 cd 88 00 80 08 68 7b ba 41 55 aa 3d 71 91 43 3d
       -4.9075e-41 -0.0009590392 0.08317042 0.047746126
000030 ba 37 e3 99 84 46 53 3d 36 fa 13 3d e1 94 3a 9e
       -2.3493758e-23 0.05158092 0.03612729 -9.8775454e-21
000040 75 5d 8c 3d 34 49 dd 3d 4f 1a 96 bc b2 05 09 3d
       0.06853763 0.10804978 -0.018323092 0.033452697
000050 41 3a 53 3d 44 f3 1e bd 8b 65 b0 3d 69 83 82 bd
       0.051569227 -0.038806215 0.08613118 -0.06372721
000060 ff 17 04 bb 23 73 03 bd 8b f1 f9 3d b5 2c f9 ba
       -0.0020155904 -0.032092225 0.12204274 -0.0019010516
000070 60 63 aa bd 3e 24 d5 bc 30 1f 20 3d bc d0 97 bc
       -0.083197355 -0.026018258 0.039092243 -0.01853215
000080 d8 51 de bc 09 10 b9 3d 02 d0 8a bc 2f bb da 3a
       -0.027138636 0.090362616 -0.016944889 0.0016687865
000090 2a aa 0d 3e 76 17 0c bc 94 5c 6e 3d b2 89 ac 3d
       0.13834444 -0.008550515 0.058193758 0.08424701
0000a0 28 3f e1 3c 41 16 4f 3d e2 cd 48 3e 35 43 a5 3c
       0.027495936 0.050558332 0.19609788 0.020173648
0000b0 03 3d d7 3d 90 18 2c 3d 2f 83 ef 3d 75 28 28 3d
       0.10509684 0.042015612 0.11694943 0.041054208
0000c0 1c 0a 7d 3d 39 e2 54 3d b5 ba 41 3d 51 55 16 3d
       0.06177722 0.051973555 0.0472972 0.036702458
0000d0 bb 80 76 3d 97 17 7f bb e1 93 b7 3d 4b e3 aa 3d
       0.06018136 -0.0038923973 0.089637525 0.08344134
0000e0 b7 26 8d 9c 0c 52 38 3e 14 6c bd 3b df ac 65 3d
       -9.340605e-22 0.18000048 0.005780706 0.056073066
0000f0 5c da 60 bc 03 53 f7 3c f9 d9 1a bd 44 be 88 bc
       -0.013723936 0.03019095 -0.03780553 -0.016692288
000100 46 8b e8 3d b3 c2 86 a5 44 1a a0 00 01 a4 93 3c
       0.11354689 -2.3377228e-16 1.4703102e-38 0.01802254
000110 1c 0c ca 3d 8e 06 a0 bd 51 d3 02 3d 09 40 84 bc
       0.09865591 -0.0781375 0.03193981 -0.016143816
000120 04 94 c1 bd a7 74 51 3d 45 46 96 3d 7a 73 cf 3d
       -0.0945206 0.05113664 0.073376216 0.10129447
000130 e6 b8 61 bd 37 04 ff 3c a1 e8 c4 3c ff c0 2a 3e
       -0.055107974 0.03112994 0.024036707 0.16675185
000140 13 5d a7 3d d1 b3 a0 bc 6b 52 37 b9 1c 08 ea 3d
       0.081720494 -0.019616993 -0.00017482943 0.11427328

fc3.weight f4 [10, 84]
000000 59 dd 91 3d cb 7d 97 3d b5 77 ad bd fc 10 6b bc
       0.07122297 0.0739704 -0.08470098 -0.014347311
000010 51 94 d0 bd 5d 28 9a be 82 fc 90 be b9 43 5f 3d
       -0.10184539 -0.3010892 -0.28317648 0.054507945
000020 9a 88 8b b5 f4 b5 01 3e 64 dd 9a 3d ee 52 1e be
       -1.0396063e-06 0.12667066 0.07561758 -0.15461323
000030 d2 f8 63 2f a4 c6 20 be 84 0c 0f be d2 15 a5 b9
       2.0733928e-10 -0.15700775 -0.13969618 -0.0003148751
000040 f2 e5 91 3e 7e d2 ab be 7e 7f c7 3d da fd 4c 3e
       0.28495747 -0.3355903 0.09741114 0.20018712
000050 96 c1 b6 be 22 0d 00 bd 2c 62 1a 3e cd 60 e3 3d
       -0.3569457 -0.031262524 0.15076512 0.11102448
000060 94 67 60 b9 19 25 60 3d 94 e5 b3 3d 14 4e 20 bc
       -0.0002140089 0.05472288 0.08784023 -0.00978424
000070 2d de 76 be 6e d7 ec 3b b7 8a 1f 3e 8a 29 08 3e
       -0.24108191 0.0072278297 0.1558026 0.13297096
000080 bf ed 29 bd a3 2b 34 bf 0f 8b 40 3c d9 cc 7c 3d
       -0.041486498 -0.70379084 0.011751904 0.061718795
000090 16 c6 94 be 9c 5a b6 3c 7d ad 88 3d d9 16 82 3d
       -0.29057378 0.022260003 0.06673715 0.06352014
0000a0 b1 21 f3 3c c4 a6 3a 3e c0 04 31 3c b3 0f b2 3d
       0.029679151 0.18227679 0.010804355 0.08694401
0000b0 af 79 ca 3d a9 fb 51 3e 49 82 9f be d9 5b a3 bc
       0.098864906 0.20506157 -0.31154087 -0.019941257
0000c0 b2 c9 cb 3d 7e 01 06 3e 97 a9 0c 3d 96 16 08 bd
       0.0995058 0.13086507 0.03434142 -0.033224665
0000d0 0e a9 51 3d 0d 28 19 3e f5 76 e7 bd cf fe 2a bf
       0.051186614 0.14956684 -0.11301986 -0.6679506
0000e0 a0 d6 bd 33 ca cf 9d 3d bc 1f 1f be 3d de 42 3e
       8.8400384e-08 0.07705648 -0.1553945 0.1903009
0000f0 74 4b 22 3b 4f 89 b2 be 16 df 58 3e 5c 35 1d 3c
       0.0024764212 -0.34870383 0.2117885 0.009595241
000100 75 79 87 be 22 15 99 39 3e 32 9d b3 f9 9c 31 3e
       -0.26459852 0.0002919818 -7.320021e-08 0.17345037
000110 69 fd 24 3c e3 8f a7 bd 06 4f ad 3e 73 97 57 3e
       0.010070183 -0.08181741 0.33849353 0.21053867
000120 58 08 62 be 35 d2 07 bd c1 58 b2 3d 72 b2 a4 be
       -0.22073495 -0.033159453 0.08708335 -0.32167393
000130 57 3c 05 bf 59 4c 42 be df 98 3d be eb 43 36 bd
       -0.52045196 -0.18974437 -0.18515347 -0.044498365
000140 ac 3a cd be e0 d7 8b 3e 6a 59 d0 bc 74 3f 6b 3d
       -0.40083826 0.27313137 -0.025433261 0.05743356
000150 e9 fd 0b 3d 08 88 2d bd 5e e3 95 be 7a f3 98 bb
       0.034177694 -0.042366058 -0.2927503 -0.0046676965
000160 5e 9c f6 be 31 40 c9 be 34 14 6d 3e bb 4e f2 be
       -0.48166174 -0.39306787 0.23152238 -0.47325692
000170 8d 3f 56 07 a9 a6 49 3d 9f 1a 91 bd 5a 7e a1 3e
       1.6118247e-34 0.049231205 -0.07085156 0.3154171
000180 c0 89 00 00 b0 b7 7c be 6c 29 1a 3f 6f cb 50 b4
       4.9415e-41 -0.24679446 0.60219455 -1.9445518e-07
000190 f2 8b 80 3e f9 d4 f8 3d 46 01 a7 3e dc 79 3a bf
       0.2510677 0.12149996 0.3261816 -0.7284219
0001a0 b7 ef 5d be 5c db d0 bd 49 e3 55 be 0f da 09 be
       -0.21673475 -0.101980895 -0.20887484 -0.13462089
0001b0 d6 0f 13 39 0d dd 35 3e dd 61 db be 83 68 3b 3c
       0.00014024912 0.17760105 -0.428481 0.011438492
0001c0 e6 18 26 3d e7 94 75 bd 04 31 c4 bd 40 4a 66 3e
       0.04055109 -0.059956457 -0.095796615 0.22489262
0001d0 f5 e9 34 bd b4 6f c7 be 1d f3 75 3e 6d a0 45 3e
       -0.04416843 -0.3895241 0.24018522 0.19299479
0001e0 b7 61 bf bd 31 f0 83 3c ab 6c 0e bf b5 b0 e1 3c
       -0.093448095 0.016105743 -0.55634564 0.02755008
0001f0 54 07 55 3e 53 5c 2f be 6a 25 92 be 35 30 bf 3d
       0.20803577 -0.17125063 -0.2854417 0.09335367
000200 d8 3b 13 3d 6a 2b a6 bc 5f c3 27 be 57 8b 35 3d
       0.035945743 -0.020284373 -0.16383122 0.044322338
000210 56 c2 0c 3e 2f 2d 39 be f1 04 aa 3d 8e 38 30 be
       0.13746008 -0.18083642 0.08301724 -0.17209074
000220 9d 05 e2 be c2 5e b7 3d 89 31 db bd f5 fe 26 be
       -0.44144908 0.089536205 -0.107028075 -0.16308196
000230 08 42 a7 31 df 29 fc be b3 72 38 bc b0 69 a3 be
       4.8678466e-09 -0.49250695 -0.011257815 -0.3191657
000240 a0 a9 21 3d 47 fc 44 3e 2f 8a 33 3e 53 cf 37 3b
       0.039468408 0.19236861 0.17533182 0.002804716
000250 fd 57 17 be 82 70 80 34 29 02 16 1a 0f 52 91 3e
       -0.14779659 2.3923718e-07 3.1021018e-23 0.28382918
000260 25 a5 9f 3d c2 ed 10 be 25 d1 b0 be 7c bd c9 be
       0.07795171 -0.14153197 -0.34534565 -0.39402378
000270 66 a5 a2 3d c3 5c b1 ba 70 f7 c1 be 7f 69 11 bd
       0.079417035 -0.0013531673 -0.37884092 -0.035501
000280 50 23 25 3e dd 13 c1 bd 6d a2 3e 3e 59 a2 1f bf
       0.16126752 -0.09427617 0.18616648 -0.623571
000290 75 5b 6c be 7e 04 21 3d 79 03 35 bc bd cf cb be
       -0.23081763 0.039310925 -0.011048191 -0.3980693
0002a0 91 30 cf bd 99 97 8b 3d 41 1e f7 3d 73 34 d4 bb
       -0.10116685 0.06816024 0.12066317 -0.006475979
0002b0 ad 06 ef 3c 26 3e e3 bd 9f 30 97 bd e3 cb 06 3e
       0.029177988 -0.11095838 -0.073823206 0.13163714
0002c0 ca 8b fd 2b c1 4b 7a be 53 ec 88 be bc c3 d6 bd
       1.801553e-12 -0.2444296 -0.267428 -0.10486552
0002d0 95 79 20 ba 18 c2 3d 3e 5a cc 43 bd 11 b5 85 3a
       -0.0006121633 0.18531072 -0.047802307 0.0010201057
0002e0 38 dd 9e 3e 21 11 73 be 0f 31 9d 3e a4 95 83 be
       0.31028152 -0.23737003 0.3070149 -0.25700104
0002f0 ca 46 c7 be 7f 09 27 3d 4c d4 68 bd ba c4 4a 3d
       -0.38921195 0.04078054 -0.056843087 0.04950402
000300 80 b3 28 38 29 88 43 3e 17 88 0c 3e 6b 8d d1 3c
       4.0221494e-05 0.1909491 0.13723789 0.025580129
000310 65 97 95 be 7c 55 60 3c 4d 2c be be 48 70 30 bf
       -0.29217067 0.013692256 -0.37143174 -0.6892133
000320 69 33 d6 b9 b1 3c b2 bd c9 b4 97 3d 21 ae 97 be
       -0.00040855564 -0.08702982 0.07407529 -0.29625037
000330 c2 1c ae 3d bb 28 6e bc ac 53 53 3e 7b c4 df bd
       0.08501579 -0.014536078 0.20637387 -0.109261476
000340 2e a8 a4 be 0c d4 bc be 15 46 a7 3d af 7e 58 be
       -0.3215956 -0.3688053 0.08167664 -0.21142076
000350 9a bf 9c 3d 88 07 52 be cd 0f 47 be 08 fc 76 be
       0.076537326 -0.20510685 -0.19439621 -0.2411958
000360 76 c6 16 3e 67 59 32 bf 27 70 d2 bd e7 67 89 be
       0.14724144 -0.6966767 -0.102752976 -0.26837084
000370 09 28 05 be 2f 78 65 be 9c be 3d 3e d6 48 4e 3e
       -0.13003553 -0.22409128 0.18529743 0.20144972
000380 8d a1 85 34 fb 7d 83 3e c1 10 36 bd f7 25 ac 3d
       2.4890724e-07 0.25682053 -0.04444957 0.08405679
000390 74 72 04 3c ce cf 3c be 39 26 82 3d b3 67 4b bc
       0.008083928 -0.18438646 0.06354947 -0.012414861
0003a0 0a 9a f7 bb e5 ec 1f bc 7b db 14 b1 53 44 e3 bc
       -0.0075562047 -0.00976107 -2.1661595e-09 -0.02774254
0003b0 64 b7 2c 3e 71 33 a8 bd c7 18 a6 be be 59 9b 3d
       0.16866833 -0.08212937 -0.3244078 0.07585476
0003c0 21 d7 97 3e 40 5f e2 be c8 23 b2 3d 77 71 ba 3d
       0.29656318 -0.44213295 0.08698231 0.09103673
0003d0 a0 7f 6e be 2e 95 05 3e f5 2e ea be b7 8e b5 3d
       -0.23290873 0.13045189 -0.4573895 0.08865111
0003e0 15 c4 c8 3d 8e 95 6c 3e da 29 40 bc 96 3a 59 3d
       0.09803025 0.23103926 -0.011728728 0.053034388
0003f0 a1 a2 1c 3e e5 3e 28 be e4 54 0b 3e db d5 b1 3c
       0.15296413 -0.16430242 0.13606602 0.02170842

fc3.bias f4 [10]
000000 c9 f2 0a bd 99 a0 14 be 2f ad 4b 3d 0b f8 83 bd
       -0.033922944 -0.14514388 0.049725708 -0.06443795
000010 48 c8 aa bd 3b bb 23 be d1 50 09 3e cf 27 4a 3b
       -0.08338982 -0.15989392 0.13409735 0.0030846482
000020 65 46 47 3c 48 a7 19 be
       0.012162779 -0.15005219
