hw1/models/Weight_Decay_best.pth (torch, 250564 bytes, 10 tensors)

conv1.weight f4 [6, 1, 5, 5]
000000 e6 f3 10 bf dc 66 ab be f5 ac ac 3e 98 54 15 3d
       -0.5662216 -0.33476913 0.33725706 0.036457628
000010 ce d5 53 3e 74 2f 51 be 43 6d a8 3d 5e 54 4c 3e
       0.20687029 -0.20428258 0.08223965 0.19954059
000020 63 7c 90 3e e4 36 6d 3d 69 6b df 3c 4e ff 43 3e
       0.282199 0.057913676 0.027272897 0.1914036
000030 24 1a 3b 3d 76 c6 8a 3e ac d3 41 3e 84 30 a1 be
       0.045679227 0.2710454 0.18928403 -0.31482327
000040 a7 42 a3 3e 01 2a f4 3d 99 c0 0f 3e 04 fa 90 3e
       0.3188679 0.11922074 0.14038314 0.28315747
000050 5d 7e ed be de 8b 23 bc b0 bc d0 3b dd 39 9b be
       -0.4638547 -0.009982077 0.0063701496 -0.30317584
000060 67 7b b7 be 80 46 d5 3d a9 69 e3 bd 48 d5 ca 3e
       -0.35836336 0.104138374 -0.111041375 0.39615846
000070 f4 eb e7 bd b6 29 72 be 9c f1 4b 3d 59 9a 07 be
       -0.11324301 -0.23648724 0.049790964 -0.13242473
000080 00 ca 16 3f f4 4f 84 bd b2 a9 df be af 55 c2 3d
       0.5890198 -0.06460562 -0.43684155 0.09488999
000090 8b 45 83 bd 9f 48 bf 3e 0a d9 37 be 23 c2 64 be
       -0.06409749 0.37360093 -0.17953888 -0.22339682
0000a0 da ed f2 bd a4 8b 87 be 20 d4 e3 3e e2 a7 95 3e
       -0.11861773 -0.26473725 0.44497776 0.29229647
0000b0 f8 19 b7 be 61 a9 3b bd f2 26 54 be 19 11 68 3d
       -0.35762 -0.04581583 -0.20717981 0.05665693
0000c0 25 08 9b 3e 91 bd e1 bd 4d 26 67 be 79 1d b0 3e
       0.3027965 -0.11022485 -0.22573204 0.34397486
0000d0 dc 4e 3a bd dc c2 83 bc 1d 1d 1f bd e5 f5 92 be
       -0.045485362 -0.016084127 -0.038846124 -0.28703228
0000e0 1b 46 34 3e 24 9d 98 3d b8 14 90 3e 39 3e 82 be
       0.17604868 0.07451847 0.28140807 -0.25438097
0000f0 44 55 9d be 56 27 66 bd 5c 13 81 3e 4e e4 86 3e
       -0.30729115 -0.056189857 0.25210083 0.26346058
000100 9c 2c 1b be d9 7a c9 be 96 d7 bb 3e ee 5c 42 3e
       -0.15153736 -0.39351538 0.36687917 0.18980762
000110 07 fe c9 bd 61 40 93 bd 67 dc b8 be be ce d6 3e
       -0.09862905 -0.07190014 -0.36105654 0.41954607
000120 10 ab a1 3d 5d 58 7a bb 1a 07 13 be 51 05 9e bc
       0.07893956 -0.0038199641 -0.14358178 -0.019289644
000130 67 af 8c bd 01 20 3c 3e 87 a9 22 bd 5e 76 c4 3d
       -0.06869393 0.18371584 -0.039712455 0.09592889
000140 70 26 06 be 72 b6 c7 bd d4 aa 21 be c7 98 4d bd
       -0.131006 -0.097515956 -0.15787822 -0.050194528
000150 11 04 0e 3d 11 e5 85 bb f8 c7 33 be 2f 06 60 be
       0.034671847 -0.0040861447 -0.17556751 -0.21877359
000160 20 9a 80 be 2a 00 9d be ab 95 2d 3d 1a 66 d9 3d
       -0.25117588 -0.30664188 0.042379063 0.106151775
000170 58 7e 92 be e7 3e 91 be 32 4f 89 be c8 e5 f9 bd
       -0.28612018 -0.28368303 -0.26818234 -0.122020304
000180 7e 4e ec 3b f1 13 a2 3d 36 79 40 3d 7f 0a a2 3d
       0.0072115054 0.0791396 0.046990596 0.07912158
000190 67 7e bb 3e 2b e9 03 3f dc 1a c3 bd 73 23 16 3e
       0.36619875 0.5152766 -0.095266074 0.1466196
0001a0 7d 41 ab bd c5 1a 8d 3e 5c 3f c4 3d 75 73 63 be
       -0.083621 0.27559486 0.09582397 -0.22212012
0001b0 af 0f b6 3d 68 c4 89 3d 9f 7d 60 3d 0d e7 53 be
       0.0888971 0.06726915 0.0548073 -0.20693608
0001c0 ac 81 c2 be 80 1d 90 be 19 20 b4 3e 33 e3 0b be
       -0.37989557 -0.28147507 0.3518074 -0.13660888
0001d0 c4 89 16 bf 46 bd ab be 4f 2e 53 bd a1 57 64 3e
       -0.58803964 -0.33542842 -0.051557835 0.22299053
0001e0 5f a3 9e be 42 93 cf be c7 7e e4 bd 19 81 59 bc
       -0.30984017 -0.40542036 -0.11156993 -0.013275408
0001f0 27 4d 83 bc e2 80 26 be 19 cb f0 be 4e 71 0f bf
       -0.016028 -0.16260102 -0.4702995 -0.56032264
000200 0c 4a fa 3d 36 64 3d 3e 63 82 4f be 9c 14 13 bf
       0.122211546 0.18495259 -0.20264582 -0.5745332
000210 7e 85 b7 be 70 0a ae 3e 73 e9 29 3e 67 e9 18 3e
       -0.35844034 0.33992338 0.1659296 0.14932786
000220 15 46 40 bd 70 51 25 3e 10 c0 1b 3e 3b 23 e9 bd
       -0.046941835 0.16144347 0.15209985 -0.11383673
000230 7b cf 38 3e b9 c7 84 bd b6 37 19 3f d3 db 0c be
       0.18047898 -0.064834066 0.59850633 -0.13755731
000240 d6 55 0c 3e 94 59 10 be a3 f1 62 3e 6d 72 c7 3e
       0.13704619 -0.14096671 0.2216249 0.38954487
000250 19 40 57 bd f6 25 f3 bd
       -0.052551363 -0.11872475

conv1.bias f4 [6]
000000 be 30 cb 3d ba f6 87 bc 8e 76 ca bc b3 56 1d bf
       0.09921406 -0.01659714 -0.024714734 -0.6146042
000010 b7 f8 11 be 63 36 77 3d
       -0.14255033 0.0603546

conv2.weight f4 [16, 6, 5, 5]
000000 64 fd b8 bd 08 83 30 3e 72 73 91 3c e0 a2 05 3e
       -0.090327054 0.17237484 0.017755244 0.13050413
000010 a8 a5 ca 3c de 96 7b bd 5a 0d 30 bd ee 27 fd 3d
       0.024737194 -0.061423175 -0.042981483 0.123611316
000020 bb 4e 16 be 6e 20 00 3e 18 06 54 3c 14 c1 f7 bb
       -0.14678471 0.12512371 0.012940906 -0.0075608585
000030 08 a9 32 3e 7b 7c 85 3e 23 39 91 3c a4 2e 34 3d
       0.17447293 0.26071534 0.01772744 0.043989792
000040 18 d5 df 3d 15 e9 13 3e ad fa bf 3d 50 61 6c 3d
       0.10929316 0.14444382 0.093739845 0.057709992
000050 ac 09 84 be 81 84 b0 3d fb 81 e7 bc ed e1 51 3d
       -0.2578863 0.08619023 -0.028260222 0.05124085
000060 cc 0a 3c be 67 ed 86 3e 2e df c3 be f7 d6 9d 3d
       -0.18363494 0.26353 -0.3825621 0.07707017
000070 9d 16 82 3e 69 31 8a bd 68 52 8a 3e 8c d8 61 3d
       0.25407878 -0.067477055 0.27015996 0.055138156
000080 65 7c 91 be 66 81 23 3d 1e fb 1d 3d f7 72 bd bd
       -0.28415218 0.039918326 0.038569562 -0.092504434
000090 dd 12 ac 3d dd 19 d8 be ea da 87 be b1 0d 67 3e
       0.084020354 -0.42207232 -0.26534206 0.22563817
0000a0 7c 81 5d be eb 96 a5 3e e6 85 98 be 4f 9b 8d bf
       -0.21631426 0.32341704 -0.29789656 -1.1063021
0000b0 47 47 05 bf 25 e1 ab 3d 55 31 b4 3d 71 fc 52 bd
       -0.52061886 0.08392552 0.08798472 -0.051510278
0000c0 a1 f5 73 bf 51 4d 6d bf e5 68 86 3d 77 ed c0 bd
       -0.95296675 -0.926961 0.06562976 -0.09420293
0000d0 f1 ac 5d 3b d8 fa 1e 3d c0 8e cd bd e1 ab 53 3e
       0.0033825005 0.038813442 -0.10036993 0.20671035
0000e0 ec 4a 3d be b6 08 31 3d 77 ca 94 bb 97 37 d9 bd
       -0.18485612 0.043221198 -0.0045407373 -0.10606306
0000f0 33 b8 a1 bc 88 e9 89 3e ad 65 da bd 00 98 2f be
       -0.019741153 0.26935983 -0.10663924 -0.17147827
000100 9d 58 ad bd c7 94 ee bd 9c 53 4e 3d 5e d3 b0 bd
       -0.08464167 -0.11649471 0.050372705 -0.08634065
000110 c2 d8 1b bf 04 4a 2a bf 85 ca 94 be 0a 13 34 3d
       -0.6087762 -0.6651919 -0.2906076 0.04396347
000120 4d 1a c8 bd af c5 86 be 01 e1 2d bf 0d b9 ec 3d
       -0.097706415 -0.26322696 -0.67921454 0.11558733
000130 68 73 c0 3d 79 c4 1c bd 65 2f 8b bd a6 3a 34 be
       0.09397012 -0.03827331 -0.06796149 -0.17600498
000140 e6 cc 92 3d a9 84 86 3e b5 a5 ac 3c 1d f5 9f bd
       0.071679875 0.26273087 0.021075109 -0.078104235
000150 f0 68 2b be ae 30 a5 3d 15 9f be 3d b1 dd 1f 3d
       -0.16739249 0.080659255 0.09307686 0.03902978
000160 62 86 46 3c 57 f5 b2 bd 23 1a 5c bd 9a 8a c2 3b
       0.012117 -0.08738201 -0.053735863 0.0059369328
000170 96 d7 07 3e 3d 99 71 3d 5b 2e 3d be 71 95 75 3c
       0.13265833 0.05898403 -0.18474714 0.014989243
000180 b2 68 01 3e a5 ed d9 3d 2c 65 22 3e e4 77 9e bd
       0.12637594 0.1064103 0.15858907 -0.07737711
000190 65 0e 7d bd e4 fd cb 3d 19 b5 88 3d 4d 84 3f 3d
       -0.061781306 0.09960535 0.06675167 0.04675703
0001a0 b4 90 3b 3d 0a 95 a6 3d cc a2 7e 3c ee db de bb
       0.045792297 0.08133896 0.0155417435 -0.00680112
0001b0 b0 82 ae bc c8 e2 0c bd 45 8f 95 bc aa e4 24 bc
       -0.021302551 -0.034395963 -0.018256793 -0.010064283
0001c0 a9 ef bf bd b2 44 35 3e b4 57 17 3d e1 51 2e 3d
       -0.093718834 0.17701986 0.036948875 0.042558555
0001d0 b0 d3 6e bd 36 d2 80 3c c3 fc 0d 3e b9 51 08 3c
       -0.05830735 0.015725236 0.13865952 0.008320265
0001e0 a5 1a 83 3c 75 65 e0 3d 9e 50 a8 bc cf 6f b2 bd
       0.016003916 0.109568514 -0.020546254 -0.08712732
0001f0 3e 7c e6 3b 12 a9 3b bd 00 e4 45 bd 0d fe 26 bc
       0.007033854 -0.045815535 -0.04831314 -0.010192406
000200 4d e3 8c 3d a7 0b a6 bd dc 84 3d be 9a 7b bd 3d
       0.06879292 -0.08107691 -0.18507713 0.09252091
000210 41 37 6e 3d 4a 97 02 bd 23 ab 41 3c 72 65 2d bd
       0.058158163 -0.03188256 0.011820587 -0.042333074
000220 c3 ab ec 3c 39 b6 84 3e e7 6e 04 3d 8e 46 7a bd
       0.028890496 0.25920275 0.032332327 -0.061102442
000230 a2 bd 94 3d 38 36 bb 3d c3 a4 21 be fb 66 54 3e
       0.07262732 0.09141201 -0.15785508 0.20742409
000240 39 21 1a be 94 bb b6 bd fd 99 c7 bd 4c 29 1e be
       -0.15051736 -0.089224964 -0.09746168 -0.15445441
000250 e7 2a 37 3e ae 3d 98 bd 5b df 00 be fd 3e dd bd
       0.1788746 -0.074336395 -0.12585203 -0.1080303
000260 ee fe 3f bd 6b b3 d4 bd 3a d8 a0 bd 2c 90 e8 3d
       -0.04687398 -0.10385784 -0.07853742 0.113556236
000270 8d a1 62 be 5a 93 04 be 73 44 63 be 07 25 e5 3d
       -0.22131939 -0.12946835 -0.2219408 0.11188703
000280 30 ac dc 3d 80 d2 55 be ac d9 9d be 13 1d 93 bc
       0.1077503 -0.2088108 -0.30830133 -0.0179582
000290 1b 8a 0b 3b 40 9a 51 3e 94 a2 4f 3d 6b 75 9a bb
       0.0021292034 0.20468998 0.050692156 -0.0047137043
0002a0 e9 57 de 3d b1 1a 30 3e 3e a4 af 3c 35 b5 fc b9
       0.10856611 0.17197682 0.021440621 -0.00048200195
0002b0 b0 b7 91 be cf 33 cb 3c 8e 59 52 3e 7e 40 84 3d
       -0.28460455 0.024804978 0.20541975 0.064576134
0002c0 b1 34 4c 3e 07 3a 00 3e 51 90 ed 3e ed 4d f4 bd
       0.19941975 0.12522136 0.46399167 -0.11928926
0002d0 f6 cb 17 bd 6e 9b ab 3d 68 18 74 bd 7f 79 5f 3e
       -0.037059747 0.08379255 -0.059593588 0.21823691
0002e0 e1 57 80 3d f0 a9 10 3d 5e f5 0b 3d 03 11 a8 bd
       0.062667616 0.035318315 0.034169547 -0.0820637
0002f0 e4 70 d0 bd ee 36 89 bd ce f4 fc bb cf 86 e4 bd
       -0.10177782 -0.0669993 -0.0077196127 -0.11158525
000300 84 d1 85 bd b7 d6 d3 be fa ab 23 3d 9f 0d 32 3e
       -0.065341026 -0.41374752 0.03995893 0.17388009
000310 a0 05 ec bc ef 36 96 3d e2 39 b3 be 9b 68 43 be
       -0.028811276 0.073346965 -0.350051 -0.19082873
000320 15 3f 3b 3d c7 cd 3e bd 2a e8 26 bd 38 69 4b 3e
       0.045714457 -0.046582963 -0.040748753 0.19864357
000330 b5 5b fd 3c 9b a6 b6 3d 7f 97 02 bd c9 a5 1d bc
       0.030927518 0.08918496 -0.03188276 -0.009622046
000340 f2 08 1a bd 52 71 0d 3e 58 02 23 3d ba fc 05 bd
       -0.037606187 0.1381276 0.039797157 -0.032711722
000350 17 30 ab be c0 5c 16 be d7 ee b3 3d 23 da 5d bc
       -0.33435127 -0.14683819 0.087857895 -0.013540777
000360 f9 0e 70 bd 3c 38 d2 be c5 28 e8 be 16 76 5a bd
       -0.05860803 -0.41058528 -0.45343605 -0.05333527
000370 cb 06 86 be b3 82 e4 bd 71 a4 ef be 72 95 e0 be
       -0.26177058 -0.111577414 -0.46805146 -0.43864018
000380 12 11 61 3d 8a 7e 5d be 94 7c a1 bd 18 f8 66 bd
       0.05494792 -0.21630302 -0.078850895 -0.056388944
000390 9b 53 5c 3d 66 d6 20 bd 8b b6 0b be 31 d6 f4 bd
       0.05379067 -0.039266966 -0.13643853 -0.11954916
0003a0 7f a4 0c 3d 6d 0c 98 bd 62 ac 03 bd 67 f1 ac be
       0.034336563 -0.07424245 -0.03214682 -0.33777925
0003b0 d1 24 d4 3d c5 8a 54 3e 2b 6d a2 3d 63 b5 b6 3d
       0.10358585 0.20756061 0.079309784 0.089213155
0003c0 bc 70 2e be 2c 24 ef 3d 18 38 8d 3e 8c 2c 9c 3e
       -0.17035192 0.11676821 0.2758186 0.30502737
0003d0 df 70 dd 3d ac 77 1f be 61 2b a1 3a 63 ee 82 3e
       0.10812544 -0.15572995 0.0012296253 0.255725
0003e0 92 b6 74 3e c3 c3 75 3a 05 b8 e6 3d 3d 2d 11 be
       0.2389777 0.0009375179 0.11265568 -0.14177413
0003f0 eb ff 2d bb e3 9c ae bd 70 fa 37 3d 8b 55 b9 be
       -0.0026550244 -0.085260175 0.04491657 -0.36198077

conv2.bias f4 [16]
000000 e3 e2 98 3d fc a2 90 3d f3 ef 12 be d0 bf 37 be
       0.0746515 0.07062337 -0.14349346 -0.17944264
000010 a6 15 b1 3d eb 53 3b bd 88 30 f7 3d a4 45 63 3c
       0.08646707 -0.045734327 0.120698035 0.013871584
000020 71 fd fa 3c 16 66 41 be 1e 00 d0 3d 9c ad 17 3c
       0.030638428 -0.18886599 0.10156272 0.0092577
000030 3c 4c bb 3d 39 4c 02 be 01 f9 87 bd 61 4f a0 3e
       0.091454 -0.12724389 -0.066392906 0.3131056

fc1.weight f4 [120, 400]
000000 9e 4a 82 bb a3 f8 45 3b cb 8c 4c 3e be fa f1 bb
       -0.00397618 0.0030208013 0.19975583 -0.007384627
000010 e3 46 0c be 98 0b 22 bd 72 df a6 bd e3 77 97 3d
       -0.13698916 -0.039561838 -0.081480876 0.073959135
000020 8e 25 d7 3c e2 6a 5e 3d eb b3 07 bd 63 61 7b bd
       0.026263025 0.05430115 -0.033130568 -0.061372172
000030 f6 4a 85 3d de 4a 9e 3d 37 d4 e3 3d c8 96 cc bd
       0.06508438 0.077291235 0.11124461 -0.09989697
000040 59 3f c4 bd fb 17 b4 3d 43 f2 0d bd 83 a7 16 bd
       -0.09582395 0.087936364 -0.034654867 -0.036780845
000050 92 64 02 3d 52 fc 22 3e 43 8b f4 3d c7 78 01 be
       0.031834193 0.15916565 0.119406246 -0.12643729
000060 ae 8e b2 3c 22 26 84 be db 47 05 be 34 f2 8c 3c
       0.02179655 -0.25810343 -0.13015692 0.017205335
000070 c8 e4 48 be ec 06 fa bd c6 c7 85 bc 88 5b 73 be
       -0.19618523 -0.122083515 -0.016330611 -0.23765385
000080 25 5f 9b 3d 9a 41 ab bd 80 ea 38 bd d7 51 a1 bc
       0.07586507 -0.08362122 -0.04514551 -0.019692345
000090 c0 48 2c be 8d 76 bc 3d 82 f4 ea bd a9 45 0d bd
       -0.16824627 0.09202299 -0.114724174 -0.03449026
0000a0 35 6f 6a 3c 08 9e 06 3e 1d f0 82 3e 7c 38 80 3d
       0.01430874 0.13146222 0.25573817 0.062607735
0000b0 8d 35 81 bd d6 d6 e8 bd 51 be bd 3d 1f 24 93 3e
       -0.06309042 -0.11369102 0.092648156 0.28738496
0000c0 b5 4b 30 bd af 20 76 bd 21 70 27 3e 6f 99 f9 bd
       -0.04304095 -0.060089763 0.16351368 -0.12187468
0000d0 18 8e d0 3d 88 60 73 bd ef 04 96 bd b0 08 af 3c
       0.10183352 -0.05941823 -0.0732516 0.021366447
0000e0 67 a1 be bd 1a 76 6f be a0 37 29 be c0 80 4b bc
       -0.09308129 -0.23384896 -0.16525126 -0.012420833
0000f0 4b 85 df bd 5a 60 5d bd 01 83 86 3c 85 e4 97 3d
       -0.109140955 -0.054046966 0.01641989 0.074166335
000100 cf 60 d2 bd 6a fa b7 bc 9a 0a 80 3c 32 f0 8e 3d
       -0.10272371 -0.022458274 0.015630055 0.06979407
000110 bc 45 ec bb f4 cd 16 be 40 7b 00 3d d8 e6 e3 3d
       -0.0072104614 -0.14727002 0.03136754 0.11128014
000120 90 0a d5 3d e7 73 1e 3d a7 d5 d4 3d 11 ce 00 3e
       0.10402405 0.03868475 0.103923135 0.12578608
000130 bc ef c7 3d 8b ea 1d 3e a2 5c ad 3d f0 e5 26 3d
       0.097625226 0.15421502 0.08464934 0.04074663
000140 77 fb 41 bd 2d be 07 3e d7 9d b5 3d 5f f1 eb 3c
       -0.047358956 0.1325614 0.08867996 0.028801618
000150 04 db bd bd 9a 1f 65 bd 27 04 87 3d 89 44 7c bd
       -0.092702895 -0.05593834 0.06592589 -0.061588798
000160 bc aa 93 3c 93 99 36 be 83 67 ca 3c b3 af 28 be
       0.018025748 -0.17832021 0.024707561 -0.16473274
000170 e4 0a e3 3d fe 93 a5 3b 17 98 16 bc db ad bd bc
       0.110860616 0.0050530424 -0.0091915345 -0.02315419
000180 2d 6d 98 3d 59 3b 39 3d 6a b0 76 bb cb 53 b8 3d
       0.07442699 0.045222614 -0.0037641772 0.09000357
000190 dc d0 c3 bd 62 56 2a 3e ca 4e 3f bc 8f c9 43 3e
       -0.09561321 0.16634515 -0.0116765 0.19119857
0001a0 88 db 0f bd 71 20 52 3d 77 c5 9f 3d 5b 4a c6 3b
       -0.03512147 0.05130047 0.07801335 0.0060513443
0001b0 5f ff 89 3d 84 a2 66 bd b9 a4 8c 3d 6b 46 3f 3d
       0.06738161 -0.05630733 0.06867356 0.046698015
0001c0 9a 8e 16 3e d2 ed 47 bd a7 49 c9 3c 5d d0 8e bc
       0.14702836 -0.048810787 0.024571253 -0.01743334
0001d0 cc e2 e8 3b b7 bb 7e 3b e3 b1 d5 bc 28 e4 a5 bc
       0.0071071144 0.003886921 -0.0260858 -0.020250395
0001e0 ae f0 99 bd d8 78 ba 3d 4a bc 9f 3d 38 2a 2a be
       -0.07516609 0.0910508 0.07799585 -0.16617668
0001f0 48 d8 91 3c ca e9 c5 3d e1 f0 bd bd 6f f5 79 3d
       0.017803326 0.09663732 -0.0927446 0.06102508
000200 4c 6c b1 bd 91 51 6d 3d 54 78 04 3e 13 62 41 bd
       -0.08663234 0.057939116 0.12936527 -0.04721267
000210 7d c1 1f bc 38 47 18 3e a9 15 9f bd 04 7d e3 3d
       -0.009750721 0.14870918 -0.07767803 0.11107829
000220 4d b4 a7 3d f1 dd fb 3c f0 1d 1b bc e7 2f 2a bd
       0.081886865 0.030745478 -0.009467587 -0.04154959
000230 6a 2c 27 be 42 79 5d 3d 06 cf 89 3d d1 6c af bd
       -0.16325536 0.05407072 0.0672894 -0.08565677
000240 ad a4 8f bc 8c 65 ab 3d 18 d3 45 3d 49 13 9a 3d
       -0.017534578 0.08368978 0.048297018 0.075232096
000250 86 31 6d bd 0a cf f5 bd c1 d1 87 3d 56 55 87 3d
       -0.057908557 -0.1200238 0.06631804 0.066080734
000260 de ae d8 bd 00 96 57 bd 0a dc af 3d 6d 72 99 bd
       -0.10580228 -0.052633286 0.08586891 -0.07492528
000270 6f a5 27 bd 8f 06 ac 3c 6e 0a b4 bc d9 e7 29 3e
       -0.040929254 0.020999221 -0.02197763 0.16592349
000280 ee d6 2c bd 2b 0b f5 3d a1 db 90 bd cc 74 6f bd
       -0.04219716 0.11965021 -0.07073141 -0.058460996
000290 e4 fa c9 3d fc 31 0b b9 8d 90 90 3b 6c 30 e9 bd
       0.09862307 -0.00013274694 0.004411763 -0.11386189
0002a0 20 e8 a7 bd f0 12 99 3d e5 f1 92 3d 79 05 93 bb
       -0.08198571 0.07474315 0.07175044 -0.0044867364
0002b0 42 e8 8b 3c e2 d7 cc 3c 22 4d d4 bd 72 ab d6 3d
       0.017078523 0.025005285 -0.103662744 0.10481919
0002c0 be 0d 6c 3d a9 02 27 bd a2 fd 09 3d de f9 1c 3c
       0.057630293 -0.04077402 0.03368915 0.009581057
0002d0 e2 13 25 bd 2c 04 e3 3c b0 a8 91 3d d7 d8 00 3d
       -0.040302165 0.02771195 0.07112253 0.031456795
0002e0 36 11 80 3d 02 26 d8 3c 0b b4 c1 bd 8e 6d 88 bc
       0.06253283 0.026385311 -0.094581686 -0.016653802
0002f0 2d a5 18 3d 09 f2 a6 bd cb 5d f1 bd e6 ef c2 bd
       0.0372669 -0.08151633 -0.11785468 -0.09518413
000300 56 23 73 3d 89 d7 b8 3b dc a1 a1 bd 1f 43 4a 3d
       0.05935987 0.005640928 -0.078922 0.049380418
000310 1a 78 8d 3d d8 d3 2a 3e 1b 7d 97 3c 0c c3 15 3d
       0.06907673 0.16682374 0.018492272 0.036562964
000320 2a 53 5f 3d bc 81 e5 3d 46 10 95 3d 0f b9 fa 3d
       0.05452267 0.112063855 0.072784945 0.122423284
000330 a0 7b e7 bd e3 48 24 3e 8f ad b8 3d 7b b5 94 3e
       -0.113028765 0.16043429 0.09017479 0.2904471
000340 59 20 45 bd 35 8e b4 bd 40 25 4e bd 76 5d 86 3d
       -0.048126552 -0.08816186 -0.050328493 0.06560795
000350 f4 30 15 3d c2 b2 92 bd a9 49 0a 3b 6d b3 29 bd
       0.03642364 -0.071630016 0.0021101034 -0.04143088
000360 3f f0 2c be 4d ba c4 3d ac 4e 2b 3d 01 23 08 bd
       -0.16888522 0.096058466 0.041823074 -0.033236507
000370 17 b9 45 bc f7 73 49 bd db e2 e1 bb d6 d7 ce 3d
       -0.012068055 -0.04918286 -0.0068934984 0.10099761
000380 dc 80 3a 3d 8e 9e 8a 3d 54 6d 11 be a4 75 2d bd
       0.045533046 0.06768523 -0.14201862 -0.04234852
000390 29 57 8d bc c5 ef 82 bd 72 85 84 3d cf eb 1f bd
       -0.017253475 -0.06393389 0.06470765 -0.039043244
0003a0 7c 66 1d 3d f2 8c cd 3c 46 70 19 3e 7d 92 33 3c
       0.038427815 0.025091622 0.14984235 0.0109602185
0003b0 a9 3d 5e bd d5 94 13 bd e4 0e 6e bd 03 da e0 3d
       -0.054258022 -0.03603061 -0.05811967 0.109790824
0003c0 b3 c9 ef 3c ba 07 cb 3b 23 6e da 3d 9b 85 b1 3d
       0.029270982 0.0061959894 0.10665538 0.08668061
0003d0 cb 1f 3f 3d 3e 41 9a 3c 46 38 23 3e 07 35 b3 3c
       0.04666118 0.018829938 0.15939435 0.021875871
0003e0 96 b4 ac bd 3a 05 be 3c 0a a2 11 3e 14 ba 44 be
       -0.084328815 0.023195852 0.14221969 -0.19211608
0003f0 53 1c 06 3b 1b 3f 3a bc 24 ba 32 3d dd 3e f2 3d
       0.002046366 -0.011367585 0.04363455 0.118283965

fc1.bias f4 [120]
000000 1e 55 0a 3e ef d3 ee 3c 6a 69 7f 3d 12 d5 cb 3d
       0.13509032 0.029153792 0.06235639 0.09952749
000010 ab cd e4 3c 6a f1 7e b7 f0 6e aa bc 07 90 ca ae
       0.027930101 -1.5195788e-05 -0.020804852 -9.211481e-11
000020 e3 18 16 9c 4b 04 54 3d 81 88 bb 3d 65 1f 8e bc
       -4.9663e-22 0.051761907 0.091568954 -0.017348954
000030 72 47 f6 bc 6d 7f d2 b6 55 49 8d 3d 19 72 ba 3c
       -0.030063365 -6.273322e-06 0.068987526 0.022759484
000040 2c f0 ca 3d 6a 23 72 3d 5d a2 d4 3c 5e da d9 bc
       0.099090904 0.059115805 0.025956327 -0.026593383
000050 70 04 c4 3c 75 31 d2 bc b2 dc 54 b4 0b 29 90 bc
       0.023927897 -0.025658349 -1.9824327e-07 -0.017597696
000060 08 f9 df bc 22 dd 05 aa 02 8a 00 80 b3 89 00 00
       -0.027340427 -1.1889494e-13 -4.9508e-41 4.9397e-41
000070 d1 8e 1e 3e 6d 80 f7 bd 41 99 0f bd 42 f3 2b 3e
       0.15484168 -0.12085042 -0.035058264 0.16792014
000080 04 65 91 3d 72 d1 b5 3c 32 19 90 bb 61 cf ea 3c
       0.07099345 0.022194598 -0.0043975348 0.02866334
000090 0c 59 22 bd 4a 54 c6 3d 86 bd 2d bd 5b 2a 9e b3
       -0.039635703 0.096840456 -0.04241707 -7.365153e-08
0000a0 8b 18 5b bd b1 df fb bc 55 07 a9 3d 7b 5e 7e bd
       -0.053490203 -0.030746313 0.082533516 -0.062101822
0000b0 65 7e 81 bc 7e bd 61 3d eb 92 80 3d 19 01 5b 3d
       -0.01580734 0.055112354 0.062780224 0.053467844
0000c0 76 13 51 3e 8e 1a 29 bc ce 4a 0a bc a7 3b 7a 25
       0.2041758 -0.010321273 -0.008440686 2.1704254e-16
0000d0 cd fd ad bb a5 c4 a0 bd 68 34 80 3d 06 22 d0 0f
       -0.0053097964 -0.07850007 0.06259996 2.0523489e-29
0000e0 32 77 89 bd 52 0c 91 3d 42 78 d5 b8 dd ec a3 3b
       -0.06712188 0.07082428 -0.00010179031 0.0050026015
0000f0 38 7b c6 3d 2b 21 80 bd 54 cd c0 3b 1e fc aa b7
       0.09691471 -0.06256326 0.005883852 -2.038298e-05
000100 e9 56 79 3c 1e ce a9 3d 97 b4 2d 3b 93 89 00 80
       0.015218475 0.08291267 0.0026505345 -4.9352e-41
000110 85 4d a3 3c c9 00 bf 3c 94 b6 07 3d 7f ba 9e b9
       0.019934425 0.023315804 0.033133104 -0.0003027506
000120 a1 3d c7 3c 8d df 13 3d f1 36 07 bd b4 65 1b bd
       0.02432138 0.036101867 -0.03301138 -0.03793879
000130 e0 31 db 3c 95 8b 7e 3d ee b3 9d 3d 8b 58 d3 3c
       0.02675718 0.062144835 0.077003345 0.025799057
000140 83 ac 35 3d a3 d6 03 bd 50 53 d5 b2 8f c4 3a bd
       0.044353973 -0.032187115 -2.483435e-08 -0.04559761
000150 09 6c 42 3d c0 45 01 3d 0b e0 8e b8 21 9e 86 3d
       0.04746631 0.03156066 -6.812819e-05 0.065731294
000160 fe 11 3d bd c3 fb 52 bd 44 36 27 bb e0 6c 0b 3d
       -0.046159737 -0.05150963 -0.0025514523 0.03403938
000170 de b7 50 3c 95 97 6d 3b 57 7c 92 b3 5a fc a4 3c
       0.01273915 0.003625368 -6.821272e-08 0.020139862
000180 b4 76 01 3b d6 e5 85 b7 1f 49 60 3d 41 59 64 3c
       0.001975459 -1.5961861e-05 0.054757234 0.013937295
000190 78 74 72 bc 84 93 bf 3d d8 ba 9f bd e2 f7 15 3d
       -0.014798276 0.09354308 -0.077993095 0.036613353
0001a0 a7 18 3e 3d 90 12 c5 3d 88 b9 c7 3d 8e a5 7b b9
       0.04641023 0.09622681 0.09752184 -0.00023998899
0001b0 2d 04 04 b6 85 fe e0 3d 59 43 4c b6 70 9b 81 bc
       -1.9671963e-06 0.10986046 -3.043757e-06 -0.015821189
0001c0 61 1b a5 3b 57 cf 46 3c b5 f8 32 3d 8f a5 9e bb
       0.005038664 0.012134395 0.043694217 -0.0048415135
0001d0 e5 b6 ee 3a ce 70 47 3d 5a 86 a4 b6 5a 9a f0 bb
       0.0018212466 0.048691563 -4.9032215e-06 -0.007342619

fc2.weight f4 [84, 120]
000000 c5 be c6 bd a5 66 f5 3c 16 09 a8 bd d1 d8 45 be
       -0.09704355 0.029956171 -0.08204858 -0.1932099
000010 64 c3 78 3c dc 90 7e 3b fd 96 26 3e 76 bd e3 39
       0.0151833035 0.0038843667 0.16268535 0.00043437973
000020 48 92 b3 b3 7c a2 e1 bd 21 61 32 3e 3c 7f 4c 3c
       -8.3619454e-08 -0.110173196 0.17419864 0.012481507
000030 d2 4e 84 bd 8d 50 38 bb cf ff b7 bc 4b 12 ea 3b
       -0.06460346 -0.0028124184 -0.022460846 0.007143294
000040 ce ef d6 bd 3d a6 20 bd d5 ff 9d bd d1 e7 86 bc
       -0.10494958 -0.039221037 -0.07714812 -0.01646796
000050 ed 61 91 3c 8d ae 04 3d f7 df 2d b9 3a dd 78 bc
       0.01774689 0.032393027 -0.00016581999 -0.015189463
000060 8f d2 18 3d 3c ad 5b 39 b5 be a3 12 d6 71 45 aa
       0.03731018 0.00020950002 1.0333759e-27 -1.753661e-13
000070 d7 24 dd 3d 36 9b 9f 3c 29 45 4b 3d f3 89 9e 3d
       0.10798042 0.01948319 0.049626503 0.077411555
000080 8d f9 b9 3d f3 44 c4 bd 14 80 1c 3b ad d5 7a bd
       0.09080801 -0.095834635 0.0023880051 -0.061238933
000090 a0 25 a4 3d fb 66 75 bd 33 6a b7 3d f4 86 5d 3b
       0.08014989 -0.059912663 0.08955803 0.0033802362
0000a0 3b 48 08 3e 70 00 c2 bd 56 39 8c 3d 4f 09 36 3d
       0.13308804 -0.0947274 0.068468735 0.04444247
0000b0 56 1b 0b bd f4 0c a1 bd d6 4c 7a 3d da 75 93 3d
       -0.033961616 -0.07863799 0.061108433 0.07200213
0000c0 79 6e 4f be a2 0d c2 3d b1 11 a1 bd 1a e0 d0 34
       -0.20256986 0.094752565 -0.078647025 3.8906074e-07
0000d0 d3 c1 9f 3d f8 09 ec bb 03 60 e8 3c 68 f0 0f b7
       0.07800641 -0.007203337 0.028366094 -8.579438e-06
0000e0 aa 70 2e 3d 5f 20 21 3e e1 41 8d b3 c5 30 49 bc
       0.042587914 0.15735005 -6.5778075e-08 -0.012279694
0000f0 96 f7 16 bd 35 48 fc 3d b6 ca b7 bc fa 73 63 3a
       -0.03685721 0.1231846 -0.022435527 0.00086766446
000100 db 2a 8d bd a8 54 a4 bd b5 a8 a8 bd e1 79 da 9a
       -0.0689294 -0.080239594 -0.08235303 -9.035959e-23
000110 c9 27 fe 3b 6d 00 1b 3d 81 d2 6a bc 7e de 28 3c
       0.0077562076 0.037842203 -0.014332415 0.0103069525
000120 ba 2f 0e 3e f1 41 99 3d 72 7d 3b 3e 24 70 95 3c
       0.13885394 0.074832805 0.18309572 0.01824195
000130 c9 d2 4b 3e 06 03 f9 3d 07 5a 1e be c9 ae 26 be
       0.19904627 0.1215878 -0.1546403 -0.16277613
000140 74 09 96 be fa d4 14 3c 84 54 86 b6 ed b5 17 3e
       -0.29304087 0.009083981 -4.00335e-06 0.14815493
000150 4b 02 1a 3c ae a1 e2 bc 3b 1c ce 3b 02 f7 04 3d
       0.009399961 -0.027664986 0.0062899864 0.032462128
000160 84 0f 4e 3e 7f c2 8e bd 12 31 18 3e a2 34 46 3d
       0.20123106 -0.06970691 0.14862469 0.04839004
000170 04 a6 17 3d a5 25 db bb f2 26 7b 3b cd 6e 8f 3c
       0.03702356 -0.006687837 0.0038322774 0.017508889
000180 e6 84 c9 3d 6e 68 81 b9 a6 f7 c1 3d 2b 64 0f 3d
       0.098398015 -0.00024682604 0.09471063 0.035007637
000190 07 26 58 3d b2 c4 d0 bb 65 2c ef bd cc 87 94 bd
       0.05277064 -0.006371104 -0.116783895 -0.07252464
0001a0 f3 4a f3 bd 0d 54 d9 3c 4f c3 fd 3c bb a8 14 3a
       -0.1187953 0.026529336 0.03097692 0.0005670895
0001b0 2d e1 6f 38 88 85 6a bd 15 70 23 3b 7d 28 ba 3c
       5.719175e-05 -0.05725625 0.0024938632 0.022724384
0001c0 de 42 8e bc 9f c2 1f 3e bd cc 1e 3e 53 d3 82 bd
       -0.01736587 0.15601586 0.15507789 -0.06387963
0001d0 97 01 05 3e eb be ab 3d 98 90 9f b6 5c 7c 08 3c
       0.12988888 0.08386024 -4.755402e-06 0.008330431
0001e0 be a8 d5 3d ea c6 bc 3d b3 1d a1 bd 9e ec 82 3d
       0.10432576 0.09217627 -0.07866993 0.063927874
0001f0 ed 46 07 be 64 71 6e ba fe 16 5b be cc dc ec b3
       -0.1321065 -0.0009095876 -0.2139549 -1.1029769e-07
000200 98 e6 75 33 c2 c5 f1 3c 96 5d c5 bd 0b f9 c3 bb
       5.725323e-08 0.029513244 -0.09636991 -0.005980616
000210 48 4a d1 3d 19 39 b2 ba 16 d4 bb 3d 1c 69 21 3d
       0.10219246 -0.0013597339 0.091713116 0.03940688
000220 47 62 9b bd 63 e9 1d 3e 61 9c 0b 3e 11 08 8b bb
       -0.07587104 0.15421061 0.13633873 -0.004242905
000230 24 13 bd bd d1 dd 80 bd d2 9b 99 39 51 7a 0f 3d
       -0.092321664 -0.06292308 0.0002929853 0.03502876
000240 28 c3 9b bd 53 e2 91 b5 bc 88 00 80 09 d6 93 28
       -0.076055825 -1.0869211e-06 -4.9051e-41 1.6413101e-14
000250 27 13 2d bc b8 f6 d8 3d a5 17 35 3e 7f 14 6a bd
       -0.010563648 0.10593933 0.17684801 -0.057148453
000260 51 85 d7 3b 4d 6e 90 3d 3a 47 1e 3b c3 6a 6e bc
       0.006577172 0.07052288 0.002415134 -0.014551821
000270 d4 d1 d3 3c 59 39 dc bd 1b 7a 60 bb ce e5 2e b9
       0.02585689 -0.10753126 -0.0034252468 -0.00016679542
000280 ec 7c d5 b9 11 1c 1f 3e a6 b4 9a 3d 38 b9 cc 3d
       -0.000407196 0.1553805 0.07553987 0.09996265
000290 88 24 f4 3b 2e a5 06 be d8 83 31 3c 1c 99 99 3d
       0.007450644 -0.13148949 0.010834657 0.074999064
0002a0 79 b1 06 3e 99 99 32 bd f9 90 bd 3c b9 30 83 a4
       0.13153638 -0.043603513 0.023140417 -5.689473e-17
0002b0 4f 80 e4 bd 49 46 8b bb 84 19 72 3d ca b2 15 ac
       -0.111572854 -0.004250322 0.059106365 -2.1273421e-12
0002c0 2a c5 f9 bd 39 e7 84 bd 7d 4e 8b 2e 50 81 c0 3d
       -0.12195809 -0.06489415 6.3349305e-11 0.093996644
0002d0 fd 5a ff 3c 5c 8b a0 3d bd 86 88 bd d4 9c 93 b7
       0.031171316 0.07839081 -0.06666324 -1.7596794e-05
0002e0 7f 2b 77 bd cb fb a3 3d 7e 57 40 3e db 08 a0 a0
       -0.060344215 0.0800701 0.18783376 -2.7110914e-19
0002f0 ae ee ff bc b9 a8 d8 bd c1 3c cf 3d 61 be 77 bb
       -0.031241741 -0.10579056 0.1011901 -0.0037802684
000300 b9 dd c1 bd 76 64 cc bd 60 25 81 3d 2f 9c 94 3c
       -0.09466118 -0.09980099 0.06305957 0.01814088
000310 fb 25 21 3e 3f 1c 9a 3c 4c e6 53 bc 62 ea b2 3d
       0.15737145 0.018812297 -0.012933325 0.08736111
000320 a8 a4 a1 3e b9 14 2f bd 25 5f ac 37 bb e2 83 bc
       0.31570935 -0.042744372 2.0548303e-05 -0.016099324
000330 24 af 90 3d 69 17 2c bd 0d 9d 55 b9 1f 29 ed bc
       0.070646554 -0.042014513 -0.00020371769 -0.028950272
000340 33 25 03 be 13 e9 22 bd 8c 8f 48 bd 5d ab ed bc
       -0.12807159 -0.03977306 -0.048965022 -0.029012376
000350 4e f2 af 3d 68 8c 9c bc 14 a6 4e 3a 64 a3 4d 3d
       0.08591138 -0.01910992 0.0007883024 0.05020465
000360 22 31 bf bc d6 fd e3 34 c1 04 40 bc 0f 61 08 3e
       -0.023338858 4.2466735e-07 -0.011719883 0.13318275
000370 ab 03 1d bc 54 35 85 bd b5 08 82 bc 75 e5 b6 bd
       -0.009583394 -0.06504312 -0.015873292 -0.08930484
000380 16 77 df bc 19 38 f6 bc 0f 90 e3 bc 52 95 33 39
       -0.027278464 -0.030056046 -0.027778653 0.00017126396
000390 9f 3e fb b7 87 ba 9c 3e 51 35 61 b9 27 54 aa 3d
       -2.9950692e-05 0.3061106 -0.00021477534 0.08316832
0003a0 ba e3 8e 3d 92 4d de bd c2 ff 36 3d 61 4f b0 bb
       0.06977029 -0.10854639 0.044677503 -0.0053805565
0003b0 67 4f 01 3e 5a f6 e4 bd bf 4b b8 38 cc d1 e0 3b
       0.12627946 -0.111798 8.7879125e-05 0.0068609472
0003c0 d8 bd c6 bd a0 7d d3 bd db 8a 30 bd f3 3a 0d 3d
       -0.097041786 -0.103266954 -0.043101173 0.034480046
0003d0 bf 4d 42 3e b7 8f a3 3b b6 56 78 3d ad 84 99 3a
       0.1897497 0.0049914974 0.06062957 0.0011712514
0003e0 d3 c2 f2 b9 0b 2b 25 bd 5e 62 ad 3d be 60 97 bc
       -0.00046302992 -0.040324252 0.08466028 -0.018478747
0003f0 0e 12 22 bc c6 8d 67 ba 7e 98 1b 3e 60 a7 b8 3d
       -0.009892 -0.00088330766 0.1519489 0.09016299

fc2.bias f4 [84]
000000 90 60 33 3d 3b 8e bf bc 44 a3 41 3e 7f e3 55 97
       0.04379326 -0.02338325 0.18909937 -6.911115e-25
000010 cc 85 08 3e 50 13 19 bd 01 e6 d0 3d ee 9a be 3d
       0.1333229 -0.037371933 0.1020012 0.09306894
000020 1f 2a e7 a9 bf 2b 3d b9 09 0a a1 3d 32 37 45 3d
       -1.02657676e-13 -0.00018040741 0.07863242 0.04814834
000030 7c 83 0e b4 c5 e2 4c 3d 38 1f 40 3d 12 a3 cb b2
       -1.3272614e-07 0.05002095 0.046904773 -2.3706466e-08
000040 7a e3 a0 3d 4a ad e0 3d ac 33 b9 bc df 2c ef 3c
       0.07855888 0.10970552 -0.022607647 0.0291962
000050 75 18 42 3d 9a 2d d4 bc 5b 1b b3 3d ca 47 51 bd
       0.047386605 -0.02590065 0.08745452 -0.051093854
000060 0a e5 f0 9a 0b f4 db bc 4b be e8 3d 35 a6 f3 ba
       -9.9631706e-23 -0.026849767 0.113644205 -0.0018588962
000070 21 59 ad bd 3d 21 a2 bb 0b 16 64 3d a8 3c 04 bb
       -0.084642656 -0.00494781 0.055685084 -0.0020177756
000080 f9 01 1c ad 8a 01 8f 3d 65 7d 6c bc 50 e3 c5 bb
       -8.868011e-12 0.069827154 -0.014434193 -0.0060390607
000090 cd d1 16 3e 04 e7 15 b8 24 2d 65 3d 1f 5b 9f 3d
       0.1472847 -3.573952e-05 0.055951253 0.07781052
0000a0 64 2a 6e 3c ac ac 32 3d 15 43 3f 3e ac bd a7 3c
       0.014536474 0.043621704 0.18677934 0.020476185
0000b0 0a c5 d0 3d 11 fa 83 3d 88 9b 02 3e d3 80 23 3d
       0.10193832 0.06444181 0.12754643 0.03991778
0000c0 4e 14 77 3d bd 07 66 3d b1 8d 35 3d dd 2f 11 3d
       0.0603221 0.056159724 0.04432458 0.035446037
0000d0 c7 6f 88 3d aa ab 57 bc 83 d8 b9 3d d3 25 a4 3d
       0.06661945 -0.0131634865 0.090744995 0.08015027
0000e0 16 51 45 b6 4f 93 2e 3e 7d 13 5c 3a f6 63 87 3d
       -2.9402486e-06 0.17048381 0.0008395238 0.06610863
0000f0 b9 f2 39 aa 16 21 02 3d c9 64 32 bd 05 9b f3 bb
       -1.6515512e-13 0.031769834 -0.043553147 -0.0074342513
000100 c6 00 fe 3d a3 79 ff b5 72 0b 9f ae 92 f9 a9 3c
       0.12402491 -1.9034381e-06 -7.232516e-11 0.020748887
000110 be 5e cb 3d 8f c2 aa bd 3e 01 ce 3c 4d 6d f8 bb
       0.0993018 -0.0833789 0.025147077 -0.007581389
000120 f5 b1 b6 bd 8a a5 40 3d 7f 00 7a 3d db 90 ce 3d
       -0.08920661 0.04703287 0.06103563 0.10086223
000130 84 4f 57 bd da b8 10 3d a0 ce 0a 3d 34 8b 29 3e
       -0.052566066 0.03533254 0.03388846 0.16557008
000140 2f bc 8e 3d 1d 17 46 bc e1 68 01 bd 5e 11 df 3d
       0.06969487 -0.012090472 -0.03159416 0.108919844

fc3.weight f4 [10, 84]
000000 74 9a 80 3d 1d 76 96 3d 74 36 a3 bd a4 67 66 38
       0.062794596 0.07346747 -0.079693705 5.4932796e-05
000010 f4 6f a1 bd 32 9e 8e be 9d 4b 82 be d1 b5 4f 3d
       -0.078826815 -0.27855068 -0.25448313 0.050710503
000020 fe a3 d7 b9 77 25 f7 3d 7d c8 91 3d a3 e9 0b be
       -0.0004113018 0.12067693 0.07118318 -0.13663344
000030 ca de 35 39 c2 6d 15 be f8 8c 16 be 85 b1 a0 bb
       0.000173445 -0.1459265 -0.14702213 -0.0049039745
000040 f3 33 8c 3e 36 8d 9e be 34 c4 6b 3d 96 cd 43 3e
       0.27383384 -0.3096711 0.05756016 0.19121394
000050 f3 bd 9e be 8f 09 d0 bb ab cb 10 3e 51 70 e7 3d
       -0.31004295 -0.0063487957 0.14140193 0.113007195
000060 cf 24 7c ba 49 52 3b 3d bd 7a b4 3d d2 be 25 3b
       -0.0009618522 0.04573277 0.08812473 0.002529074
000070 66 e0 7a be e5 fb d4 bc 5c f5 1c 3e b6 f2 f8 3d
       -0.24499664 -0.025999019 0.15327972 0.121556684
000080 8f d7 48 3a 17 5b 24 bf 0e 89 2f 3c 7c b6 4d 3d
       0.0007661515 -0.6420149 0.010713829 0.05022286
000090 e9 e9 6b be d0 4d f6 3a 72 07 7d 3d f9 b7 73 3d
       -0.23038448 0.00187915 0.06177468 0.059501622
0000a0 0a 04 b0 3c 5f 2d 2b 3e 05 96 31 3c 50 17 a5 3d
       0.021486301 0.16716526 0.01083899 0.08061087
0000b0 e6 c1 c9 3d 4a 8a 36 3e ad c9 8e be 1f c9 ea bc
       0.09851436 0.1782619 -0.2788824 -0.028660355
0000c0 02 43 d0 3d c6 dd fb 3d eb 67 f4 3c 4a 13 26 bd
       0.10169031 0.12298159 0.029834708 -0.04054574
0000d0 3a 24 3c 3d bd f8 e1 3d 55 bc d6 bd 13 b9 19 bf
       0.045932986 0.11033771 -0.1048514 -0.60048026
0000e0 08 83 de 39 e5 ea 98 3d b5 af 20 be 1b 8b 42 3e
       0.00042440766 0.074666776 -0.15692027 0.18998377
0000f0 08 68 1d 3a 0f c6 a3 be e5 b0 40 3e 63 62 47 3c
       0.00060045766 -0.31987044 0.1881748 0.012169453
000100 cf c4 67 be 1a 08 7d 3b 51 54 46 b9 36 64 20 3e
       -0.2263367 0.0038609565 -0.00018914162 0.15663227
000110 b2 fb 41 3c e9 9f 9a bd 7b 42 92 3e 70 b3 4e 3e
       0.011839794 -0.07550032 0.28566346 0.20185637
000120 78 ce 38 be 13 ca 5b bd 10 29 b6 3d f4 4e 93 be
       -0.18047512 -0.05365951 0.08894551 -0.28771174
000130 53 41 f8 be d9 f5 2d be 39 63 21 be f5 e7 35 bd
       -0.48487338 -0.16988315 -0.15760507 -0.044410665
000140 e8 3d b6 be 0e c6 87 3e e3 61 3c bd 79 31 56 3d
       -0.35594106 0.2651829 -0.04599179 0.052293275
000150 30 e2 f8 3c 3b a7 bf bc fe 58 89 be eb 0b 99 b5
       0.030381292 -0.023395171 -0.26825708 -1.1402857e-06
000160 bb 20 dd be c4 3b ac be 9a 88 6b 3e 91 cb eb be
       -0.43189034 -0.33639348 0.23001328 -0.46053746
000170 44 35 c1 ac e2 8b 71 3d 60 a6 2a bd fe 57 95 3e
       -5.4913036e-12 0.058971293 -0.041662574 0.29168695
000180 da 94 92 29 b7 30 6a be cc 1e 0d 3f c2 c4 b9 b9
       6.509524e-14 -0.22870146 0.5512512 -0.00035432546
000190 18 7d 3f 3e 9b c0 db 3d 8b 0b 9e 3e 87 36 31 bf
       0.18700063 0.10730096 0.30868182 -0.6922383
0001a0 07 10 56 be 33 64 73 bd 03 0c 43 be e7 d9 da bd
       -0.20904551 -0.05942173 -0.19047551 -0.10686093
0001b0 5b 7b 71 b3 99 3f 34 3e 85 80 d7 be ad 36 14 b9
       -5.6224376e-08 0.17602386 -0.4209024 -0.00014134748
0001c0 c8 7c 68 3d 99 de 5d bd 68 14 b0 bd 9e d6 61 3e
       0.056759626 -0.054167364 -0.08597642 0.22054526
0001d0 12 60 29 25 9b 72 c2 be be d0 68 3e c7 4a 25 3e
       1.4690963e-16 -0.37978062 0.22735879 0.16141807
0001e0 a8 13 9b bd 7f e7 fa 38 3d ab 08 bf ad 97 0a 3d
       -0.075721085 0.000119640485 -0.5338629 0.033836056
0001f0 bf ed 40 3e d0 b1 1b be 48 b0 79 be cc 14 d6 3d
       0.18840693 -0.15204549 -0.24383652 0.104531854
000200 4d e1 2b 3d d9 bd eb bb 12 69 0f be 74 24 3c 3d
       0.04196291 -0.0071942625 -0.14004925 0.045933202
000210 7c 6a 05 3e ac 7f 29 be 4f d7 b4 3d d7 ac 3c be
       0.13028902 -0.16552609 0.08830129 -0.18425308
000220 84 d1 c6 be 37 90 dc 3d 66 96 dd bd 65 f8 22 be
       -0.38831723 0.10769694 -0.10819702 -0.15915067
000230 3e 46 fe 39 fa 72 fa be 34 2f 0c bc ca 3c 9c be
       0.0004849899 -0.48915845 -0.008556176 -0.30515128
000240 36 bd d6 b4 0a 7c 34 3e 45 e5 1c 3e 73 af fb ba
       -3.9998275e-07 0.17625442 0.15321834 -0.0019202068
000250 ea bc 0c be 43 de 4f 3a e3 60 0b 32 14 64 8b 3e
       -0.1374394 0.0007929543 8.112894e-09 0.2722479
000260 2a 91 83 3d 24 73 1e be 2e fe a9 be dd a6 c7 be
       0.06424172 -0.1547361 -0.33201736 -0.38994494
000270 8b f5 87 3d 9e 0d ad ba c7 62 ae be be b4 0a bd
       0.066386305 -0.0013202911 -0.34059736 -0.033863775
000280 98 f3 f3 3d 9b a3 c0 bd f9 e0 2f 3e fe 80 0e bf
       0.11911696 -0.09406205 0.17175664 -0.55665576
000290 82 b6 4c be 66 8f 62 3d df 38 49 bd d1 b0 bc be
       -0.19991496 0.055312537 -0.049126502 -0.3685365
0002a0 ab 7d cb bd af 6a 85 3d a1 d9 f1 3d 1d 1b 0c b9
       -0.09936079 0.06514489 0.118090875 -0.00013361541
0002b0 cd 66 eb 3c b0 9a db bd 1b 71 8f bd ca c6 c6 3d
       0.028735543 -0.10722864 -0.07003995 0.09705885
0002c0 b9 45 be 35 d4 46 4a be 6f 20 7a be 8d 3d 05 be
       1.4176395e-06 -0.19753581 -0.24426435 -0.13011761
0002d0 ee c8 c7 bb f1 c8 36 3e a2 03 6b bd 79 d5 be 3b
       -0.0060969507 0.1785009 -0.05737651 0.005823788
0002e0 2c 6e 95 3e cb 3a 64 be 32 48 8f 3e 30 4a 6d be
       0.29185617 -0.22288053 0.27984768 -0.23172832
0002f0 3e f2 a9 be f2 c2 a1 3c 88 3e 3f bd 8a bb 4e 3d
       -0.3319263 0.019746277 -0.046690494 0.05047182
000300 8c 5e 5c 3a 92 42 1a 3e f1 e6 ff 3d bf 46 c0 ba
       0.00084064226 0.15064457 0.124952205 -0.0014669521
000310 4f 75 8e be 29 d4 27 bc 74 7c ac be 70 ea 12 bf
       -0.27823874 -0.010243454 -0.336887 -0.57388973
000320 37 dd a2 3a ee 44 c9 bd e0 db 88 3d 18 7e 62 be
       0.0012425546 -0.098276004 0.06682563 -0.22118413
000330 57 8b a4 3d f4 4a f5 ba 30 6d 46 3e 89 84 cd bd
       0.080343895 -0.0018714354 0.19377589 -0.10035045
000340 ab 0f 81 be a5 ed a6 be b7 d2 a3 3d e1 ac 46 be
       -0.25207266 -0.32603183 0.07999175 -0.19401886
000350 0f 7c 85 3d 4a eb 6c be e1 59 45 be 6e a2 5e be
       0.06517803 -0.2313663 -0.19272567 -0.2174165
000360 e0 6d 1b 3e 9a 6b 21 bf 4e 06 c4 bd b5 06 7b be
       0.15178633 -0.6305481 -0.09571515 -0.24514277
000370 f9 6f f8 bd f9 44 4f be 4b 7a 32 3e 54 ad 44 3e
       -0.12130732 -0.20241155 0.17429464 0.19206744
000380 39 c7 6b 3a 4f 76 7a 3e a5 21 02 bd 52 83 75 3d
       0.0008994225 0.24459194 -0.031770367 0.05993969
000390 a7 d9 6f 38 74 fa 36 be f9 52 88 3d 50 3c ae bc
       5.7184745e-05 -0.17868978 0.06656451 -0.021268994
0003a0 8c c7 77 ba 69 ef 06 bd ca 26 76 b7 1a 66 88 bc
       -0.0009452037 -0.032943163 -1.4671774e-05 -0.016650248
0003b0 12 8e 1b 3e d0 55 cb bd d6 e5 9e be 91 19 7c 3d
       0.15190914 -0.09928477 -0.31034726 0.06154782
0003c0 ae 6a 88 3e 1d 8e ed be b8 9e a1 3d 70 8e b6 3d
       0.2664389 -0.46397486 0.07891601 0.089138865
0003d0 02 a4 5c be ec 68 fb 3d ec 78 d0 be d6 91 b1 3d
       -0.21546939 0.12275872 -0.40717256 0.08670394
0003e0 48 4d c1 3d 11 3a 60 3e 1c 1f e1 bc 71 8f 37 3d
       0.09438568 0.2189715 -0.027480654 0.04481453
0003f0 49 e7 15 3e 3e 49 08 be 2e 46 02 3e fc c4 d1 38
       0.1463901 -0.1330919 0.12722084 0.00010002588

fc3.bias f4 [10]
000000 f7 34 03 bd 5d 53 05 be 5e 97 60 3d fc 9f 88 bd
       -0.032032933 -0.13020082 0.054831855 -0.066711396
000010 9c c4 bd bd 85 03 1b be 2e b3 02 3e 1e a0 35 bb
       -0.09266016 -0.15138061 0.12763664 -0.0027713845
000020 60 a7 07 3d 03 02 1e be
       0.033118606 -0.15430455
