models/Baseline_final.pth (torch, 250869 bytes, 10 tensors)

conv1.weight f4 [6, 1, 5, 5]
00000000: 1c8e bcbd 3a05 3abe 36c1 8e3c 1fe0 5a3e
00000010: e248 35be 21ea 4cbd 15e8 b3bd d908 a03d
00000020: 7210 bf3e 09f6 30bd 9046 5abe 7e88 a83d
00000030: 4350 b9be f821 303f ecb0 55be 607c d6be
00000040: f3c1 ecbd 1436 2bbe d98b 223f 563a 903a
00000050: deea 2abe d579 e2bd 7f1f c93b 33bb 4cbb
00000060: 535b 893e 2a02 983e ba5c a23e 63ff 7e3e
00000070: 60d8 623e 22f9 683c 1d6e bdbd 6486 ac3e
00000080: 8364 dd3e a8ef b2bc f0b0 2c3e d174 01be
00000090: 22f5 11bd 86e5 24be 134a 8a3d 6344 fc3d
000000a0: cdc2 c8be 2f86 0bbf 9f59 1ebf e5ba 85bc
000000b0: 9d90 5a3b 14f0 dabd 5a08 a9be 7baa e93d
000000c0: 26cf dbbd 7fee 96bc 27c8 8abd 012f 4c3e
000000d0: 1ee6 3bbe 8ae6 2fbe fc93 86bd 666e aabd
000000e0: c5bb 3b3d 961a 95bd aa3d 5ebe 5582 14be
000000f0: 29da d5be d9ed fabe ef9e 96be a15c bcbe
00000100: 9946 bb3d 5bc1 be3e e422 7e3d 1678 3a3c
00000110: 5720 9a3e 2cc4 e2b9 5c82 a63d 1cd7 773d
00000120: e733 b53e 05ad e83d a506 2c3e 9372 463e
00000130: 4243 be3c a34b afbe bade 0ebf 3e85 40be
00000140: 009e 803e d954 c93e f759 a0bd a77f 12bf
00000150: bfac 29bf 01f8 033e 2fcd 063e a401 823e
00000160: b2b5 73bd 8e13 d6bc 5a47 713d 29ec 7a3e
00000170: 7535 b73e aa2d faba 80d7 aebe 47f5 f63d
00000180: ddfe d33c 428c 2d3e 993a 7a3e 0722 253e
00000190: 6301 783d e157 9d3d 85d8 39be 520b 0fbe
000001a0: da0b a13e b87e 173d 019c 57be 22e4 02bf
000001b0: b387 773e cd6a a93e a7d8 30be 1eb8 bbbd
000001c0: f458 d7be 911f aebd 6cad 2e3f aae5 dc3d
000001d0: fcd0 623e b998 aabe a706 dbbe 01a8 103f
000001e0: 2aec 1f3d 4201 bd3c e3e9 21bc 2ca4 9fbc
000001f0: 3296 83bc 518b 403d 5bae 26bc 2427 eabd
00000200: f06b ecbd ee6b fdbd e8ca eebd 618b 10be
00000210: be2e 96bd 383a 70bc b46a e63d d953 3c3d
00000220: cbb4 93be 2761 e4be a4e3 83be 3f17 6dbe
00000230: b38c ee3c 7e01 00be 503e 2cbe bc0d 59be
00000240: ec8b ca3d 8a3f 113d 1ee1 743c 2231 bebd
00000250: 839a 53bc 47d1 903c
-0.09206793 -0.18166056 0.017426115 0.21374558 -0.17703584 -0.05002797 -0.087845005 0.078141876
0.37317234 -0.043203387 -0.2131598 0.08229159 -0.36194047 0.6880183 -0.20868272 -0.41891766
-0.115604304 -0.16719848 0.6349464 0.0011003714 -0.16691157 -0.11058394 0.006137788 -0.003123951
0.26827487 0.2968915 0.3171137 0.2490211 0.22152853 0.014219554 -0.09249518 0.33696282
0.43240747 -0.021842793 0.16864371 -0.12642218 -0.035634167 -0.16103181 0.0675241 0.12317731
-0.3921112 -0.5450162 -0.618555 -0.01632447 0.0033350356 -0.106903225 -0.33014184 0.1140947
-0.1073287 -0.01842427 -0.06776457 0.19939806 -0.18349501 -0.17177787 -0.065711945 -0.08321838
0.045833368 -0.072804615 -0.2170321 -0.14502843 -0.41768005 -0.49009588 -0.29418132 -0.3678942
0.09144325 0.37256894 0.062044993 0.01138117 0.30102798 -0.00043252239 0.08130333 0.06050788
0.3539116 0.11361126 0.1679941 0.19379644 0.02322543 -0.34237394 -0.55808604 -0.18800828
0.25120544 0.39322546 -0.078296594 -0.5722603 -0.66279215 0.12887575 0.13164209 0.25391877
-0.05949945 -0.026132371 0.058905937 0.2450415 0.35782972 -0.0019087095 -0.34148788 0.12058502
0.025878364 0.16948035 0.24436416 0.16126262 0.060548197 0.07682777 -0.18149002 -0.13969162
0.31454355 0.036986083 -0.21055605 -0.51129353 0.24172859 0.33089295 -0.17270146 -0.09165977
-0.42060053 -0.085021146 0.6823337 0.107859924 0.22150034 -0.33319643 -0.42778513 0.56506354
0.039043583 0.023071889 -0.009882423 -0.019487463 -0.01606283 0.047007862 -0.0101734055 -0.11433247
-0.11544025 -0.123741016 -0.11659795 -0.14115669 -0.07333134 -0.014662318 0.11250821 0.0459784
-0.28848872 -0.4460537 -0.25759614 -0.23153399 0.029119825 -0.12500569 -0.16820645 -0.21196645
0.09889969 0.035460986 0.01494625 -0.09286715 -0.012915256 0.017677916

conv1.bias f4 [6]
00000000: f074 cb3c aa4b 053e 4e16 3dbe 7945 343e
00000010: 9efa 06bd 45b4 42bf
0.024836034 0.13017145 -0.1846554 0.17604627 -0.03295385 -0.7605632

conv2.weight f4 [16, 6, 5, 5]
00000000: 1cb4 c1bc 8706 ddbd 5691 c7be 2d8a 99bc
00000010: aa02 2f3d 115f 06bd c9d0 ebbd 14ae cbbd
00000020: 545d 3fbd 920e 30be acd1 353e 5c25 863c
00000030: c419 e53d 2036 cc3b 8352 3abe a187 8d3c
00000040: 065e 07be 5998 f93d e0d1 4f3c 3b59 5abe
00000050: 0b0a 20bd 4a48 60be 53b2 83bd e78d 02bd
00000060: 99f3 babd 63ac d53d 63ef 28bd 48c8 9a3b
00000070: 921d 473e e656 a63d 9d8b 573d 7186 3ebe
00000080: bc3d 41be 515e 88be d5c7 993d 65d8 413d
00000090: b854 943d 3a2f 743e 5188 f9bc 64d4 4cbe
000000a0: a84f 49bd d72b fb3c 3104 c03d 8a9a bc3d
000000b0: d0b3 86bd a0e9 ccbd 3562 0cbe 25a0 6f3e
000000c0: 69be 863d 8af2 5abd 046d 3abe 5ac0 8bbe
000000d0: 5457 553e 26d5 203e 0c7f 16be 4b85 6d3e
000000e0: aa24 df3d aea4 b0bc c041 cabd e42f e23d
000000f0: 518a 98bd f12d 96bd 5150 993d 0e50 1b3c
00000100: 7908 ef3d 84b7 9b3c 1f48 86ba eec3 1e3d
00000110: b61d 98bc 86fd 693e 53bd fb3d 754a 0cbe
00000120: e2ed aa3d e5a9 3bbe 1406 0cbe df04 e03c
00000130: 8644 2ebe e1d9 0abe 2bed 92be 8269 94be
00000140: 4b34 e43e 0eed 88bc c204 393d f46d 29bd
00000150: 3cad c0bd 7531 dbbd f18d 5ebe 4302 bbbd
00000160: 716a 2dbd 04cd edbc d6e1 ce3d 2aea 7d3e
00000170: 6220 a8ba d33b 4cbe 8f6e 7d3c bad0 283e
00000180: d929 a13e 15f4 b23d fc5b 11bd 8f2d 7f3e
00000190: 010e b8be 6a1b 78be e32c 513c 588c 0f3e
000001a0: 3c66 e53d bdfc cf3e da08 16be 4d17 b43c
000001b0: dfa7 ec3d ddf1 27be 4e04 c53d 47e8 b7be
000001c0: 48a9 013e 022a 87be bcb6 90be d6bd 2d3e
000001d0: 13ae 0bbe 5f7a 813e fb46 a5bc 1478 70bd
000001e0: 9565 17be 0e91 91be 8b1e 013e 8cf5 8c3e
000001f0: 5cb9 243e 9fdc 4e3d d060 2fbc 14f8 c93d
00000200: 1bde 4e3e 2e6c 443e cac5 d6bd b708 b7bd
00000210: a5ab 06be 02ac 783e 6d72 a83e 9feb abbd
00000220: 13cc 0dbe 66ea 7a3c b197 ae3d 58e6 8e3e
00000230: 5e70 c2bd af58 453d 5cce 4ebd a38e 0abe
00000240: b767 e73d 1753 11be d968 a9bd b7b3 26bb
00000250: 8094 24be d85d 1b3e be8e f7bd 47e5 383e
00000260: 335f 223d d86c 29bf 2123 ac3d de1b 193e
00000270: aa54 48bd cd7e aabd 38b5 4ebe 9e7e 833e
00000280: 4bc5 b13d 8329 d63d 2e14 b4bd 5610 043d
00000290: 76d9 403d fcd2 21bc 2d4c c03d 1a74 c1bd
000002a0: 28b4 843e ea49 883b 12d9 13bc a46a 16be
000002b0: 70c2 fabd 66ff 5e3e e369 4bbe d7fb 6e3e
000002c0: b8b4 48be 6c1f 8abe 222e 0b3e c6db 823e
000002d0: 1608 5cbd 14db d2bd bf75 46bc 93bf bc3d
000002e0: 1fbf fdbd c8ba 59be 5a64 ea3b 61e2 ff3c
000002f0: 8fce 1e3e 535f 21be a773 79bd 83da 29be
00000300: 5d47 613d 0f07 f53d c2c8 e4bd 4ead 463c
00000310: b2b9 613d a229 0d3d 51b1 a339 6434 04be
00000320: 99a5 c3bd e2b1 84be 23a7 98bd 3029 5e3e
00000330: cf9b dd3e ba75 43be ebf7 92be 4446 f3bd
00000340: 1998 05be e9b8 2cbe faf3 9dbc 735c 30be
00000350: 941a f9bd 57ee 34bd d503 1abd 603f af3d
00000360: 8c63 2bbe ed73 4f3d fdaf a4bd 7c8f ae3d
00000370: 1bba 9fbd 2119 0ebe 202a 403e a2dc 253e
00000380: e9d6 87bd d585 003d cbfa babe 3d33 61bd
00000390: 8d7c bd3a fa10 8bbe e7b2 0bbe c376 03be
000003a0: 4741 823e d6bb 3c3e a946 26be 4e07 adbd
000003b0: be87 ed3c 10b4 033e 5c42 f0bd 1a99 153e
000003c0: 4584 29bd 6485 a23d cf98 d33d 2ce8 a4be
000003d0: 9558 0a3e d7a6 5b3e 8e7e 2ebc 5079 1e3e
000003e0: 77ec babe ee15 fabd da12 3c3d f8af 973e
000003f0: 733f d7be e36a e93d 66b6 df3e 9658 263c
-0.023645453 -0.107922606 -0.3897807 -0.018742645 0.04272715 -0.032805506 -0.11514432 -0.09945312
-0.046719864 -0.17193058 0.17755765 0.016375236 0.11186555 0.006232038 -0.18195538 0.017276587
-0.13219461 0.12187261 0.012684315 -0.21323101 -0.039072078 -0.21902576 -0.06430497 -0.03187361
-0.09128494 0.10433271 -0.041243922 0.0047235824 0.19444874 0.08122043 0.05262338 -0.18605973
-0.18871206 -0.26634458 0.07508818 0.04732551 0.07242721 0.2384614 -0.030460509 -0.20002896
-0.04914823 0.030660553 0.093757994 0.092091635 -0.06577265 -0.10005498 -0.13709338 0.23400934
0.065792866 -0.05345396 -0.18205649 -0.2729519 0.20834094 0.1570631 -0.14696902 0.23195378
0.10895665 -0.0215629 -0.09875822 0.11044291 -0.07448257 -0.073329814 0.07486022 0.009479536
0.11671538 0.019008406 -0.0010244882 0.03876107 -0.018568855 0.22850618 0.1229197 -0.13700278
0.08346154 -0.18326528 -0.13674194 0.027346073 -0.17018327 -0.13559677 -0.2869657 -0.28986746
0.44571146 -0.016714599 0.045170553 -0.041364625 -0.09408042 -0.107027926 -0.21733834 -0.09131291
-0.04233784 -0.029028423 0.101016685 0.24796358 -0.0012827034 -0.19944696 0.015468254 0.16485873
0.3147724 0.08737961 -0.035488114 0.24919723 -0.35948184 -0.24229208 0.0127670495 0.1401838
0.1120114 0.40622512 -0.14651814 0.021983767 0.11555456 -0.16400857 0.09619962 -0.359194
0.12662232 -0.26399237 -0.28264415 0.16966948 -0.13640623 0.25288674 -0.020175448 -0.058708265
-0.14784844 -0.2843098 0.12609307 0.27531087 0.16086334 0.05050337 -0.010704234 0.0986177
0.20201914 0.19181892 -0.10486944 -0.08937209 -0.13151415 0.24284366 0.328998 -0.083945505
-0.1384738 0.015314674 0.085250266 0.27910113 -0.094940886 0.04818028 -0.05048977 -0.13530974
0.11299079 -0.14191853 -0.08271951 -0.0025436708 -0.16072273 0.15172517 -0.12087773 0.18056212
0.03964157 -0.6618171 0.08405138 0.14952037 -0.048908867 -0.083249666 -0.20186317 0.2568254
0.08680209 0.104571365 -0.087929115 0.03224214 0.047082387 -0.009876963 0.093895294 -0.09445973
0.25918698 0.004159202 -0.009023922 -0.14689118 -0.12244117 0.21777114 -0.19864611 0.23338257
-0.19600189 -0.26977098 0.13591817 0.255583 -0.05371865 -0.10295692 -0.012113034 0.092162274
-0.12389969 -0.21262658 0.007153076 0.031235876 0.15508483 -0.1575902 -0.06090131 -0.16587262
0.054999698 0.11964237 -0.11171104 0.01212628 0.055108733 0.034463532 0.00031221894 -0.1291061
-0.095530696 -0.25916964 -0.07453754 0.216954 0.43282935 -0.19087878 -0.2870477 -0.118786365
-0.13046302 -0.16867413 -0.019281376 -0.17222767 -0.121632725 -0.04417261 -0.03760131 0.0855701
-0.16737193 0.050647665 -0.080413796 0.08523461 -0.07799169 -0.13876773 0.1876607 0.16197446
-0.06632788 0.031377632 -0.36519465 -0.054980505 0.0014456675 -0.2716139 -0.13642465 -0.12838273
0.25440428 0.18431029 -0.16237892 -0.08448659 0.028995391 0.12861657 -0.11731407 0.14609185
-0.041385908 0.079355985 0.1033188 -0.32208383 0.13510354 0.21450363 -0.01065029 0.15475965
-0.36508533 -0.12211214 0.045916416 0.2962644 -0.42040595 0.1139734 0.43693846 0.0101529565

conv2.bias f4 [16]
00000000: e643 a9bd 5804 b03d 8a7b 353e 120e 703e
00000010: 6ba2 033d 25c0 f23d 7e76 463c 7591 39bd
00000020: 6772 e13e a9a9 97be 65ba 2abd ab19 18be
00000030: 4b76 90bd ee9d 59be b31e 783d b05f 9d3e
-0.08264904 0.085945785 0.17722908 0.23442867 0.032137316 0.11853055 0.012113212 -0.045304734
0.44032595 -0.29621628 -0.041681666 -0.14853542 -0.070538126 -0.21251652 0.060576152 0.30737066

fc1.weight f4 [120, 400]
00000000: 3653 6abd 2f9f c8bc a6ee bdbc d8cb 70bd
00000010: be80 a8bd f873 c9bc e967 6bbd d126 0b3d
00000020: 45be d43c 75f8 d5bc 1dc1 0bbd 0a50 afbd
00000030: 6ae5 33bd af52 d2bc 093e 10bd 9fb2 77bd
00000040: 5258 0fbd 4a87 c9bd 6496 68bd f9a5 89bc
00000050: 2926 8fbc 3a85 893c a1bd b7bc 165b a3bc
00000060: 3ed9 5abd 632c a2bd 7948 0fbd f261 c8bd
00000070: 9171 aa3d 1e7f 35bd 2c58 34bd 5451 dcbc
00000080: 7370 07bd 714b 6fbd c99d 9dbd 7b4d d83a
00000090: 7f95 32bd 3fea 253c 121b 0b3c ced0 83bd
000000a0: ad52 8fbc c634 803c a51b 44bd 9d30 3abd
000000b0: 6dbc 72bd cadc 933c 9e9c 80bc bb1b dabd
000000c0: b83a 1ebd 514a d23c 784a 68bd 7c81 c7bb
000000d0: b92c c2bc c35f e1b9 b403 8f3b f954 973b
000000e0: 34c3 c03c 8eb5 11bd 95c1 8dbd 10e9 62bc
000000f0: c8cd 9fbd d597 45bd 22ef c4bd 3139 24bd
00000100: b145 45bd c12f abbc a3ff 8fbd cd62 a9bd
00000110: e9a9 fdbc 1bed aabc 7ab2 25bd 4481 e5b8
00000120: 87a3 493b 674e 77bd 4c76 25bd a807 1abc
00000130: 09f0 3938 35a1 7bbd 40c7 423c b8d2 a8bd
00000140: 5e7a 0d3d cbf3 47bd 1908 64bc 1e34 363d
00000150: 8b7c 29bd 66a1 02bd 3478 413d 114a b4bc
00000160: e70d 0abc f991 98bc 2cfb 39bd 77f0 1abd
00000170: 347f 09bd 11eb fcbd 8c85 15bd 05a3 3cbd
00000180: ddcc e53c 067c 9ebd 887f e4bc dc1f b2bd
00000190: a061 e9bd 3474 7fbd 0f1a 84bd 34af 49bd
000001a0: 0e0f a1bd c3e7 07bd 5cdc 203c 7ef1 29bc
000001b0: 5d0b 3abd 1871 acbc b8e9 36bd 9986 e23b
000001c0: 75e4 573c 024f 56bd 4d8c 9abd 9e5a 343c
000001d0: 81da 7c3d 79ed 0b3d 6609 16bc bd55 a4bc
000001e0: 549e 353d b1ff 18bd bff8 15bd 79be 0cbd
000001f0: 6e6d bcbd c360 40bc 4a64 073c df00 debc
00000200: a95c 87bd f334 97bc 7905 b4bc 8a3f 98bc
00000210: 9d8a 55bd 60ee 46bc 0017 dcbc 25fd 6abd
00000220: 2d9e c8bd 4d25 66bd 329a df3c 80b5 1fbd
00000230: ca7c 2ebd 31b8 b4ba 68a2 113d 3db3 da3c
00000240: 73c0 fcbc 6472 97bd f25a 8ebd 9633 e7bc
00000250: a88e 76bc d058 ecbc d614 dc3b c770 09bd
00000260: b200 113d a404 d4bc ed14 e5bc bb60 d8ba
00000270: 6e5c 7bbd 02bf 0fbd 409c a5bc 6937 43bd
00000280: 6b93 3c3c b30a b6bd fd06 bbbc d7dd a0bd
00000290: f5a5 bc3c 21fc 0abd 667b 85bd bf45 abbd
000002a0: ccfe 93bd b1dd 65bd aebe b23b 5c6c 92bc
000002b0: 4964 4cbd 5722 84bd 923a 7d3d bace d93c
000002c0: 4406 45bd 747e 3abc f8ff 0abd e214 d83c
000002d0: d2a6 e2ba 3fea d8bd b22c 28bd 91e6 ebbd
000002e0: d20f 1ebd 7a22 2dbd b1ed fb3b 9b12 84bd
000002f0: 4459 aebd d6fa 67bd 7e03 8f3a 6d66 72bd
00000300: 4e8c bebd 32d2 27bd 6e89 473d 5db6 cd3c
00000310: 8980 32bd 0083 a1bc a4bf 84bd 5d8b a2bc
00000320: 6df6 2dbd 1771 36bd d8f8 8ebc e5af 6cba
00000330: 315b 8cbd 7427 a9bd 3704 83bd b6da 06ba
00000340: 7df4 0ebd 1d02 ddbd 6dbf 18bd c937 38bd
00000350: a28b 30bd c73d a9bc b1e9 ecbd 1b60 a9bd
00000360: 2b13 5fbc c38f acbc d34f 90bc 9fff 12bd
00000370: 2154 2cbd a88c 80bd 4856 123b 8acd edbd
00000380: f40d 92bd 2bf2 3abc 1c6b 87bc 3ce9 0fbc
00000390: c0e9 d13b c769 b2bd 5461 7fbd 8e9c 24bd
000003a0: 32ae 97bd d16a 52bd b4ac 71bd 0975 4d3c
000003b0: 4a19 98bd 1a0c 8dbd 81e1 a2bc f3af 15bd
000003c0: f034 e2bc 1f6f a5ba 096d d2bc 4651 25b9
000003d0: 4aca 37bd 4ebb 08bd 28b2 02bd 7434 a8bd
000003e0: 5bb7 82bd 7c59 57bc 291b 83bd 3b11 ccbd
000003f0: b42a 4bbc 7eb3 97bc 7eb9 523d 7833 1c3d
-0.057208262 -0.024489967 -0.023185086 -0.05878815 -0.082276806 -0.024591431 -0.057472143 0.033972565
0.025969634 -0.02611945 -0.034119714 -0.08560188 -0.04391996 -0.025674192 -0.03521541 -0.06047308
-0.03499634 -0.098402575 -0.05678405 -0.016802775 -0.01747425 0.01678716 -0.02242929 -0.019940894
-0.053429835 -0.07918622 -0.034981225 -0.097843066 0.08322442 -0.04431068 -0.0440294 -0.026894249
-0.033066224 -0.058421556 -0.07696111 0.0016502583 -0.0435996 0.010126649 0.008490341 -0.06436311
-0.017495478 0.015650164 -0.047877926 -0.045456517 -0.059261728 0.018049616 -0.01569968 -0.106498204
-0.038630217 0.025670202 -0.056711644 -0.006088434 -0.023702966 -0.00042986692 0.004364455 0.004618284
0.02353058 -0.035573535 -0.069216885 -0.013849512 -0.078029215 -0.0482405 -0.096159235 -0.040093604
-0.048162166 -0.020896794 -0.07031181 -0.08270798 -0.030964809 -0.020865014 -0.04045341 -0.000109436485
0.0030767636 -0.060377505 -0.04039602 -0.009401239 4.4330987e-05 -0.061433036 0.011888325 -0.082433164
0.034540527 -0.048816483 -0.013917946 0.044483297 -0.04137854 -0.031892203 0.047233775 -0.022007974
-0.008426166 -0.018624293 -0.04540555 -0.03782698 -0.033568576 -0.12349523 -0.036504313 -0.046053905
0.028051788 -0.07738499 -0.027892843 -0.08697483 -0.113955736 -0.06236668 -0.06450283 -0.049239352
-0.078641996 -0.03318001 0.009818163 -0.010372518 -0.045420993 -0.021050021 -0.044656485 0.006913018
0.013177027 -0.05232144 -0.075462915 0.011007933 0.06173182 0.03416202 -0.009157514 -0.020060414
0.044340447 -0.03735322 -0.036614176 -0.034361336 -0.092005596 -0.01174182 0.008263657 -0.027100025
-0.066094704 -0.018457865 -0.021975266 -0.018584985 -0.052134145 -0.012141794 -0.026866436 -0.057370324
-0.09795795 -0.056187917 0.027295206 -0.03899145 -0.042599477 -0.0013787803 0.035555273 0.026696796
-0.030853486 -0.07394865 -0.0695094 -0.02822284 -0.01504866 -0.028850943 0.006716351 -0.03355482
0.035401054 -0.02588112 -0.02796408 -0.001650832 -0.061367445 -0.03509427 -0.020216107 -0.047660265
0.011509757 -0.088887595 -0.02283048 -0.078548126 0.023028353 -0.033931855 -0.06517677 -0.083629124
-0.07226333 -0.056119625 0.0054548597 -0.017873935 -0.049900327 -0.06451862 0.061823435 0.026587833
-0.04810168 -0.011382688 -0.033935517 0.026377145 -0.0017292148 -0.10591554 -0.04105825 -0.115185864
-0.038589306 -0.042269208 0.007688247 -0.06448861 -0.0851312 -0.0566357 0.0010911075 -0.059179712
-0.09304105 -0.040971942 0.048715048 0.025111372 -0.043579612 -0.019715786 -0.06481865 -0.019841844
-0.042471338 -0.044541445 -0.017452642 -0.0009028896 -0.06853331 -0.08259478 -0.06397288 -0.0005144285
-0.03490113 -0.10791419 -0.037291933 -0.044975076 -0.043101914 -0.02065934 -0.115680106 -0.08270284
-0.01361541 -0.021064645 -0.017616188 -0.03588831 -0.04207242 -0.06276828 0.002232926 -0.11611469
-0.071315676 -0.011410276 -0.016530566 -0.008783635 0.006406039 -0.08711582 -0.06234868 -0.040188365
-0.07406272 -0.0513714 -0.059002593 0.01254011 -0.074266985 -0.06887074 -0.01988292 -0.03654475
-0.027613133 -0.0012621618 -0.025686758 -0.00015765903 -0.044870652 -0.033381753 -0.031908184 -0.0821313
-0.063826285 -0.013143893 -0.06401665 -0.09964224 -0.012400318 -0.018518206 0.05144643 0.038135022

fc1.bias f4 [120]
00000000: 5783 853c 72a9 e5bc 9ab0 c33c 871d 8dbd
00000010: 0df3 373d 6c28 2fbc 8931 7cbd 47f9 3e3c
00000020: d9d3 24bd caef 033e 2bb3 6ebd 3ab4 c8bd
00000030: a636 793c 9243 9e3d 5130 253d 5a9a c9bc
00000040: 9f5b ddbc 1569 323c e199 673d fd94 983b
00000050: b73f 37bc 0b16 0a3d ae82 90bd 9e6d 0bbe
00000060: 2c2e 34bd 24a9 0d3e 4a48 82bc e087 0f3d
00000070: bf92 3cbd 648c b13b b578 0bbd f4b9 bf3d
00000080: 5bb0 2cbd 534c 5ebd 7dee ebbd 04de b6bc
00000090: 8bf5 f43d 93b2 ba3d da83 053d 6a5c 0e3d
000000a0: 6dcd fbbc 8ee4 15bd aaff 113d 3c94 52bc
000000b0: 79d8 ef3d 4c0b bdbc 7ac5 23bd 0797 babd
000000c0: c59c 463c f65a b83c 62f9 b13d c979 f6bc
000000d0: bd49 98bb c096 403c ed2c af3b 7f56 863c
000000e0: 2367 a83d d037 f2bc 63c8 113c e7ce 8ebc
000000f0: bc71 e0bc 3d0b ef3d 247e dd3d e507 bb3c
00000100: 049b 01bd 9847 b33c 07b8 8cbd ab82 72bd
00000110: 4edf 223e 96c1 f5bc 4515 65bd 1df1 f93c
00000120: 3218 29bd ac1c 74bd d118 033e bcdb 3abd
00000130: 803e 083d 7482 9e3c 623a 0e3e 7dc0 70bd
00000140: 1734 4fbc e3cf cbbb e94a 4bbd afa5 61bc
00000150: a6e8 c03c c0df 82bc 1561 81b9 316e 503d
00000160: ddb0 ecbc d233 87bd af65 d9bb 76e4 80bd
00000170: b323 a1bc 2ef3 213d 2f20 2c3d 0e6c 033e
00000180: efef e5bc 4ec2 8fbd f6df cf3d b416 eb3c
00000190: a19e b2bc 9b97 1c3d 7216 b2bc 55e5 2fbc
000001a0: 1454 afbc d484 1a3d 0f20 48bd 044d 37bd
000001b0: 310d 1b3e 8040 9b3c c5f3 b2bd 0723 0e3e
000001c0: 85c5 e23c 9489 b1bd 98d8 83bd 1f58 8bbd
000001d0: 3441 9c3d 6aa1 113c a828 23bd 9bce 193d
0.01629798 -0.0280349 0.023887921 -0.068903975 0.044909526 -0.01069079 -0.061570678 0.011656112
-0.040241096 0.12884441 -0.058276337 -0.098000005 0.015210783 0.07727732 0.04032928 -0.024609733
-0.027021227 0.010889311 0.056543235 0.0046564327 -0.011184624 0.033712428 -0.07056175 -0.13616034
-0.043989345 0.13834053 -0.01590361 0.03504169 -0.046038385 0.005418347 -0.034050662 0.093616396
-0.042160373 -0.054272007 -0.115200974 -0.022322662 0.11960896 0.091160916 0.032596447 0.0347561
-0.030737603 -0.03659492 0.03564421 -0.012852725 0.11711211 -0.023076676 -0.03998325 -0.091108374
0.012122338 0.022504311 0.08690144 -0.030087369 -0.004647462 0.011754692 0.0053459317 0.016398666
0.08222797 -0.02956763 0.008897874 -0.017432643 -0.027397983 0.116720654 0.10815075 0.022830913
-0.031641975 0.021884724 -0.06871038 -0.059206646 0.15905496 -0.029999536 -0.055928487 0.03051048
-0.04128284 -0.059597656 0.12802435 -0.04561971 0.03326273 0.019349314 0.13889459 -0.05877732
-0.0126466965 -0.0062198504 -0.049631987 -0.013772412 0.023548435 -0.015975833 -0.0002467713 0.050886337
-0.028892929 -0.06601681 -0.006634436 -0.062935755 -0.019670343 0.039538555 0.04202288 0.12834188
-0.02806851 -0.070194826 0.10150139 0.02869735 -0.021804156 0.03823052 -0.021739218 -0.010735829
-0.021402396 0.03772433 -0.0488587 -0.044751182 0.15141751 0.018951654 -0.087379016 0.1388055
0.027682075 -0.08668819 -0.06437796 -0.06803917 0.07629624 0.008888582 -0.039833695 0.03755055

fc2.weight f4 [84, 120]
00000000: 4f91 abbc 671a 2d3d e382 cc3d 43a0 d8bd
00000010: 08cb 8dbe 4b76 163d eacb 17bd 0af0 99bd
00000020: 94e9 95bd c15b adbd 57f6 213d 8176 e8bd
00000030: 09b3 613d fc5c b6be f534 493e 432f 6d3e
00000040: a6a5 75bd 1b13 0dbd 6429 d9be 1e51 783d
00000050: d513 9c3c 5a7a 43bd a19d fabd 08b6 213d
00000060: c334 eebc 39b9 48bb 4be5 923d 4929 aa3d
00000070: 6440 b3bc 3ece 08be 330d 393d b159 543e
00000080: 1dd7 bc3b 7560 0a3e 7a19 533d 4563 8b3d
00000090: c699 183d 08a6 3ebe bee6 a1bd 267b 903e
000000a0: 4e97 6c3e 0f62 923d 4c9f efbd b007 c9be
000000b0: 8549 2f3e 00b2 b7be 34f8 64bb ab25 243d
000000c0: 5779 dfbd 0ea4 733d a263 69be b07f ae3d
000000d0: eb4e c4bb 1326 f43c e9b8 363e 844a bdbd
000000e0: 0fcd 0a3c 18a3 463d efa5 0fbd 5094 b8bc
000000f0: 690c 1dbe 438c b7ba ffa0 7a3d 2438 c13d
00000100: 8589 ee3c 1ce1 a7bd 295a b4be a64b 673e
00000110: ac4b 423e 30b8 a7bc cf57 563d 8470 7d3d
00000120: 7e09 9abd 9b3c cabc 9e50 90bd bc47 acbc
00000130: d39b 6f3c 00a5 6d3e 678a c83d 438f 1ebd
00000140: 701c 793d eb9e adbd 264b 42be 02c7 5d3d
00000150: 69ed bd3d 4ff0 a2be e4b0 38bd 8c77 b63d
00000160: 6c06 38bc f19f 703e c9c9 68bd 639f 27be
00000170: 0433 45bd 5c5b 4cbe 426a 713d 27b3 eb3d
00000180: 7f1e dabc 56a0 c03c 23e7 853e f692 3dbe
00000190: 69c5 fbbc 2620 8dbd 5c62 9ebe ca8d 593d
000001a0: 825d 0e3e d60a 923d 6d27 9c3d 1616 9dbd
000001b0: f155 753d 797e 9f3c 5c07 203e 5e50 c83d
000001c0: 9fe8 9d3d 9a59 05be d25c 683d a1ff 18bd
000001d0: fba1 773e e01b 0fbe 5362 cc3a 00bb 593d
000001e0: 7daa dabc c459 afbd cb51 17be 8683 c5bc
000001f0: 667a 1b3e 7ac3 533d be57 5dbd 8dba a53d
00000200: 06d0 edbc f858 a83d a5ca f0bb 9e53 403d
00000210: b80c 8abc 7c74 4abd 9e1d 9dba 4637 3ebd
00000220: f8ec 2f3d b1c5 683d 2b09 80be 3fd4 a4bd
00000230: 6b16 bd3d 9569 f13d adf5 08bd b90b 1d3d
00000240: b744 c1bc 4f82 cc3d d785 bfba 717f 983c
00000250: deb5 9f3d 6d1b d7be 1476 6f3d c0c5 48bd
00000260: 6691 efbb 840e 703e 7457 0c3e 26db 643d
00000270: a6c9 afbd 5130 a13d 1cff 7abc d20a 833e
00000280: 9337 6f3e 81d3 0dbd 2999 883d 3e33 1a3e
00000290: 780b 963d 2f0f a43d 1f34 c53d 827c 20bd
000002a0: c10c 75be 7913 963c fdbd 68be a068 92bd
000002b0: 4c22 e43c ca9e e63d c38e 963c 213c c2be
000002c0: 0736 453e 0045 783c 9c83 5cbd 321a a5bc
000002d0: ae51 b73d cb13 8dbe 0c0d 633c b7eb f53d
000002e0: f22a 42bb 8c06 12bb 32cc c4bd 6af5 e93d
000002f0: 3eeb 1e3e 8b9a c03c de11 6f3d 853e 89bc
00000300: 96b0 83bc 6b2d 783d f070 60bc d79a 9c3d
00000310: 27a2 14bd c0bf d9bd 352d cebc 2aca 043e
00000320: 8402 cfbd 1f9f cc3d 744d 123d f1e0 3cbd
00000330: e720 a13d e10f ba3c 05a4 40bd 139f 4bbe
00000340: 5a30 33be cb8e a7bd 9c59 333e 9d42 e7be
00000350: 1651 883d 7c84 85bc 2994 bdbd e78b 13bd
00000360: 1a85 423c 0803 863b f16e 073e 8535 2a3d
00000370: d38d e9bd fd4f 3f3d ea1f 36be 3089 febc
00000380: 9b98 c63c dd49 9e3d c5c7 163d 5c04 97bd
00000390: c365 86bc 36c0 0fbe 717b 89bd 9789 05be
000003a0: 7ea3 043c 848d c23d e8b9 6f3d 7c87 08be
000003b0: 28e1 0cbd ca9a b4bd a0ff df3c 57cf 853d
000003c0: f375 ebbc 3c6a 903d 98b7 01be 26b2 bb3d
000003d0: 8b1b 7bbd 559a 3a3d b9e1 8d3d e0f6 65bd
000003e0: 2f26 98ba 693d 813d 49be 94bd 0126 293e
000003f0: 3c86 b1bc f587 32bc de3d 023d 3168 f83d
-0.020943312 0.042261507 0.09985902 -0.105774425 -0.27693963 0.036733907 -0.037059702 -0.07516487
-0.07319942 -0.08464766 0.03954157 -0.11350728 0.05510238 -0.35617816 0.19649108 0.2316256
-0.059972428 -0.03444205 -0.4241439 0.060624234 0.019052425 -0.047724105 -0.122370966 0.03948024
-0.029077893 -0.003062798 0.071726404 0.08308656 -0.02188129 -0.13359925 0.045178603 0.2073734
0.005762948 0.13513358 0.05153797 0.068060435 0.037256025 -0.18618023 -0.07905339 0.28218955
0.23104593 0.071476094 -0.11700305 -0.39263678 0.17117889 -0.3587799 -0.003493798 0.040074985
-0.109118156 0.059482627 -0.22791913 0.08520448 -0.005990853 0.029803311 0.17843975 -0.09242728
0.008471741 0.048495382 -0.035070356 -0.022531658 -0.15336765 -0.0014003593 0.061188694 0.09434536
0.029118309 -0.08197233 -0.35225037 0.22587451 0.18974179 -0.02047357 0.052329835 0.06187488
-0.07521342 -0.024687102 -0.070466265 -0.0210303 0.014624554 0.23207474 0.09792023 -0.038710844
0.060818136 -0.08477577 -0.1897398 0.054144867 0.09273798 -0.31823966 -0.04509057 0.089095205
-0.011232 0.23498513 -0.056833062 -0.16369395 -0.048144355 -0.19956726 0.058939226 0.1150878
-0.02662587 0.023513954 0.26152906 -0.18513092 -0.030733781 -0.068908975 -0.30934417 0.053113736
0.13902858 0.07130973 0.07624707 -0.07670228 0.059896413 0.019469487 0.15627807 0.09780954
0.077103846 -0.13022462 0.056729145 -0.03735316 0.24182884 -0.13975477 0.0015593268 0.053156853
-0.026692623 -0.08562043 -0.14777295 -0.024110567 0.1518341 0.051700093 -0.054038756 0.08092222
-0.029029857 0.082200944 -0.007348376 0.046954744 -0.016851768 -0.049427494 -0.0011986976 -0.04643943
0.0429506 0.05682916 -0.25006995 -0.08048295 0.092327915 0.11787716 -0.03343742 0.038341258
-0.023592336 0.09985792 -0.0014612031 0.018615456 0.0779836 -0.42013112 0.058462217 -0.049016714
-0.007311034 0.23443037 0.13705236 0.05587306 -0.08583383 0.07870544 -0.015319612 0.25594193
0.23361044 -0.034625534 0.06669838 0.1505861 0.07326406 0.080107085 0.09629082 -0.03918124
-0.23930646 0.018319832 -0.22728725 -0.07148862 0.027848385 0.11260755 0.018378621 -0.379365
0.19258891 0.01515317 -0.05383645 -0.020154092 0.08951126 -0.27554163 0.013858091 0.1200785
-0.0029627648 -0.0022281734 -0.0960926 0.11423762 0.15519425 0.023511192 0.05836665 -0.016753444
-0.016075414 0.06059019 -0.013698801 0.07646721 -0.036287453 -0.106322765 -0.02516804 0.12967744
-0.10107902 0.099912874 0.035718396 -0.04611296 0.07867604 0.02271265 -0.04703142 -0.19884901
-0.17498913 -0.081815325 0.17514652 -0.4516801 0.06656091 -0.016298525 -0.09256775 -0.036022093
0.011872554 0.004089717 0.13225915 0.041554946 -0.11404004 0.046707142 -0.17785612 -0.031071275
0.02424269 0.07728932 0.03681161 -0.07373878 -0.016405946 -0.14038166 -0.06712998 -0.13040768
0.00809562 0.09499648 0.058526903 -0.13332933 -0.034394413 -0.08818586 0.027343571 0.065336876
-0.028742766 0.070515126 -0.12667692 0.091648385 -0.061305564 0.04555734 0.06927819 -0.05614364
-0.0011608059 0.06310541 -0.072628565 0.16518404 -0.021670453 -0.0108966725 0.031797282 0.12129248

fc2.bias f4 [84]
00000000: d089 123e 5ba1 e63b fd34 19be 1574 803d
00000010: debc c4bc fe64 333e d02d 19bd 909f 3cbd
00000020: 1cb1 bebd 75d3 2c3e d2d7 5f3c 1add 09bd
00000030: c842 823d 05a1 cebc 122a a5bd 2ef5 693d
00000040: 9f59 5f3d 4026 fd3d ca2e 2ebd a1ff 9fbd
00000050: 630e ed3c 2f78 61ba 4790 303e 41d0 f0bc
00000060: ef50 203e d8ee df3d fe28 6a3e 47d9 093d
00000070: 3d6a 7d3d 01a9 8abd a3e9 8dbd ac29 563c
00000080: ded8 3abd 6fbe 3a3c 9ee6 da3c 9a06 a43d
00000090: f2d7 b6bc bb4e f5bc 6f2a b63d 0027 da3c
000000a0: ca7e c43d f2f8 6b3d 59ca 5f3e c3cd 14bd
000000b0: f726 853c 405a c83d 6c5a 243e 5744 2f3d
000000c0: c5ac 073e cabc c93d 5c7b f4bc 02e3 373e
000000d0: 9ac5 1e3e 77fe 523b e44b 4cbe f220 d33c
000000e0: 461f 80bd d846 23be 561e a03c b996 5d3d
000000f0: 3eaa 193c f876 903d eb58 6b3d fbd4 1a3d
00000100: 93f0 b13d 67aa 883d cded c1bc b0aa 133e
00000110: 45c8 a33d 340b 423d db84 823d 8bd0 ddbd
00000120: ce01 6f3b 6458 52bc a57c a93d 7dab e43b
00000130: 2366 043e d75e 8cbd 14be 823d 9978 ecbd
00000140: 1149 37bd 256b 86bd b5b0 243e 7d9d d03d
0.14310384 0.007038278 -0.1496162 0.06272141 -0.02401584 0.17518994 -0.037397206 -0.04605061
-0.09311125 0.1687754 0.013662295 -0.033658125 0.06360394 -0.025223264 -0.08064665 0.057118587
0.05452883 0.12360811 -0.04252509 -0.07812429 0.028937524 -0.00086009776 0.17242537 -0.029396178
0.15655874 0.10934228 0.228672 0.033654477 0.061868895 -0.06770516 -0.06929328 0.013071459
-0.045616977 0.011397942 0.026721295 0.08009072 -0.022319768 -0.029944768 0.08894812 0.026629925
0.095944956 0.05761046 0.21854533 -0.036329042 0.016253931 0.09782839 0.16050118 0.042789783
0.132495 0.09850462 -0.029843979 0.1795769 0.15505067 0.003219513 -0.19950825 0.025772545
-0.06255965 -0.15944993 0.019545715 0.05409882 0.009378968 0.070539415 0.057457846 0.03780077
0.08688464 0.06673127 -0.023672963 0.14420581 0.07997183 0.047373965 0.063729964 -0.10830792
0.0036469582 -0.012838457 0.08275727 0.006978451 0.12929587 -0.06854027 0.06383911 -0.1154644
-0.044747416 -0.06563405 0.16083033 0.101862885

fc3.weight f4 [10, 84]
00000000: d518 1c3d 3603 583d 2282 a53c ccd4 81be
00000010: dbe7 1d3e 9e27 cd3d 3c81 40bb 1cd0 923d
00000020: 7061 ad3e 5768 37be 7b18 81be 5ed0 8cbe
00000030: 8441 4cbc c82e fabc 43d3 8cbc 667f 223e
00000040: 2b45 4a3d 7f69 1d3d 6d3b 213e 1ae3 51be
00000050: 38eb ff3d 5e11 e53e 54f3 123d 8bf9 e53d
00000060: f7d0 0ebd 24bc a23b 8a2a a33d 6bc1 8dbd
00000070: 904c 8d3d 67d2 0f3e f97b efbe 55c5 673e
00000080: 7993 913d ea9b eb3d a128 44be 2314 e8bd
00000090: b092 d43d 4a30 afbe 3b19 bdbe 96ef 093f
000000a0: 4a8b 92be 2016 7fbd 14df 13bc 5f42 e4be
000000b0: 5bc0 89be 2cea 94be 1edf 1e3e 1920 48be
000000c0: 26a3 33be 120b a3bd 3232 93be d8ff c4be
000000d0: d1d7 7ebe 9ecf 10bf fa28 f53d a57f 71be
000000e0: 38d2 ea3d 9bed d43d 3d63 a33d 75fe 353e
000000f0: 75b0 adbe fd59 193e f533 053d 2460 113e
00000100: 48ab 1b3e 4763 08be 151c 83be 787c 943d
00000110: 3a8c a93e 6313 1e3e 3723 41bd fae5 253e
00000120: 75e8 313d d453 9abe 0001 03bd d252 213d
00000130: 75b8 6e3e 2ce9 0f3e edf1 923d 9f1c 223c
00000140: ae19 efbe b835 a93e 9806 01bf 9d23 fb3d
00000150: 7951 863e 877a 873d 0346 153e 51dc 2c3e
00000160: ce52 cdbe acaa b5be 0750 883d 3f23 923d
00000170: 3821 fcbe 3952 633d 78b8 3b3d 751a 443d
00000180: 1cee dc3d 2ccd ef3d 58e7 0a3c 6bdc 89be
00000190: 7550 e2bd 055d 1dbf 425e b1bd 2c11 41be
000001a0: 47ef b8be 0a45 e3bd ca1c 62be 5456 efbe
000001b0: e9ee d53d fbcf 10be 0061 03bf 299e eebd
000001c0: 0edb 46bd dbee f2bc 7d67 193d 475d fcbd
000001d0: 3312 8cbe c6a2 eebe 01ac afbe fece 4d3e
000001e0: 0060 753e d12e dd3d cf36 51bd c69f e93d
000001f0: df2e 18bf 23ba bfbe 62ea 97be 9b33 c9be
00000200: 2ca3 923e 3290 f83c 0222 0bbf 690e 9bbe
00000210: ea07 debe 0794 cebd 0263 5ebe 3160 2ebe
00000220: 797b 713d 04da afbe 773c cbbd 2900 223f
00000230: 483f 56be f44e 2bbf 7565 97be 29b4 503d
00000240: f13f 19be afdf 8c3e 1235 0f3e a498 e9be
00000250: c3ef 42bc 995d bbbe 1d1b 3b3e 19d0 59bd
00000260: 267d b5be 3ff0 00be 3c0c 033c 0ad7 113e
00000270: cad3 0fbe e979 6a3d 8ca5 88be 6a3a 04bf
00000280: cac1 ec3e 325f 013d e406 47bd c214 babc
00000290: db6e 5ebd b2af 023f 0559 d33d 5a7d b73d
000002a0: 7f4a 1fbe 8cc8 72be 2986 843d a19e 8c3d
000002b0: 34c2 1bbe 2c6b 0a3e 0077 693d d8f1 94be
000002c0: 84c2 613e a1e7 033e 3483 a63e 32f7 ccbe
000002d0: 8594 75bd 1336 d1bd bf4c efbe fe19 a6be
000002e0: 97e9 a93c 2f33 b73c 4858 adbe 04c8 6ebd
000002f0: e94a 64bd c486 583e e68d 9bbe bfe6 4bbb
00000300: b5bb 3e3d 7084 5d3d 63c6 e83d f031 883d
00000310: da8f 453e 2756 873d 33e9 4f3d cf8f f3be
00000320: 693c 92be 55ab 38be e9a7 42be 93d9 6cbe
00000330: bdbd e03d a319 363e 3649 14bd 9906 08be
00000340: 0a20 9b3d 7548 2a3e 6e97 993d c904 d9be
00000350: 850d 7ebb 22cb 68bd e3f8 0bbd c643 993b
00000360: cddb b4bb afdb ea3d 88c2 94bd 8b8c a93d
00000370: 9eb4 993d 883c febe 61a9 c03b 7696 b13d
00000380: 280e 703e 64fd c83d 5390 063e b2fa edbe
00000390: 0e05 06bc 66ac dcbe 24c2 a03d 6ae9 1a3e
000003a0: a345 213d 101d 15bf 4a6d 123e 9423 b1bd
000003b0: 7a3b f2be 227b 793e 54e7 5b3e 36c7 9cbb
000003c0: 86c7 3c3e b5bb 32bf ef36 05bd e297 223e
000003d0: 1cec a1be f273 fcbe 10bb d53d e1f0 883d
000003e0: c101 093e 1944 d6bd fb30 27be 58e8 773c
000003f0: b9ce cb3d dc6e ff3d 66d9 08bf 3cad 0f3d
0.03810962 0.052737437 0.020203654 -0.25357664 0.15420477 0.10017322 -0.0029373905 0.071686
0.338634 -0.17910896 -0.2521399 -0.27502722 -0.012466792 -0.030539885 -0.017190581 0.15868911
0.04938237 0.038430687 0.15745325 -0.20496789 0.12496036 0.44739813 0.035876587 0.11229237
-0.034867253 0.0049662758 0.07967098 -0.06921657 0.06899369 0.14045106 -0.4677427 0.2263387
0.07108206 0.115043476 -0.19156124 -0.11331966 0.10379541 -0.3421653 -0.36933312 0.53881204
-0.28621894 -0.06227696 -0.009025354 -0.44581887 -0.26904568 -0.2908491 0.155148 -0.19543494
-0.17542705 -0.07961096 -0.28749233 -0.38476443 -0.24887015 -0.565668 0.11970706 -0.23583849
0.11465877 0.10396882 0.079779126 0.17772849 -0.3392369 0.14975734 0.032520253 0.14196831
0.15202057 -0.13319121 -0.25607362 0.07250303 0.33114797 0.15437083 -0.047152724 0.1620101
0.04343458 -0.3014208 -0.031983376 0.039385624 0.23312552 0.14053792 0.0717505 0.009894519
-0.4669928 0.33048797 -0.50400686 0.12262652 0.26234034 0.06615167 0.14577489 0.16880919
-0.40102237 -0.35481775 0.06655889 0.07135629 -0.49244094 0.055498336 0.04583022 0.047876794
0.10787603 0.11709055 0.008478008 -0.26925978 -0.11050502 -0.6147006 -0.086605564 -0.18854207
-0.36120054 -0.110971525 -0.22081295 -0.4674555 0.10445959 -0.14141838 -0.51319885 -0.116512604
-0.04854875 -0.02965491 0.03745221 -0.12322479 -0.27357635 -0.4660856 -0.34310916 0.20098493
0.23962402 0.10799945 -0.05107766 0.114074275 -0.5944652 -0.374467 -0.29671007 -0.39297184
0.28640115 0.030342195 -0.54348767 -0.30284432 -0.43365413 -0.10086828 -0.21717456 -0.17028882
0.058955643 -0.3434602 -0.09923642 0.63281494 -0.20922577 -0.6691735 -0.29569593 0.050953064
-0.14965798 0.27514407 0.13985088 -0.45624268 -0.011897984 -0.36594847 0.18272062 -0.053176973
-0.35447043 -0.12591647 0.007998522 0.14242187 -0.14045635 0.05724517 -0.26688802 -0.5165163
0.462416 0.031584926 -0.048590556 -0.022714976 -0.05430494 0.5104934 0.103197135 0.08959456
-0.15555762 -0.23709315 0.064709015 0.068661936 -0.15210801 0.13517445 0.056998253 -0.29090762
0.22046858 0.12881328 0.32521975 -0.40032345 -0.059956092 -0.10215392 -0.4673824 -0.32441705
0.020741267 0.022363273 -0.33856416 -0.05829622 -0.055735502 0.21145159 -0.30381697 -0.0031112877
0.04656573 0.05408138 0.11365964 0.0665015 0.19293156 0.06608229 0.050759505 -0.47570655
-0.28561714 -0.18034108 -0.19009365 -0.23129873 0.1097369 0.17783217 -0.036202632 -0.13283767
0.0757447 0.16629203 0.07499586 -0.42386463 -0.0038765382 -0.056834348 -0.034172904 0.0046772687
-0.0055193664 0.114676826 -0.072636664 0.082787596 0.07505153 -0.49655557 0.0058795665 0.08671276
0.234429 0.098139554 0.13140993 -0.46480328 -0.008179916 -0.4310028 0.078495294 0.15128103
0.03937305 -0.5824747 0.14299503 -0.08649364 -0.47311002 0.24363378 0.21474963 -0.00478449
0.18435487 -0.6981767 -0.032523092 0.15878251 -0.3162545 -0.4930721 0.1043607 0.06686569
0.13379575 -0.10462207 -0.16327278 0.015131079 0.099515386 0.124723166 -0.53456724 0.03507732

fc3.bias f4 [10]
00000000: bf02 24bd 7367 fbbd a366 db3d a7cc 7d3d
00000010: a90f 38be 925f e2bd 330d 333e 415b 1bbd
00000020: 0553 5d3d 3a0b adbc
-0.04004168 -0.12275591 0.10712936 0.06196275 -0.17974724 -0.11053385 0.17485504 -0.037928823
0.05403425 -0.021123517
