models/Baseline_best.pth (torch, 250853 bytes, 10 tensors)

conv1.weight f4 [6, 1, 5, 5]
-0.09060293 -0.17743413 0.008345789 0.19865836 -0.18493931 -0.07649151 -0.09419833 0.07135849
0.34738997 -0.050675508 -0.21177141 0.06909374 -0.32768026 0.638507 -0.1935236 -0.3891687
-0.096486025 -0.16212192 0.60427177 0.008886325 -0.15259251 -0.1203984 0.007974852 0.023204371
0.24042517 0.28824753 0.29328847 0.23324537 0.21230866 0.023752011 -0.077021435 0.33454648
0.4116177 -0.025333565 0.17397088 -0.12973136 -0.041715153 -0.13254918 0.054345623 0.11991701
-0.3895122 -0.53296596 -0.58506125 -0.016292907 -0.013310437 -0.09859328 -0.31832737 0.1077557
-0.11883368 -0.0065769497 -0.045503262 0.15556392 -0.20178087 -0.15798618 -0.0659183 -0.08831826
0.028820906 -0.08371935 -0.21041599 -0.16194004 -0.39186922 -0.47542834 -0.28339723 -0.35407472
0.05109396 0.33848408 0.04022506 0.034602705 0.28339002 0.019302668 0.10615643 0.064810775
0.33594596 0.12220618 0.1818187 0.18960674 0.012644445 -0.3257313 -0.52971834 -0.18166524
0.24402101 0.3704335 -0.07302382 -0.5390827 -0.6263043 0.12694801 0.11906213 0.24759908
-0.059599012 -0.022178976 0.06335869 0.2491271 0.32812428 0.0017158154 -0.32156944 0.11916992
0.03293218 0.18093333 0.24475124 0.15531075 0.05993881 0.073180504 -0.17704394 -0.14102574
0.31951338 0.030226475 -0.21069221 -0.4817199 0.21720594 0.31157634 -0.17186236 -0.095723115
-0.3994791 -0.08538504 0.64202565 0.10389679 0.214635 -0.32411167 -0.40142596 0.5439063
0.03949742 0.012041677 -0.025191667 -0.009864923 -0.011642364 0.048706103 -0.017705223 -0.11056437
-0.13464846 -0.13026647 -0.12842982 -0.12960106 -0.057170637 -0.020073228 0.093415216 0.04270025
-0.26479873 -0.4113497 -0.23728164 -0.22393854 0.0308802 -0.13071977 -0.15241456 -0.18453287
0.091505855 0.047330447 0.00893746 -0.08542605 -0.0036899156 0.008892571
00000000: 078e b9bd 4bb1 35be c7bc 083c 196d 4b3e
00000010: bb60 3dbe 95a7 9cbd 0eeb c0bd 6624 923d
00000020: 19dd b13e 1f91 4fbd 9bda 58be 0581 8d3d
00000030: b5c5 a7be 3275 233f 0d2b 46be 1f41 c7be
00000040: 779a c5bd 4a03 26be 8eb1 1a3f f397 113c
00000050: 3641 1cbe 7093 f6bd f4a8 023c 1817 be3c
00000060: 0432 763e 2e95 933e e829 963e e0d7 6e3e
00000070: 7167 593e 9493 c23c 6abd 9dbd ad49 ab3e
00000080: 8ebf d23e 5688 cfbc 6c25 323e 4cd8 04be
00000090: 82dd 2abd f9ba 07be 8499 5e3d 0d97 f53d
000000a0: 256e c7be 7570 08bf 93c6 15bf b478 85bc
000000b0: 0514 5abc 46eb c9bd cefb a2be 05af dc3d
000000c0: 135f f3bd 7483 d7bb a161 3abd 264c 1f3e
000000d0: a59f 4ebe 21c7 21be 2c00 87bd 34e0 b4bd
000000e0: d219 ec3c 0d75 abbd 4a77 57be 9cd3 25be
000000f0: 15a3 c8be 586b f3be 7119 91be 4849 b5be
00000100: e647 513d c94d ad3e 08c3 243d 91bb 0d3d
00000110: 7f18 913e a120 9e3c 8b68 d93d 83bb 843d
00000120: 1c01 ac3e 3c47 fa3d ae2e 3a3e 4528 423e
00000130: a52a 4f3c 41c6 a6be 9f9b 07bf 7406 3abe
00000140: a5e0 793e 76a9 bd3e 838d 95bd 5301 0abf
00000150: 7b55 20bf a9fe 013e d9d6 f33d 9d8a 7d3e
00000160: 181e 74bd afb0 b5bc 33c2 813d 2d1b 7f3e
00000170: e8ff a73e 36e5 e03a c0a4 a4be 5c0f f43d
00000180: e5e3 063d 9646 393e 12a0 7a3e c809 1f3e
00000190: 6682 753d a9df 953d 024b 35be 0d69 10be
000001a0: 4297 a33e 839d f73c b3bf 57be fea3 f6be
000001b0: 3c6b 5e3e ef86 9f3e b0fc 2fbe 7b0a c4bd
000001c0: 8688 ccbe 5ade aebd cb5b 243f d7c7 d43d
000001d0: 47c9 5b3e f7f1 a5be b487 cdbe 713d 0b3f
000001e0: 0cc8 213d 744a 453c c15e cebc 7ca0 21bc
000001f0: 9dbf 3ebc 0d80 473d 8b0a 91bc 936f e2bd
00000200: 49e1 09be 9364 05be 1b83 03be 24b6 04be
00000210: c22b 6abd 9c70 a4bc 7a50 bf3d 75e6 2e3d
00000220: b393 87be 6e9c d2be f5f9 72be 2550 65be
00000230: 79f8 fc3c 67db 05be 9012 1cbe 2ff6 3cbe
00000240: 6c67 bb3d 92dd 413d 6d6e 123c daf3 aebd
00000250: 83d2 71bb 25b2 113c

conv1.bias f4 [6]
0.03920555 0.13335933 -0.20669207 0.17213175 -0.028159618 -0.7167266
00000000: 0096 203d 598f 083e 16a7 53be 4e43 303e
00000010: 00af e6bc 657b 37bf

conv2.weight f4 [16, 6, 5, 5]
-0.0030275495 -0.087651685 -0.3306492 -0.017528962 0.060032263 -0.03479493 -0.098019496 -0.08330368
-0.051251076 -0.15515253 0.13782898 0.036882065 0.10476072 0.015330364 -0.13533555 0.0063548284
-0.119056046 0.10204351 0.020480683 -0.17100184 -0.057639327 -0.21041417 -0.10155736 -0.033893704
-0.062178046 0.096128754 -0.03369778 0.014878247 0.17299463 0.072070636 0.03987586 -0.1864226
-0.15276816 -0.23863077 0.081412226 0.03272742 0.1044266 0.22152124 -0.018746069 -0.17512037
-0.06836968 0.032490347 0.087796584 0.10407078 -0.039040733 -0.08414029 -0.114031546 0.23965962
0.06982807 -0.023583734 -0.17696996 -0.21784219 0.15054823 0.16214333 -0.125007 0.17324843
0.060567707 -0.0316085 -0.09902765 0.08510197 -0.06424053 -0.05136321 0.019696446 0.05032741
0.10319497 -0.0051801517 -0.01014131 0.01342088 -0.037925478 0.17903453 0.13715994 -0.1122779
0.0793798 -0.14743328 -0.09194816 -0.0039365133 -0.15915143 -0.11645778 -0.26011994 -0.24529186
0.36236125 2.1978969e-05 0.013918385 -0.04799879 -0.08715952 -0.091069475 -0.18881562 -0.096904986
-0.017386708 -0.015610293 0.11692591 0.23210329 0.016753955 -0.18584068 0.011597719 0.14057317
0.29545787 0.07677536 -0.039052702 0.2062353 -0.31147984 -0.15717962 -0.007636149 0.1295432
0.09182753 0.35709056 -0.15366358 -0.009650989 0.10010213 -0.14651394 0.11693849 -0.31720504
0.116829015 -0.23968445 -0.24358307 0.12700526 -0.13990118 0.23064825 0.009218164 -0.066872664
-0.12200835 -0.25734976 0.13302027 0.21835557 0.13267992 0.04182878 -0.022060005 0.07555837
0.17342213 0.15043081 -0.096048355 -0.061418872 -0.08670672 0.20545721 0.25865436 -0.05546293
-0.10769728 0.021021472 0.06550303 0.23484801 -0.07807413 0.06850341 -0.03656549 -0.10052543
0.117095225 -0.11610877 -0.08144521 -0.008428147 -0.12368106 0.15692954 -0.11547845 0.14936261
0.0405934 -0.6027147 0.057431858 0.14003497 -0.037465733 -0.049887985 -0.19048405 0.22564468
0.08132593 0.078873284 -0.090285584 0.044624735 0.02244266 0.0023162675 0.0437862 -0.09927006
0.25101504 -4.954527e-05 -0.021113701 -0.14527552 -0.13787739 0.21029781 -0.16727619 0.18955992
-0.20965183 -0.22702652 0.12572913 0.24321973 -0.040258415 -0.09972291 0.0008872282 0.06601149
-0.093949586 -0.16427617 0.0007278343 0.03203318 0.15504089 -0.16241564 -0.05095979 -0.15062183
0.06158655 0.12254073 -0.091207474 0.01778153 0.043052163 0.031868745 0.020477103 -0.092736505
-0.067335755 -0.24173707 -0.11195061 0.20105545 0.41113058 -0.17878838 -0.26901868 -0.11737751
-0.11580824 -0.14082135 -0.02163238 -0.16217273 -0.10372168 -0.030458579 0.0008287349 0.03281003
-0.15616547 0.033115532 -0.09211674 0.06711042 -0.021892123 -0.10019946 0.1575704 0.146298
-0.027125709 0.030250186 -0.3354735 -0.039549522 0.009878056 -0.23475571 -0.14131026 -0.13370426
0.22887167 0.16855738 -0.15892872 -0.07628495 0.044757947 0.115564875 -0.0985236 0.124379605
-0.04323753 0.070224606 0.0929651 -0.290044 0.10092262 0.1840356 -0.022736978 0.16450979
-0.3395754 -0.112105876 0.032920517 0.26345205 -0.34899825 0.07995768 0.4100127 0.017779578
00000000: da69 46bb ba82 b3bd da4a a9be e698 8fbc
00000010: 64e4 753d 2185 0ebd 72be c8bd 1f9b aabd
00000020: a6ec 51bd 4ee0 1ebe 0a23 0d3e a611 173d
00000030: ca8c d63d 352c 7b3c 6795 0abe 2a3c d03b
00000040: a8d3 f3bd 30fc d03d 1bc7 a73c 1b1b 2fbe
00000050: 3717 6cbd d076 57be 4efd cfbd 20d4 0abd
00000060: 68ae 7ebd 27df c43d af06 0abd e4c3 733c
00000070: 8125 313e c599 933d df54 233d 91e5 3ebe
00000080: 426f 1cbe a05b 74be 74bb a63d 300d 063d
00000090: 9ddd d53d 77d6 623e 5b91 99bc c152 33be
000000a0: 6705 8cbd 9914 053d b2ce b33d 1023 d53d
000000b0: 2de9 1fbd bf51 acbd 5f89 e9bd 5569 753e
000000c0: 0502 8f3d ad32 c1bc 9d37 35be 0612 5fbe
000000d0: 5129 1a3e e708 263e d601 00be 0968 313e
000000e0: d815 783d ea77 01bd 02cf cabd f149 ae3d
000000f0: 8a90 83bd 3b62 52bd 715a a13c 1d24 4e3d
00000100: e257 d33d 43be a9bb bd27 26bc 40e3 5b3c
00000110: bf57 1bbd d454 373e a873 0c3e f5f1 e5bd
00000120: e091 a23d c0f8 16be 514f bcbd defd 80bb
00000130: 98f8 22be 6b81 eebd 712e 85be ca2d 7bbe
00000140: 6a87 b93e 7a5f b837 f009 643c 619a 44bd
00000150: b180 b2bd a282 babd e258 41be 1f76 c6bd
00000160: 926e 8ebc 50c2 7fbc da76 ef3d 7cac 6d3e
00000170: 973f 893c 054d 3ebe 5c04 3e3c 6af2 0f3e
00000180: 4146 973e 663c 9d3d baf5 1fbd 592f 533e
00000190: 497a 9fbe b2f3 20be a938 fabb f9a6 043e
000001a0: 1210 bc3d 93d4 b63e fc59 1dbe 2f1f 1ebc
000001b0: 5802 cd3d c007 16be 727d ef3d b368 a2be
000001c0: 0d44 ef3d d76f 75be d76d 79be ab0d 023e
000001d0: 4142 0fbe 0e2f 6c3e c807 173c 89f4 88bd
000001e0: 84df f9bd 59c3 83be 7736 083e 9a98 5f3e
000001f0: 3fdd 073e a854 2b3d 2fb7 b4bc 59be 9a3d
00000200: 9295 313e 890a 1a3e 00b5 c4bd 5b92 7bbd
00000210: 4b93 b1bd 6063 523e 586e 843e 192d 63bd
00000220: 6490 dcbd 3935 ac3c 7426 863d ff7b 703e
00000230: 54e5 9fbd 844b 8c3d b2c5 15bd 47e0 cdbd
00000240: 9fcf ef3d 6fca edbd bfcc a6bd 3616 0abc
00000250: 7f4c fdbd 23b2 203e f77f ecbd 83f2 183e
00000260: 4445 263d 834b 1abf ab3d 6b3d 5465 0f3e
00000270: ab75 19bd 5857 4cbd 400e 43be 660f 673e
00000280: 368e a63d 5188 a13d a6e7 b8bd 6dc8 363d
00000290: abd9 b73c 85cc 173b 2959 333d 1a4e cbbd
000002a0: 0b85 803e d4ce 4fb8 a4f6 acbc 1bc3 14be
000002b0: bb2f 0dbe 4f58 573e 734a 2bbe ff1b 423e
000002c0: f8ae 56be a479 68be 23bf 003e 980e 793e
000002d0: 02e6 24bd 863b ccbd e094 683a 0831 873d
000002e0: a468 c0bd 0338 28be 22cc 3e3a 3935 033d
000002f0: 0ac3 1e3e 4950 26be 36bb 50bd 9c3c 1abe
00000300: 2e42 7c3d a2f6 fa3d fcca babd 92aa 913c
00000310: 7757 303d cd88 023d 99bf a73c a3ec bdbd
00000320: 54e7 89bd ec89 77be 5d46 e5bd 7be1 4d3e
00000330: b57f d23e 4d14 37be d1bc 89be 9f63 f0bd
00000340: df2c edbd 7933 10be 6436 b1bc 9c10 26be
00000350: 086c d4bd 4584 f9bc 753f 593a cf63 063d
00000360: d7e9 1fbe 27a4 073d b4a7 bcbd 3071 893d
00000370: 1c57 b3bc 6035 cdbd 235a 213e 25cf 153e
00000380: bc36 debc 3dcf f73c 2fc3 abbe aefe 21bd
00000390: 92d7 213c cd63 70be a3b3 10be c5e9 08be
000003a0: 565d 6a3e 4e9a 2c3e 36be 22be 493b 9cbd
000003b0: 1c54 373d 47ad ec3d bec6 c9bd bcba fe3d
000003c0: d619 31bd ebd1 8f3d 7d64 be3d a680 94be
000003d0: 85b0 ce3d d473 3c3e e642 babc 4175 283e
000003e0: d4dc adbe c497 e5bd aad7 063d 30e3 863e
000003f0: e6af b2be dac0 a33d 2fed d13e 7aa6 913c

conv2.bias f4 [16]
-0.086219124 0.068521656 0.15899557 0.2063812 0.024616918 0.10036026 -0.005423464 -0.015044284
0.38033935 -0.25815138 -0.032022245 -0.12878612 -0.03868999 -0.2121257 0.02489625 0.2598789
00000000: a793 b0bd 1555 8c3d bccf 223e 9855 533e
00000010: 6ba9 c93c ae89 cd3d 50b7 b1bb 4d7c 76bc
00000020: d7bb c23e 6b2c 84be c229 03bd 82e0 03be
00000030: 6579 1ebd 7b37 59be 38f3 cb3c d90e 853e

fc1.weight f4 [120, 400]
-0.057208262 -0.024489967 -0.023185086 -0.05878815 -0.082276806 -0.024591431 -0.057472143 0.033972565
0.025969634 -0.02611945 -0.034119714 -0.08560188 -0.04391996 -0.025674192 -0.03521541 -0.06047308
-0.03499634 -0.098402575 -0.05678405 -0.016802775 -0.01747425 0.01678716 -0.02242929 -0.019940894
-0.053429835 -0.07918622 -0.034981225 -0.097843066 0.08322442 -0.04431068 -0.0440294 -0.026894249
-0.033066224 -0.058421556 -0.07696111 0.0016502583 -0.0435996 0.010126649 0.008490341 -0.06436311
-0.017495478 0.015650164 -0.047877926 -0.045456517 -0.059261728 0.018049616 -0.01569968 -0.106498204
-0.038630217 0.025670202 -0.056711644 -0.006088434 -0.023702966 -0.00042986692 0.004364455 0.004618284
0.02353058 -0.035573535 -0.069216885 -0.013849512 -0.078029215 -0.0482405 -0.096159235 -0.040093604
-0.048162166 -0.020896794 -0.07031181 -0.08270798 -0.030964809 -0.020865014 -0.04045341 -0.000109436485
0.0030767636 -0.060377505 -0.04039602 -0.009401239 4.4330987e-05 -0.061433036 0.011888325 -0.082433164
0.034540527 -0.048816483 -0.013917946 0.044483297 -0.04137854 -0.031892203 0.047233775 -0.022007974
-0.008426166 -0.018624293 -0.04540555 -0.03782698 -0.033568576 -0.12349523 -0.036504313 -0.046053905
0.028051788 -0.07738499 -0.027892843 -0.08697483 -0.113955736 -0.06236668 -0.06450283 -0.049239352
-0.078641996 -0.03318001 0.009818163 -0.010372518 -0.045420993 -0.021050021 -0.044656485 0.006913018
0.013177027 -0.05232144 -0.075462915 0.011007933 0.06173182 0.03416202 -0.009157514 -0.020060414
0.044340447 -0.03735322 -0.036614176 -0.034361336 -0.092005596 -0.01174182 0.008263657 -0.027100025
-0.066094704 -0.018457865 -0.021975266 -0.018584985 -0.052134145 -0.012141794 -0.026866436 -0.057370324
-0.09795795 -0.056187917 0.027295206 -0.03899145 -0.042599477 -0.0013787803 0.035555273 0.026696796
-0.030853486 -0.07394865 -0.0695094 -0.02822284 -0.01504866 -0.028850943 0.006716351 -0.03355482
0.035401054 -0.02588112 -0.02796408 -0.001650832 -0.061367445 -0.03509427 -0.020216107 -0.047660265
0.011509757 -0.088887595 -0.02283048 -0.078548126 0.023028353 -0.033931855 -0.06517677 -0.083629124
-0.07226333 -0.056119625 0.0054548597 -0.017873935 -0.049900327 -0.06451862 0.061823435 0.026587833
-0.04810168 -0.011382688 -0.033935517 0.026377145 -0.0017292148 -0.10591554 -0.04105825 -0.115185864
-0.038589306 -0.042269208 0.007688247 -0.06448861 -0.0851312 -0.0566357 0.0010911075 -0.059179712
-0.09304105 -0.040971942 0.048715048 0.025111372 -0.043579612 -0.019715786 -0.06481865 -0.019841844
-0.042471338 -0.044541445 -0.017452642 -0.0009028896 -0.06853331 -0.08259478 -0.06397288 -0.0005144285
-0.03490113 -0.10791419 -0.037291933 -0.044975076 -0.043101914 -0.02065934 -0.115680106 -0.08270284
-0.01361541 -0.021064645 -0.017616188 -0.03588831 -0.04207242 -0.06276828 0.002232926 -0.11611469
-0.071315676 -0.011410276 -0.016530566 -0.008783635 0.006406039 -0.08711582 -0.06234868 -0.040188365
-0.07406272 -0.0513714 -0.059002593 0.01254011 -0.074266985 -0.06887074 -0.01988292 -0.03654475
-0.027613133 -0.0012621618 -0.025686758 -0.00015765903 -0.044870652 -0.033381753 -0.031908184 -0.0821313
-0.063826285 -0.013143893 -0.06401665 -0.09964224 -0.012400318 -0.018518206 0.05144643 0.038135022
00000000: 3653 6abd 2f9f c8bc a6ee bdbc d8cb 70bd
00000010: be80 a8bd f873 c9bc e967 6bbd d126 0b3d
00000020: 45be d43c 75f8 d5bc 1dc1 0bbd 0a50 afbd
00000030: 6ae5 33bd af52 d2bc 093e 10bd 9fb2 77bd
00000040: 5258 0fbd 4a87 c9bd 6496 68bd f9a5 89bc
00000050: 2926 8fbc 3a85 893c a1bd b7bc 165b a3bc
00000060: 3ed9 5abd 632c a2bd 7948 0fbd f261 c8bd
00000070: 9171 aa3d 1e7f 35bd 2c58 34bd 5451 dcbc
00000080: 7370 07bd 714b 6fbd c99d 9dbd 7b4d d83a
00000090: 7f95 32bd 3fea 253c 121b 0b3c ced0 83bd
000000a0: ad52 8fbc c634 803c a51b 44bd 9d30 3abd
000000b0: 6dbc 72bd cadc 933c 9e9c 80bc bb1b dabd
000000c0: b83a 1ebd 514a d23c 784a 68bd 7c81 c7bb
000000d0: b92c c2bc c35f e1b9 b403 8f3b f954 973b
000000e0: 34c3 c03c 8eb5 11bd 95c1 8dbd 10e9 62bc
000000f0: c8cd 9fbd d597 45bd 22ef c4bd 3139 24bd
00000100: b145 45bd c12f abbc a3ff 8fbd cd62 a9bd
00000110: e9a9 fdbc 1bed aabc 7ab2 25bd 4481 e5b8
00000120: 87a3 493b 674e 77bd 4c76 25bd a807 1abc
00000130: 09f0 3938 35a1 7bbd 40c7 423c b8d2 a8bd
00000140: 5e7a 0d3d cbf3 47bd 1908 64bc 1e34 363d
00000150: 8b7c 29bd 66a1 02bd 3478 413d 114a b4bc
00000160: e70d 0abc f991 98bc 2cfb 39bd 77f0 1abd
00000170: 347f 09bd 11eb fcbd 8c85 15bd 05a3 3cbd
00000180: ddcc e53c 067c 9ebd 887f e4bc dc1f b2bd
00000190: a061 e9bd 3474 7fbd 0f1a 84bd 34af 49bd
000001a0: 0e0f a1bd c3e7 07bd 5cdc 203c 7ef1 29bc
000001b0: 5d0b 3abd 1871 acbc b8e9 36bd 9986 e23b
000001c0: 75e4 573c 024f 56bd 4d8c 9abd 9e5a 343c
000001d0: 81da 7c3d 79ed 0b3d 6609 16bc bd55 a4bc
000001e0: 549e 353d b1ff 18bd bff8 15bd 79be 0cbd
000001f0: 6e6d bcbd c360 40bc 4a64 073c df00 debc
00000200: a95c 87bd f334 97bc 7905 b4bc 8a3f 98bc
00000210: 9d8a 55bd 60ee 46bc 0017 dcbc 25fd 6abd
00000220: 2d9e c8bd 4d25 66bd 329a df3c 80b5 1fbd
00000230: ca7c 2ebd 31b8 b4ba 68a2 113d 3db3 da3c
00000240: 73c0 fcbc 6472 97bd f25a 8ebd 9633 e7bc
00000250: a88e 76bc d058 ecbc d614 dc3b c770 09bd
00000260: b200 113d a404 d4bc ed14 e5bc bb60 d8ba
00000270: 6e5c 7bbd 02bf 0fbd 409c a5bc 6937 43bd
00000280: 6b93 3c3c b30a b6bd fd06 bbbc d7dd a0bd
00000290: f5a5 bc3c 21fc 0abd 667b 85bd bf45 abbd
000002a0: ccfe 93bd b1dd 65bd aebe b23b 5c6c 92bc
000002b0: 4964 4cbd 5722 84bd 923a 7d3d bace d93c
000002c0: 4406 45bd 747e 3abc f8ff 0abd e214 d83c
000002d0: d2a6 e2ba 3fea d8bd b22c 28bd 91e6 ebbd
000002e0: d20f 1ebd 7a22 2dbd b1ed fb3b 9b12 84bd
000002f0: 4459 aebd d6fa 67bd 7e03 8f3a 6d66 72bd
00000300: 4e8c bebd 32d2 27bd 6e89 473d 5db6 cd3c
00000310: 8980 32bd 0083 a1bc a4bf 84bd 5d8b a2bc
00000320: 6df6 2dbd 1771 36bd d8f8 8ebc e5af 6cba
00000330: 315b 8cbd 7427 a9bd 3704 83bd b6da 06ba
00000340: 7df4 0ebd 1d02 ddbd 6dbf 18bd c937 38bd
00000350: a28b 30bd c73d a9bc b1e9 ecbd 1b60 a9bd
00000360: 2b13 5fbc c38f acbc d34f 90bc 9fff 12bd
00000370: 2154 2cbd a88c 80bd 4856 123b 8acd edbd
00000380: f40d 92bd 2bf2 3abc 1c6b 87bc 3ce9 0fbc
00000390: c0e9 d13b c769 b2bd 5461 7fbd 8e9c 24bd
000003a0: 32ae 97bd d16a 52bd b4ac 71bd 0975 4d3c
000003b0: 4a19 98bd 1a0c 8dbd 81e1 a2bc f3af 15bd
000003c0: f034 e2bc 1f6f a5ba 096d d2bc 4651 25b9
000003d0: 4aca 37bd 4ebb 08bd 28b2 02bd 7434 a8bd
000003e0: 5bb7 82bd 7c59 57bc 291b 83bd 3b11 ccbd
000003f0: b42a 4bbc 7eb3 97bc 7eb9 523d 7833 1c3d

fc1.bias f4 [120]
0.01629798 -0.0280349 0.032445405 -0.068903975 0.039559893 -0.01069079 -0.061570678 0.011656112
-0.010859292 0.11414621 -0.058276337 -0.104002826 0.015210783 0.06898966 0.02633952 -0.013439254
-0.027021227 -0.0058727185 0.055737674 0.016053133 -0.0062839896 0.039402355 -0.05818632 -0.12133045
-0.043989345 0.12907551 -0.01590361 0.03863779 -0.046038385 0.011909111 -0.025740547 0.08482595
-0.042160373 -0.045935452 -0.085723184 -0.022322662 0.12807117 0.08415698 0.032596447 0.021442277
-0.036248 -0.03659492 0.025355663 -0.015441673 0.10271496 -0.02225857 -0.03998325 -0.091108374
0.022266647 0.022504311 0.0830853 -0.030087369 -0.004647462 0.016135512 0.0021350204 0.018338839
0.09028126 -0.02956763 0.008897874 -0.010040612 -0.017503487 0.12021451 0.09802356 0.020536084
-0.031641975 0.021884724 -0.06723808 -0.04822068 0.14136317 -0.029999536 -0.055928487 0.04070267
-0.04128284 -0.059597656 0.099024266 -0.04561971 0.026936334 0.0041780714 0.121055014 -0.05877732
-0.025843596 0.016668784 -0.045170553 0.008725973 0.018388253 -0.0038712935 -0.0002467713 0.041920923
-0.034884017 -0.055078793 -0.000100084435 -0.046796083 -0.019670343 0.042010807 0.035758086 0.10595456
-0.022070227 -0.070194826 0.08076376 0.022706402 -0.021804156 0.0193418 -0.024231443 0.0070101577
-0.010806021 0.01811425 -0.0488587 -0.044751182 0.12972806 0.026209004 -0.08760173 0.12773708
0.027682075 -0.0796879 -0.052810796 -0.06056737 0.07558547 0.03300787 -0.030087749 0.03755055
00000000: 5783 853c 72a9 e5bc 79e5 043d 871d 8dbd
00000010: 8e09 223d 6c28 2fbc 8931 7cbd 47f9 3e3c
00000020: 2ceb 31bc 7dc5 e93d 2bb3 6ebd 6fff d4bd
00000030: a636 793c 734a 8d3d fac5 d73c 5130 5cbc
00000040: 9f5b ddbc ef6f c0bb 304d 643d dc81 833c
00000050: ede9 cdbb 5d64 213d c754 6ebd 197c f8bd
00000060: 2c2e 34bd 5f2c 043e 4a48 82bc a942 1e3d
00000070: bf92 3cbd 6f1e 433c d7dd d2bc 3ab9 ad3d
00000080: 5bb0 2cbd d026 3cbd a38f afbd 04de b6bc
00000090: 1725 033e 7f5a ac3d da83 053d b7a7 af3c
000000a0: c878 14bd 8ee4 15bd aeb6 cf3c 12ff 7cbc
000000b0: 395c d23d 9b57 b6bc 7ac5 23bd 0797 babd
000000c0: 8b68 b63c f65a b83c a028 aa3d c979 f6bc
000000d0: bd49 98bb 9f2e 843c b3eb 0b3b 553b 963c
000000e0: 62e5 b83d d037 f2bc 63c8 113c 6181 24bc
000000f0: 7963 8fbc 0633 f63d 94c0 c83d 4a3b a83c
00000100: 049b 01bd 9847 b33c 1eb4 89bd 0c83 45bd
00000110: 82c1 103e 96c1 f5bc 4515 65bd d8b7 263d
00000120: 3218 29bd ac1c 74bd 3ccd ca3d bcdb 3abd
00000130: 96a9 dc3c 34e8 883b b1eb f73d 7dc0 70bd
00000140: f3b5 d3bc f98c 883c c204 39bd 62f7 0e3c
00000150: f6a2 963c 87b5 7dbb 1561 81b9 46b5 2b3d
00000160: 8be2 0ebd 4d9a 61bd 6ce4 d1b8 40ad 3fbd
00000170: b323 a1bc 8613 2c3d 1277 123d b4fe d83d
00000180: 9fcc b4bc 4ec2 8fbd 7867 a53d c702 ba3c
00000190: a19e b2bc b272 9e3c 0581 c6bc 77b5 e53b
000001a0: bd0b 31bc 5664 943c 0f20 48bd 044d 37bd
000001b0: 6fd7 043e 44b4 d63c 8968 b3bd 82cd 023e
000001c0: 85c5 e23c 6933 a3bd 2250 58bd 7e15 78bd
000001d0: 8ecc 9a3d 4333 073d 957a f6bc 9bce 193d

fc2.weight f4 [84, 120]
-0.020943312 0.042261507 0.1287378 -0.105774425 -0.21498725 0.036733907 -0.037059702 -0.07516487
-0.0919399 -0.07809858 0.03954157 -0.07800375 0.05510238 -0.27089837 0.17164826 0.20705897
-0.059972428 -0.027088858 -0.35651466 0.009606102 0.019052425 -0.036152575 -0.14139798 0.06271667
-0.029077893 0.014057402 0.071726404 0.104085654 -0.02188129 -0.108727284 0.014928246 0.2083351
0.005762948 0.08075762 0.057280466 0.068060435 -0.0053366465 -0.1276982 -0.07905339 0.28665552
0.2362415 0.071476094 -0.11782797 -0.3475158 0.11190827 -0.30566904 -0.003493798 0.040074985
-0.048491687 0.059482627 -0.14258808 0.08520448 -0.005990853 0.029330635 0.17462224 -0.052801076
-0.029500218 0.048495382 -0.035070356 -0.036518358 -0.10543132 -0.04159496 0.01606788 0.095540605
0.029118309 -0.08197233 -0.41502616 0.18404841 0.15342604 -0.02047357 0.052329835 0.047549214
-0.07521342 -0.024687102 -0.056281924 -0.0210303 0.040472984 0.22002277 0.10672068 -0.038710844
0.07899473 -0.05563659 -0.17714942 0.013861168 0.11720257 -0.25605562 -0.04509057 0.12231264
-0.048562888 0.18958598 -0.049641166 -0.14911906 -0.048144355 -0.19380406 0.07471124 0.10548073
-0.02662587 0.023513954 0.19126084 -0.15997927 -0.030733781 -0.0759183 -0.2497124 0.04921116
0.10181866 0.050455883 0.07624707 -0.07670228 -0.017572585 -0.036560014 0.14199838 0.056509238
0.077103846 -0.120265156 0.08185067 -0.03139327 0.21552053 -0.115121275 0.010314549 0.053156853
-0.026692623 -0.08562043 -0.123442546 -0.024110567 0.104843386 0.051700093 -0.054038756 0.08092222
-0.01648829 0.02240975 -0.007348376 0.026138222 -0.016851768 0.026242677 -0.028065855 -0.017397258
0.0429506 -0.0068662073 -0.16092119 -0.022915259 0.09219227 0.067272104 -0.033566978 0.036223784
-0.023592336 0.08699899 -0.0014612031 0.03378477 0.0779836 -0.34569404 0.06330615 -0.0013038135
-0.007311034 0.23547287 0.12610781 0.05587306 -0.07084414 0.05559622 -0.015319612 0.25410408
0.18579227 -0.034625534 0.1315074 0.13333525 0.085282825 0.070723064 0.09629082 -0.03918124
-0.21260536 0.018319832 -0.20530456 -0.07148862 0.027848385 0.07223752 -0.032756884 -0.31370142
0.1881561 0.01515317 -0.05383645 -0.022227589 0.1124693 -0.21163508 0.005153758 0.07566465
-0.0029627648 -0.0022281734 -0.09791762 0.11968195 0.12781247 0.023511192 0.05836665 -0.069817245
-0.016075414 0.06059019 -0.040697485 0.07646721 -0.0071585164 -0.08133031 -0.029433748 0.12967744
-0.119888596 0.048554838 0.02628955 -0.013726041 0.034725808 0.029343989 -0.04703142 -0.16332601
-0.08353635 -0.06599542 0.09809851 -0.39882767 0.06656091 -0.039786357 -0.053462666 -0.027076734
-0.0070848656 0.004089717 0.122476734 0.05074843 -0.11404004 0.04342843 -0.12780155 -0.09102293
0.045430865 0.058669366 0.03681161 -0.07373878 -0.013124315 -0.2405272 -0.07182529 -0.13227287
0.00809562 0.09141271 0.06340586 -0.087095305 -0.029615493 -0.12692155 0.026983786 0.065336876
-0.028742766 0.070515126 -0.11591982 0.091648385 -0.04445015 0.04555734 0.06927819 -0.05614364
-0.0011608059 0.08094637 -0.072628565 0.14510928 -0.021670453 0.0013138162 0.008004683 0.118810184
00000000: 4f91 abbc 671a 2d3d d8d3 033e 43a0 d8bd
00000010: 9e25 5cbe 4b76 163d eacb 17bd 0af0 99bd
00000020: fc4a bcbd 26f2 9fbd 57f6 213d 6ec0 9fbd
00000030: 09b3 613d 31b3 8abe 90c4 2f3e 4407 543e
00000040: a6a5 75bd 74e9 ddbc 1789 b6be e962 1d3c
00000050: d513 9c3c b914 14bd a2ca 10be 9971 803d
00000060: c334 eebc 0451 663c 4be5 923d dc2a d53d
00000070: 6440 b3bc 69ac debd 9a95 743c cc55 553e
00000080: 1dd7 bc3b 4064 a53d ec9e 6a3d 4563 8b3d
00000090: 09df aebb 51c3 02be bee6 a1bd 83c4 923e
000000a0: 4be9 713e 0f62 923d ca4f f1bd 97ed b1be
000000b0: 2a30 e53d a780 9cbe 34f8 64bb ab25 243d
000000c0: 389f 46bd 0ea4 733d 9c02 12be b07f ae3d
000000d0: eb4e c4bb cd46 f03c 2cd0 323e f145 58bd
000000e0: 71aa f1bc 18a3 463d efa5 0fbd 4694 15bd
000000f0: 60ec d7bd 7a5f 2abd c9a0 833c cbaa c33d
00000100: 8589 ee3c 1ce1 a7bd 4f7e d4be 3077 3c3e
00000110: b71b 1d3e 30b8 a7bc cf57 563d f7c2 423d
00000120: 7e09 9abd 9b3c cabc e087 66bd bc47 acbc
00000130: 00c7 253d a64d 613e 5f90 da3d 438f 1ebd
00000140: fdc7 a13d 31e3 63bd a866 35be f419 633c
00000150: e707 f03d b919 83be e4b0 38bd 0d7f fa3d
00000160: e1e9 46bd d422 423e 8954 4bbd abb2 18be
00000170: 0433 45bd 9274 46be 3502 993d 4806 d83d
00000180: 7f1e dabc 56a0 c03c e2d9 433e 9bd1 23be
00000190: 69c5 fbbc 0e7b 9bbd 9bb4 7fbe a491 493d
000001a0: 4d86 d03d d4aa 4e3d 6d27 9c3d 1616 9dbd
000001b0: 62f4 8fbc f4bf 15bd 0668 113e 3b76 673d
000001c0: 9fe8 9d3d 944d f6bd 53a1 a73d 3b96 00bd
000001d0: 6ab1 5c3e b4c4 ebbd 5bfe 283c 00bb 593d
000001e0: 7daa dabc c459 afbd 72cf fcbd 8683 c5bc
000001f0: 21b8 d63d 7ac3 533d be57 5dbd 8dba a53d
00000200: 7312 87bc a794 b73c a5ca f0bb d31f d63c
00000210: b80c 8abc e2fa d63c 5dea e5bc b284 8ebc
00000220: f8ec 2f3d ecfd e0bb 86c8 24be c8b8 bbbc
00000230: 4dcf bc3d f5c5 893d 877d 09bd 645f 143d
00000240: b744 c1bc 872c b23d d785 bfba e661 0a3d
00000250: deb5 9f3d cffe b0be a8a6 813d b9e4 aaba
00000260: 6691 efbb cd1f 713e 6822 013e 26db 643d
00000270: bc16 91bd ddb8 633d 1cff 7abc ee19 823e
00000280: 5440 3e3e 81d3 0dbd e0a9 063e 0989 083e
00000290: c3a8 ae3d 41d7 903d 1f34 c53d 827c 20bd
000002a0: 38b5 59be 7913 963c 5c3b 52be a068 92bd
000002b0: 4c22 e43c 44f1 933d 152c 06bd 799d a0be
000002c0: feab 403e 0045 783c 9c83 5cbd a216 b6bc
000002d0: 4e56 e63d deb6 58be dbe0 a83b 11f6 9a3d
000002e0: f22a 42bb 8c06 12bb 0889 c8bd cf1b f53d
000002f0: 46e1 023e 8b9a c03c de11 6f3d 58fc 8ebd
00000300: 96b0 83bc 6b2d 783d 68b2 26bd d79a 9c3d
00000310: fd91 eabb 8190 a6bd 0b1f f1bc 2aca 043e
00000320: 2788 f5bd 70e1 463d 2f5d d73c 30e3 60bc
00000330: a63c 0e3d ce62 f03c 05a4 40bd ef3e 27be
00000340: 1b15 abbd 9b28 87bd dfe7 c83d 2433 ccbe
00000350: 1651 883d 05f7 22bd abfb 5abd 07d0 ddbc
00000360: 2928 e8bb 0803 863b 15d5 fa3d 96dd 4f3d
00000370: d38d e9bd 02e2 313d 69de 02be 3b6a babd
00000380: b715 3a3d 4a4f 703d c5c7 163d 5c04 97bd
00000390: 5e07 57bc c34c 76be 2319 93bd 8a72 07be
000003a0: 7ea3 043c 9636 bb3d eeda 813d 065f b2bd
000003b0: 319c f2bc b9f7 01be 1a0d dd3c 57cf 853d
000003c0: f375 ebbc 3c6a 903d 5f67 edbd 26b2 bb3d
000003d0: 5c11 36bd 559a 3a3d b9e1 8d3d e0f6 65bd
000003e0: 2f26 98ba 36c7 a53d 49be 94bd 8797 143e
000003f0: 3c86 b1bc 5b34 ac3a 1326 033c c152 f33d

fc2.bias f4 [84]
0.13054591 -0.02688473 -0.12642384 0.06509234 -0.02973371 0.18905407 -0.037397206 -0.039701276
-0.09251638 0.16837998 0.00079351466 -0.04249864 0.092180975 -0.012714908 -0.082474455 0.037886336
0.06368362 0.1316159 -0.027242884 -0.0877687 0.029974347 0.011888365 0.1465832 -0.03947134
0.14789183 0.11265265 0.20443915 0.015297304 0.063599534 -0.058453355 -0.082901224 0.003214391
-0.058111247 0.020662053 0.04172373 0.06846954 -0.023440642 -0.031304438 0.073281474 0.0029337227
0.0851257 0.06076575 0.17873015 -0.06989723 -0.00034519506 0.10240812 0.15693039 0.05121745
0.13587253 0.11401652 -0.035613183 0.16582671 0.13247752 -0.018120697 -0.20317069 0.05317989
-0.05995586 -0.13009977 0.04242373 0.043796696 -0.008728434 0.069393426 0.037881568 0.025996704
0.08682162 0.03823512 -0.023397626 0.11665099 0.07732669 0.049663298 0.035339005 -0.088311
-0.010640734 -0.012379125 0.09723404 -0.009776387 0.107906274 -0.06843706 0.057738576 -0.11729308
-0.038280454 -0.068857044 0.122371316 0.09950476
00000000: d4ad 053e 5e3d dcbc 4075 01be 224f 853d
00000010: 1c94 f3bc 6497 413e d02d 19bd ce9d 22bd
00000020: 3a79 bdbd cd6b 2c3e de03 503a 0e13 2ebd
00000030: 61c9 bc3d 3152 50bc 5ee8 a8bd b42e 1b3d
00000040: 8f6c 823d 52c6 063e 782c dfbc 14c0 b3bd
00000050: c38c f53c 6bc7 423c e819 163e b3ac 21bd
00000060: f570 173e 6fb6 e63d 7f58 513e 8ba1 7a3c
00000070: 7940 823d c96c 6fbd 1ec8 a9bd 88a8 523b
00000080: 0f06 6ebd 7743 a93c 80e6 2a3d c239 8c3d
00000090: 9706 c0bc 1539 00bd 9914 963d b343 403b
000000a0: 6256 ae3d 82e5 783d 0905 373e 4726 8fbd
000000b0: 4cfb b4b9 59bb d13d 5cb2 203e 64c9 513d
000000c0: 2b22 0b3e 7e81 e93d 21df 11bd 7ace 293e
000000d0: 30a8 073e db71 94bc fa0b 50be 28d3 593d
000000e0: 4794 75bd e038 05be 81c4 2d3d 2a64 333d
000000f0: b501 0fbc 241e 8e3d b429 1b3d 0af7 d43c
00000100: 89cf b13d 6e9c 1c3d 61ac bfbc b7e6 ee3d
00000110: 755d 9e3d be6b 4b3d a2bf 103d 66dc b4bd
00000120: 7956 2ebc d0d1 4abc a422 c73d 242d 20bc
00000130: f7fd dc3d bb28 8cbd 497f 6c3d 5b37 f0bd
00000140: f7cb 1cbd ec04 8dbd d09d fa3d 27c9 cb3d

fc3.weight f4 [10, 84]
0.048736356 0.045229815 0.006336784 -0.19257471 0.117159404 0.08205753 -0.0029373905 0.04319999
0.2202445 -0.13040005 -0.20377234 -0.20080511 -0.01702486 -0.020511793 -0.027444867 0.14989966
0.063909926 0.0347382 0.14301488 -0.25360525 0.08727698 0.34046882 0.0308086 0.104924336
-0.06458155 0.016538573 0.0688565 -0.061353754 0.07093003 0.14276238 -0.36221722 0.19657019
0.025997864 0.10922988 -0.13835569 -0.10871772 0.11336048 -0.20834377 -0.28134355 0.46263033
-0.24660884 -0.06814239 -0.023501284 -0.29981184 -0.19633004 -0.21286811 0.14296906 -0.15178707
-0.14613505 -0.049854793 -0.26117966 -0.31973997 -0.2165738 -0.50676775 0.10616022 -0.19371107
0.12280731 0.08369315 0.07199502 0.20618096 -0.24855594 0.14085755 0.032696813 0.13590612
0.14878745 -0.112999685 -0.24477834 0.062047448 0.2613004 0.11636882 -0.033857577 0.14831169
0.042642225 -0.26505417 -0.035164885 0.034488875 0.1668033 0.12336772 0.06889764 0.009941997
-0.37340423 0.29082114 -0.3638322 0.1051018 0.23212439 0.059944935 0.14671734 0.15502371
-0.3791067 -0.24608716 0.06655889 0.07974313 -0.41814065 0.062642895 0.045488033 0.08952712
0.09616898 0.08827362 0.012605318 -0.24747227 -0.09200546 -0.56472564 -0.059089072 -0.12588164
-0.37367663 -0.12782641 -0.2089766 -0.35571823 0.10747312 -0.13215682 -0.38773757 -0.08797045
-0.044339508 -0.01373739 0.044157412 -0.03536724 -0.2415325 -0.4176464 -0.27325863 0.19369432
0.2193439 0.082590446 -0.035588592 0.11512393 -0.34531078 -0.31045452 -0.23394509 -0.3429686
0.26308116 0.04591415 -0.38285258 -0.23875268 -0.36409715 -0.11089694 -0.2264114 -0.11852586
0.031336788 -0.18746793 -0.072582364 0.5660122 -0.13809444 -0.58395296 -0.2425961 -0.05941282
-0.09726838 0.24341582 0.11578241 -0.3732396 -0.014983835 -0.23096685 0.1331872 -0.07325374
-0.3418369 -0.08558767 -0.006697639 0.1524532 -0.12083412 0.019056994 -0.22746913 -0.4212108
0.37236917 0.040504046 -0.02365069 -0.022714937 -0.059859037 0.46019456 0.038346957 0.07565681
-0.094992034 -0.18326919 0.06726194 0.07698975 -0.11224552 0.13042776 0.056998253 -0.22274274
0.1222671 0.123303324 0.2674465 -0.249883 -0.053487785 -0.09471962 -0.43165767 -0.27808627
0.046204727 0.017255599 -0.26238942 -0.06962372 -0.05949488 0.1422684 -0.25891614 -0.007854556
0.023581155 0.05486196 0.107917815 0.07988886 0.15779115 0.05726964 0.04094147 -0.40005937
-0.26156947 -0.16349857 -0.09628363 -0.16686817 0.05733804 0.14449543 -0.039103918 -0.08920827
0.093829416 0.16848801 0.07051829 -0.33683112 0.035489503 -0.06534609 -0.014686128 -0.0012719737
-0.015517951 0.10926412 -0.11879747 0.079751275 0.04502794 -0.406761 -0.00032478775 0.059710532
0.19239412 0.11419593 0.11806986 -0.3817137 -0.007170651 -0.34742984 0.06389704 0.13875148
0.056195434 -0.51181537 0.13459034 -0.084861144 -0.412256 0.23941272 0.17429529 -0.004613789
0.16516536 -0.6071194 -0.03036563 0.14813377 -0.2680947 -0.4001099 0.09371892 0.0668668
0.1291058 -0.08732485 -0.13036984 0.010363775 0.08683113 0.13595189 -0.44335806 0.032095384
00000000: c69f 473d e642 393d cca4 cf3b 4e32 45be
00000010: 45f1 ef3d c70d a83d 3c81 40bb 79f2 303d
00000020: c687 613e 9787 05be b2a9 50be db9f 4dbe
00000030: b877 8bbc 5908 a8bc 0fd4 e0bc 4c7f 193e
00000040: 35e3 823d a549 0e3d 7e72 123e 8cd8 81be
00000050: 46be b23d ee51 ae3e 5162 fc3c 92e2 d63d
00000060: 5543 84bd e77b 873c a304 8d3d 134e 7bbd
00000070: c343 913d 4d30 123e 8974 b9be b249 493e
00000080: 79f9 d43c eab3 df3d 1dad 0dbe 65a7 debd
00000090: 8a29 e83d 1258 55be 430c 90be e2dd ec3e
000000a0: 0787 7cbe 3d8e 8bbd c485 c0bc f080 99be
000000b0: be0a 49be 19fa 59be 7b66 123e 126e 1bbe
000000c0: 6da4 15be 8a34 4cbd 57b9 85be f5b4 a3be
000000d0: 86c5 5dbe 88bb 01bf 886a d93d 325c 46be
000000e0: 6682 fb3d 5067 ab3d 2072 933d 1a21 533e
000000f0: 7385 7ebe f63c 103e 18ed 053d f92a 0b3e
00000100: bd5b 183e 616c e7bd 2ca7 7abe 7725 7e3d
00000110: 2bc9 853e c752 ee3d 3eae 0abd 05df 173e
00000120: 9da9 2e3d 2eb5 87be 0e09 10bd 3544 0d3d
00000130: 7cce 2a3e 37a8 fc3d 351a 8d3d c2e3 223c
00000140: d72e bfbe 82e6 943e 3748 babe 9d3f d73d
00000150: 04b2 6d3e d288 753d 123d 163e 89be 1e3e
00000160: 461a c2be 46fe 7bbe 0750 883d 5e50 a33d
00000170: 8816 d6be eb4a 803d a951 3a3d ff59 b73d
00000180: 3ef4 c43d cdc8 b43d 8986 4e3c 5f69 7dbe
00000190: 5c6d bcbd dc91 10bf 6207 72bd 1ee7 00be
000001a0: 8b52 bfbe ede4 02be f6fd 55be b320 b6be
000001b0: de1a dc3d 1e54 07be 8a85 c6be da29 b4bd
000001c0: 589d 35bd ca12 61bc 67de 343d 3ddd 10bd
000001d0: 4c54 77be c0d5 d5be 8ee8 8bbe ce57 463e
000001e0: b09b 603e 2e25 a93d 58c5 11bd 18c6 eb3d
000001f0: 93cc b0be e5f3 9ebe 4d8f 6fbe 9599 afbe
00000200: 93b2 863e 7a10 3c3d 4105 c4be 957b 74be
00000210: f16a babe ef1d e3bd 64d8 67be b0bd f2bd
00000220: 015b 003d 98f7 3fbe 10a6 94bd 2de6 103f
00000230: a168 0dbe f17d 15bf 1d6b 78be db5a 73bd
00000240: a534 c7bd ff41 793e 541f ed3d 4319 bfbe
00000250: c27e 75bc 9382 6cbe 3a62 083e 0f06 96bd
00000260: 3f05 afbe 9748 afbd de77 dbbb b11c 1c3e
00000270: e177 f7bd 6a1d 9c3c abed 68be f1a8 d7be
00000280: 2ca7 be3e 92e7 253d 18bf c1bc ad14 babc
00000290: c02e 75bd 9f9e eb3e b311 1d3d f5f1 9a3d
000002a0: 2f8b c2bd ebaa 3bbe a1c0 893d cdac 9d3d
000002b0: fbe0 e5bd db8e 053e 0077 693d ac16 64be
000002c0: 2c67 fa3d 7486 fc3d bfee 883e 54e1 7fbe
000002d0: 0216 5bbd 5cfc c1bd 3c02 ddbe 5361 8ebe
000002e0: 2b41 3d3d 9d5b 8d3c e857 86be e296 8ebd
000002f0: e7b0 73bd cfae 113e a890 84be 65b0 00bc
00000300: 442d c13c efb6 603d 0404 dd3d c59c a33d
00000310: 0194 213e 9293 6a3d 3eb2 273d 95d4 ccbe
00000320: 6fec 85be 2b6c 27be 5a30 c5bd 7ddf 2abe
00000330: 4bdb 6a3d 9cf6 133e 6e2b 20bd d3b2 b6bd
00000340: a329 c03d 1f88 2c3e e56b 903d 2175 acbe
00000350: 715d 113d 2cd4 85bd 169e 70bc 5bb8 a6ba
00000360: 013f 7ebc dec5 df3d 174c f3bd a354 a33d
00000370: 386f 383d fa42 d0be 4648 aab9 0893 743d
00000380: f702 453e 8edf e93d 9cce f13d fa6f c3be
00000390: c8f7 eabb 53e2 b1be 74dc 823d de14 0e3e
000003a0: 2f2d 663d 5506 03bf 0dd2 093e aecb adbd
000003b0: 3813 d3be 9c28 753e 777a 323e 442f 97bb
000003c0: 1c21 293e 2d6c 1bbf 57c1 f8bc 61b0 173e
000003d0: b543 89be 34db ccbe b5ef bf3d 76f1 883d
000003e0: 5034 043e 5fd7 b2bd ac7f 05be d3cc 293c
000003f0: 85d4 b13d f936 0b3e d4ff e2be 7376 033d

fc3.bias f4 [10]
-0.03771467 -0.08292129 0.10175185 0.02019805 -0.16474342 -0.10105112 0.18060069 -0.032626193
0.045527544 -0.028589524
00000000: b37a 1abd a3d2 a9bd 4663 d03d 6276 a53c
00000010: 80b2 28be e4f3 cebd 63ef 383e 0ba3 05bd
00000020: 177b 3a3d 9434 eabc
