models/Batch_Normalization_final.pth (torch, 260113 bytes, 26 tensors)

conv1.weight f4 [6, 1, 5, 5]
-0.07173407 -0.16711186 0.07514063 0.28354317 0.10273581 0.14695013 -0.1324465 -0.3204337
-0.23707877 -0.13034414 -0.07621914 -0.059583068 -0.33092606 -0.31400257 -0.18532576 0.1961932
0.1315024 -0.07679966 0.16457613 0.22416173 0.06001232 -0.019832697 0.16306277 -0.1329315
0.013829725 -0.031772234 -0.03404189 0.044999354 0.08105342 0.13526376 -0.17555271 -0.31567827
0.05504253 -0.12216691 0.33854002 -0.21811873 -0.42402002 -0.16004619 0.17183068 -0.1486145
-0.16303918 -0.36251092 -0.17748049 0.14033365 -0.2621879 0.034115937 -0.04687329 0.055165607
-0.08126036 -0.12831353 0.047377564 -0.2647096 0.12708601 0.17469111 -0.08872127 -0.09180069
-0.37577215 0.28777415 0.22808343 -0.07728685 -0.070001826 -0.013828707 -0.06728348 0.1260751
0.006362281 0.10336993 -0.09749018 -0.18136336 0.17401762 0.014738367 0.08034721 0.14901689
-0.13888471 -0.08021459 -0.019775152 0.0626882 -0.32853183 0.24852571 -0.042795945 0.1384072
0.30880225 0.062302943 0.046081964 0.03836772 0.059961647 -0.04718008 0.072972745 0.013018728
0.059273772 -0.03775794 0.09069109 -0.22005044 0.075000405 -0.085243285 0.17311768 -0.20545518
-0.33987093 -0.039316937 0.1010283 -0.0061078016 0.041505385 -0.14675279 -0.20946664 0.13360618
0.037093207 0.046169218 0.079822406 0.050882272 0.014599494 0.10090985 -0.05992143 0.10763781
-0.16398665 0.17053 0.1554155 -0.11405485 0.062320713 0.26238838 0.19117305 -0.2986159
0.09516859 -0.014359637 0.02304059 -0.3625759 -0.31560767 0.29301548 0.06297016 -0.20828111
0.048751414 -0.30276126 -0.056165226 0.14147411 0.08972351 -0.2425919 -0.35816103 0.04978733
0.0043376996 -0.2747276 0.21092862 0.02087568 -0.023158915 -0.1691153 -0.0600243 0.18024452
-0.0264975 -0.2331227 -0.00547785 -0.070104845 0.25410005 0.14442739
00000000: 50e9 92bd 5f1f 2bbe 55e3 993d 922c 913e
00000010: 2767 d23d 187a 163e 0ea0 07be e30f a4be
00000020: c7c4 72be ef78 05be c818 9cbd 600d 74bd
00000030: 246f a9be f2c4 a0be 09c6 3dbe dfe6 483e
00000040: 91a8 063e 2449 9dbd a586 283e a78a 653e
00000050: 7acf 753d 2e78 a2bc edf9 263e 321f 08be
00000060: 1296 623c 9a23 02bd 826f 0bbd 3e51 383d
00000070: 56ff a53d 9582 0a3e 17c4 33be 95a0 a1be
00000080: 4774 613d a532 fabd 1e55 ad3e 845a 5fbe
00000090: 2719 d9be 26e3 23be 62f4 2f3e 662e 18be
000000a0: bef3 26be 089b b9be 72bd 35be a0b3 0f3e
000000b0: 7e3d 86be 27bd 0b3d 35fe 3fbd 55f5 613d
000000c0: d56b a6bd 9f64 03be fa0e 423d 0488 87be
000000d0: d622 023e 3ae2 323e 7fb3 b5bd 0002 bcbd
000000e0: 3565 c0be 2257 933e b48e 693e 9148 9ebd
000000f0: 1e5d 8fbd cd91 62bc eccb 89bd d519 013e
00000100: ae7a d03b 9db3 d33d eea8 c7bd 51b7 39be
00000110: ad31 323e 3179 713c 148d a43d e297 183e
00000120: cb37 0ebe 8c47 a4bd 80ff a1bc ac62 803d
00000130: 5335 a8be 867d 7e3e cd4a 2fbd 9eba 0d3e
00000140: 541b 9e3e 5f31 7f3d 71c0 3c3d 7827 1d3d
00000150: 589a 753d e63f 41bd bc72 953d 814c 553c
00000160: 0ec9 723d 12a8 1abd 40bc b93d e754 61be
00000170: d099 993d 0894 aebd c345 313e d862 52be
00000180: 9003 aebe cc0a 21bd ede7 ce3d f423 c8bb
00000190: 8d01 2a3d 5d46 16be 6c7e 56be 0fd0 083e
000001a0: 0cef 173d ef1b 3d3d ee79 a33d ee69 503d
000001b0: b732 6f3c d3a9 ce3d 2c70 75bd 3671 dc3d
000001c0: 1eec 27be 6b9f 2e3e 3e25 1f3e 9795 e9bd
000001d0: 0144 7f3d c557 863e dec2 433e 2fe4 98be
000001e0: c0e7 c23d af44 6bbc 9fbf bc3c 8ca3 b9be
000001f0: 5497 a1be 2006 963e 80f6 803d a547 55be
00000200: 90af 473d 8603 9bbe 820d 66bd 97de 103e
00000210: f6c0 b73d 036a 78be e260 b7be cded 4b3d
00000220: 4323 8e3b 19a9 8cbe acfd 573e 7903 ab3c
00000230: c4b7 bdbc 902c 2dbe 0adc 75bd 0592 383e
00000240: 4911 d9bc b8b7 6ebe 897f b3bb 2193 8fbd
00000250: 6719 823e c6e4 133e

conv1.bias f4 [6]
-0.17713824 0.22238922 -0.0788487 -0.0039738473 -0.08546498 0.034838453
00000000: ba63 35be 00ba 633e 6d7b a1bd 0c37 82bb
00000010: 4308 afbd c4b2 0e3d

conv2.weight f4 [16, 6, 5, 5]
0.11264728 -0.22607724 0.076864496 -0.06941767 -0.12263378 0.07850768 -0.1131024 -0.119228646
0.016867576 -0.02164358 -0.06437414 0.11992574 0.119649254 0.0028462952 -0.10539141 0.03449698
0.0794106 -0.14681089 0.13060372 0.016052695 0.109249875 -0.116669826 -0.0788861 0.051890314
-0.03988182 -0.18635213 -0.1955303 -0.07269434 0.24174717 0.045226324 -0.23386727 -0.22573213
0.05226273 0.14960705 0.13919613 -0.10683208 -0.15869232 -0.041593958 0.02330258 0.06275209
0.12610951 -0.16613932 0.10895169 -0.008083837 0.15463527 0.07517011 -0.27022132 0.101948984
-0.064837575 0.061406378 -0.07388404 -0.06846706 -0.006279374 0.07886142 -0.032732584 0.024381666
0.019888049 -0.18305168 -0.20294353 -0.15144844 0.06784671 0.024749251 0.06107985 -0.16978933
-0.12755004 -0.017738517 0.070011385 0.18185076 -0.2950017 -0.0065252627 0.02512302 0.07823636
0.2322085 -0.03600046 0.13779746 -0.06981528 -0.016125312 0.12400285 0.13524233 -0.041678403
-0.13365853 -0.45658973 -0.08115073 0.10380316 -0.022426888 -0.14225662 -0.22773844 -0.0121655185
-0.14645845 0.079602025 0.09046872 -0.14108948 0.07386044 -0.26205844 0.17623363 -0.08719648
-0.09637001 0.15220504 0.02943313 0.055311732 0.2536158 -0.000586446 -0.17307414 0.081270956
0.09513441 0.0036011839 -0.16700812 -0.2883551 -0.0989001 -0.11902952 -0.10746721 0.03504492
0.046476204 -0.08758181 0.1765546 -0.003074257 0.20061933 0.09658448 -0.005112344 -0.08370478
0.02946846 0.15056862 -0.06910124 0.006245852 -0.04455778 0.03676844 -0.108099 -0.0020769453
-0.089547634 0.0348666 0.048095707 0.036965244 -0.18922976 -0.13594419 -0.08976121 -0.15525365
0.11448989 0.033234682 -0.106748976 -0.026363688 0.098222435 -0.026049286 0.02197994 -0.18068653
0.12390847 0.041350298 -0.2888075 0.048496816 -0.0045543937 -0.09474495 -0.17708674 -0.14096074
-0.2295182 -0.042864777 0.34439594 -0.13241084 -0.080405116 0.0013318161 -0.0003675138 0.19267298
-0.07169617 -0.112912916 -0.08431347 -0.006264408 -0.21579213 -0.04644056 0.13943695 0.2566896
0.12406313 -0.19605586 -0.105923675 -0.28918976 0.003313704 0.15283133 0.08306813 0.10570747
0.16922845 -0.027460575 -0.06325094 0.030724864 -0.14004588 0.15687902 -0.09201079 -0.110184655
-0.26392168 -0.11622421 0.30922717 0.0646804 0.1420584 -0.076989904 -0.29125562 0.02682109
-0.07075761 0.06765076 -0.100441925 -0.028720943 -0.057234704 0.042627286 0.28001353 0.106668696
0.039354064 0.15051042 0.021473225 -0.05946532 -0.0949144 -0.07574368 0.003412167 -0.053106274
-0.322137 -0.4138157 -0.018045548 0.11385247 -0.15069722 -0.104708105 0.047537476 0.08705015
0.10827784 0.10607334 0.050170485 0.046412498 0.017065542 0.041001372 -0.12657817 0.05709608
-0.10798717 0.026106756 0.18209371 -0.031378724 -0.068245634 -0.04245256 0.071080774 0.09012133
0.10307597 -0.11003537 0.05140861 -0.19430536 0.073545605 0.17142962 0.010885891 -0.066254646
0.09141689 -0.14181398 -0.24153748 0.15619123 -0.1793454 -0.067041226 -0.21970518 -0.070320666
-0.109346226 -0.04955468 -0.10010558 -0.039564386 -0.025856277 -0.03922345 0.110976525 -0.15848704
00000000: 9eb3 e63d cb80 67be 226b 9d3d da2a 8ebd
00000010: 6b27 fbbd a2c8 a03d 3ba2 e7bd 262e f4bd
00000020: df2d 8a3c e14d b1bc 97d6 83bd a09b f53d
00000030: ab0a f53d e988 3a3b 74d7 d7bd b54c 0d3d
00000040: 06a2 a23d 9855 16be fbbc 053e f180 833c
00000050: 66be df3d 97f0 eebd 098f a1bd f08a 543d
00000060: 1f5b 23bd 18d3 3ebe 1839 48be c5e0 94bd
00000070: 928c 773e 3d3f 393d e77a 6fbe 5326 67be
00000080: 7211 563d 9732 193e 6e89 0e3e c7ca dabd
00000090: 3d80 22be 6d5e 2abd 0de5 be3c 2b84 803d
000000a0: da22 013e 6d20 2abe 1022 df3d 1272 04bc
000000b0: b558 1e3e c9f2 993d 735a 8abe a1ca d03d
000000c0: 90c9 84bd 4185 7b3d 8450 97bd 7538 8cbd
000000d0: 35c3 cdbb 1982 a13d 9a12 06bd 0fbc c73c
000000e0: 43ec a23c e671 3bbe 6ed0 4fbe 4d15 1bbe
000000f0: 37f3 8a3d f1be ca3c dd2e 7a3d 41dd 2dbe
00000100: 7a9c 02be 5e50 91bc 2162 8f3d 1637 3a3e
00000110: 760a 97be dfd1 d5bb cbce cd3c 623a a03d
00000120: 11c8 6d3e 3875 13bd c71a 0d3e 50fb 8ebd
00000130: 3b19 84bc 35f5 fd3d f77c 0a3e f9b6 2abd
00000140: c8dd 08be 21c6 e9be 5b32 a6bd c096 d43d
00000150: 98b8 b7bc b8ab 11be 4434 69be e251 47bc
00000160: 34f9 15be 6306 a33d aa47 b93d c379 10be
00000170: 2444 973d 862c 86be 9776 343e 1194 b2bd
00000180: a45d c5bd a3db 1b3e bf1d f13c 8e8e 623d
00000190: eed9 813e babb 19ba 593a 31be 6371 a63d
000001a0: d4d5 c23d d701 6c3b 2d04 2bbe 48a3 93be
000001b0: 238c cabd c0c5 f3bd c517 dcbd 438b 0f3d
000001c0: d55d 3e3d 185e b3bd bbca 343e 7979 49bb
000001d0: 276f 4d3e 15ce c53d 7385 a7bb 696d abbd
000001e0: d767 f13c a92e 1a3e f384 8dbd 01aa cc3b
000001f0: 3882 36bd 819a 163d 0263 ddbd 5c1d 08bb
00000200: c064 b7bd 48d0 0e3d 0100 453d de68 173d
00000210: 72c5 41be f434 0bbe bad4 b7bd d0fa 1ebe
00000220: ad79 ea3d 1721 083d 359f dabd a9f8 d7bc
00000230: d828 c93d 5065 d5bc 460f b43c e405 39be
00000240: b9c3 fd3d ee5e 293d 94de 93be 99a4 463d
00000250: 063d 95bb a409 c2bd 3a56 35be 0358 10be
00000260: d206 6bbe fa92 2fbd aa54 b03e b596 07be
00000270: 70ab a4bd 5590 ae3a deae c0b9 114c 453e
00000280: 71d5 92bd e33e e7bd 8aac acbd aa45 cdbb
00000290: 9df8 5cbe 7538 3ebd 8fc8 0e3e d26c 833e
000002a0: cf14 fe3d dec2 48be 83ee d8bd ae10 94be
000002b0: ba2a 593b d17f 1c3e a01f aa3d 287d d83d
000002c0: 394a 2d3e 00f5 e0bc b589 81bd b6b2 fb3c
000002d0: 3068 0fbe e5a4 203e 2770 bcbd 7ea8 e1bd
000002e0: be20 87be f506 eebd 0653 9e3e 2877 843d
000002f0: c277 113e e2ac 9dbd 751f 95be e7b7 db3c
00000300: 5ee9 90bd 7b8c 8a3d 7fb4 cdbd 2f48 ebbc
00000310: f06e 6abd f399 2e3d ef5d 8f3e 1e75 da3d
00000320: ba31 213d 671f 1a3e 9ee8 af3c e891 73bd
00000330: 7b62 c2bd 811f 9bbd aa9e 5f3b f785 59bd
00000340: 24ef a4be a7df d3be 42d4 93bc 7c2b e93d
00000350: 5f50 1abe 3471 d6bd a8b6 423d 5947 b23d
00000360: c6c0 dd3d fb3c d93d 917f 4d3d 081b 3e3d
00000370: 09cd 8b3c 0ef1 273d b59d 01be 94dd 693d
00000380: 6128 ddbd d6dd d53c c676 3a3e fa86 00bd
00000390: 5ec4 8bbd bce2 2dbd cc92 913d 8891 b83d
000003a0: 7f19 d33d 395a e1bd d691 523d fcf7 46be
000003b0: 149f 963d 3f8b 2f3e bc5a 323c 84b0 87bd
000003c0: c738 bb3d af37 11be 9a55 77be 98f0 1f3e
000003d0: 52a6 37be e94c 89bd 65fa 60be 4804 90bd
000003e0: eaf0 dfbd d9f9 4abd 2804 cdbd 440e 22bd
000003f0: 8bd0 d3bc c5a8 20bd a947 e33d 6d4a 22be

conv2.bias f4 [16]
-0.037494007 -0.11571522 -0.14681198 0.099505395 -0.035058696 -0.027279068 0.13993706 0.19986658
0.084634826 0.052276295 -0.06445393 0.026618335 -0.06920269 0.1405434 0.049322207 0.1288529
00000000: 5193 19bd 1afc ecbd e155 16be 7cc9 cb3d
00000010: b599 0fbd 5a78 dfbc a94b 0f3e d3a9 4c3e
00000020: 0655 ad3d ab1f 563d 6c00 84bd b20e da3c
00000030: 24ba 8dbd 9cea 0f3e 1506 4a3d 04f2 033e

bn1.weight f4 [6]
1.1412579 1.1789526 0.951519 0.84814227 0.8338167 0.97166944
00000000: bd14 923f ebe7 963f c096 733f da1f 593f
00000010: 0375 553f 54bf 783f

bn1.bias f4 [6]
-0.28286257 -0.4296707 0.013394581 0.03614252 -0.2640259 -0.03458309
00000000: 5dd3 90be ccfd dbbe f274 5b3c 2e0a 143d
00000010: 672e 87be 00a7 0dbd

bn1.running_mean f4 [6]
0.11127674 0.87055445 -0.0827861 -0.08342306 -0.08329619 0.224279
00000000: 0fe5 e33d a8dc 5e3f c28b a9bd b6d9 aabd
00000010: 3197 aabd 65a9 653e

bn1.running_var f4 [6]
0.34291732 1.33 0.10333309 0.15225364 0.08847203 0.19616057
00000000: dc92 af3e 713d aa3f 4da0 d33d 61e8 1b3e
00000010: d330 b53d 51de 483e

bn2.weight f4 [16]
1.0379573 1.0158551 0.84543353 0.9691898 1.044906 0.93215823 1.1045498 0.85211027
1.0390058 1.0293301 0.98761696 0.91336775 0.9929235 1.0171468 0.94409 1.163395
00000000: c9db 843f 8a07 823f 556e 583f d31c 783f
00000010: 7bbf 853f eca1 6e3f e361 8d3f e623 5a3f
00000020: 24fe 843f 17c1 833f 77d4 7c3f 78d2 693f
00000030: 3c30 7e3f de31 823f e2af 713f 21ea 943f

bn2.bias f4 [16]
0.006977942 -0.22413732 -0.28184637 -0.05795595 -0.17403519 -0.40566066 -0.28625792 -0.20074151
-0.25268015 -0.24143428 -0.030186085 -0.27667513 -0.19819887 -0.15661083 -0.2290403 -0.2662423
00000000: 38a7 e43b 4184 65be 2b4e 90be 3863 6dbd
00000010: 4836 32be c1b2 cfbe 6690 92be 2f8f 4dbe
00000020: 4b5f 81be 8c3a 77be cf48 f7bc 5da8 8dbe
00000030: a5f4 4abe 975e 20be 8a89 6abe e950 88be

bn2.running_mean f4 [16]
-1.4800298 -1.2504306 0.23202612 -0.36669564 -0.93140507 -0.5898696 -1.1784527 0.59839815
-0.4317925 -1.716306 -0.36195278 -0.9413574 -1.0786424 -1.0765665 -0.8559961 -1.7702553
00000000: 9e71 bdbf 1c0e a0bf 4198 6d3e 88bf bbbe
00000010: 9070 6ebf b201 17bf 8ad7 96bf 9f30 193f
00000020: e813 ddbe eaaf dbbf e051 b9be ccfc 70bf
00000030: f410 8abf eecc 89bf 8f22 5bbf ba97 e2bf

bn2.running_var f4 [16]
1.1446794 1.1877333 1.6899333 1.0402017 1.3425399 1.0869292 1.5214195 1.0680906
1.2843324 1.2160809 0.97637105 1.0035199 1.4114425 1.1070011 1.1251152 1.5335561
00000000: db84 923f a507 983f bc4f d83f 5425 853f
00000010: 59d8 ab3f 7f20 8b3f e0bd c23f 31b7 883f
00000020: 0165 a43f 8aa8 9b3f 74f3 793f 5773 803f
00000030: 26aa b43f 36b2 8d3f c603 903f 914b c43f

bn3.weight f4 [120]
1.087384 0.9839733 0.95244294 1.0284085 0.99034554 0.97707105 1.0033282 1.0107434
0.9657662 0.99871296 0.9504461 1.0192896 1.0402358 1.0196139 0.8842187 0.96765846
0.96775144 0.98488367 1.069375 0.97270304 1.0491817 1.0292643 0.97166336 0.96791583
0.9661959 0.9484469 1.0620134 0.915115 0.92812383 1.0204668 0.99697655 1.0268258
0.8189142 0.9574944 0.9897541 1.0046201 1.0592176 0.9566065 0.9649774 0.953715
0.9993204 1.092513 0.8861201 1.0459883 0.97299445 0.92598224 0.9336267 0.9768563
1.0674306 1.022165 0.9256807 0.99120545 1.045914 0.8831653 1.016495 0.97560537
1.0364094 0.99187446 0.9088646 0.9062826 0.9901116 0.93427926 1.0069736 1.0016382
0.9366148 0.9383339 0.95153856 0.9970144 0.96478754 1.0093515 1.0102531 1.0218756
1.0338969 1.0378809 0.88109183 0.9754545 0.9895135 0.9957406 0.8857395 1.0413667
0.9942902 0.99394774 1.0050852 0.9234365 1.0498371 0.87806344 0.9845395 1.0493318
0.9596246 0.96519065 0.9787056 0.87975687 0.99544877 0.9683804 0.91772175 0.96970445
1.0088712 1.0375571 1.0310434 0.90706277 0.96812886 1.064161 0.9544906 0.99663746
0.9959095 0.9154824 1.0564578 1.003862 0.9357163 0.9910568 0.9551113 0.99610794
0.8977049 0.965127 0.82009524 0.8585057 0.9333353 0.97758275 1.0098165 1.0247799
00000000: 662f 8b3f ade5 7b3f 4dd3 733f e4a2 833f
00000010: 4987 7d3f 5421 7a3f 0f6d 803f 0a60 813f
00000020: 743c 773f a7ab 7f3f 7050 733f 1578 823f
00000030: 7226 853f b582 823f 285c 623f 77b8 773f
00000040: 8fbe 773f 5621 7c3f 48e1 883f 1103 793f
00000050: 964b 863f efbe 833f eebe 783f 55c9 773f
00000060: 9d58 773f 6bcd 723f 0ef0 873f fa44 6a3f
00000070: 8699 6d3f a89e 823f db39 7f3f 076f 833f
00000080: 5ca4 513f 5a1e 753f 8660 7d3f 6497 803f
00000090: 7194 873f 2ae4 743f c208 773f ab26 743f
000000a0: 76d3 7f3f 77d7 8b3f c4d8 623f f2e2 853f
000000b0: 2a16 793f 2c0d 6d3f 2902 6f3f 4113 7a3f
000000c0: 91a1 883f 4dd6 823f 69f9 6c3f a4bf 7d3f
000000d0: 83e0 853f 1f17 623f 821c 823f 46c1 793f
000000e0: 10a9 843f 7ceb 7d3f 5aab 683f 2302 683f
000000f0: f477 7d3f ed2c 6f3f 83e4 803f ae35 803f
00000100: fdc5 6f3f a736 703f 0898 733f 563c 7f3f
00000110: 51fc 763f 6e32 813f f94f 813f d2cc 823f
00000120: bc56 843f 48d9 843f 3c8f 613f 63b7 793f
00000130: c250 7d3f dbe8 7e3f d3bf 623f 814b 853f
00000140: cd89 7e3f 5c73 7e3f a2a6 803f 5666 6c3f
00000150: 1061 863f c4c8 603f c80a 7c3f 8150 863f
00000160: f5a9 753f bc16 773f 738c 7a3f bf37 613f
00000170: bbd5 7e3f c7e7 773f d0ef 6a3f 8d3e 783f
00000180: b122 813f acce 843f 3bf9 833f 4435 683f
00000190: 4bd7 773f 6d36 883f 7f59 743f a223 7f3f
000001a0: edf3 7e3f 0e5d 6a3f 023a 873f 8d7e 803f
000001b0: 1a8b 6f3f e6b5 7d3f 2d82 743f ee00 7f3f
000001c0: fdcf 653f 9012 773f c3f1 513f 08c7 5b3f
000001d0: 10ef 6e3f dd42 7a3f ab41 813f fd2b 833f

bn3.bias f4 [120]
-0.2462806 -0.2594753 -0.23209164 -0.27895203 -0.22636855 -0.3049559 -0.13195416 -0.38274673
-0.23117903 -0.33290267 -0.17407446 -0.35492206 -0.22952986 -0.3137357 -0.40004006 -0.41239896
-0.26088083 -0.19851404 -0.305339 -0.27193895 -0.37352026 -0.25926423 -0.1394993 -0.12361641
-0.21313852 -0.34290227 -0.25021872 -0.23046453 -0.20191051 -0.31163588 -0.30052283 -0.13171291
-0.29204503 -0.2586815 -0.38104123 -0.12608911 -0.18613023 -0.24100913 -0.20259608 -0.19764845
-0.2098883 -0.15064496 -0.30349466 -0.22588207 -0.22852069 -0.27180326 -0.14173889 -0.24678524
-0.2762296 -0.2836703 -0.2988676 -0.24650817 -0.09284264 -0.25780374 -0.22000103 -0.3092101
-0.23824629 -0.39869547 -0.2529236 -0.26238403 -0.23806626 -0.1992086 -0.23201239 -0.2769086
-0.3239088 -0.24391071 -0.12968679 -0.31917232 -0.25700334 -0.17462708 -0.23993762 -0.29539028
-0.20041987 -0.18492432 -0.20452933 -0.11379041 -0.25687432 -0.25215155 -0.35820112 -0.43358895
-0.19147542 -0.24963924 -0.35175145 -0.2033455 -0.31282422 -0.20895325 -0.20306303 -0.30546525
-0.23845872 -0.16852096 -0.24990067 -0.3784349 -0.2736174 -0.15310553 -0.35672936 -0.15100726
-0.21887784 -0.24823177 -0.29171735 -0.29726005 -0.14690629 -0.16018902 -0.12676983 -0.37362126
-0.17111635 -0.3344124 -0.24164727 -0.18630296 -0.3557152 -0.31969774 -0.2398546 -0.25009224
-0.2894138 -0.22374666 -0.20609319 -0.41639632 -0.39806733 -0.1698958 -0.32565534 -0.20750724
00000000: fb30 7cbe f2d9 84be 6ea9 6dbe cdd2 8ebe
00000010: 28cd 67be 2e23 9cbe fe1e 07be 61f7 c3be
00000020: 32ba 6cbe 3872 aabe 9340 32be 58b8 b5be
00000030: e009 6bbe f7a1 a0be 0dd2 ccbe f525 d3be
00000040: 2c92 85be 4447 4bbe 6555 9cbe 953b 8bbe
00000050: 0c3e bfbe 48be 84be e8d8 0ebe 9a2a fdbd
00000060: fc40 5abe e390 afbe ab1c 80be e5fe 6bbe
00000070: a1c1 4ebe bd8e 9fbe 21de 99be c0df 06be
00000080: ed86 95be e771 84be d617 c3be 811d 01be
00000090: ec98 3ebe 19cb 76be 5975 4fbe 5b64 4abe
000000a0: f5ec 56be ac42 1abe a763 9bbe a14d 67be
000000b0: 5401 6abe cc29 8bbe 0024 11be 45b5 7cbe
000000c0: f76d 8dbe 3c3d 91be 2d05 99be a36c 7cbe
000000d0: 4824 bebd dafe 83be f347 61be c950 9ebe
000000e0: d6f6 73be d021 ccbe 347f 81be 3357 86be
000000f0: a4c7 73be 57fd 4bbe a894 6dbe f7c6 8dbe
00000100: 60d7 a5be bbc3 79be 9dcc 04be 8e6a a3be
00000110: f195 83be 71d1 32be 35b2 75be 653d 97be
00000120: de3a 4dbe cd5c 3dbe 2370 51be f20a e9bd
00000130: 0885 83be 021a 81be 2366 b7be 5fff ddbe
00000140: 2212 44be 6ea1 7fbe c418 b4be ce39 50be
00000150: 7f2a a0be d7f7 55be c1ef 4fbe f165 9cbe
00000160: 862e 74be c290 2cbe f6e5 7fbe 38c2 c1be
00000170: 9417 8cbe b2c7 1cbe 3ba5 b6be a6a1 1abe
00000180: 8321 60be 7830 7ebe fa5b 95be 7832 98be
00000190: 9a6e 16be 9708 24be f3cf 01be 494b bfbe
000001a0: 2039 2fbe 1a38 abbe 6272 77be 34c6 3ebe
000001b0: 4d20 b6be 6caf a3be 729c 75be 170c 80be
000001c0: 0c2e 94be d81d 65be 180a 53be e631 d5be
000001d0: 7bcf cbbe 2af9 2dbe 4cbc a6be c77c 54be

bn3.running_mean f4 [120]
-0.3078618 0.68144 1.7403407 -0.6380273 -2.1632936 -2.0465136 -5.222097 0.08134835
-0.44637904 0.73270583 -0.12316545 -0.67219985 0.62074643 -0.5374209 0.20932402 1.8107367
2.1462986 0.46225408 -0.86042076 -2.1158211 -4.906405 -2.743584 0.20444077 -1.1491098
-1.7346144 -2.7844775 -0.24836326 -1.0937972 -0.25815094 2.5740194 -1.7832079 -2.431929
-2.2728512 -3.8117595 -1.156984 -2.1522737 -2.4857128 -1.8900468 -0.8096416 -0.9530885
-0.7455105 -0.8773133 -1.0668892 3.0868723 1.1289759 0.32924852 -1.7043493 -1.6567279
-2.6595724 -3.7577538 -0.69365686 -1.1035323 -0.4640134 -0.98046994 0.82283336 -1.0233291
-2.7062583 3.6900566 -0.4794358 -1.2574862 -1.6464844 -1.2353886 -2.2801569 -1.0165778
2.3290951 0.35195068 2.3662207 1.2384728 -0.8747771 -0.49389738 2.952239 2.0552423
0.053617753 1.6076205 -1.6361822 -1.4578495 0.3495417 -1.4644716 -0.28160068 0.18203402
0.26457697 -1.5525413 -1.2490048 -1.721624 -1.490083 -2.7710588 -2.8437333 -2.2262714
-2.1459064 1.822119 -0.2133241 0.8529473 -1.7942712 -1.611688 0.9631634 0.9813643
-1.6494704 -1.632211 -1.7862942 -0.017481148 -1.7477275 -0.76160717 -3.304215 -2.3978493
-0.9761385 -0.2624482 -0.90112513 -0.8901027 -1.9503309 -0.34901792 -1.9447309 -1.637365
1.5484914 -2.8915777 -1.7768413 -4.093977 -2.9649622 0.2580098 2.910126 -1.3926708
00000000: 10a0 9dbe da72 2e3f 7cc3 de3f c255 23bf
00000010: 6773 0ac0 14fa 02c0 6b1b a7c0 f799 a63d
00000020: cb8b e4be 9c92 3b3f 2b3e fcbd 4a15 2cbf
00000030: 3de9 1e3f 6b94 09bf 0959 563e 38c6 e73f
00000040: f55c 0940 91ac ec3e 8944 5cbf 9d69 07c0
00000050: 4501 9dc0 e196 2fc0 ec58 513e 0816 93bf
00000060: d807 debf e134 32c0 f052 7ebe 8c01 8cbf
00000070: 5c2c 84be bcbc 2440 2840 e4bf baa4 1bc0
00000080: 6576 11c0 def3 73c0 0d18 94bf dabe 09c0
00000090: eb15 1fc0 0eed f1bf ac44 4fbf 9cfd 73bf
000000a0: c7d9 3ebf 9b97 60bf d38f 88bf 518f 4540
000000b0: 4882 903f 4393 a83e 1e28 dabf a90f d4bf
000000c0: 6f36 2ac0 0a7f 70c0 7f93 31bf 8c40 8dbf
000000d0: 2a93 edbe 1400 7bbf 35a5 523f 73fc 82bf
000000e0: 5633 2dc0 e329 6c40 9c78 f5be 4ff5 a0bf
000000f0: 00c0 d2bf 3721 9ebf 17ee 11c0 391f 82bf
00000100: e50f 1540 e132 b43e 2970 1740 4786 9e3f
00000110: 64f1 5fbf 1ee0 fcbe 7cf1 3c40 1789 0340
00000120: 4a9e 5b3d 82c6 cd3f 6b6e d1bf d09a babf
00000130: 21f7 b23e ce73 bbbf f72d 90be 2067 3a3e
00000140: a276 873e acb9 c6bf 64df 9fbf 2d5e dcbf
00000150: 0abb bebf 0759 31c0 baff 35c0 3b7b 0ec0
00000160: 8856 09c0 323b e93f a271 5abe c15a 5a3f
00000170: aeaa e5bf cb4b cebf e091 763f b13a 7b3f
00000180: d921 d3bf 4aec d0bf 4aa5 e4bf a034 8fbc
00000190: 89b5 dfbf b0f8 42bf 4278 53c0 5d76 19c0
000001a0: 36e4 79bf 9c5f 86be 23b0 66bf c5dd 63bf
000001b0: 71a4 f9bf 7ab2 b2be f1ec f8bf 2d95 d1bf
000001c0: f734 c63f 9c0f 39c0 896f e3bf dc01 83c0
000001d0: f1c1 3dc0 dc19 843e 813f 3a40 0943 b2bf

bn3.running_var f4 [120]
2.3825035 2.0909557 1.9259326 2.260148 2.7182355 2.448525 2.7126613 2.5300722
2.8869941 3.0008612 2.8665357 2.336686 3.015997 2.8429337 2.1652424 2.632658
2.3778615 3.3547957 2.710689 2.6315885 3.1266122 2.8749337 2.6555846 2.5123084
2.215579 1.6456047 3.137999 2.5445182 3.7555475 4.6956973 3.1616316 3.7312458
4.8035073 2.1727235 3.3286953 2.3161821 3.0807707 4.6253343 2.4670148 2.4166188
2.828558 2.5944653 2.7048967 2.1545076 2.2504616 3.160783 4.3397193 3.460924
2.6239707 2.647898 2.9594202 2.176038 3.0250926 4.2108355 2.9049675 2.9709537
2.6360188 2.0769773 3.2079022 2.1897671 4.15914 3.4623582 2.5240064 2.9811978
2.8409145 2.988843 3.5707672 1.8980736 3.54356 2.7385745 3.1360934 2.6301806
3.0633774 2.8954263 2.3456523 3.201954 2.1301763 3.8734148 2.6188726 2.731155
4.0004478 4.12159 2.5126276 4.2028317 2.0888975 2.9105222 2.7608297 2.6178112
2.8792052 2.8625512 2.8004758 2.0117133 2.3860774 4.5556273 2.4281094 4.4092393
3.0596616 3.3073611 2.1861985 2.519778 3.6165142 2.898577 2.728079 2.935509
3.4860964 2.1616142 3.1358051 3.0882876 2.0881598 2.1269758 2.604913 2.4273546
2.6379156 2.574146 2.8181858 2.3894944 3.2397208 2.6038036 4.332526 2.2975907
00000000: f07a 1840 38d2 0540 f684 f63f 44a6 1040
00000010: 92f7 2d40 a2b4 1c40 3e9c 2d40 b4ec 2140
00000020: 83c4 3840 1c0e 4040 5275 3740 438c 1540
00000030: 1806 4140 a0f2 3540 5593 0a40 787d 2840
00000040: e22e 1840 f9b4 5640 ee7b 2d40 f26b 2840
00000050: 6a1a 4840 eafe 3740 19f5 2940 a9c9 2040
00000060: 0ccc 0d40 2da3 d23f fad4 4840 63d9 2240
00000070: e45a 7040 2743 9640 2c58 4a40 bbcc 6e40
00000080: 55b6 9940 e70d 0b40 5809 5540 543c 1440
00000090: 592b 4540 bd02 9440 92e3 1d40 e2a9 1a40
000000a0: 1807 3540 b80b 2640 071d 2d40 74e3 0940
000000b0: 9007 1040 454a 4a40 fbde 8a40 c77f 5d40
000000c0: 23ef 2740 2977 2940 2467 3d40 3544 0b40
000000d0: 1e9b 4140 2abf 8640 fdea 3940 1b24 3e40
000000e0: 88b4 2840 32ed 0440 454e 4d40 2525 0c40
000000f0: ad17 8540 4797 5d40 5289 2140 f2cb 3e40
00000100: 8bd1 3540 3449 3f40 7387 6440 13f4 f23f
00000110: b0c9 6240 ce44 2f40 c1b5 4840 e154 2840
00000120: 600e 4440 aa4e 3940 2b1f 1640 d0ec 4c40
00000130: cf54 0840 07e6 7740 9c9b 2740 3ecb 2e40
00000140: ab03 8040 11e4 8340 e4ce 2040 997d 8640
00000150: 7fb0 0540 ff45 3a40 6fb1 3040 388a 2740
00000160: e644 3840 0a34 3740 ff3a 3340 e9bf 0040
00000170: 7eb5 1840 b3c7 9140 2566 1b40 7d18 8d40
00000180: 7fd1 4340 ceab 5340 adea 0b40 0b44 2140
00000190: f874 6740 4982 3940 d998 2e40 61df 3b40
000001a0: 341c 5f40 e357 0a40 08b1 4840 81a6 4540
000001b0: 69a4 0540 5f20 0840 e5b6 2640 c759 1b40
000001c0: 9cd3 2840 cfbe 2440 285d 3440 7aed 1840
000001d0: 9657 4f40 b8a4 2640 0ea4 8a40 ba0b 1340

bn4.weight f4 [84]
2.7790265 1.6618334 1.913392 1.4960864 1.94585 1.4888194 1.6800504 1.4622598
1.785622 1.7735965 1.8044283 1.9565257 2.0154026 1.5774102 1.8215681 1.5718117
1.9393374 1.7632354 1.5606558 1.7397 1.4997749 1.5115185 1.4162327 2.1647375
1.6930094 1.7564663 1.9465034 1.9414735 1.6286141 1.967448 2.2039094 1.6897106
1.8692701 1.6902276 1.6133225 1.6946671 1.5111573 1.6210502 1.6818869 1.6656185
1.6555442 2.0305917 1.7316 1.6008725 1.8570209 2.10507 1.6801708 2.1510031
1.7980635 1.5347613 1.963638 1.6872226 1.7004 2.0273252 1.4111472 1.6204953
1.8716205 1.7259657 1.7510779 1.9201576 2.0062952 1.5950444 1.8114717 1.6583153
1.588939 1.8868961 1.5503271 1.5792235 1.7276273 1.5169343 1.8313295 1.4545381
1.7869978 1.643475 1.875036 1.8741939 1.5390493 1.9162916 2.5020597 1.8182111
1.6719097 1.5338641 1.7622815 1.53753
00000000: 92db 3140 f5b6 d43f 07ea f43f c27f bf3f
00000010: 9d11 f93f a291 be3f e40b d73f 542b bb3f
00000020: 438f e43f 3605 e33f 82f7 e63f 6f6f fa3f
00000030: 5bfc 0040 94e8 c93f 2529 e93f 2031 c93f
00000040: 353c f83f b3b1 e13f 92c3 c73f 7dae de3f
00000050: a0f8 bf3f 7079 c13f 1d47 b53f 0f8b 0a40
00000060: 88b4 d83f e3d3 e03f 0627 f93f 3482 f83f
00000070: 6d76 d03f 56d5 fb3f da0c 0d40 7048 d83f
00000080: 3e44 ef3f 6159 d83f 5a81 ce3f daea d83f
00000090: 9a6d c13f 937e cf3f 1248 d73f fd32 d53f
000000a0: dfe8 d33f 37f5 0140 12a5 dd3f 64e9 cc3f
000000b0: dcb2 ed3f 78b9 0640 d60f d73f 09aa 0940
000000c0: f226 e63f 0f73 c43f 7d58 fb3f e9f6 d73f
000000d0: b5a6 d93f b2bf 0140 79a0 b43f 646c cf3f
000000e0: 4391 ef3f 72ec dc3f 5223 e03f b9c7 f53f
000000f0: 2467 0040 6a2a cc3f 4ede e73f ad43 d43f
00000100: 5a62 cb3f d085 f13f 1e71 c63f ff23 ca3f
00000110: e422 dd3f e72a c23f 0169 ea3f 4e2e ba3f
00000120: 58bc e43f 645d d23f 2e01 f03f 96e5 ef3f
00000130: 91ff c43f 0b49 f53f bf21 2040 24bb e83f
00000140: 2301 d63f a955 c43f 7192 e13f c8cd c43f

bn4.bias f4 [84]
0.54976267 0.27149138 0.2785967 0.15024927 0.20146488 0.19314818 0.2224055 0.18044113
0.24632272 0.21046782 0.23982139 0.12925963 0.27065176 0.48999608 0.30167007 0.128232
0.42978954 0.2972761 0.056348883 0.22503194 0.14443785 0.18057358 0.16615874 0.38498977
0.2641211 0.07688564 0.29419252 0.12779117 0.15220025 0.27814403 0.28684518 0.16194712
0.20844226 0.20525733 0.17592469 0.208595 0.11773183 0.26559645 0.10009505 0.12174182
0.24039906 0.24287033 0.17009786 0.19815052 0.2003212 0.43102664 0.19573402 0.312503
0.17617714 0.10252771 0.22152181 0.23108989 0.28498888 0.18224418 0.06280738 0.13485649
0.24400304 0.26010603 0.1727856 0.20461315 0.20294783 0.11012494 0.27656397 0.33658072
0.28805313 0.2602867 0.19944845 0.09931569 0.18296987 0.112686366 0.21588418 0.1704066
0.17856042 0.34317276 0.2515912 0.30481368 0.32864526 0.26262438 0.4160465 0.044856943
0.25796053 0.26365882 0.21230944 0.06007379
00000000: 3fbd 0c3f eb00 8b3e 3aa4 8e3e f2da 193e
00000010: cf4c 4e3e a3c8 453e 44be 633e 8fc5 383e
00000020: 063c 7c3e e084 573e bd93 753e a35c 043e
00000030: de92 8a3e c4e0 fa3e 8074 9a3e 404f 033e
00000040: 600d dc3e 9334 983e 16ce 663d c66e 663e
00000050: 84e7 133e 48e8 383e 8425 2a3e 611d c53e
00000060: e13a 873e 3876 9d3d 67a0 963e b0db 023e
00000070: 62da 1b3e e568 8e3e 5fdd 923e 77d5 253e
00000080: e371 553e fa2e 523e 9a25 343e ed99 553e
00000090: 631d f13d 42fc 873e a2fe cc3d c653 f93d
000000a0: 2c2b 763e 00b3 783e 222e 2e3e f8e7 4a3e
000000b0: 0021 4d3e 86af dc3e 806e 483e 6500 a03e
000000c0: c867 343e 0cfa d13d 9dd6 623e d4a2 6c3e
000000d0: 10ea 913e 389e 3a3e 28a1 803d d217 0a3e
000000e0: efdb 793e 9e2c 853e b5ee 303e 1c86 513e
000000f0: 8ed1 4f3e 2f89 e13d cb99 8d3e 4f54 ac3e
00000100: b37b 933e 4c44 853e 373c 4c3e 0666 cb3d
00000110: 745c 3b3e 1cc8 e63d be10 5d3e 117f 2e3e
00000120: 8bd8 363e 57b4 af3e 90d0 803e 8a10 9c3e
00000130: 3144 a83e b476 863e 0c04 d53e eabb 373d
00000140: 6713 843e 4afe 863e a567 593e ef0f 763d

bn4.running_mean f4 [84]
-0.25382957 0.25542134 -0.08164294 -0.34569085 0.25436547 0.13226557 -0.5455918 -0.3052363
-0.41161957 -0.5335969 -1.2235307 -0.26682 0.11111069 -0.5064481 0.38625485 -0.41683817
0.37744674 -0.37676704 -0.38445976 -0.3188501 -0.42685953 -0.02866517 -0.9641344 0.1175972
-0.9216276 -0.03405133 -0.45778117 -0.07479511 0.08603051 -0.5199377 -0.17586325 -0.01765551
-0.36924785 -0.5344685 0.12318919 -0.2188829 -0.096619 -0.37080234 -0.27917805 -0.4308518
-0.12752853 0.15029652 0.17356868 0.10933448 -0.556105 -0.02510941 -0.8933008 -0.017742459
0.013685234 -0.05701769 -0.3457758 -0.03496391 0.039145686 -0.08846857 -0.034404237 0.1684075
-0.45761627 -0.43638244 -0.16091679 0.18524876 -0.3788946 -0.2933779 0.31903154 -0.8404448
-0.33651385 -0.36987674 0.046211082 -0.62251115 -0.023455258 -0.016316546 -0.4320573 0.041233357
-0.16528691 -0.35935017 -0.6848932 -0.10960035 -1.0311354 -0.020114021 -0.0732249 0.29951185
-0.77381563 -0.39353868 -0.22832683 -0.8240182
00000000: f3f5 81be 96c6 823e 6a34 a7bd 64fe b0be
00000010: 313c 823e a070 073e e7ab 0bbf ef47 9cbe
00000020: cdbf d2be ce99 08bf a79c 9cbf a29c 88be
00000030: 008e e33d 95a6 01bf 32c3 c53e d06b d5be
00000040: b340 c13e 9ce7 c0be e9d7 c4be 5240 a3be
00000050: 558d dabe 38d3 eabc 83d1 76bf cdd6 f03d
00000060: c9ef 6bbf 6879 0bbd 4b62 eabe 2e2e 99bd
00000070: c430 b03d a31a 05bf 7f15 34be 4aa2 90bc
00000080: 0e0e bdbe edd2 08bf 9d4a fc3d d722 60be
00000090: 2fe0 c5bd ced9 bdbe 6df0 8ebe 9b98 dcbe
000000a0: d796 02be 55e7 193e fdbb 313e c1ea df3d
000000b0: e65c 0ebf 40b2 cdbc 5caf 64bf a258 91bc
000000c0: 0838 603c 628b 69bd 8709 b1be 5136 0fbd
000000d0: 3a57 203d 022f b5bd 75eb 0cbd 0473 2c3e
000000e0: ae4c eabe 856d dfbe 5fc7 24be dab1 3d3e
000000f0: 79fe c1be a135 96be 1a58 a33e 6427 57bf
00000100: 8b4b acbe 7c60 bdbe d547 3d3d e45c 1fbf
00000110: 3e25 c0bc 47aa 85bc 9d36 ddbe 4fe4 283d
00000120: f940 29be bffc b7be 2955 2fbf 2676 e0bd
00000130: 3ffc 83bf 29c6 a4bc f0f6 95bd 9e59 993e
00000140: c818 46bf e77d c9be 82ce 69be dbf2 52bf

bn4.running_var f4 [84]
1.4421542 0.5199527 0.7054454 0.51517564 0.7336098 0.5249073 0.57429385 0.45010367
0.48348877 0.72277874 0.5223698 0.76048315 0.7366994 1.464825 0.6820444 0.4868909
1.0135413 0.62760055 0.3301319 0.68718785 0.64640766 0.5116959 0.47603583 0.9426414
0.4734376 0.46288815 0.6450663 0.46533123 0.5764665 0.91910607 0.6692038 0.5344467
0.6536748 0.57145476 0.76570123 0.8532555 0.5586417 0.46510798 0.70850766 0.5511389
0.72121733 0.7867161 0.6513778 0.48599893 0.63012403 1.1005604 0.5026844 1.043915
0.7476875 0.43431053 0.72335106 0.5054372 0.66681844 0.52410704 0.6088194 0.6212773
0.6937542 0.653469 0.52301264 0.7438482 0.70481426 0.88323075 0.7860149 0.9089733
0.6984826 0.9255826 0.62484294 0.64464855 0.58633804 0.7291879 0.52755564 0.60388637
0.58471334 0.53464776 0.5319507 0.5342453 0.94116825 0.84750265 1.0783881 0.4585194
0.53785634 0.5087533 0.5313961 0.50395566
00000000: 8298 b83f 9f1b 053f 1298 343f 8de2 033f
00000010: dacd 3b3f 5360 063f ec04 133f fd73 e63e
00000020: d78b f73e 0708 393f 07ba 053f 06af 423f
00000030: 5598 3c3f 637f bb3f 769a 2e3f c449 f93e
00000040: b9bb 813f 6eaa 203f 0c07 a93e 8beb 2f3f
00000050: f97a 253f 81fe 023f f8ba f33e f250 713f
00000060: 6a66 f23e adff ec3e 1123 253f e53f ee3e
00000070: 4f93 133f 894a 6b3f f150 2b3f 80d1 083f
00000080: 3b57 273f dc4a 123f ff04 443f f46e 5a3f
00000090: 2403 0f3f a222 ee3e c260 353f 7017 0d3f
000000a0: b3a1 383f 3a66 493f b2c0 263f dad4 f83e
000000b0: cf4f 213f 2adf 8c3f edaf 003f 029f 853f
000000c0: 7368 3f3f f35d de3e 892d 393f 5564 013f
000000d0: 9db4 2a3f e12b 063f 97db 1b3f 070c 1f3f
000000e0: e099 313f bf49 273f 28e4 053f d66c 3e3f
000000f0: b56e 343f 691b 623f 4638 493f 79b2 683f
00000100: c1cf 323f fbf2 6c3f b5f5 1f3f b007 253f
00000110: 401a 163f 0fac 3a3f e30d 073f 4c98 1a3f
00000120: c6af 153f adde 083f ec2d 083f 4dc4 083f
00000130: 67f0 703f eff5 583f 9f08 8a3f 0ec3 ea3e
00000140: f4b0 093f a83d 023f 9309 083f 3d03 013f

fc1.weight f4 [120, 400]
-0.054672044 -0.16684012 -0.03541431 -0.036811966 0.07193545 0.00062701665 -0.041980308 -0.17723562
0.1328135 -0.054021195 0.1390402 -0.22855023 -0.07778129 -0.06461619 0.019692915 -0.006694216
0.1797496 0.07904805 0.14621001 0.06980232 -0.05373857 -0.19952355 0.040568106 0.038725927
-0.078033395 0.09463407 0.017584583 -0.010538586 -0.0749616 -0.07065564 0.08238434 0.109403305
-0.23212652 0.024858993 0.009424063 -0.06109767 0.48245883 0.0751563 -0.12785481 -0.13060264
-0.15404424 0.009097683 0.023719475 -0.095564164 0.035331566 -0.054880556 0.00074066094 0.005345142
0.036290385 0.1619677 0.0014909558 0.043918133 0.23460448 0.10282555 -0.04641454 -0.070196755
0.09130746 -0.076105334 0.0653705 0.082413636 0.07105397 0.18177958 -0.018863639 0.03324918
0.1420268 0.032707956 0.01711797 -0.037589557 -0.02449069 0.09465305 -0.10901878 -0.051926993
0.14843002 -0.15578686 -0.13694316 0.02775334 0.265314 -0.022560678 0.10495216 0.027938716
-0.105805986 -0.16632698 -0.108104795 0.09067169 0.047348525 -0.13227408 0.16951144 0.025164807
0.013115615 -0.0051733805 0.024827538 -0.032504722 0.35137722 0.11432251 -0.06188205 0.13967219
0.041814156 -0.19781259 -0.2820768 -0.09402245 -0.24774183 0.12600665 0.23797971 0.08787952
-0.22937424 -0.06238625 -0.061761502 0.08995659 0.15918465 -0.033992477 0.0015834016 0.05086053
-0.09971109 0.12349124 0.11724154 -0.061951227 0.040235367 0.045931894 -0.26774076 -0.055779204
-0.10017854 0.113098495 -0.010265582 0.19808127 0.05378478 -0.20733847 -0.21779738 0.009215581
-0.18477651 0.102949746 -0.0006887956 0.06739096 -0.18282406 0.26538733 0.104656056 -0.12193941
-0.17171836 0.048894655 0.07014938 -0.12057445 -0.077237755 0.16986834 -0.00023903506 0.06621805
-0.04396951 -0.027552783 -0.15013456 -0.036325037 -0.081686944 0.07104367 -0.2857128 0.18180576
0.10375427 -0.029150046 -0.1030581 -0.03091323 0.017762331 0.14911915 0.07313522 -0.04817026
0.021893106 0.13760105 0.0890449 -0.07086146 0.07820712 -0.100414775 0.064947404 -0.04065418
0.1192711 -0.10118869 -0.007690128 -0.08829924 -0.041143287 -0.01004347 0.010769981 -0.06806801
-0.05838147 0.028756872 -0.0055122725 0.040946893 0.026257573 -0.05255674 0.20837988 0.16747984
0.18262483 0.11414721 0.13655646 -0.25677875 0.0924119 0.2652017 -0.17026879 -0.10735668
-0.09861886 -0.09305323 0.016850078 -0.059789363 -0.17319533 -0.0990694 -0.059668917 0.045421187
-0.17519782 0.18775181 0.13404265 0.117576785 0.18936679 0.145863 0.012902812 0.10369721
0.005054755 -0.15497656 0.051578503 -0.0049467366 0.017524691 0.042832155 0.14655285 -0.032245904
-0.20784405 0.055853244 -0.09029539 0.17293906 0.11408253 0.0733473 -0.10458571 -0.097542204
-0.0043278844 0.029991621 -0.13274506 0.030498262 0.16414881 0.102599874 0.017675681 0.043855824
0.04783933 0.019935297 0.10237395 -0.03547543 -0.122516245 0.100629926 -0.13110714 0.11191748
-0.21018262 -0.035883818 0.16037032 -0.11547018 -0.049859695 -0.23265673 -0.070114665 0.17258877
0.17284401 -0.025531065 0.08867826 -0.011822548 -0.16265412 0.010607436 -0.004412437 -0.25303352
00000000: cbef 5fbd 23d8 2abe 980e 11bd 25c8 16bd
00000010: e552 933d 605e 243a 8bf3 2bbd 417d 35be
00000020: 4300 083e 5445 5dbd 8e60 0e3e 1209 6abe
00000030: cc4b 9fbd 7e55 84bd 0953 a13c 275b dbbb
00000040: 4710 383e f2e3 a13d 14b8 153e 85f4 8e3d
00000050: fa1c 5cbd e74f 4cbe be2a 263d 149f 1e3d
00000060: f9cf 9fbd 82cf c13d 8b0d 903c 09aa 2cbc
00000070: 7885 99bd e7b3 90bd 1fb9 a83d d70e e03d
00000080: 93b2 6dbe 16a5 cb3c 6367 1a3c 8d41 7abd
00000090: d804 f73e 8ceb 993d 5fec 02be b3bc 05be
000000a0: c6bd 1dbe 730e 153c 584f c23c 25b7 c3bd
000000b0: d5b7 103d 6fca 60bd ea28 423a 4d26 af3b
000000c0: 3aa5 143d dcda 253e 2d6c c33a 80e3 333d
000000d0: 283c 703e 3496 d23d 2c1d 3ebd 51c3 8fbd
000000e0: 68ff ba3d 1ddd 9bbd f8e0 853d 7bc8 a83d
000000f0: be84 913d 6d24 3a3e eb87 9abc 4b30 083d
00000100: 796f 113e c7f8 053d fc3a 8c3c 82f7 19bd
00000110: b3a0 c8bc 75d9 c13d 3d45 dfbd 66b1 54bd
00000120: 0afe 173e 9786 1fbe d43a 0cbe f95a e33c
00000130: 3dd7 873e 2cd1 b8bc 28f1 d63d bcdf e43c
00000140: cfb0 d8bd 9f51 2abe 0c66 ddbd 14b2 b93d
00000150: 87f0 413d db72 07be 6894 2d3e 6d26 ce3c
00000160: e0e2 563c 7685 a9bb 1f63 cb3c ac23 05bd
00000170: b7e7 b33e ec21 ea3d 0878 7dbd 3a06 0f3e
00000180: 5245 2b3d 628f 4abe 5f6c 90be d88e c0bd
00000190: 09b0 7dbe e307 013e f4b0 733e 2efa b33d
000001a0: 15e1 6abe b988 7fbd a1f9 7cbd 293b b83d
000001b0: 4d01 233e b23b 0bbd 248a cf3a 2253 503d
000001c0: 5435 ccbd fae8 fc3d 551c f03d 92c0 7dbd
000001d0: d7cd 243d 1523 3c3d 5115 89be bc78 64bd
000001e0: 682a cdbd 2fa0 e73d f930 28bc d1d5 4a3e
000001f0: 6e4d 5c3d 8950 54be 4706 5fbe f3fc 163c
00000200: 0e36 3dbe 51d7 d23d 4a90 34ba 4604 8a3d
00000210: 3b36 3bbe d9e0 873e ea55 d63d 5fbb f9bd
00000220: f0d6 2fbe c345 483d 7aaa 8f3d bdef f6bd
00000230: d42e 9ebd f7f1 2d3e 7ca5 7ab9 549d 873d
00000240: 5f19 34bd 60b6 e1bc e0bc 19be 90c9 14bd
00000250: 7c4b a7bd 587f 913d f348 92be 4a2b 3a3e
00000260: 1e7d d43d 14cc eebc 2010 d3bd be3d fdbc
00000270: 4f82 913c b1b2 183e ebc7 953d 2e4e 45bd
00000280: 2c59 b33c 4ae7 0c3e 2c5d b63d d01f 91bd
00000290: 0e2b a03d 43a6 cdbd 2503 853d ff84 26bd
000002a0: 6844 f43d 043c cfbd 78fd fbbb 3bd6 b4bd
000002b0: dd85 28bd 5e8d 24bc 9374 303c 3e67 8bbd
000002c0: 6921 6fbd 8893 eb3c 4ba0 b4bb eeb7 273d
000002d0: 1f1a d73c bc45 57bd 8961 553e d67f 2b3e
000002e0: 0102 3b3e 03c6 e93d 75d5 0b3e 8178 83be
000002f0: 7342 bd3d 84c8 873e f15a 2ebe d2dd dbbd
00000300: aff8 c9bd b192 bebd 2d09 8a3c b1e5 74bd
00000310: 1e5a 31be e6e4 cabd 6567 74bd 910b 3a3d
00000320: 0f67 33be 0342 403e 7a42 093e 19cc f03d
00000330: 5ee9 413e 1c5d 153e 5166 533c 345f d43d
00000340: 5ca2 a53b 2db2 1ebe fb43 533d 3c18 a2bb
00000350: f18f 8f3c c570 2f3d f311 163e 4814 04bd
00000360: 12d5 54be 5fc6 643d caec b8bd f016 313e
00000370: 1aa4 e93d 1c37 963d 0831 d6bd 35c4 c7bd
00000380: edd0 8dbb fdb0 f53c 52ee 07be 7ed7 f93c
00000390: a016 283e e21f d23d 97cc 903c 2aa2 333d
000003a0: 2cf3 433d 594f a33c 6fa9 d13d af4e 11bd
000003b0: cce9 fabd 1017 ce3d f340 06be fe34 e53d
000003c0: 1d3a 57be e9fa 12bd 1e38 243e a17b ecbd
000003d0: ae39 4cbd 913d 6ebe 4798 8fbd 1cbb 303e
000003e0: 05fe 303e 8626 d1bc f39c b53d 5cb3 41bc
000003f0: cd8e 26be d0ca 2d3c 3496 90bb 9c8d 81be

fc1.bias f4 [120]
0.036287863 -0.029824102 -0.029917138 0.032815453 0.012421634 -0.028628062 -0.016048452 -0.02939966
-0.013431635 0.033860423 0.01977519 0.05806649 -0.0042594075 -0.029512258 -0.032816242 -0.03647402
-0.018281555 0.05612384 -0.0050285254 -0.022718258 -0.048106454 -0.03531703 -0.010029013 -0.03504722
-0.016316446 -0.029671157 -0.0029399863 0.043125484 -0.01494922 -0.01278961 0.006384148 -0.020245122
-0.0019316864 0.043323856 -0.020570312 0.015418136 -0.03530711 0.0060143135 0.028778054 -0.0024004467
-0.011581585 0.047963873 0.013829987 0.016304424 0.014734068 0.025365947 0.04426867 0.045940023
-0.010297345 0.032661904 0.02766777 -0.0025212236 -0.030244488 -0.020035941 -0.05593943 -0.022628868
0.046251826 -0.037724886 -0.0055362736 -0.03872964 -0.017428948 0.008364567 -0.04406048 -0.038318634
0.016261108 -0.032005884 -0.0377397 -0.035494007 -0.023304198 -0.028060097 0.044937275 0.019236118
-0.008139021 -0.02482359 -0.004598019 -0.021670114 -0.023229998 -0.0128149 -0.007181672 0.056927778
-0.044211105 -0.043021426 0.035710856 -0.03269204 -0.021747457 -0.023199191 0.03390825 -0.01901015
-0.046301935 0.0406293 0.012575694 -0.030639173 -0.0012139799 -0.0453009 -0.03965749 -0.04137832
0.013340401 -0.023766503 0.040709537 0.00063802523 -0.004485889 0.03458026 0.018628677 0.0088187335
-0.033459406 -0.05232627 -0.033774108 -0.033451427 0.0013167828 -0.004004842 -0.018697524 0.028591055
-0.02681571 -0.022051118 -0.039781597 0.032662593 0.04408614 -0.027143449 0.0030540165 0.003513727
00000000: 95a2 143d ad51 f4bc c914 f5bc 7f69 063d
00000010: 1c84 4b3c 6685 eabc 0b78 83bc 8ed7 f0bc
00000020: 5c10 5cbc 3ab1 0a3d 94ff a13c 21d7 6d3d
00000030: 8092 8bbb b1c3 f1bc 536a 06bd c865 15bd
00000040: 33c3 95bc 1de2 653d 54c6 a4bb a41b babc
00000050: 460b 45bd 97a8 10bd bb50 24bc ac8d 0fbd
00000060: 11aa 85bc ed10 f3bc c9ac 40bb 59a4 303d
00000070: 93ed 74bc 838b 51bc 1d32 d13b 19d9 a5bc
00000080: a430 fdba 5b74 313d 1283 a8bc 599c 7c3c
00000090: 309e 10bd b813 c53b f4bf eb3c d050 1dbb
000000a0: b0c0 3dbc c475 443d 2b97 623c db90 853c
000000b0: 2967 713c 3fcc cf3c 1153 353d 9b2b 3c3d
000000c0: 32b6 28bc 7dc8 053d 85a7 e23c 1d3b 25bb
000000d0: 4ac3 f7bc 6a22 a4bc be20 65bd 2d60 b9bc
000000e0: 8e72 3d3d 6985 1abd a169 b5bb f9a2 1ebd
000000f0: 27c7 8ebc 890b 093c c378 34bd 00f4 1cbd
00000100: 0436 853c 9a18 03bd f294 1abd 2a62 11bd
00000110: 72e8 bebc 4ade e5bc 2610 383d 1095 9d3c
00000120: 8759 05bc d75a cbbc fbaa 96bb 8685 b1bc
00000130: d64c bebc 96f5 51bc 3b54 ebbb 1a2d 693d
00000140: b416 35bd 3c37 30bd 8c45 123d 17e8 05bd
00000150: b927 b2bc 3b0c bebc 61e3 0a3d 2dbb 9bbc
00000160: 19a7 3dbd e96a 263d 490a 4e3c 01ff fabc
00000170: 681e 9fba 708d 39bd e46f 22bd 507c 29bd
00000180: b391 5a3c f8b1 c2bc 0bbf 263d 2641 273a
00000190: 5dfe 92bb 08a4 0d3d 2b9b 983c 737c 103c
000001a0: bb0c 09bd 1254 56bd b856 0abd 5d04 09bd
000001b0: e697 ac3a 0d3b 83bb 8d2b 99bc ca37 ea3c
000001c0: 9fac dbbc 8ca4 b4bc 07f2 22bd 36c9 053d
000001d0: ab93 343d f05b debc e525 483b 8f46 663b

fc2.weight f4 [84, 120]
0.045520768 -0.18950911 -0.10228639 -0.06506355 0.013906661 -0.08492446 0.053698916 0.2403977
-0.20799989 -0.106505916 -0.21008444 0.07859895 0.17545098 -0.06373262 -0.0742511 -0.13894579
0.17911607 0.06788943 -0.09121745 -0.2688782 -0.06469421 -0.009890095 -0.016408313 0.042817805
0.11764525 0.009725671 -0.073099606 -0.15766868 -0.16185023 0.15220262 0.12096272 -0.09603467
0.10349399 0.07397788 0.09209622 -0.09251827 0.049016416 0.42577353 0.066654444 0.01500993
-0.111897625 -0.052364554 0.2297276 -0.06857329 0.20415102 0.07651859 -0.1483734 0.18133
-0.054786447 0.1032024 -0.12747261 0.0026451056 -0.027019365 4.266367e-05 -0.1096029 -0.060233742
-0.13305825 -0.23075126 0.22404529 0.17411298 0.043282792 0.0035194233 -0.119720764 -0.1684754
-0.0109105315 -0.010986596 -0.20245834 0.24759765 -0.24879101 0.01666548 -0.14608042 0.08659787
0.06414416 -0.2298514 -0.060832456 -0.008178638 -0.09086233 -0.060001522 0.08023022 -0.060234834
0.12919997 0.034287713 0.05833678 -0.07377251 -0.01196877 -0.036385305 -0.13507529 -0.22668843
0.016212923 0.090973556 -0.15135148 0.16320136 -0.10007938 0.30197236 -0.068683974 -0.07142705
-0.04821766 0.10279432 -0.024854714 -0.10830576 0.008298727 -0.22041774 -0.0766655 -0.01775763
0.14657202 0.077431515 0.074020654 0.08404175 -0.036322396 0.06565251 0.09497269 0.17526308
0.044623036 -0.2590333 -0.23685849 -0.021268666 0.30073705 0.09332719 -0.029137503 0.19571505
-0.014913229 0.1514873 0.1647236 -0.12599671 0.097164296 -0.14529562 0.03332566 -0.25921804
0.1986604 0.1381503 0.052123588 0.07344227 0.025494512 -0.36078072 0.10130752 0.013565866
0.027334735 0.023253193 -0.22109474 -0.08130747 0.0124414135 0.07377577 -0.0724461 -0.03473415
-0.043440342 0.013916858 -0.303638 -0.12527876 -0.01956964 0.14670147 -0.07658923 -0.0022065775
-0.14945988 -0.0027108523 0.034798015 -0.3007926 0.09045656 0.10203215 0.07894812 0.110178195
0.03338418 0.12014386 0.03085789 -0.36488813 0.10232895 -0.107983775 0.09487235 0.060129624
-0.2741773 0.3167067 0.12133477 -0.051127218 0.103902146 -0.037291914 -0.1730686 -0.027011214
0.17654143 0.013474818 -0.061684042 0.05132777 -0.072987914 -0.024360733 0.03825842 -0.017766599
0.037843816 0.26549736 0.077444226 -0.089089274 0.14507946 -0.11804001 0.014107041 -0.09239296
0.098291636 0.07273708 0.0225265 0.09995761 0.1164232 -0.07489489 0.04246489 -0.1978092
0.21316768 -0.1471124 0.1409948 -0.03225586 -0.096998565 -0.16238439 0.027061952 -0.022386018
0.26660177 0.07554963 0.04388043 0.091407426 -0.25417328 -0.044133484 -0.06125205 0.10655904
0.14907055 0.11459781 0.18063949 -0.046302415 -0.09971 0.08046614 -0.061077714 0.07002594
-0.1170388 0.12309555 -0.05953989 0.077684544 0.19050106 0.038302734 0.19261064 0.15568145
0.021593198 0.10381161 0.043864615 -0.006027904 0.1434655 -0.158069 -0.17695132 0.100823276
0.07071007 -0.13924983 -0.23679525 0.20938222 -0.010471276 0.109227754 -0.10093956 -0.045263696
-0.14758071 -0.081714906 -0.03657839 -0.22899231 -0.068112835 0.043944214 -0.046667505 0.010461437
00000000: fc73 3a3d ad0e 42be 877b d1bd 0a40 85bd
00000010: c4d8 633c e0ec adbd 65f3 5b3d d12a 763e
00000020: ecfd 54be c61f dabd 6020 57be 7cf8 a03d
00000030: 6ca9 333e 3f86 82bd f610 98bd ce47 0ebe
00000040: 346a 373e 9d09 8b3d 37d0 babd 67aa 89be
00000050: 667e 84bd 110a 22bc ba6a 86bc b961 2f3d
00000060: feef f03d 6c58 1f3c 3fb5 95bd e673 21be
00000070: 11bc 25be 01db 1b3e 4dbb f73d d3ad c4bd
00000080: a8f4 d33d b781 973d f19c bc3d 387a bdbd
00000090: 70c5 483d fdfe d93e 2082 883d 36ec 753c
000000a0: 952a e5bd 377c 56bd b63d 6b3e 2770 8cbd
000000b0: f70c 513e c7b5 9c3d 32ef 17be 92ae 393e
000000c0: c167 60bd c85b d33d 2e88 02be 8259 2d3b
000000d0: b757 ddbc c4f1 3238 7c77 e0bd a8b7 76bd
000000e0: 6c40 08be 0f4a 6cbe 216c 653e ac4a 323e
000000f0: 4c49 313d 20a6 663b 2930 f5bd d184 2cbe
00000100: 16c2 32bc 2001 34bc 3d51 4fbe 3d8a 7d3e
00000110: 12c3 7ebe 0b86 883c 1b96 15be 395a b13d
00000120: 035e 833d 2a5e 6bbe 742b 79bd b2ff 05bc
00000130: 0716 babd 28c4 75bd be4f a43d cdb8 76bd
00000140: ff4c 043e 4671 0c3d 8cf2 6e3d 0b16 97bd
00000150: a918 44bc c208 15bd 2d51 0abe 0321 68be
00000160: f7d0 843c 5850 ba3d e2fb 1abe 421e 273e
00000170: 6bf6 ccbd 1f9c 9a3e 2faa 8cbd 5848 92bd
00000180: e27f 45bd d485 d23d 1d9c cbbc 69cf ddbd
00000190: 62f7 073c 30b5 61be cd02 9dbd 7378 91bc
000001a0: fa16 163e 6a94 9e3d 2498 973d 151e ac3d
000001b0: cbc6 14bd d374 863d 0b81 c23d 2a78 333e
000001c0: a5c6 363d 03a0 84be 088b 72be a03b aebc
000001d0: 35fa 993e 5322 bf3d c6b1 eebc 8769 483e
000001e0: 9e56 74bc 7d1f 1b3e 4ead 283e 4805 01be
000001f0: 13fe c63d 60c8 14be 7d80 083d 3ab8 84be
00000200: a26d 4b3e 4677 0d3e 8b7f 553d e768 963d
00000210: ded9 d03c 40b8 b8be 517a cf3d 5e43 5e3c
00000220: 18ed df3c 7b7d be3c a966 62be 8884 a6bd
00000230: 12d7 4b3c c017 973d 9f5e 94bd 6545 0ebd
00000240: 80ee 31bd 8803 643c 7176 9bbe 1349 00be
00000250: 8250 a0bc e938 163e d0da 9cbd 3a9c 10bb
00000260: 030c 19be 8ea8 31bb 5d88 0e3d 7d01 9abe
00000270: 4a41 b93d 3bf6 d03d 8daf a13d 1ba5 e13d
00000280: dabd 083d fc0d f63d b0c9 fc3c 9ed2 babe
00000290: d791 d13d 9926 ddbd 6f4c c23d 7b4a 763d
000002a0: f860 8cbe 6127 a23e 5d7e f83d c66a 51bd
000002b0: a6ca d43d 68bf 18bd e538 31be 9f46 ddbc
000002c0: 47c7 343e 7cc5 5c3c 68a8 7cbd 113d 523d
000002d0: b07a 95bd 2990 c7bc dcb4 1c3d 428b 91bc
000002e0: 1e02 1b3d 45ef 873e 149b 9e3d 7074 b6bd
000002f0: b68f 143e f6be f1bd 3821 673c 8538 bdbd
00000300: 204d c93d 2ef7 943d 7f89 b83c 93b6 cc3d
00000310: 496f ee3d 7e62 99bd aaef 2d3d 7f8e 4abe
00000320: a148 5a3e a2a4 16be f160 103e b81e 04bd
00000330: 2fa7 c6bd 1848 26be 07b1 dd3c e262 b7bc
00000340: 0780 883e c4b9 9a3d f7bb 333d d133 bb3d
00000350: 0023 82be 50c5 34bd 6ee3 7abd a03b da3d
00000360: f3a5 183e 42b2 ea3d 8ff9 383e 9aa7 3dbd
00000370: c234 ccbd 6ecb a43d a02c 7abd c369 8f3d
00000380: 0ab2 efbd 8519 fc3d 1ae0 73bd 1319 9f3d
00000390: b612 433e 54e3 1c3d b93b 453e f56a 1f3e
000003a0: 38e4 b03c 2e9b d43d 62ab 333d b985 c5bb
000003b0: 9fe8 123e d7dc 21be ba32 35be 6f7c ce3d
000003c0: 71d0 903d 8297 0ebe 747a 72be 4b68 563e
000003d0: b78f 2bbc cdb2 df3d 66b9 cebd 6d66 39bd
000003e0: 661f 17be 255a a7bd 39d3 15bd f67c 6abe
000003f0: be7e 8bbd d9fe 333d 6d26 3fbd 7266 2b3c

fc2.bias f4 [84]
-0.028812315 -0.020041771 0.06534261 -0.0241913 -0.044244856 -0.02268074 0.036905065 -0.02612759
0.03733053 -0.02697555 -0.03715348 -0.016192332 0.08249851 0.08176002 0.013017588 0.06336155
-0.008408427 0.1038983 -0.058231574 0.03342075 0.100902796 -0.032178078 -0.028304132 0.051256493
0.046285924 0.0827997 -0.07041789 -0.08874116 -0.028587088 -0.050093733 0.008627996 -0.009414252
0.023343017 -0.060813252 -0.009927597 0.083712004 0.11159728 -0.013982288 -0.036807183 0.09409874
-0.055791967 -0.07470119 0.060139176 0.015253466 0.07129338 0.059770685 -0.058952294 0.011101243
0.038319863 0.047025166 0.05936471 0.011323211 0.04755657 0.08550115 -0.066526264 -0.02788101
0.038604967 -0.06240517 0.102213144 0.105622806 -0.029720228 -0.05109932 -0.0258689 -0.056977347
0.03421098 0.05245818 0.008175094 -0.012055542 0.08671301 -0.017221091 -0.005277239 0.052021004
0.09856366 0.097794056 0.07554913 0.0329279 -0.022810893 0.047170475 -0.0040093404 0.064849585
-0.0035136493 0.08180567 0.071766816 -0.0021649725
00000000: ce07 ecbc a42e a4bc 59d2 853d d52c c6bc
00000010: 183a 35bd f6cc b9bc c429 173d 8709 d6bc
00000020: e6e7 183d d4fb dcbc 3f2e 18bd c8a5 84bc
00000030: fbf4 a83d cc71 a73d b947 553c b3c3 813d
00000040: 80c3 09bc a2c8 d43d 3b84 6ebd 32e4 083d
00000050: 20a6 ce3d 29cd 03bd 11de e7bc 54f2 513d
00000060: 4f96 3d3d e492 a93d 4137 90bd edbd b5bd
00000070: 782f eabc 162f 4dbd 705c 0d3c 3c3e 1abc
00000080: db39 bf3c 5117 79bd 5ca7 22bc 3371 ab3d
00000090: 1d8d e43d f715 65bc 21c3 16bd d7b6 c03d
000000a0: 1e86 64bd f0fc 98bd 7f54 763d ace9 793c
000000b0: 4302 923d 1bd2 743d f677 71bd fde1 353c
000000c0: 4af5 1c3d 769d 403d 6928 733d fd84 393c
000000d0: aeca 423d 3a1b af3d ec3e 88bd b766 e4bc
000000e0: 3e20 1e3d 909c 7fbd 2055 d13d c550 d83d
000000f0: d677 f3bc 854d 51bd 04eb d3bc 1461 69bd
00000100: d020 0c3d 63de 563d d4f0 053c 9c84 45bc
00000110: 9796 b13d 3f13 8dbc b0ec acbb fa13 553d
00000120: bfdb c93d 4048 c83d 81b9 9a3d 68df 063d
00000130: e9dd babc d435 413d c960 83bb dccf 843d
00000140: 4145 66bb bb89 a73d 7bfa 923d 36e2 0dbb
