models/Batch_Normalization_best.pth (torch, 260077 bytes, 26 tensors)

conv1.weight f4 [6, 1, 5, 5]
00000000: 2ec4 58bd 0846 08be 1df7 4e3d 42bd 753e
00000010: ffb3 f03d 18e9 f93d bb8d d7bd d205 81be
00000020: 4f4e 5dbe 8061 0cbe 47e8 5cbd 5fbe 8bbd
00000030: 8a36 96be 15c0 92be 1ee1 28be 4066 2c3e
00000040: 84e8 f43d c978 88bd 4346 0c3e 770f 353e
00000050: 94f4 803d 36f0 07bc 9f3b 283e 17fc 00be
00000060: 913b 3ebc 5aa6 2bbd 2579 3ebd 20aa 903c
00000070: 779b a33d ed46 083e 0be9 1abe 2d75 8abe
00000080: 3af5 8f3d 1d63 d8bd f791 8f3e 7936 4abe
00000090: d3a0 b5be 56a1 ecbd 0113 363e 8d61 f8bd
000000a0: 8495 0cbe 3f4c aabe 44ee 1bbe 87c6 eb3d
000000b0: 307a 79be 4bca d93c 2465 5dbd 50f8 da3c
000000c0: 3a86 99bd 81e9 dcbd bd27 203d 7251 6abe
000000d0: 7f2a c03d 24eb 1d3e 714f 84bd 493c a9bd
000000e0: de42 a7be 4b38 7f3e 319c 573e a695 6abd
000000f0: 1be7 8cbd f038 67bc 677e 72bd dad4 f03d
00000100: a8d2 23bc 7ef6 c33d c340 b0bd 882c 1bbe
00000110: e759 1b3e 46eb 063d 6890 a73d 0295 f63d
00000120: dc34 f1bd 2196 88bd c812 32bc 3a7c 563d
00000130: 8941 8bbe 265b 623e b753 a5bc f821 f73d
00000140: 0c47 843e 7683 443d d2d4 ec3c 488b 113d
00000150: 6dc7 423d 5347 17bd 6a01 6d3d 8077 8f3c
00000160: cb22 8d3d 1560 1bbd 463e 9d3d 4219 3abe
00000170: 1ad9 9b3d 5ca6 80bd 176d 1a3e aaf6 47be
00000180: db91 94be c9d9 2bbd 8642 a03d 19b2 36bc
00000190: 7316 203d 85a6 ebbd cb12 44be 182a e43d
000001a0: b7ce 2c3d c171 073d 87d0 453d 102c 7b3d
000001b0: 412c e23b b8b2 aa3d 0c98 59bd d472 b33d
000001c0: 0636 18be e2a7 1f3e 5171 fe3d a10b cabd
000001d0: 470f 583d 7356 673e 4267 273e e35e 88be
000001e0: ee59 ab3d 34a3 95bc 9a52 2d3c 86c2 9cbe
000001f0: 4469 8bbe 2f4a 7f3e 27cb 663d 4474 3dbe
00000200: 55e2 063d cb33 8abe 8af0 89bd 2f7b f83d
00000210: 016b 733d 5c65 45be 0144 9ebe e525 463d
00000220: 5f70 acbc 28b3 73be 8ad7 333e e646 9bb9
00000230: 0051 8bba b476 0ebe 9bb3 8cbd 7bca 243e
00000240: f0c5 1ebd fd19 5cbe 68b7 ccbc 5324 9abd
00000250: a881 723e d650 093e
-0.052921467 -0.13307965 0.050528634 0.23997977 0.117530815 0.12202662 -0.1052508 -0.25199753
-0.21611904 -0.13709068 -0.053932454 -0.0682342 -0.29338485 -0.28662172 -0.16492125 0.1683588
0.11958411 -0.06663663 0.13698678 0.1768168 0.062966496 -0.008297017 0.16428994 -0.12596165
-0.011610881 -0.041906692 -0.04650225 0.017659247 0.07988637 0.13308306 -0.15127961 -0.27042523
0.07029195 -0.10565779 0.2804105 -0.19747342 -0.35474262 -0.1155421 0.17780687 -0.12127981
-0.1372891 -0.33261296 -0.1522761 0.115124755 -0.24363017 0.026585719 -0.054051533 0.026729733
-0.07496305 -0.10786725 0.039100397 -0.22882631 0.093831055 0.1542173 -0.06460465 -0.082634516
-0.32668203 0.24923818 0.21055676 -0.057271622 -0.06880017 -0.014112696 -0.059202578 0.11759348
-0.009998955 0.09568499 -0.08606102 -0.15153706 0.15171014 0.032939218 0.0818184 0.1204014
-0.1177766 -0.0666926 -0.010868736 0.052364565 -0.27198437 0.22105083 -0.02018152 0.12067026
0.25835454 0.047976933 0.028910074 0.03553322 0.04755347 -0.036933254 0.057862677 0.017513037
0.06891402 -0.037933428 0.07677893 -0.18173698 0.07609768 -0.062817305 0.15080677 -0.19527689
-0.2901753 -0.041955743 0.07825188 -0.01115086 0.03908391 -0.115063705 -0.19147794 0.11140841
0.042189326 0.03306747 0.04829457 0.06132132 0.006902248 0.08334869 -0.05312352 0.08762136
-0.14864358 0.15591386 0.12423957 -0.09865499 0.052748945 0.22591572 0.16347983 -0.26634893
0.08366762 -0.018266298 0.010578776 -0.3061716 -0.2722875 0.24930643 0.056346085 -0.18501383
0.03293069 -0.2699264 -0.06735332 0.121328704 0.05942822 -0.19276947 -0.30911258 0.048375983
-0.021049676 -0.23798811 0.1756269 -0.00029616727 -0.0010628998 -0.13912469 -0.068701945 0.16092865
-0.038762987 -0.21494289 -0.024989799 -0.075264595 0.23682272 0.13409743

conv1.bias f4 [6]
00000000: c7bb 68be 9f52 5b3e f0d9 8a3c 1d91 c13c
00000010: 171f 3cbd b312 49bb
-0.22727881 0.21418236 0.016949624 0.023628766 -0.045928087 -0.0030681312

conv2.weight f4 [16, 6, 5, 5]
00000000: 7223 053e 4ba6 33be cb8f 493d 83ab 7bbd
00000010: a022 b0bd 1e5d 553d a169 c4bd d541 66bd
00000020: 51fd 703c b3f7 a13c 3f9d 27bd 63cf 8a3d
00000030: 4378 b43d bc69 5e3b 4021 8dbd c66f 603d
00000040: 2098 713d 82b8 01be 0e44 d73d 92d5 dcbb
00000050: 3743 593d 18dc 7abd 4f1d 3fbd d3ee 03bc
00000060: 9153 dabc 2cb8 10be cfff 1dbe 2e30 27bc
00000070: 394b 2f3e c88e bc3d 676d 15be 0bc3 2cbe
00000080: 076b 1b3d 98b2 d53d 1876 c33d b850 c6bd
00000090: 91c1 28be 3a61 cebc ecf8 323a 9187 073d
000000a0: 8fca 903d d37d 10be c47a 4a3d 1f22 833c
000000b0: 7cc3 bb3d 1ec1 523d 3350 7ebe 94ad e33d
000000c0: 5bf8 ca3c 59dc 703d cba4 26bd af58 1bbd
000000d0: 7507 3ebb ac14 703d 2af6 cebc 65e6 263d
000000e0: 6932 6c3b acd4 f5bd af05 1dbe 3741 e2bd
000000f0: c214 6c3d b3e0 233d 44ff 483d 2378 01be
00000100: 92c8 b6bd 8fb5 c5bc c023 733d c051 1b3e
00000110: 421f 63be bda1 5bbc 61c7 f93c ea42 743d
00000120: fdc1 343e 6492 93bc 9212 043e 990d 6cbd
00000130: e928 0dbd 3c3d a63d fb7a d43d 59f0 63bc
00000140: 3856 bdbd 1fdb aabe b307 36bd 7d22 5a3d
00000150: 8150 4abd 8fe4 a1bd dfbe 1bbe 5127 813b
00000160: 680c dabd 47cd 803d 508b a13d e0e0 16be
00000170: a7f9 393d fd90 35be 746c 013e 3564 cbbd
00000180: 469a b5bd a115 083e a9e8 393d bc24 0f3d
00000190: 7357 3f3e 8bfa 263c 47ac efbd 9430 2d3d
000001a0: 09e3 953d 2075 70bc 0e65 e9bd 9c33 37be
000001b0: 82e0 dcbd 812a c1bd 2cb1 9fbd bf90 fb3c
000001c0: 86c4 6a3c c409 abbd 5172 da3d 84f8 1d3d
000001d0: ccb0 153e 0794 a93d d0a2 673b d6d7 8dbd
000001e0: 2edd 293d c210 b73d 0974 82bd 010c 44bb
000001f0: ec06 cdbc 70bf 513b 3a8b 7ebd 46cf f0bb
00000200: 6604 77bd 4785 df3c 6984 2b3d 9dfa 133d
00000210: a4ea debd 747e 05be 213b 3abd c231 04be
00000220: 1c11 a03d 9ad0 513d ede4 e8bd 7bc5 8abc
00000230: 1ada ab3d 002b 4b3c b99f e93c 9e50 f5bd
00000240: dce9 ad3d f4b7 8d3d c08a 4abe 1a29 273c
00000250: f59f a53c 060c 72bd 4c19 09be 422b bcbd
00000260: 2d21 2fbe aede 91bc 1023 9b3e 5bfc a9bd
00000270: a0a3 81bd 4ffc 15bd 8744 303a c648 1a3e
00000280: 95c0 32bd f3b2 95bd 30dd 59bd 11d9 51bc
00000290: 4837 36be 37e9 4ebd 487e df3d a939 3c3e
000002a0: 48d6 eb3d 2e2c 14be 8793 cfbd 3a59 78be
000002b0: 5d63 be3c 427c 0c3e 7db8 7d3d 9eca ec3d
000002c0: a5f0 1c3e 6215 8fbc 443c 25bd 11f1 fd3c
000002d0: 4e94 b1bd 6fbb 2c3e a2e0 67bd ca60 ebbd
000002e0: 4dd8 63be 6c2f a3bd 799f 683e 649c 493d
000002f0: 0d4f d83d 7356 8dbd 59c5 74be 79d2 153d
00000300: 6a44 3cbc 0129 283d b8c9 abbd 6168 83bd
00000310: 8dab efbc bdf4 023d d979 4f3e 366f b83d
00000320: 01cb be3c e848 e73d e347 bf3c 5ee6 70bd
00000330: 1aa1 a6bd d8a0 4cbd ea2c 413b 7d11 bbbc
00000340: 4603 80be 4326 95be 0839 f73b 82a8 e73d
00000350: 93e0 d2bd c786 6bbd 0dcc 6a3b 65ca 863d
00000360: f4c2 b93d c1f3 af3d 7723 133d 379b c93c
00000370: f4be 8d3c 7bea 023d 78d9 cebd 9cdb 063d
00000380: 4961 93bd 0601 fabb b29d 0e3e 16e6 67bc
00000390: 5a87 96bd 2bb8 0c3c d692 063d d515 803d
000003a0: a6a7 643d 8a50 bfbd b7ec 4a3d 2c3e 2dbe
000003b0: b3e4 cb3c 8944 d43d 6959 313d 7071 d5bc
000003c0: 291b 363d 8783 f1bd d75b 2dbe a228 df3d
000003d0: c4cc e0bd fdfe 33bd 7b73 0fbe c2b6 6cbd
000003e0: dfa7 2ebd c15d 38bd f070 9fbd 0daa 06bb
000003f0: 6ab9 32bd 3e1e 0abd 56f6 8d3d 3e1d 06be
0.13001803 -0.17543904 0.049209397 -0.061442863 -0.08600354 0.052090757 -0.095904596 -0.056215126
0.014708833 0.019771433 -0.040921446 0.06777837 0.088120006 0.0033937534 -0.068911076 0.054794095
0.05898297 -0.1266804 0.10511027 -0.0067393268 0.053042617 -0.061245054 -0.04665881 -0.008052546
-0.026651176 -0.14132756 -0.15429614 -0.010204358 0.17118539 0.09206921 -0.14592515 -0.16871278
0.037943866 0.10434455 0.09544009 -0.09683365 -0.1648009 -0.025192846 0.00068272534 0.03308827
0.07069885 -0.14110498 0.049433485 0.016007481 0.09168145 0.051453702 -0.24835281 0.11117092
0.024776628 0.05880389 -0.040684503 -0.037926372 -0.0028996144 0.058613464 -0.025263865 0.040747065
0.003604079 -0.120034546 -0.153342 -0.11047595 0.057636984 0.04000921 0.049071565 -0.12643485
-0.089249745 -0.024134425 0.059360266 0.15167904 -0.22179893 -0.013405261 0.03049058 0.059634127
0.17652126 -0.01801414 0.12897709 -0.057630155 -0.034462843 0.08117148 0.10375019 -0.013912284
-0.092449605 -0.333703 -0.044440936 0.053255547 -0.04939318 -0.07904922 -0.1520953 0.0039414545
-0.106468976 0.062891535 0.078879 -0.1473422 0.045404103 -0.1773109 0.12639028 -0.09931222
-0.08867316 0.13289501 0.045387898 0.034947142 0.18685703 0.01019157 -0.11702781 0.042282656
0.07318694 -0.014676362 -0.11396228 -0.17890781 -0.10785009 -0.09431935 -0.07797465 0.030708669
0.014329081 -0.08351472 0.106663354 0.03856708 0.14618224 0.08280187 0.0035344847 -0.06925933
0.0414707 0.08938743 -0.06369788 -0.0029914381 -0.025027715 0.0032004975 -0.062144496 -0.0073489277
-0.06030693 0.027285231 0.041874323 0.036127675 -0.10884598 -0.1303652 -0.045466546 -0.12909606
0.07815763 0.05122433 -0.11371789 -0.01693987 0.08391209 0.012400389 0.028518545 -0.11978267
0.08491871 0.06919852 -0.19779491 0.0102026705 0.020217875 -0.059093498 -0.13388556 -0.09187938
-0.171025 -0.017806377 0.30300188 -0.08300086 -0.06330037 -0.036617573 0.00067240786 0.15066823
-0.04364069 -0.073095225 -0.053189456 -0.0128081 -0.17794526 -0.05051538 0.10912758 0.1838137
0.1151548 -0.14469978 -0.101355605 -0.24252787 0.02324074 0.13719276 0.06194352 0.11562084
0.15326174 -0.01746625 -0.040340677 0.030998738 -0.08670865 0.16868375 -0.05661071 -0.114930704
-0.22250481 -0.079680294 0.22717084 0.04922141 0.10561953 -0.069012545 -0.23903407 0.036577675
-0.011490921 0.04105473 -0.08388084 -0.06416393 -0.029256606 0.031971682 0.20261325 0.09005587
0.02329016 0.11293203 0.023349708 -0.058813445 -0.081361964 -0.04995808 0.0029476234 -0.022835487
-0.25002497 -0.29130754 0.0075446405 0.11311437 -0.102967404 -0.05750158 0.003582719 0.065815724
0.090703875 0.08591414 0.035922494 0.024610145 0.017302968 0.0319619 -0.101000726 0.03292428
-0.0719629 -0.0076295165 0.13927343 -0.014153978 -0.07350035 0.008588831 0.032854877 0.06254164
0.055823945 -0.093415335 0.049542155 -0.16918248 0.024889326 0.103646345 0.04329816 -0.026055068
0.044459496 -0.11792665 -0.16929565 0.10896422 -0.10976556 -0.043944348 -0.14008896 -0.05779148
-0.042640563 -0.045011286 -0.07785213 -0.0020548136 -0.043633856 -0.033720247 0.069317505 -0.13097093

conv2.bias f4 [16]
00000000: a9db cebd c70b 88bd 6238 b4bd 265e 1a3e
00000010: 55b5 b83c 9416 4cbd c7b4 b43d 0430 223e
00000020: 1952 95bc 0771 2b3d b4e8 8abd 1174 80bd
00000030: bc94 c6bd ae44 e13d 7a32 533b cc2f 883d
-0.101004906 -0.06642871 -0.08799817 0.15074977 0.022547403 -0.04982622 0.08823543 0.15838629
-0.018227624 0.04185584 -0.06782666 -0.06272138 -0.096963376 0.10999428 0.0032226131 0.066497415

bn1.weight f4 [6]
00000000: 546c 903f 093f 933f 9a4e 6f3f 8411 5b3f
00000010: 0602 5a3f e060 7c3f
1.1283059 1.1503612 0.9347931 0.855736 0.8515934 0.9858532

bn1.bias f4 [6]
00000000: 4734 91be bbe5 c7be 5865 7d3b 67d5 593d
00000010: b997 80be 5a04 edbc
-0.28360197 -0.39042458 0.0038665142 0.053182032 -0.25115755 -0.028932739

bn1.running_mean f4 [6]
00000000: 9dd7 7e3d ca8b 4d3f 5b8e 873c 2ff8 57bd
00000010: cc23 13bd 9240 5a3e
0.062217344 0.80291426 0.016547373 -0.05272692 -0.03592281 0.21313694

bn1.running_var f4 [6]
00000000: 28f1 9b3e 1a83 863f 9d16 a93d a680 f73d
00000010: 9de7 863d 81b9 413e
0.30457425 1.0508759 0.08256266 0.120850846 0.065871455 0.1891842

bn2.weight f4 [16]
00000000: 7fa1 843f 69c6 823f 7356 633f 9693 7f3f
00000010: ded1 853f 7c90 653f a524 893f fa26 673f
00000020: 8a3c 833f b744 843f 857e 823f ddf3 703f
00000030: 4691 793f a50c 7e3f fd9d 6b3f 9100 943f
1.0361785 1.02168 0.88803786 0.99834573 1.0454671 0.8967359 1.0714308 0.9029385
1.025285 1.033347 1.0194861 0.94122106 0.97487295 0.99238044 0.92037946 1.1562673

bn2.bias f4 [16]
00000000: e73d 763d 3985 1bbe d99b 5bbe 0563 3bbd
00000010: 3768 5fbd f1a2 b5be f576 6abe 1027 00be
00000020: 8858 4ebe eb1e 07be f3d8 8e3d 1b40 5fbe
00000030: 84e6 17be 81d6 babd 875b 2dbe 813b 54be
0.06011763 -0.15187539 -0.2144617 -0.04574873 -0.054542746 -0.35475877 -0.22896941 -0.12514901
-0.2015096 -0.13195388 0.069749735 -0.21801798 -0.14834028 -0.091229446 -0.16929446 -0.20725824

bn2.running_mean f4 [16]
00000000: 0c8a 82bf 9b75 4ebf 95a0 ab3e 3585 08be
00000010: 16f3 29bf 4067 dcbe 73c9 56bf 1e1a fb3e
00000020: 4423 e2be 6395 8fbf 985a acbe d2e8 40bf
00000030: bbc8 2bbf 7047 52bf ffb5 c7be 9c8e 96bf
-1.0198379 -0.806482 0.33520952 -0.13332064 -0.66386545 -0.43047523 -0.8390114 0.49043363
-0.4416753 -1.1217464 -0.33662868 -0.75355256 -0.67103165 -0.82140255 -0.3900604 -1.1762271

bn2.running_var f4 [16]
00000000: 9cac 213f 63f3 1c3f 6c85 843f 6b16 1a3f
00000010: 02c8 4e3f dad8 383f 588f 583f 3361 273f
00000020: 9b2a 443f d65d 323f 1777 083f 12fe 103f
00000030: be13 473f 7b10 283f 921d 273f 777d 453f
0.63154006 0.6130888 1.0353217 0.6019046 0.8077394 0.7220589 0.84593725 0.6538269
0.7662751 0.6967443 0.53306717 0.5663768 0.777645 0.6565015 0.65279496 0.7714457

bn3.weight f4 [120]
00000000: 665c 8a3f 2775 763f 2c66 7f3f 5f89 853f
00000010: ddce 803f 2dc5 7e3f ceb5 823f 609c 813f
00000020: e2da 713f b4c5 853f 9237 7a3f 1022 833f
00000030: ea66 823f 8b01 7e3f 3f2a 673f 7fc5 713f
00000040: 0a08 763f 8752 763f c8c7 883f 9ba8 763f
00000050: d788 823f 9ba8 833f 4b48 793f f362 7c3f
00000060: 179b 7a3f 790b 733f 1499 863f 6379 743f
00000070: e1e4 6f3f 487a 863f ced9 7f3f 6b53 813f
00000080: 60c5 513f 56b1 7c3f 29b6 7c3f ffbb 813f
00000090: 534a 8c3f 371d 713f dfc1 733f 6a18 783f
000000a0: 7c2c 7a3f f87f 8d3f aeab 5d3f 36ba 853f
000000b0: 34a0 753f b15c 753f beee 713f 20f5 793f
000000c0: eea0 8a3f dd13 843f 297b 733f a22e 813f
000000d0: 71c2 8b3f efe4 683f 89ec 813f 7771 803f
000000e0: d1ac 863f a620 823f f21e 613f dbff 6c3f
000000f0: c344 803f 2c84 763f f573 873f 4c6e 703f
00000100: 7d6b 6c3f 05b0 6c3f 263e 793f 233c 833f
00000110: 4ed0 7d3f 148d 823f 8c0c 813f d2e0 813f
00000120: 9f69 863f 06ef 803f 2e46 653f 2444 7e3f
00000130: 12c7 773f bb17 863f b001 6a3f bbf1 833f
00000140: 092c 803f f887 7a3f e96b 813f ec56 773f
00000150: 85a7 833f c6d6 6c3f cc02 7c3f 9775 863f
00000160: 70a0 703f 93e9 763f 1438 793f d15e 723f
00000170: 8761 803f 4eb8 753f ae04 6e3f 59a3 823f
00000180: 10ae 813f 0bf2 833f cd36 823f b6cd 693f
00000190: 6650 7b3f 45b3 893f a27d 763f fb26 7a3f
000001a0: 0b60 803f 3a92 723f c0f8 853f 6e5c 833f
000001b0: c388 723f d691 743f a5d3 763f 4872 813f
000001c0: 3e0b 633f 9a87 6e3f e933 603f 0c2f 5d3f
000001d0: 8bd9 6f3f 14d3 7d3f 4d50 843f 0ebc 823f
1.0809448 0.9627251 0.99765277 1.0432547 1.006313 0.99519616 1.0211732 1.0125847
0.94474614 1.0450959 0.97741044 1.024477 1.0187657 0.99221104 0.9029884 0.9444198
0.96106017 0.96219677 1.0685968 0.9635102 1.019801 1.0285829 0.97375935 0.98588485
0.978929 0.9493938 1.0515466 0.9549772 0.93708616 1.0506067 0.9994172 1.0103582
0.81941795 0.98708093 0.98715454 1.0135497 1.0960182 0.94185203 0.952177 0.9691225
0.9772413 1.1054678 0.8659009 1.0447452 0.95947576 0.9584456 0.94504917 0.97639656
1.0830362 1.0318562 0.951098 1.0092356 1.0918714 0.90974325 1.015031 1.0034627
1.0521489 1.0166214 0.87937844 0.92577904 1.0020984 0.9629543 1.0582262 0.939183
0.92351514 0.92456084 0.97360456 1.0252727 0.9914597 1.0199304 1.0081954 1.0146735
1.0500983 1.0072944 0.8956021 0.99322724 0.9678813 1.0475992 0.91408825 1.0308145
1.0013438 0.9786372 1.0111057 0.9661701 1.0285498 0.9251522 0.9844177 1.0504636
0.9399481 0.96450156 0.97351193 0.9467593 1.0029763 0.9598435 0.9297589 1.02061
1.0131245 1.0308241 1.0172974 0.91329515 0.98169553 1.0757834 0.9628545 0.9771573
1.002931 0.94754374 1.0466537 1.0262582 0.9473993 0.9553503 0.96416694 1.0113001
0.8868903 0.9317566 0.8757921 0.8639991 0.9369132 0.99150205 1.0337006 1.021364

bn3.bias f4 [120]
00000000: 9813 1ebe 7090 49be c692 f5bd bd7b 53be
00000010: e353 2ebe b400 31be 5ae5 b9bd b533 77be
00000020: a7cf 17be aeaf 82be f858 adbd b0ee 84be
00000030: 6bca 73be 05df 6ebe b7f7 9dbe 8a27 80be
00000040: a8dd 45be 3f93 16be 3728 55be 74f1 57be
00000050: 7b63 8cbe 0f44 2abe 9310 edbd ab8c c3bd
00000060: abcd 44be fb29 95be 6db5 0fbe 43c8 27be
00000070: c3b6 26be 4499 72be 8aea 65be 8148 97bd
00000080: 52a7 6fbe b231 61be dc0f 94be adf5 6dbd
00000090: 2cc5 0fbe d864 47be e62c 15be 2d8d 1abe
000000a0: 832a 16be 0e27 e3bd d3c5 7dbe 88e3 26be
000000b0: e499 27be ca19 7abe 8d86 75bd d91e 59be
000000c0: f8ea 26be 8452 3ebe 532c 41be 3ac7 39be
000000d0: b62e 16bc 256d 4ebe 994d 15be a709 67be
000000e0: fe43 26be df67 9ebe 06d0 5fbe c86a 3fbe
000000f0: d286 0cbe 32e8 44be 858f 0dbe a734 6cbe
00000100: 9903 65be 5f65 3abe 8f5e acbd 6685 59be
00000110: 190b 29be 494a eabd ebd1 30be bfb5 6cbe
00000120: 3c01 24be 6aaa 3dbe 7726 13be a922 bfbd
00000130: fc31 53be 55a0 36be 7a5b 90be cebf a5be
00000140: 595e 15be 8977 2ebe e5b2 75be df2d edbd
00000150: 76a2 3abe 1368 11be 2ebd dabd e778 70be
00000160: ac82 13be 1a71 cbbd 897f 45be dba6 67be
00000170: f5a1 60be 7066 03be 4a77 60be d7d0 c3bd
00000180: 38c0 f4bd 78e4 14be c759 7abe 3709 44be
00000190: 4cb0 b6bd 529a 0abe c04a f7bd a9e5 8fbe
000001a0: b6ac b1bd 4965 77be 4626 54be b194 03be
000001b0: 97ef 55be d69a 99be 8648 3ebe f6af 4ebe
000001c0: 2dd6 6abe 48ea 2fbe 91f1 25be 176b 8ebe
000001d0: 8fb5 9fbe 1fc6 04be 436c 6dbe f983 06be
-0.15437162 -0.19684005 -0.119908854 -0.20652671 -0.17024188 -0.17285424 -0.090769485 -0.24140818
-0.14825307 -0.25524658 -0.08464235 -0.25963354 -0.23807685 -0.23327263 -0.30853054 -0.25030166
-0.19322836 -0.14704607 -0.20816122 -0.21088201 -0.27419648 -0.16627525 -0.11575427 -0.09548315
-0.19219081 -0.2913359 -0.14034052 -0.16384988 -0.16280656 -0.23691279 -0.22452751 -0.07386876
-0.23403671 -0.21991614 -0.2891835 -0.058095623 -0.14040059 -0.19472063 -0.14567909 -0.15092917
-0.14664654 -0.110914335 -0.24782495 -0.16297734 -0.16367298 -0.244239 -0.05994277 -0.21203174
-0.16300571 -0.18586165 -0.18864565 -0.18142405 -0.00916641 -0.20158823 -0.14580382 -0.22562276
-0.16236874 -0.30938622 -0.21856698 -0.18693078 -0.13723305 -0.192292 -0.1382428 -0.2306696
-0.22364654 -0.18202733 -0.08416473 -0.21242294 -0.1650814 -0.1143995 -0.17267577 -0.23116206
-0.16016096 -0.18522039 -0.14370142 -0.09332783 -0.20624536 -0.178346 -0.2819479 -0.32372898
-0.14586772 -0.17037787 -0.23994024 -0.11581015 -0.18226036 -0.14199857 -0.106806144 -0.2348362
-0.14405316 -0.09933682 -0.19286932 -0.22622244 -0.21936782 -0.12832046 -0.21920505 -0.095613174
-0.11950725 -0.14540279 -0.2444831 -0.1914414 -0.08920345 -0.13535431 -0.12074804 -0.28104904
-0.0867552 -0.24159731 -0.20717725 -0.1284969 -0.20892178 -0.30000943 -0.18582353 -0.20184311
-0.22933264 -0.17179215 -0.16205432 -0.27816078 -0.31193206 -0.12966202 -0.2318583 -0.13136281

bn3.running_mean f4 [120]
00000000: c16d 173f 33a4 96bf b157 b63e 000e a4ba
00000010: 1a52 0ac0 6cec f5bf 8fbd 7fc0 dce7 cc3c
00000020: 4969 1c3e b9a8 b03e e7a9 04bf e297 4abd
00000030: 17c7 b43e 579c e5be ed27 8bbe bb0b 723f
00000040: d135 1940 c51d 1ebe 8a09 53bf 4b52 f6bf
00000050: 54c8 4fc0 d079 e5bf 4be8 403f 427d 15c0
00000060: 1a32 15bf 22a4 0bc0 b3e7 293f 71c4 7fbe
00000070: 5ea0 81bf cef8 4940 0bd0 0ebf 1f58 f5bf
00000080: feea 03c0 639e 58c0 5221 c1be ef67 39c0
00000090: f148 34c0 ce6e 90bf b33b 2fbf eb62 11bf
000000a0: b6d5 e73d 5f21 03c0 618b a9bf 5e77 2540
000000b0: 45a5 d2bd 405e 813f 2041 93bf 450e afbf
000000c0: d637 28c0 1323 51c0 b4d8 90bf f0ee 83be
000000d0: 0f22 a4be 6b10 bebd d343 af3f 1ab3 b8bf
000000e0: 06e2 0ec0 ee21 3340 564e 48bf 2a0a 00c0
000000f0: 65d6 6fbf 0fb6 89bf 1992 0cbf ea4b 9fbf
00000100: 374f 863f fc19 b43d 091b ec3f 5e54 953f
00000110: dfa1 f83d e2e5 88bf 4530 1240 c092 bd3f
00000120: ef7f 68bf 0df3 a83f aa3e 89bf 5af4 8ebf
00000130: 5c01 72bd 62ef b8be 4b19 30bf f759 f83e
00000140: af4a 83bd b9d8 e2bf 15e1 2dc0 cf60 03c0
00000150: 5e6d a1bf 9ff0 d0bf 687b 2ec0 31f7 93bf
00000160: b885 fdbf b7d9 863f a975 e33e e891 703f
00000170: 4c25 55bf 3c11 b8bf 7acb ed3d 46e5 803f
00000180: 25c0 9dbf df6f 95be 2b04 ddbf 1364 28be
00000190: ea9b 09c0 7ba7 19be a7fc 3ec0 3121 82bf
000001a0: 0be2 4ebf 4d06 75be 749a 2c3f e084 67bf
000001b0: 8973 b6bf 3a6b 5ebf 2bbc 28c0 4804 98bf
000001c0: 68bc 1840 1ee7 5fc0 e9f3 70bf 759a 4bc0
000001d0: 0903 b2bf 7a5e 8fbf 5d5f 0c40 2197 fabe
0.59151846 -1.176886 0.35613778 -0.0012516379 -2.161261 -1.9212775 -3.9959447 0.025012903
0.15274538 0.34503725 -0.5182175 -0.049461253 0.35308143 -0.4484584 -0.27178898 0.9454915
2.3939097 -0.15441044 -0.8243643 -1.9243864 -3.246602 -1.7927799 0.7535445 -2.3357701
-0.58279574 -2.1818929 0.6636917 -0.2497728 -1.0127065 3.1558108 -0.557862 -1.9167517
-2.0612178 -3.3846672 -0.37720734 -2.8969686 -2.816952 -1.1283815 -0.6845047 -0.5679156
0.11320059 -2.0489118 -1.324566 2.5854106 -0.10285429 1.0106888 -1.150425 -1.367623
-2.628408 -3.2677658 -1.1316133 -0.25768232 -0.32057235 -0.09280475 1.3692573 -1.4429657
-2.2325454 2.798946 -0.7824453 -2.0006204 -0.93686515 -1.0758685 -0.5491043 -1.2445042
1.0492924 0.087940186 1.844575 1.1666372 0.121402495 -1.0695155 2.2841961 1.481041
-0.9082021 1.3199173 -1.0722249 -1.116832 -0.059083328 -0.36120135 -0.68788594 0.48506138
-0.06410729 -1.7722389 -2.716863 -2.0527837 -1.2611501 -1.6323432 -2.7262821 -1.1559812
-1.9806433 1.0535191 0.44425705 0.93972635 -0.83260036 -1.438026 0.11611076 1.0069969
-1.2324263 -0.29186913 -1.7266897 -0.16444425 -2.1501412 -0.15005295 -2.9841707 -1.0166379
-0.80813664 -0.23928185 0.67423177 -0.90437126 -1.4254009 -0.86882365 -2.6364849 -1.1876307
2.3864994 -3.4984813 -0.9412218 -3.1813023 -1.3907176 -1.1200707 2.1933205 -0.48943427

bn3.running_var f4 [120]
00000000: 8d24 d13f b727 9d3f 32ce b83f 4ebf af3f
00000010: 5364 a73f abb1 0440 c90a f93f ef28 cd3f
00000020: 2868 0b40 2031 b63f a201 2f40 810f ab3f
00000030: 4180 ea3f 90c6 da3f eb74 e13f 6ffa e53f
00000040: c0e1 eb3f 9467 0a40 3e28 d33f af47 f93f
00000050: f73c 0240 f161 fb3f 3c39 ec3f c5f4 d93f
00000060: fa39 a53f eee4 943f b981 f03f ad38 c83f
00000070: e4e8 3e40 46f7 1740 1c1b 0840 0d2b 1540
00000080: 4dde 4340 8f8c cc3f 941b d33f 96f9 d53f
00000090: 9b19 f13f 0b13 2540 d498 e73f 4dfb c83f
000000a0: d994 0540 22c1 c93f 29a4 0140 b72a c83f
000000b0: 340e b73f a6aa e13f a96c 3440 5528 2c40
000000c0: 5201 d53f 84be ee3f ed72 1b40 e158 c53f
000000d0: 7ef2 0340 70ea 0f40 5c2c db3f 6136 2140
000000e0: 9751 f33f a752 b23f 9923 2540 3ec6 b43f
000000f0: e860 1640 bb81 0440 12b9 b73f ea89 1740
00000100: 88dd f83f e131 1a40 5726 2940 81eb dc3f
00000110: 77e8 2240 57d5 fa3f d642 1340 db45 f33f
00000120: ad94 2740 0a86 0640 37e0 1c40 42e0 0140
00000130: d069 a03f c194 1540 8bed e13f 2942 b93f
00000140: 85eb 2c40 4cb3 6240 5cbb f83f 0a61 2a40
00000150: 9795 c53f ae32 f83f e5b1 ea3f d507 ca3f
00000160: 7c40 eb3f d2e1 d33f e40b e53f 7e3f b43f
00000170: ef1b dc3f 1828 4c40 4e07 cd3f 925d 3540
00000180: ed5a 0240 ed3e f03f 2c5c bf3f e5d8 1440
00000190: 8cd1 1b40 666f f23f 7bae e83f 9ead 1340
000001a0: 59f4 3840 8933 be3f f7fb 0c40 9077 2940
000001b0: f3eb a13f 30cd a73f 272d de3f 35c8 0440
000001c0: feee 1c40 3bd2 0940 63c4 1f40 1f65 d83f
000001d0: fd63 0440 f349 2540 2d9c 3c40 ff98 da3f
1.633928 1.2277745 1.4437926 1.3730257 1.3077492 2.073344 1.9456416 1.6028117
2.1782322 1.4233742 2.7344747 1.3364106 1.832039 1.7091846 1.7613806 1.7967051
1.8428268 2.162572 1.6496656 1.9475001 2.034971 1.9639264 1.8454967 1.7027823
1.2908318 1.1632364 1.8789588 1.5642296 2.9829645 2.3744674 2.1266546 2.3307526
3.0604432 1.5980395 1.6492791 1.6716793 1.8835939 2.5792873 1.8093514 1.5701691
2.08721 1.5762064 2.0256445 1.5638036 1.430121 1.7630203 2.819132 2.6899617
1.6641028 1.8651891 2.4288895 1.5417749 2.0616755 2.248684 1.7122912 2.518944
1.9009274 1.3931473 2.5802977 1.4122999 2.3496647 2.0704181 1.4353354 2.3677926
1.9442606 2.4092944 2.642965 1.725937 2.5454385 1.9596356 2.3009543 1.9005693
2.6184494 2.101931 2.451185 2.0293126 1.2532291 2.3372042 1.7650617 1.4473315
2.701875 3.5421934 1.9432178 2.6621728 1.5436276 1.9390466 1.8335539 1.578364
1.8379054 1.655329 1.7894254 1.4081876 1.7196025 3.1899471 1.6017854 2.833836
2.0367997 1.8769203 1.4950004 2.3257382 2.4346647 1.8940246 1.8178247 2.3074718
2.8899138 1.4859477 2.2028787 2.6479225 1.2650131 1.3109493 1.7357529 2.0747197
2.452087 2.1534564 2.4963615 1.690586 2.0686028 2.5826385 2.9470322 1.7077941

bn4.weight f4 [84]
00000000: 50c4 0640 aa6a b93f 6331 c93f c182 ae3f
00000010: df83 c93f e967 ab3f 07b6 b13f d845 a53f
00000020: 56f7 c33f 55be c03f 14c9 c23f 8a5a cd3f
00000030: 2968 d33f 71af b03f ac76 ca3f fc30 ab3f
00000040: d8ea d03f 2531 be3f 6f48 b13f f342 bd3f
00000050: 3662 ab3f ed10 ad3f 0fdc a33f 8b13 e43f
00000060: a3e6 bb3f c9ae b63f c4fa d13f f0cc d23f
00000070: 20b0 b43f f304 d13f 5bfd e63f 3673 b93f
00000080: c151 cf3f 76a4 bb3f 88e5 b23f 5733 b83f
00000090: 9ffc aa3f 577c b63f e41e b93f 43a7 b73f
000000a0: 9892 bb3f d25d d43f d565 ba3f 7a3c af3f
000000b0: edd1 c33f 08f3 d83f 5877 ba3f c82b dc3f
000000c0: ace2 c73f 75fd ae3f ad65 d03f 7ca7 b63f
000000d0: fc63 bf3f dd01 e03f 9629 a73f e0db b43f
000000e0: 7a77 c63f e6f4 be3f 2db0 bc3f 40a1 c83f
000000f0: 70f8 d83f 86d8 b53f 6d5a c33f 6a6b b63f
00000100: d765 af3f 87d8 d43f 9992 b13f 2cf6 b33f
00000110: 91e5 be3f f482 ac3f 7c4e c83f 44b8 a43f
00000120: 1f48 c13f e20f b83f 57ec c83f 1eed c53f
00000130: 990f b13f c79c c53f 1919 fb3f 4392 c83f
00000140: 792a b83f 635f b13f 5a3c c13f b7fc b03f
2.105732 1.4485676 1.5718197 1.3633653 1.5743369 1.3391086 1.3883675 1.291194
1.5309856 1.5058085 1.5217614 1.6043255 1.6516162 1.380354 1.5817466 1.3374324
1.6321669 1.4858748 1.385023 1.4786056 1.3389347 1.352079 1.2801532 1.7818464
1.467976 1.427209 1.6404653 1.6468792 1.4116249 1.6329635 1.8046068 1.4488285
1.6196824 1.4659564 1.3976297 1.4390668 1.3358344 1.4256696 1.4462552 1.4347919
1.4654112 1.6591132 1.4562327 1.3690331 1.5298439 1.6949167 1.4567671 1.7200861
1.561605 1.3671099 1.6281029 1.4269862 1.4952388 1.7500569 1.3059566 1.41296
1.5505211 1.4918487 1.4741265 1.567421 1.6950817 1.4206703 1.5261971 1.425153
1.3702954 1.6628579 1.3872863 1.4059501 1.4913808 1.3477464 1.5648952 1.2868733
1.5100135 1.4379847 1.5697125 1.5462987 1.3832885 1.543847 1.9617034 1.5669636
1.4387962 1.3857235 1.5096543 1.3827122

bn4.bias f4 [84]
00000000: 5dba e73e 9d39 683e 4785 6d3e 6083 243e
00000010: 5427 343e d0bb 3d3e 1aef 473e 8643 433e
00000020: f387 763e f240 233e 1eb4 4a3e 4bd2 f93d
00000030: 765a 6a3e d215 b23e 7d65 883e d3a2 0e3e
00000040: 40c9 ba3e 1bc5 8f3e 522f a73d 55e6 4c3e
00000050: 5c07 093e 9e45 233e cf13 363e 0634 ab3e
00000060: c0ed 6e3e 2b38 c23d 090f 923e 9277 213e
00000070: 4bb6 123e 4718 7c3e 5cb1 823e b65a 0b3e
00000080: 4b9d 313e ff35 4a3e f6ba 103e 6655 1f3e
00000090: e0f0 073e 87c8 373e 7daf 013e 9f25 0f3e
000000a0: 7479 5e3e b9f3 3b3e 2572 0f3e eecc 313e
000000b0: 1826 373e 6d4d b83e 1072 413e de2d 893e
000000c0: 88c9 353e c7d4 e93d 3ac3 5e3e ed32 573e
000000d0: 4f54 843e 6f65 513e 4447 ba3d 28bb 033e
000000e0: c5db 723e a65e 603e beb7 273e c488 413e
000000f0: 4e7c 453e f37b ff3d bc36 823e 60d1 7c3e
00000100: 14c8 7a3e 441d 633e 242a 0f3e c473 a23d
00000110: 7233 2e3e 7d3d 0f3e b248 373e 1547 1d3e
00000120: 0f57 373e d083 853e 022f 443e 4007 853e
00000130: 3368 813e fbbc 453e 30d1 b93e 5862 953d
00000140: 8665 613e 0f22 713e 2d9e 293e 2269 963d
0.4525937 0.22678228 0.23195373 0.1606574 0.17593127 0.18528676 0.19524804 0.19068727
0.24075298 0.15942743 0.19795272 0.12198313 0.2288607 0.34782273 0.2663993 0.139293
0.36481667 0.28080067 0.081633225 0.2000974 0.13381714 0.15944526 0.17780994 0.33438128
0.23332882 0.094833694 0.28527096 0.15768269 0.14327352 0.24618636 0.2552594 0.13608822
0.17345159 0.1974716 0.1413382 0.1555992 0.1327548 0.17947589 0.126646 0.13979195
0.21726018 0.18354692 0.14008386 0.1736333 0.17885625 0.3599657 0.18891168 0.26792806
0.1775266 0.11417537 0.2175416 0.2101552 0.25845572 0.2044885 0.09095624 0.12864363
0.23716648 0.21911106 0.16378686 0.18899828 0.192857 0.12474813 0.25432384 0.24689245
0.24490386 0.22179133 0.13980919 0.07932237 0.17011812 0.139883 0.17898825 0.15359147
0.17904304 0.26077127 0.19158557 0.25982094 0.2527481 0.19310372 0.3629241 0.07294148
0.22011384 0.23548149 0.16564246 0.07344271

bn4.running_mean f4 [84]
00000000: ace5 febd f0a6 ab3d 75f5 5cbd 9604 d8be
00000010: b1fe 623e cd8e 1cbe 3b95 22bf 9f12 87be
00000020: 71b4 3cbf 6f79 babe 7a1a 8fbf 7b0b 9bbd
00000030: fb18 093d d902 babe f274 883e 712e 8ebe
00000040: 5210 343e 8eb6 79be d4fa 8abe 38c3 46be
00000050: fbe2 7cbe 6072 18be 505a 13bf 214a 273e
00000060: d794 1cbf c3ee 4dbe b76d 0cbf fa90 2cbd
00000070: ec80 2e3e 566d 41bf ae5b 9fbe 141c 88bd
00000080: 14c2 9bbe c069 a9be 7488 4d3e 63a2 d7be
00000090: 5ae6 0d3d 5ca5 77be 713e 03bf a48f 87be
000000a0: 3fbc 8dbe f4db 963e 09a1 b53c 988f 0d3e
000000b0: fae1 03bf 4264 123e c782 11bf 2474 45bb
000000c0: c76f 25bb cf5b 98bd 79a4 d6be ae40 bebd
000000d0: b823 2cbc 23aa a3be 6e27 be3d fc0c 543e
000000e0: b36d 00bf 0034 9cbe e520 22be 6e10 86be
000000f0: 3699 afbe cee9 27be d69b edbc a071 30bf
00000100: 063f aebe ad02 73be afc1 583e 3c7e b6be
00000110: 7c49 ac3a e7ab aabc 1e9a 1cbf 0ee0 ef3b
00000120: ca48 9dbe c481 ebbe 2c7a 26bf 10d2 f13b
00000130: c9c1 46bf b19e 6fbe 89a6 25be 65fd 793e
00000140: 326c 48bf b5f8 f2be 059c 82be e183 1ebf
-0.1244615 0.0838145 -0.053945024 -0.42191 0.2216747 -0.15288849 -0.6350896 -0.26381394
-0.7371283 -0.3642077 -1.1179955 -0.07570549 0.03347109 -0.36330298 0.26651722 -0.27769807
0.1758435 -0.24386045 -0.27144492 -0.19410408 -0.24695961 -0.1488738 -0.5755968 0.16336872
-0.6116461 -0.20110612 -0.5485491 -0.042130448 0.17041367 -0.7555746 -0.31124634 -0.066459805
-0.30421507 -0.33088493 0.20071584 -0.4211608 0.03464351 -0.24184173 -0.51267153 -0.26476777
-0.27682683 0.29464686 0.022171514 0.13824308 -0.5151669 0.14296058 -0.56840175 -0.003012904
-0.0025243626 -0.07439386 -0.41922358 -0.092896804 -0.010506563 -0.31965742 0.09284864 0.20708078
-0.5016739 -0.30508423 -0.15832861 -0.2618441 -0.34296578 -0.16397783 -0.029004972 -0.6892338
-0.34032458 -0.2373149 0.21167634 -0.35643184 0.0013144459 -0.020833923 -0.61172664 0.0073204106
-0.30719596 -0.4599744 -0.6503017 0.0073797777 -0.7763944 -0.2340038 -0.1617681 0.24413069
-0.7829009 -0.47455373 -0.25509658 -0.6191998

bn4.running_var f4 [84]
00000000: fb8e 7f3f c9e8 f13e 3754 e43e 56fd cc3e
00000010: 998e 003f 280c ba3e 8247 143f e3e1 dd3e
00000020: 703e 9a3e 488a d43e 7872 cd3e 4b23 e43e
00000030: f1bf 2d3f c285 753f 3f3a f93e 9c8b c93e
00000040: 39f3 653f 4589 143f a2c7 8f3e 6ee8 bf3e
00000050: 039b e23e 4d9e d23e 843d b73e 29d4 5a3f
00000060: 20a0 d53e b5f5 b63e 623a e93e 0380 f13e
00000070: 07bc d43e d8ea 3a3f 08cc 0d3f b326 df3e
00000080: 23ea 0f3f 464f 073f 4792 3b3f 166a 1e3f
00000090: bdad e13e dfb9 d73e 7993 cc3e 7a17 d33e
000000a0: ff15 0a3f ff05 2c3f f31a ce3e 2559 b63e
000000b0: 3c0f ef3e 3edb 3c3f 87ee c93e 0f18 7e3f
000000c0: 76fb fd3e 188f b33e 2c4f 143f 0d34 0a3f
000000d0: 1e5c 033f c3e4 d23e 25b1 fd3e 8114 d53e
000000e0: dcf7 e43e c8d1 ef3e f81b d73e 250e 0f3f
000000f0: 305f 263f 0662 023f a641 293f 3056 183f
00000100: 5f68 043f b4eb 663f 66d5 de3e ef98 cc3e
00000110: 7215 ef3e 0ead 053f c146 db3e 13b6 0c3f
00000120: b54c ea3e 6334 df3e 5cad af3e c5ce c23e
00000130: 2052 1b3f 9c56 443f dc98 823f e668 ad3e
00000140: ead5 c63e 5551 e73e 9650 da3e e2af a33e
0.99827546 0.47247913 0.445955 0.4003703 0.50217587 0.363374 0.5792161 0.433364
0.3012576 0.4151175 0.40126395 0.44558176 0.67871004 0.95907223 0.4867725 0.39364326
0.89824253 0.58021957 0.28081995 0.37482017 0.4425889 0.411364 0.3578912 0.8547998
0.41723728 0.35734335 0.45552355 0.47167978 0.41549703 0.73014593 0.5538945 0.43584213
0.5621664 0.52855337 0.73270077 0.61880624 0.44077864 0.42133996 0.39956263 0.4122885
0.53939813 0.6719665 0.40254936 0.35614887 0.4669131 0.7377204 0.39439794 0.9925546
0.49605912 0.3507011 0.57933307 0.53985673 0.51312435 0.41190156 0.49549213 0.41617206
0.44720352 0.46839738 0.42013526 0.5588096 0.64988995 0.5093082 0.66115797 0.5950651
0.5172176 0.90203404 0.43522185 0.3996043 0.4669605 0.52217185 0.42827418 0.54965323
0.45761648 0.43594655 0.3431195 0.38048378 0.6067219 0.76694655 1.0202899 0.33869094
0.38835078 0.4517924 0.42639607 0.31970125

fc1.weight f4 [120, 400]
00000000: 34d9 b93a 4ba6 eebd 302e 31b9 854c 3b3c
00000010: ddf3 623c 3a22 063d db8a 19bd 8535 08be
00000020: 297f b83d e4b5 e0bc 7f6f e13d 853f 07be
00000030: 86fa 03bc 56b8 0dbd 7159 92bb 83af 443c
00000040: 4aee fa3d 6232 dc3d a9b0 b33d ca4c 053d
00000050: 334b bebd 9da4 45be 38c9 563d 1827 2abd
00000060: cca5 c8bb 9ec3 c43d c038 283d 8b15 14bd
00000070: 712b 07bd f53e b9bb 7f8d 863c 9bc9 023e
00000080: e92d 16be 64ac 0c3d 3481 1f3d 5856 8bbd
00000090: 94ff a13e 7374 f93c 8183 e4bd d8a7 d4bd
000000a0: 2439 1fbe c468 993d 2535 463d ef05 c5bd
000000b0: 05c7 613c 2a44 88bd 8ef6 81bb c31e 153d
000000c0: 31f6 ec3d 76fd 0d3e 410c bc3c be3f b53c
000000d0: 042a bb3d ef9b 253e 26db 9bbd 4415 1bbd
000000e0: ef68 6d3d c842 9dbd aae4 443c c15d 773d
000000f0: fa66 8c3d 42da 173e e0ff 07bd 50bf 473c
00000100: 4403 893d 0f96 223d 3a46 833c f29c 9cbc
00000110: 67ac fbbc 13df d23c 22c4 34bd d151 a7bc
00000120: a803 563d fc72 ddbd 4428 a8bd c38c b53d
00000130: 5a06 173e f6b5 5d3b 4ff4 af3d f038 1a3d
00000140: eaf1 83bd 10b9 09be 48e9 b9bd 3707 e43c
00000150: 8147 393d 426c f6bd ec91 073e 0d88 e53c
00000160: ef18 dc3b 3fee d6bb 441b 5ebd 035f 7c3c
00000170: e978 803e beae e93d 5559 79bd 46ae d03d
00000180: 384b 88bc 1362 02be 4d2e 1dbe d563 aebd
00000190: 4338 74be d67a bc3d b124 f63d e630 d73c
000001a0: e83a 53be 2511 73bd 8f20 2ebd 303f d33c
000001b0: 6b34 f73d f1c9 1e3d a09f 03bd bce4 603d
000001c0: 269f 87bd fa50 953d 5790 f03d 0197 36bd
000001d0: adac 863d c9b5 22bc 86cd 2abe f0ba 59bd
000001e0: 2e4b 10bd 2c2e da3c 8874 30bd 29cd fb3d
000001f0: a01f 843b 6309 8fbd eef5 0dbe 1cd4 223d
00000200: b355 3ebd d555 ac3d 34e7 663b 330b 2e3d
00000210: ccdb a8bd 873b e03d 52f2 583d c9e5 b2bd
00000220: f1a1 0cbe f2a7 9e3d cfb7 813d c86d 92bd
00000230: 5068 babd d6d0 6a3d e1cc b9ba 6415 c33c
00000240: 239f c5bc 1685 b33c 393d 00be fde8 33bd
00000250: 7f16 50bd 8321 af3d 9a2f 24be c56e 5e3e
00000260: 2376 6d3d 334b f9bc cc9c 69bd f519 0c3d
00000270: d66b 753d 837b a23d 411c 9d3d 4936 9d3c
00000280: 28cb 313c 4e94 cd3d 8093 1d3d d74b b8bc
00000290: 6080 b73d c37c ffbd 2ef6 033d 1889 0a3d
000002a0: 5b0a b43d 30c9 71bd b8f4 103a 1947 5cbd
000002b0: 3213 95bd 8fa1 123d a61e 193d 2ae7 dbbc
000002c0: 8471 babb 42bd 093c 56d5 023d e255 433d
000002d0: e9cd a83d 3d88 3ebd 8896 ac3d 6b32 103e
000002e0: 3ee6 e13d b29b 8c3d 41af a43d 8207 52be
000002f0: fbf2 933d cb8b 483e 9419 d6bd 4825 8bbd
00000300: 34b5 b2bd f709 49bd b86e 953c a392 a4bc
00000310: 0e09 eabd 5281 debc 9ecd 98bd c958 843d
00000320: 730c 21be 1f13 2b3e 2cf0 df3d 072f 8f3d
00000330: 08ea 1e3e 063f 0e3e b683 2dbc a15c 583d
00000340: e87c 02bc 285d acbd 9df4 273d 1efe 48bc
00000350: 4d71 b83a 1e7d 6d3d 6b8f f53d ab14 ac3c
00000360: 362c dabd 0908 043d b9d7 62bd c1a7 0a3e
00000370: 4e93 a83d a4ac 1c3d 2285 9bbd fed1 7ebd
00000380: e574 cfbc 14bd 133c 54b0 c6bd ac20 143d
00000390: 4f7e f03d 99f1 273d cd2d b8bc 2a13 4a3d
000003a0: 4bc8 5c3d b368 b23d dab0 9d3d 4746 97bd
000003b0: 9fbb f0bc ce17 643d d0e2 063c 737c 1c3d
000003c0: 58da 2abe 4a57 0ebc 8c61 5d3d 54e7 77bd
000003d0: 57e9 6cbd a4e9 48be 3b78 c5bd ed73 e93d
000003e0: c34a b53d 2907 8dbc 718b b73d f607 603a
000003f0: 5c15 88bd d780 39bc b297 0abc 0210 44be
0.0014179111 -0.116528116 -0.00016897242 0.011431818 0.013852087 0.032747485 -0.03748594 -0.13301666
0.09008629 -0.027430482 0.11007594 -0.13207825 -0.008055335 -0.034599625 -0.0044662287 0.012004736
0.12252481 0.10751797 0.087739296 0.032543935 -0.09291687 -0.19301076 0.05243799 -0.04154119
-0.00612328 0.096076235 0.041069746 -0.036153357 -0.033000413 -0.005653257 0.016424892 0.12772219
-0.14665951 0.034344092 0.038941577 -0.06803578 0.31640303 0.030451035 -0.11157895 -0.10383576
-0.15549141 0.074906856 0.048390526 -0.09620272 0.01378036 -0.06653626 -0.003966159 0.03640629
0.11570395 0.13866219 0.022955062 0.022125121 0.09138873 0.16172765 -0.076101586 -0.037862077
0.0579614 -0.07678753 0.012017408 0.060392145 0.06855579 0.14829352 -0.033203006 0.012191609
0.06690076 0.03969389 0.016024698 -0.019117806 -0.030721856 0.025741136 -0.04413236 -0.020424755
0.05224958 -0.10812947 -0.08210805 0.08864739 0.14748517 0.003383038 0.0859152 0.037651956
-0.06442626 -0.13449502 -0.09077698 0.027835472 0.045234207 -0.12032367 0.13239259 0.028018976
0.0067168395 -0.006559163 -0.05422522 0.015403512 0.25092247 0.114102826 -0.06087621 0.1018949
-0.01663743 -0.12732725 -0.15349694 -0.08515135 -0.23849587 0.092031166 0.12018717 0.026268434
-0.2062794 -0.059342522 -0.04251152 0.025786966 0.12070545 0.038766805 -0.032134652 0.054905638
-0.06622152 0.07290836 0.11746281 -0.044577602 0.06575904 -0.009931036 -0.16679963 -0.053156793
-0.035227947 0.026633345 -0.043079883 0.122949906 0.0040320903 -0.06984212 -0.13863346 0.039753065
-0.046468448 0.08414809 0.0035233023 0.04249115 -0.08245048 0.10948854 0.05296547 -0.08735234
-0.1373365 0.07746877 0.06333887 -0.07149845 -0.09101927 0.057328068 -0.0014175439 0.02381391
-0.024123734 0.021914046 -0.12523355 -0.043923367 -0.050802704 0.08551314 -0.16033784 0.21721943
0.057973992 -0.030431366 -0.0570343 0.034204442 0.059917293 0.07933714 0.07671405 0.019190924
0.010851659 0.100380525 0.038470745 -0.0224971 0.089600325 -0.12474968 0.032217197 0.03382215
0.08791038 -0.059029758 0.000552963 -0.05377874 -0.07279052 0.035798606 0.037382744 -0.026843626
-0.0056898016 0.008406939 0.031941734 0.047689326 0.08242399 -0.046516646 0.08427149 0.14081733
0.11030243 0.06865634 0.080412395 -0.20510677 0.07224079 0.19584577 -0.104540974 -0.0679422
-0.08725968 -0.04908177 0.018241271 -0.020089453 -0.11427508 -0.027161274 -0.07461093 0.06462247
-0.15727405 0.16706513 0.10934481 0.06991392 0.15518963 0.13891229 -0.010590484 0.052822713
-0.00796435 -0.08416206 0.041004766 -0.0122676175 0.0014071852 0.05798065 0.119902454 0.021005949
-0.10652964 0.032234225 -0.05538151 0.13540556 0.08231221 0.03825058 -0.075937524 -0.062211983
-0.025324294 0.009017248 -0.09701601 0.03616397 0.117428415 0.04100189 -0.022482777 0.049334683
0.05390195 0.08711376 0.076997474 -0.07386451 -0.02938634 0.055686764 0.008232787 0.03820462
-0.16684854 -0.0086878035 0.054048106 -0.060523346 -0.057839718 -0.19620377 -0.09642073 0.11399064
0.0885215 -0.017215328 0.08962143 0.0008546108 -0.06644699 -0.011322222 -0.008459019 -0.19146731

fc1.bias f4 [120]
00000000: 93fe 023d 5c1b fbbc 50ad e0bc c218 163d
00000010: 13ee 673c 75a8 d1bc 0217 94bc 67c3 e9bc
00000020: 3a39 77bc 3934 2c3d 4132 933c d041 693d
00000030: ca60 ccbb c904 dcbc 9530 f4bc 7d2e 1ebd
00000040: 391c 85bc 4b9a 543d c120 1bbb c1c2 5bbc
00000050: 0a83 45bd 3d97 0cbd 86ad 85bc ef58 3bbd
00000060: 8f06 a3bc 366d 45bd 224f 3cbb 1b9c 163d
00000070: 9ac8 5dbc 30e5 73bc d177 933b d2dc 4abc
00000080: 0dd8 88ba 849e 033d 7bdc 93bc 47dc 3e3c
00000090: 6e7b 2bbd 404a 933b 9c84 b83c 9acd 53bb
000000a0: 8510 15bc c402 553d 71ee 873c 8c6c 7e3c
000000b0: c75d 1b3c 90fa c03c 4514 2f3d 8c6e 463d
000000c0: c6b0 27bc 482a 323d c8d6 c83c 35cb 32ba
000000d0: 81e7 edbc e18b 97bc eb74 4fbd 4146 cabc
000000e0: 9cdc 5c3d dc8a 2bbd cafc 94bb 0235 12bd
000000f0: f7e1 adbc de25 943c 7678 53bd bcd2 17bd
00000100: 5d83 963c 1c3f f4bc 36d9 0fbd 3dc5 f5bc
00000110: ef3c abbc b9a3 aebc df1e 233d b0f8 a73c
00000120: 1870 54bb 4243 f3bc 206b ebbb c7ee 6bbc
00000130: 7d65 c8bc 1a3f 33bc 5cc6 2ebc 9905 5b3d
00000140: e39d 36bd fe68 25bd 88b3 0d3d 4c92 10bd
00000150: 449e 03bd 5316 c8bc bbd7 313d ed95 d3bc
00000160: 7a18 2bbd 44c5 303d 6456 833c 564e e9bc
00000170: 8bb4 8f3b 3ee7 45bd 17cf 33bd c772 22bd
00000180: 18a3 ad3c f825 ebbc e683 363d d384 efba
00000190: 028c 4cba 5498 293d 7db2 983c b108 4b3c
000001a0: e2ce 1dbd 3f57 4abd 0172 1bbd 7528 0fbd
000001b0: 3e27 96b8 1d1b fb3b e471 50bc a6f8 f73c
000001c0: 9e2c c1bc 28e1 9abc 6cf3 29bd a836 113d
000001d0: 9b15 393d 83d9 c8bc d7ae dc3b eb77 013a
0.031981062 -0.030652694 -0.027426392 0.036644705 0.014155882 -0.025593022 -0.018077377 -0.028535558
-0.0150893275 0.04204199 0.017968299 0.05694753 -0.006237124 -0.02685775 -0.029808322 -0.038618553
-0.01624881 0.051904958 -0.0023670646 -0.013413132 -0.04822067 -0.03432392 -0.016318094 -0.04573911
-0.019900588 -0.048199855 -0.002873369 0.036769968 -0.013536597 -0.0148861855 0.004500367 -0.012381749
-0.0010440365 0.032133594 -0.01804947 0.011649198 -0.04186576 0.0044949353 0.02252417 -0.0032318593
-0.009098177 0.05200459 0.01659319 0.015528809 0.0094828075 0.023556978 0.04274394 0.04844527
-0.010235017 0.043497354 0.024516478 -0.00068204413 -0.029041054 -0.018499317 -0.05064861 -0.024691703
0.053921327 -0.041880473 -0.0045467364 -0.035695083 -0.021225912 0.018084463 -0.051628552 -0.037066206
0.018373186 -0.02981525 -0.035119258 -0.030001277 -0.020903079 -0.021318303 0.039824363 0.020504326
-0.0032415446 -0.029695157 -0.007184401 -0.014400191 -0.024462456 -0.010940338 -0.01066741 0.053472135
-0.044584166 -0.04038333 0.034595042 -0.03529577 -0.032133356 -0.024424708 0.043418627 -0.025828326
-0.04177139 0.043156877 0.016032405 -0.028479736 0.004385536 -0.048316233 -0.04389867 -0.03966024
0.021195933 -0.028704628 0.044559382 -0.0018273838 -0.0007802845 0.041405037 0.018639797 0.012392209
-0.038527377 -0.04939961 -0.03795052 -0.034950692 -7.159867e-05 0.0076631443 -0.012722466 0.030269932
-0.023580845 -0.018906191 -0.04149191 0.035452515 0.04518662 -0.02451778 0.0067347097 0.00049388286

fc2.weight f4 [84, 120]
00000000: bf1e 283d 6ac1 a5bd a179 d8bd b31b 39bd
00000010: 6cce 8a3c 7e09 d0bd 5b73 9b3c 04af 283e
00000020: 0369 0dbe 32c0 eebd f951 09be 7367 533d
00000030: bfca b93d 9fc0 8dbc b8d2 91bd 40e2 9ebd
00000040: bc17 b53d d3d6 00bd cab4 8fbd a27f 27be
00000050: b6b0 eabc 3661 803d cc60 1cba 486d 1439
00000060: 292a e73d e131 693c f484 ecbc 9222 e2bd
00000070: 0990 0bbe 6e80 0a3e 079e dc3d 2362 7bbd
00000080: 8163 4a3d 5379 633d 4ed8 dc3d c662 26bd
00000090: b50a 043d 835c 943e b6aa ff3c 0001 f43c
000000a0: c6de cfbd 1883 32bd 615d 1c3e 7d1a 07bc
000000b0: 4612 2d3e be6f 693d ac20 afbd ec99 a93d
000000c0: 1539 3dbd 9ee3 773d 294b 0cbe 18ab a43c
000000d0: a99c 3a3b 04e0 72bd 07eb b8bd 5ee1 debc
000000e0: 4dba b9bd f90c 08be 3bbd 443e 4c29 c23d
000000f0: 167e 783c 7c6a ab3c 93fa d4bd 98ab 7bbe
00000100: 1350 2f3d a906 90bd cbf6 10be e6c8 1d3e
00000110: 5c2f 0fbe 2850 ef3b 8c7d d7bd 9e35 1b3d
00000120: 9c0d 293d 436b 1dbe c0cc 51bd 489f bbbc
00000130: 6551 25bd 9275 22bd d43a ea3d 9da2 8cbd
00000140: ebd8 003e 0511 053d 5ed9 7a3d af93 0fbd
00000150: a0fa acbb bd55 403c 71a1 41be 366c 29be
00000160: 5c22 a73b 197d a63d caf9 24be 6357 0c3d
00000170: a3ad 3dbd 89df 3b3e 8cd1 dbbd f720 4ebd
00000180: 1ac7 e9bc 0ea1 043e bb88 8e3c ddb4 eebd
00000190: 6f22 ab3d fd05 55be 6d4a 03bd c685 b03c
000001a0: 58bb 353e ae6a e73c ff23 4e3d 264d d13d
000001b0: a29b 51bc 3552 a63c 322a 1d3e 861b 203e
000001c0: 5535 233c 6702 27be 354c 1cbe 1d10 313d
000001d0: b00f 613e 2dae cd3d bfe4 41bc fe6c 303e
000001e0: f00e 04bc 297d 973d 24d7 073e 409c f0bd
000001f0: c2f9 523d f478 07be 1485 7f3d e798 32be
00000200: 72b3 363e d3c2 1b3e 26fd 153d b5e4 c73c
00000210: 0d66 4b3d 7604 6abe 4644 253d 32b4 c33b
00000220: 2a18 2cbc 9889 2b3d e1bd 4dbe df95 1a3d
00000230: 319c 88bc efd9 9dbc 83b4 9dbd 0bed 95bc
00000240: 4e6b 2ebd 3d75 d73c 050b 41be b681 01be
00000250: 1792 443d e756 be3d b98f 89bd e204 d6bc
00000260: 0f08 fabd 6bd0 e2bc de64 1d3d 68f4 38be
00000270: 76d1 533c 5b77 a23d 5d61 d73d 3403 c63d
00000280: 93b1 993d 3bb7 ab3d acd4 0aba dc81 84be
00000290: 7a37 8a3c a379 83bd d030 d03d 8aa3 64bc
000002a0: 33f6 3abe dd3d 7b3e 7d69 143e 3dcc 56bc
000002b0: 6a9d ea3c ec4a 71bd f2e6 09be 8a87 62bd
000002c0: 37a7 3d3e a2dd bebb c728 d5bd 85c7 c13d
000002d0: 46a2 ccbd 8800 563d 113b 033d 86be f03b
000002e0: 2f18 ba3c 4602 063e 716f e63d 8a7c 75bd
000002f0: b920 c43d 7617 90bd ee9d 8abc 04b2 9abd
00000300: 7455 9b3d 888a 033d ee46 16bb 149a a83d
00000310: 8b75 943d a058 c5bd 0b0b 0c3d 5b58 14be
00000320: 3207 113e 692b e9bd 0863 c23d 2050 62bd
00000330: 8c90 d1bd caff 1ebe 95d9 173d 9dc6 38bd
00000340: 9515 053e e06f 87bb 13b9 423d 0584 b03d
00000350: 9d29 6bbe 4768 7dbd c444 23bd fa3e 9c3d
00000360: bc7f 0d3e dca1 9d3d 5734 f03d 17bc 77ba
00000370: 95e2 c5bd 1953 a63d 2fbe 58bd 7913 473d
00000380: f5e3 60bd d737 e33d fc8b 32bc 425b a93d
00000390: ea75 1f3e 3a1f 393d 8f9a 0a3e c0d9 003e
000003a0: 458c adbd d852 c63d bdcd 023d a4ec 22bd
000003b0: abd6 d93d 3ae4 0ebe 295e 35be 8871 963d
000003c0: 141f ea3d 6885 1bbe df83 10be e07b 223e
000003d0: 84bc 88bc fe70 413d 680a a2bd 4085 9ebd
000003e0: 02bd ecbd 0830 9bbd e46e f33b abd8 11be
000003f0: f19b a9bd d425 5c3d bbf2 3c3b 7b3b 23bd
0.041044947 -0.080935314 -0.10570074 -0.04519243 0.016944133 -0.101580605 0.018975904 0.16473013
-0.1380959 -0.11657752 -0.13410176 0.05161233 0.09071874 -0.017303763 -0.071202695 -0.077579975
0.088424176 -0.031454872 -0.07016905 -0.16357282 -0.028648715 0.062685415 -0.00059653516 0.0001415509
0.11287338 0.014233083 -0.02887199 -0.1104175 -0.13629164 0.13525555 0.10772329 -0.061372887
0.0494113 0.055535626 0.10783444 -0.04062154 0.032236774 0.2897683 0.031209331 0.029785633
-0.101499125 -0.043582052 0.15269996 -0.008246061 0.16901502 0.05699133 -0.085511535 0.082813114
-0.046197016 0.060519807 -0.13700546 0.020101115 0.0028474724 -0.05929567 -0.09029203 -0.027207073
-0.09068737 -0.13286199 0.1921281 0.09480533 0.01516678 0.0209248 -0.10399356 -0.24577177
0.042800974 -0.0703252 -0.14156644 0.15408668 -0.1398291 0.0073032565 -0.10521993 0.03789293
0.041272745 -0.15372948 -0.051220655 -0.0229031 -0.040360827 -0.039662905 0.11437002 -0.068669535
0.12582748 0.032486934 0.061242454 -0.03505295 -0.0052789003 0.011739192 -0.18909241 -0.16545185
0.0051005315 0.08129329 -0.16110912 0.034263026 -0.04630817 0.1834699 -0.10733327 -0.050324406
-0.028537322 0.12952062 0.017399183 -0.11655591 0.08356177 -0.20803066 -0.0320534 0.021548163
0.17747247 0.028249111 0.050327297 0.10219793 -0.012793453 0.020302871 0.15348127 0.156355
0.009961446 -0.1630951 -0.15263446 0.043228257 0.2197864 0.10042987 -0.0118343225 0.17229077
-0.008060202 0.07396919 0.13265663 -0.11748552 0.05150772 -0.13229734 0.062382773 -0.1744114
0.1784189 0.15211038 0.036618374 0.024401048 0.04965787 -0.22853264 0.040348314 0.0059724087
-0.010503808 0.041879267 -0.20091964 0.037740584 -0.01667604 -0.019268958 -0.077004455 -0.018301507
-0.042582802 0.02630102 -0.1885186 -0.12647137 0.047990885 0.09293919 -0.06716866 -0.026125375
-0.12208568 -0.027687272 0.038426273 -0.18061984 0.012928357 0.079329215 0.105166174 0.0966858
0.07504573 0.08384558 -0.0005295973 -0.25880325 0.016872156 -0.06419685 0.1016556 -0.013955006
-0.1825798 0.24535318 0.14493366 -0.013110218 0.028639514 -0.05890934 -0.13467005 -0.05530504
0.18520819 -0.0058247605 -0.10408168 0.094618835 -0.09991889 0.0522466 0.032038752 0.007346931
0.02271661 0.13086805 0.112517245 -0.059933223 0.09576554 -0.07035725 -0.01692101 -0.07553485
0.07584658 0.032114536 -0.002293046 0.08232513 0.07248982 -0.096360445 0.03419022 -0.1448683
0.14162901 -0.11385233 0.09491545 -0.055252194 -0.10232648 -0.15527263 0.037072737 -0.045111287
0.12996514 -0.0041332096 0.04753978 0.08618931 -0.22965093 -0.061867025 -0.039860502 0.07629199
0.13818258 0.07696888 0.11728733 -0.000945033 -0.09662358 0.08121318 -0.05291575 0.048602555
-0.054904897 0.11094635 -0.010897633 0.08269359 0.15572324 0.045195796 0.13535522 0.12583065
-0.0847402 0.0968377 0.03193449 -0.03977646 0.10636648 -0.13954249 -0.177117 0.07345873
0.11431709 -0.15187609 -0.14112805 0.15867567 -0.016691454 0.0472269 -0.07912141 -0.07740259
-0.11559488 -0.075775206 0.0074289907 -0.14242809 -0.082816966 0.053747013 0.0028831202 -0.039851647

fc2.bias f4 [84]
00000000: 6574 72bc bacc 1fbd a7ec 303d c68b 09bd
00000010: ae7c 58bd fee0 2ebd 83f1 b23c e15f 17bd
00000020: 1f3d 163d e87f c1bc 7474 87bd e0ab a4bc
00000030: 0c08 7b3d 990f a43d 87d4 4fbc 2995 7f3d
00000040: f1f1 78bc 9618 c53d 0101 a2bd 5b8a 8b3c
00000050: a29b ac3d 7970 2ebd a069 01bd a5bb 4e3d
00000060: 3669 183d 6e41 603d cc92 a0bd 7d9b c4bd
00000070: 0071 1cbd 64b1 5ebd 7a23 8ebb c25c 97bc
00000080: 0310 963c 9287 96bd 21b4 09bc 9aa8 8e3d
00000090: 66a2 673d 8734 20bd 0285 7bbd 6ab1 783d
000000a0: 01e1 5bbd d159 9ebd c8b2 da3c cb33 05bc
000000b0: bc16 573d 14d8 913d 1d49 8dbd 9439 943c
000000c0: 330e 383d 93ab 103d a5f9 573d 7929 3d3c
000000d0: 95c9 0e3d 9c23 903d 3c79 7fbd 1425 32bd
000000e0: 04ac 883c ea32 b1bd 5e61 8e3d e804 c23d
000000f0: b920 783b d41b 32bd ed67 99bc 08b5 90bd
00000100: d504 a13c 78e3 033d 5793 97ba 74c8 0cbd
00000110: 3452 9f3d 5206 d5bc 9d92 8dbc 6820 323d
00000120: 140f c53d 5cb0 973d 4fde c23c cd4e d23c
00000130: da83 bebc b7d5 673d 65e9 4d3a c2b9 733d
00000140: 76fd 17bd 8e0f a83d 6138 913d b721 92bc
-0.014798258 -0.0390136 0.04319444 -0.033580564 -0.05285328 -0.042695038 0.021843677 -0.03695667
0.036679383 -0.02362056 -0.066140085 -0.020101488 0.06128697 0.080107875 -0.012684948 0.06239811
-0.015194402 0.0962383 -0.07910348 0.017033746 0.08428122 -0.04258773 -0.031594872 0.05047192
0.037209712 0.0547499 -0.07840499 -0.095999695 -0.038193703 -0.05436839 -0.004337725 -0.018476848
0.018318182 -0.07350077 -0.0084047625 0.06965752 0.05655136 -0.039112594 -0.061406143 0.06071607
-0.053681377 -0.07731975 0.026696578 -0.008130024 0.052511916 0.07121292 -0.06898711 0.018093862
0.044935416 0.035319876 0.052728314 0.011545532 0.034860212 0.07038042 -0.062371477 -0.04349239
0.016683586 -0.08652289 0.06952165 0.09473592 0.00378613 -0.04348357 -0.018726313 -0.07065779
0.019655624 0.032199353 -0.0011564296 -0.034370854 0.07779351 -0.02600399 -0.017281825 0.043487936
0.096220165 0.07406685 0.023787646 0.02567234 -0.023256231 0.0566003 0.0007854908 0.059503324
-0.037106954 0.08206092 0.070908315 -0.017838342
