models/Dropout_final.pth (torch, 250853 bytes, 10 tensors)

conv1.weight f4 [6, 1, 5, 5]
-0.14419939 0.2485468 -0.16847984 -0.011477644 -0.2965858 -0.014081071 0.09562793 0.13336422
-0.219402 -0.2484877 0.40781403 -0.1045616 -0.24540898 -0.30310586 -0.21829136 0.31395555
0.16626117 -0.087035686 -0.09483573 -0.055077262 0.22697946 0.031836703 0.09490451 -0.06787725
0.032318376 -0.40349093 0.13247693 0.12906733 0.040575743 -0.090327695 -0.13121197 0.033186663
0.14799905 0.02165917 -0.029851118 -0.1523908 -0.02209657 0.08644181 0.20206864 0.11091797
-0.07209222 0.18327384 0.046699688 0.21250445 0.035057906 -0.04391726 0.09852699 0.3251814
0.20045993 0.017431691 0.0057371943 -0.04477542 -0.0073615783 0.23267612 -0.38154128 0.06099428
-0.199443 0.21689127 0.117333375 -0.6202313 -0.24543367 0.22275008 0.15763703 0.21510628
-0.382411 0.1681072 0.16338125 0.17072938 0.31020507 -0.3385173 0.00056676555 0.009749669
0.2227219 0.00658764 -0.006550042 0.15118843 -0.14384353 -0.03740405 0.11398235 -0.047619727
0.18423393 -0.33185822 0.059072424 0.017716007 0.07935101 -0.15484491 -0.3024579 -0.28198382
0.27588746 0.4469283 0.08723905 -0.2680084 -0.47228992 0.4583062 0.18229052 -0.21827394
-0.3180494 0.27510703 0.32683122 -0.079942174 -0.075636424 -0.5003359 -0.51273096 -0.28576133
-0.18697034 0.118621394 -0.3785983 -0.17772208 -0.05645332 -0.08337349 0.015253086 0.2146497
0.25920004 0.14511782 0.23105858 0.10672306 0.3671363 0.18692112 0.048309203 -0.06527821
-0.058615465 0.30406773 0.20971942 0.11262272 0.18747613 0.1400644 0.13415512 0.15908912
0.048216194 -0.10784065 -0.1290528 -0.016181275 0.12879142 0.11495783 0.07808537 -0.18916178
-0.21711484 -0.22327372 0.11725193 0.03973066 -0.23760782 -0.5137684 -0.33394265 -0.2141643
-0.065965004 -0.05633948 -0.026317932 -0.1272065 -0.08851281 0.11755696
00000000: 01a9 13be 0d83 7e3e fb85 2cbe ba0c 3cbc
00000010: 18da 97be 4bb4 66bc 93d8 c33d a190 083e
00000020: ebaa 60be 8f73 7ebe 00cd d03e 6424 d6bd
00000030: 7e4c 7bbe b130 9bbe c587 5fbe c8be a03e
00000040: 5e40 2a3e c43f b2bd 3c39 c2bd b298 61bd
00000050: 4e6d 683e 3467 023d 4c5d c23d 3a03 8bbd
00000060: 4660 043d 5d96 cebe 08a8 073e 3a2a 043e
00000070: c032 263d bafd b8bd 6e5c 06be bdee 073d
00000080: 108d 173e 926e b13c 558a f4bc 550c 1cbe
00000090: de03 b5bc 6708 b13d 15eb 4e3e f628 e33d
000000a0: 16a5 93bd 23ac 3b3e 2c48 3f3d c49a 593e
000000b0: e198 0f3d 96e2 33bd 85c8 c93d 2d7e a63e
000000c0: 5e45 4d3e e8cc 8e3c 13ff bb3b 6e66 37bd
000000d0: 6539 f1bb a642 6e3e 6159 c3be 23d5 793d
000000e0: c93a 4cbe bf18 5e3e 7b4c f03d 7ac7 1ebf
000000f0: f752 7bbe 9918 643e 9a6b 213e d244 5c3e
00000100: 60cb c3be 4b24 2c3e 6a4d 273e afd3 2e3e
00000110: 33d3 9e3e 2452 adbe fe92 143a 13bd 1f3c
00000120: 3611 643e 21dd d73b bca1 d6bb 24d1 1a3e
00000130: b84b 13be fd34 19bd 946f e93d e70c 43bd
00000140: d2a7 3c3e 52e9 a9be edf5 713d 2921 913c
00000150: c882 a23d aa8f 1ebe c3db 9abe 2f60 90be
00000160: 1f41 8d3e c9d3 e43e 63aa b23d 6638 89be
00000170: fccf f1be 1ca7 ea3e 5eaa 3a3e 3483 5fbe
00000180: 5fd7 a2be d4da 8c3e 6c56 a73e b9b8 a3bd
00000190: 45e7 9abd 0316 00bf 5642 03bf 4f4f 92be
000001a0: 2775 3fbe c6ef f23d a3d7 c1be c7fc 35be
000001b0: 993b 67bd b8bf aabd 14e8 793c 22cd 5b3e
000001c0: deb5 843e c499 143e 9f9a 6c3e 9f91 da3d
000001d0: 4af9 bb3e 4068 3f3e dfdf 453d 95b0 85bd
000001e0: c516 70bd c4ae 9b3e b0c0 563e bea6 e63d
000001f0: bef9 3f3e 0b6d 0f3e f65f 093e 42e8 223e
00000200: 587e 453d 8fdb dcbd 6b26 04be 988e 84bc
00000210: e6e1 033e 036f eb3d 39eb 9f3d a0b3 41be
00000220: 5a53 5ebe dea1 64be c821 f03d 9ebc 223d
00000230: 774f 73be 5386 03bf 88fa aabe e34d 5bbe
00000240: a918 87bd 3ac4 66bd b498 d7bc 6c42 02be
00000250: 3446 b5bd b4c1 f03d

conv1.bias f4 [6]
-0.28209606 -0.12944703 -0.027249908 -0.026488274 0.043197203 -0.8694102
00000000: e56e 90be c38d 04be 333b dfbc f0fd d8bc
00000010: 8def 303d ab91 5ebf

conv2.weight f4 [16, 6, 5, 5]
0.20703287 -0.4880708 -0.77987015 0.10342381 0.23350322 0.11244755 -0.2670648 -0.041967448
0.16334057 0.08483612 -0.020210493 -0.24341148 0.040193338 0.019011868 -0.060317487 -0.03241122
0.0038761008 -0.27955636 0.042128097 -0.08920921 -0.066644385 0.20259243 -0.13356256 0.025119245
-0.24490348 -0.30692443 -0.011561485 -0.079512715 -0.2029962 -0.05559035 -0.31657526 -0.063798554
0.06504943 -0.08129194 -0.08909695 0.1428151 0.0392272 -0.026515571 0.040139485 -0.012885537
-0.019086706 -0.12978029 0.21686797 -0.021486832 0.032080814 -0.01964848 -0.08971487 -0.08579408
0.10486832 0.07835288 -0.33057636 -0.3700486 -0.026321588 -0.07274932 0.14477973 0.028015304
-0.3031926 -0.10656191 0.2454045 0.23014025 -0.378878 0.2642965 0.12620185 0.105669804
-0.04318021 -0.17464288 -0.05740267 -0.09187218 -0.019799348 0.026668116 0.022221971 -0.07492329
-0.022137316 0.064258106 -0.22542028 0.0703565 0.23172739 0.1490518 -0.12084656 0.036282152
0.032411415 -0.011972421 0.13223481 0.1372881 0.13652079 0.09498099 -0.06327756 0.010108183
0.064401925 0.11798221 0.08364678 -0.07251182 -0.092950046 -0.129471 -0.059554566 -0.07784407
-0.19090855 -0.23337504 -0.27914426 -0.008132569 -0.18683742 0.053454455 -0.029127149 -0.18464886
-0.23062828 0.4227679 0.47229528 -0.124905914 -0.122944966 0.14138058 -0.14905551 -0.3078474
-0.09897671 -0.027776834 -0.496323 -0.04565246 0.22575521 -0.027091688 0.043645825 0.15242408
0.16338848 0.095995836 -0.14722458 -0.06557351 0.19064438 0.29959738 0.23047611 -0.021202987
-0.14035884 -0.020151742 0.018287437 -0.082436934 -0.10836022 0.07116915 -0.046400066 0.039488256
0.05376126 -0.05438979 -0.0763547 -0.048818868 0.12496322 0.08314802 -0.046662245 -0.001849087
0.07149348 -0.12093488 0.076624736 0.24064173 -0.13548933 -0.11238269 -0.30423927 -0.48992762
-0.13681436 -0.03097699 0.08531315 -0.051352862 -0.10912737 -0.1426633 0.06626355 0.19741021
0.096616745 0.031472772 -0.06878745 -0.12261349 -0.11147551 -0.13644394 0.18883628 0.16257359
0.016149584 -0.20730752 0.061223272 0.053123485 -0.05450899 0.26506695 -0.18316716 0.041445054
-0.053550277 -0.008123302 -0.02212236 -0.08761195 -0.16049306 -0.018221652 0.094048254 -0.11527679
-0.1540293 -0.067993924 -0.042678807 -0.08330124 -0.02435716 0.17223434 -0.03236978 0.022365244
0.0060180663 0.17862841 0.21240732 -0.06134386 0.041758027 -0.19012508 -0.0671794 -0.2713212
0.06667962 -0.042500924 0.04781232 0.06557183 -0.04013673 0.10375055 -0.05621223 0.04562599
0.15178622 0.1216775 0.25307703 0.17687272 -0.18447241 -0.09356248 0.110518284 -0.07989707
0.18271425 0.1318749 -0.07733378 0.15239736 -0.029966645 -0.11393202 0.004309198 -0.2862179
-0.13303114 0.0663237 -0.2819145 -0.097591035 0.00201493 -0.34752756 0.15042998 -0.081731126
0.08649008 -0.1153149 -0.030403933 0.1046456 -0.039805252 0.045832634 0.0566293 0.20627192
0.17819333 0.020750528 0.09486087 -0.2907571 0.007901638 0.009009338 0.07375804 -0.37642884
-0.42049515 -0.12200814 -0.16663678 0.048970588 -0.0062501733 -0.030562108 -0.17291112 0.24145226
00000000: 6d00 543e 6ae4 f9be 92a5 47bf ddcf d33d
00000010: 781b 6f3e e74a e63d b8bc 88be 0fe6 2bbd
00000020: c042 273e 8fbe ad3d 7a90 a5bc dc40 79be
00000030: c5a1 243d c7be 9b3c 780f 77bd a1c1 04bd
00000040: 2e06 7e3b 0322 8fbe 838e 2c3d 51b3 b6bd
00000050: da7c 88bd 6474 4f3e a0c4 08be e0c6 cd3c
00000060: fac7 7abe 3325 9dbe 626c 3dbc 90d7 a2bd
00000070: 3cde 4fbe b5b2 63bd 2716 a2be d1a8 82bd
00000080: a338 853d 637c a6bd 7678 b6bd 1f3e 123e
00000090: b3ac 203d 2f37 d9bc 4d69 243d dc1d 53bc
000000a0: b95b 9cbc 20e5 04be a312 5e3e 2705 b0bc
000000b0: 2c67 033d d9f5 a0bc 6ebc b7bd ceb4 afbd
000000c0: 34c5 d63d 7a77 a03d 4e41 a9be 0377 bdbe
000000d0: 5fa0 d7bc 98fd 94bd 2341 143e 5a80 e53c
000000e0: 0f3c 9bbe 213d dabd 514b 7b3e e3a9 6b3e
000000f0: 4cfc c1be df51 873e 0f3b 013e 6969 d83d
00000100: bbdd 30bd 95d5 32be 101f 6bbd 7b27 bcbd
00000110: 3e32 a2bc 1877 da3c da0a b63c 6271 99bd
00000120: 5159 b5bc c199 833d 93d4 66be 1217 903d
00000130: f249 6d3e 09a1 183e 677e f7bd 989c 143d
00000140: d5c1 043d f927 44bc 9068 073e 4095 0c3e
00000150: 1bcc 0b3e 6585 c23d aa97 81bd cb9c 253c
00000160: 28e5 833d a8a0 f13d 014f ab3d 1481 94bd
00000170: 985c bebd 0c94 04be 7def 73bd b66c 9fbd
00000180: 887d 43be def9 6ebe ffeb 8ebe 773e 05bc
00000190: 4f52 3fbe 0ff3 5a3d 0f9c eebc 9714 3dbe
000001a0: d229 6cbe 0975 d83e b0d0 f13e acce ffbd
000001b0: 92ca fbbd 12c6 103e 02a2 18be 2d9e 9dbe
000001c0: 4db4 cabd 3e8c e3bc 0c1e febe 13fe 3abd
000001d0: 602c 673e 63ef ddbc f7c5 323d 0f15 1c3e
000001e0: 4f4f 273e 7799 c43d 0ac2 16be 684b 86bd
000001f0: 4838 433e d464 993e ee01 6c3e e3b1 adbc
00000200: 3aba 0fbe 4415 a5bc 89cf 953c b2d4 a8bd
00000210: f7eb ddbd 22c1 913d ff0d 3ebd 70be 213d
00000220: c434 5c3d d4c7 5ebd da5f 9cbd 4bf6 47bd
00000230: b7ec ff3d 8249 aa3d e920 3fbd 105d f2ba
00000240: 2c6b 923d b5ac f7bd 6eed 9c3d c96a 763e
00000250: b7bd 0abe e528 e6bd 40c5 9bbe cbd7 fabe
00000260: 1019 0cbe 75c3 fdbc a9b8 ae3d 6157 52bd
00000270: 2c7e dfbd 5416 12be 2fb5 873d e725 4a3e
00000280: 00df c53d 98e9 003d 6fe0 8cbd c81c fbbd
00000290: 464d e4bd f6b7 0bbe 4c5e 413e b179 263e
000002a0: 224c 843c 6c48 54be 41c5 7a3d 0398 593d
000002b0: d244 5fbd dbb6 873e 2c90 3bbe 4ac2 293d
000002c0: 8957 5bbd 9917 05bc f439 b5bc e56d b3bd
000002d0: 4b58 24be 9345 95bc 5f9c c03d 3d16 ecbd
000002e0: dbb9 1dbe 6640 8bbd f9cf 2ebd d799 aabd
000002f0: ab88 c7bc 335e 303e 2d96 04bd 5137 b73c
00000300: 3333 c53b 5eea 363e 4e81 593e b343 7bbd
00000310: 770a 2b3d 26b0 42be 5a95 89bd 9dea 8abe
00000320: 538f 883d 7315 2ebd dad6 433d 864a 863d
00000330: 6966 24bd 2b7b d43d cc3e 66bd 51e2 3a3d
00000340: d96d 1b3e 0e32 f93d 5093 813e 1f1e 353e
00000350: 56e6 3cbe af9d bfbd 6957 e23d 13a1 a3bd
00000360: 7219 3b3e 370a 073e 2c61 9ebd 0e0e 1c3e
00000370: 9c7c f5bc 3155 e9bd 2c34 8d3b 278b 92be
00000380: 5139 08be b8d4 873d 1957 90be cfdd c7bd
00000390: ea0c 043b 22ef b1be 510a 1a3e a662 a7bd
000003a0: b621 b13d 382a ecbd ab11 f9bc 6f50 d63d
000003b0: d50a 23bd 00bb 3b3d 20f4 673d f238 533e
000003c0: 5078 363e 03fd a93c 6a46 c23d 1dde 94be
000003d0: df75 013c e79b 133c 750e 973d 48bb c0be
000003e0: 244b d7be 67df f9bd d5a2 2abe 6295 483d
000003f0: 41ce ccbb 635d fabc 9d0f 31be 433f 773e

conv2.bias f4 [16]
-0.22557 -0.020907078 -0.11075071 0.22427353 0.33250827 0.21867628 0.09269539 -0.2466851
-0.13907981 -0.116808824 0.41517034 0.057244796 0.21698244 0.10394773 -0.44194326 0.021241087
00000000: d2fb 66be 5245 abbc 45d1 e2bd f6a7 653e
00000010: 863e aa3e adec 5f3e 15d7 bd3d 059b 7cbe
00000020: f06a 0ebe 7739 efbd 3591 d43e 8579 6a3d
00000030: a530 5e3e 8ce2 d43d 6346 e2be ca01 ae3c

fc1.weight f4 [120, 400]
-0.099742875 0.05700791 0.2901973 -0.00030790502 0.07048759 -0.04556111 0.051410325 0.23648219
-0.18623228 -0.042149052 -0.044413593 0.10613478 -0.09832009 -0.27192312 -0.020146444 0.08621937
0.11324418 -0.08373183 0.15196253 0.12648243 0.099095404 -0.32925746 -0.1730405 -0.30488616
0.02663911 0.03233061 0.007966165 0.02495437 -0.024815848 -0.2035216 -0.16175173 0.01564651
-0.06071208 0.031593077 0.0046832017 0.14763618 -0.05564323 -0.15778352 -0.015282839 -0.1225225
0.14784963 0.02679125 0.10141211 -0.10485043 -0.064876124 -0.10296262 -0.33187214 -0.19921255
-0.077118725 0.05387542 -0.31908765 0.047265105 0.19908404 0.04865698 -0.07179783 -0.09183303
0.02336341 0.12811276 -0.036351565 0.00032093262 -0.1453677 -0.013829768 -0.079662375 0.08338067
0.013311285 -0.003525071 -0.045977585 -0.12778233 0.0031117105 -0.017823255 0.19205344 -0.006652139
0.062011264 0.032585975 0.08111641 -0.10032127 -0.25830388 -0.054365326 -0.20441757 -0.07194165
-0.18085232 -0.13216387 -0.085642494 -0.13906705 -0.12840797 0.22329576 -0.07499018 0.17268945
-0.20004565 0.09189445 0.066768184 -0.1534462 -0.0131827835 -0.16413154 -0.10694613 0.033128247
0.080960594 -0.17360407 -0.22304739 0.09858408 -0.02324914 -0.23831744 -0.1425871 -0.19138405
-0.23542075 0.030078957 -0.26878288 -0.20818141 0.120195195 0.027652012 -0.10836244 -0.07860397
-0.17343399 -0.020396173 -0.11005278 -0.028925292 0.04826866 -0.16935092 -0.1110027 0.0431888
0.07594401 0.034489732 -0.05358014 0.0807446 0.10934915 0.010676632 0.008108246 0.063835666
0.011584861 0.048723716 0.052189484 0.039663915 -0.30579245 -0.07458897 0.05084164 0.0072904443
-0.1487371 -0.31455904 -0.12591349 -0.1499643 0.029642964 -0.07442183 -0.11623788 0.026679685
0.12391923 0.073698975 -0.27419156 -0.4752785 0.0782193 0.073788986 -0.26322502 0.1340303
-0.035120137 0.2574411 0.18685034 -0.04249079 0.012573064 0.19770634 0.096974 -0.0020477616
-0.07797325 -0.025586788 0.09288734 0.13020703 0.039789695 -0.05257523 -0.1970899 0.118650876
-0.0029618083 -0.05008417 0.016171379 0.04883135 0.08647998 -0.06022531 -0.01658408 0.124948315
-0.1029083 -0.020943379 0.11534486 -0.21998656 0.036445946 -0.2537359 0.30668947 0.4378349
-0.18396181 0.049160037 -0.022224665 0.16665128 -0.039324556 -0.1587233 -0.016102834 -0.10870699
0.23011923 0.12089379 0.077943906 -0.0683233 -0.119860366 -0.034107123 0.06153357 0.13511288
0.15644208 0.011099458 0.13034979 -0.03097853 -0.028429903 -0.026086403 -0.046813402 -0.16714893
-0.049051374 -0.0049323146 0.13604447 -0.1373371 -0.1715416 0.0997538 0.10851159 -0.013722946
0.112832926 -0.034610856 0.019603042 0.1454265 0.167187 0.040332522 0.082854085 0.10665324
0.0460353 -0.02091487 0.05306731 -0.057936348 0.0821635 -0.08653526 0.12714508 -0.038854856
-0.0077541377 0.076880164 -0.040585794 0.12884045 -0.19011511 -0.12422203 0.17027089 0.1343448
-0.024478786 -0.020209357 0.0055616195 0.13448523 -0.03225122 -0.10623775 -0.0902958 -0.03471486
0.02518959 -0.06668665 -0.08150961 0.3482186 -0.027508577 -0.1648599 -0.05242847 -0.012485187
00000000: fe45 ccbd 2081 693d be94 943e 506e a1b9
00000010: cc5b 903d 499e 3abd a293 523d 6328 723e
00000020: adb3 3ebe 7ca4 2cbd 07eb 35bd 315d d93d
00000030: 0b5c c9bd 8239 8bbe 280a a5bc c893 b03d
00000040: 91ec e73d 987b abbd 119c 1b3e 9c84 013e
00000050: 88f2 ca3d 6f94 a8be 8731 31be 0a1a 9cbe
00000060: 433a da3c 1a6d 043d 8584 023c 1b6d cc3c
00000070: 9b4a cbbc f767 50be 3fa2 25be 1c2d 803c
00000080: 3bad 78bd be67 013d 8b75 993b f02d 173e
00000090: 28ea 63bd 0192 21be df64 7abc 14ed fabd
000000a0: e565 173e 5379 db3c 27b1 cf3d d2bb d6bd
000000b0: c6dd 84bd 11de d2bd 25eb a9be 60fe 4bbe
000000c0: 6cf0 9dbd 79ac 5c3d 755f a3be 0e99 413d
000000d0: b0dc 4b3e 8b4c 473d be0a 93bd f512 bcbd
000000e0: 9f64 bf3c fe2f 033e 61e5 14bd d942 a839
000000f0: 45db 14be 4096 62bc 0726 a3bd 7cc3 aa3d
00000100: 9317 5a3c e104 67bb fe52 3cbd 5fd9 02be
00000110: d7ed 4b3b 1302 92bc a8a9 443e 30fa d9bb
00000120: 86ff 7d3d df78 053d 5c20 a63d 3d75 cdbd
00000130: 6840 84be 2dae 5ebd d752 51be 2556 93bd
00000140: 5a31 39be f755 07be 5565 afbd 9867 0ebe
00000150: 617d 03be a5a7 643e 7494 99bd 81d5 303e
00000160: c4d8 4cbe 2833 bc3d c2bd 883d 0021 1dbe
00000170: 9afc 57bc 1912 28be 9306 dbbd 7cb1 073d
00000180: abce a53d 44c5 31be 8966 64be 73e6 c93d
00000190: fb74 bebc 7d09 74be 5a02 12be 2efa 43be
000001a0: 2312 71be 2568 f63c e99d 89be 822d 55be
000001b0: e628 f63d 7986 e23c 20ed ddbd 1efb a0bd
000001c0: ae98 31be e015 a7bc 5a63 e1bd bcf4 ecbc
000001d0: 5cb5 453d 546a 2dbe 6255 e3bd bde6 303d
000001e0: 8888 9b3d 1b45 0d3d d976 5bbd 6d5d a53d
000001f0: 72f2 df3d 0aed 2e3c 73d8 043c 46bc 823d
00000200: 6ece 3d3c 8592 473d a4c4 553d a176 223d
00000210: d490 9cbe 1ac2 98bd 533f 503d aee4 ee3b
00000220: 8a4e 18be e20d a1be 77ef 00be 3e90 19be
00000230: cdd5 f23c 796a 98bd 200e eebd 5b8f da3c
00000240: 5ec9 fd3d 7def 963d d662 8cbe b457 f3be
00000250: 7131 a03d ae1e 973d 6ec5 86be 3d3f 093e
00000260: 22da 0fbd 52cf 833e b255 3f3e d30a 2ebd
00000270: 41ff 4d3c 8873 4a3e 4e9a c63d bd33 06bb
00000280: 70b0 9fbd 629b d1bc b83b be3d fe54 053e
00000290: 85fa 223d 2059 57bd efd1 49be 3bff f23d
000002a0: e61a 42bb 0f25 4dbd d779 843c 6203 483d
000002b0: 6a1c b13d d1ae 76bd 56db 87bc e7e4 ff3d
000002c0: 96c1 d2bd 7391 abbc ed39 ec3d 2844 61be
000002d0: 5848 153d ace9 81be 6706 9d3e e52b e03e
000002e0: 7c60 3cbe 095c 493d 8010 b6bc a2a6 2a3e
000002f0: c912 21bd 5c88 22be 17ea 83bc c5a1 debd
00000300: 60a4 6b3e 2a97 f73d 0ea1 9f3d 16ed 8bbd
00000310: 5a79 f5bd e9b3 0bbd a00a 7c3d 085b 0a3e
00000320: 5a32 203e 80da 353c 6a7a 053e b0c6 fdbc
00000330: d4e5 e8bc 27b3 d5bc 69bf 3fbd 1729 2bbe
00000340: 18ea 48bd 419f a1bb 3e4f 0b3e 19a2 0cbe
00000350: 9aa8 2fbe b84b cc3d 533b de3d 35d6 60bc
00000360: f314 e73d 1dc4 0dbd 8f96 a03c afea 143e
00000370: 1233 2b3e b733 253d 67af a93d 046d da3d
00000380: 838f 3c3d a955 abbc 1c5d 593d aa4e 6dbd
00000390: 5645 a83d 6639 b1bd 5232 023e 4526 1fbd
000003a0: 6c16 febb 5973 9d3d 4a3d 26bd c0ee 033e
000003b0: 89ad 42be 1f68 febd 7e5b 2e3e af91 093e
000003c0: bc87 c8bc 188e a5bc 3f3e b63b 7fb6 093e
000003d0: db19 04bd 2d93 d9bd 01ed b8bd 2b31 0ebd
000003e0: 665a ce3c 0393 88bd 83ee a6bd b549 b23e
000003f0: ab59 e1bc 09d1 28be 3cbf 56bd ab8e 4cbc

fc1.bias f4 [120]
0.0488404 -0.03709182 -0.010519785 -0.056507144 -0.045600917 -0.034160953 0.21755503 -0.059380766
-0.07138171 -0.07271935 0.032319125 0.040913336 0.08095078 -0.03503692 -0.038922373 -0.06401701
0.09992047 0.022748262 0.027258009 -0.026836764 0.049606998 -0.013957146 -0.0008828171 -0.05620811
-0.009312329 -0.010236143 0.0015866372 0.022047622 0.055197246 0.02736934 0.036491767 0.0011540693
-0.0027203867 0.15088241 -0.04854591 -0.065565616 0.040275536 0.00037798396 -0.008976538 -0.039007563
0.006690092 -0.0898686 0.109849 -0.070938304 -0.027371885 -0.015811428 -0.0019790973 -0.05047348
0.02295818 -0.03650099 0.15555727 0.020414913 -0.027224792 0.08390729 0.110135324 -0.04737605
-0.15495953 0.047811884 -0.07034651 -0.040785044 0.07456529 0.056726847 -0.014787759 0.054619372
0.08929799 -0.088140845 0.023915308 0.017381167 -0.028238028 -0.025255166 0.066556506 -0.0172399
-5.665081e-06 0.008045397 -0.030089319 -0.035362434 0.124080285 0.09398109 -0.11407606 0.018064076
-0.069683306 0.0052226824 -0.01523146 -0.03155914 -0.0012936842 -0.034152642 0.124605864 -0.048277073
-0.026248498 0.019491008 0.06625755 -0.04092289 0.07511952 -0.06827608 0.048806876 -0.057040047
-0.05862468 0.034747023 -0.03287702 0.018272957 0.010002002 -0.074271575 0.0117453 0.029087437
-0.057327762 0.012322821 -0.0046361154 -0.11329709 -0.029714946 -0.09088085 0.060997248 0.09921435
-0.053044476 0.026088761 -0.00025229284 -0.065009415 -0.0038138898 0.06406243 0.0010872558 -0.06321252
00000000: df0c 483d 98ed 17bd 2d5b 2cbc 0974 67bd
00000010: 07c8 3abd 5bec 0bbd bfc6 5e3e 3f39 73bd
00000020: 9330 92bd e2ed 94bd 0f61 043d be94 273d
00000030: 86c9 a53d e082 0fbd 116d 1fbd 5a1b 83bd
00000040: 1aa3 cc3d 905a ba3c 304c df3c c6d8 dbbc
00000050: b530 4b3d 83ac 64bc da6c 67ba 7a3a 66bd
00000060: bd92 18bc 7fb5 27bc b6f6 cf3a 379d b43c
00000070: 8216 623d ab35 e03c 6478 153d 2444 973a
00000080: 8448 32bb eb80 1a3e 13d8 46bd 4447 86bd
00000090: f6f7 243d 262c c639 5412 13bc 65c6 1fbd
000000a0: 8f38 db3b 070d b8bd 83f8 e03d 1a48 91bd
000000b0: 013b e0bc f886 81bc beb3 01bb 48bd 4ebd
000000c0: cb12 bc3c 1082 15bd 684a 1f3e 2d3d a73c
000000d0: 8706 dfbc 96d7 ab3d a18e e13d 640d 42bd
000000e0: b6ad 1ebe 65d6 433d d511 90bd 380e 27bd
000000f0: b0b5 983d 695a 683d 5b48 72bc 90b8 5f3d
00000100: dde1 b63d 3083 b4bd 09ea c33c f362 8e3c
00000110: 7053 e7bc ece3 cebc c74e 883d b13a 8dbc
00000120: ad16 beb6 d7d0 033c e07d f6bc 33d8 10bd
00000130: ce1d fe3d 2879 c03d b6a0 e9bd 1dfb 933c
00000140: 1fb6 8ebd 0923 ab3b 608d 79bc 2844 01bd
00000150: d790 a9ba a4e3 0bbd 5c31 ff3d 2ebe 45bd
00000160: 1707 d7bc 9bab 9f3c 0ab2 873d c39e 27bd
00000170: 43d8 993d 54d4 8bbd b8e9 473d d3a2 69bd
00000180: 6f20 70bd e552 0e3d 0eaa 06bd 2bb1 953c
00000190: 70df 233c b21b 98bd 5c6f 403c c748 ee3c
000001a0: 84d0 6abd a8e5 493c 8eea 97bb 4e08 e8bd
000001b0: c26c f3bc bd1f babd 40d8 793d e530 cb3d
000001c0: 2a45 59bd 19b8 d53c 2c46 84b9 a823 85bd
000001d0: 74f2 79bb 2a33 833d 4082 8e3a 9175 81bd

fc2.weight f4 [84, 120]
0.040903635 0.017688554 0.017629 0.08216198 -0.007249181 -0.23349646 -0.027898869 -0.03953304
-0.25867385 0.07550146 0.1317252 0.16300443 -0.14748427 -0.0997279 0.065114155 0.062740736
-0.0004594684 -0.1456449 0.19293591 -0.18268222 -0.01981954 0.009358541 -0.028408205 0.09114827
-0.1779601 -0.028668066 0.039728057 -0.084791005 -0.2977661 0.006840251 -0.13903809 0.076101385
-0.0040496797 0.06528351 0.12351565 0.045005564 0.043230336 -0.049412705 -0.05540964 -0.0685272
0.029488932 0.072061814 -0.040489797 -0.33760193 -0.076277785 0.29939193 0.04288991 0.009817241
0.06980848 -0.08014361 -0.29809675 -0.060599364 0.10271245 0.3272228 -0.036392864 0.024164284
0.1196756 0.049981393 -0.28780258 0.018483177 0.06157697 -0.15235278 -0.092837036 0.053956807
0.026305929 0.046265736 0.0035779006 -0.054952864 0.036197785 -0.14193204 -0.23247656 -0.19507422
0.08754951 0.06494351 0.028951714 -0.15077445 0.029543338 0.06777417 -0.40039656 0.076457195
-0.0048301723 -0.02840488 -0.44419405 -0.04218536 0.36062115 -0.11326829 -0.011723386 0.1291455
-0.23935446 0.0010285763 0.15214749 -0.25402653 0.053564478 -0.31292006 0.26618093 -0.15058254
0.06347225 -0.058812976 -0.34317482 0.2212111 0.07518021 -0.237539 0.09179572 -0.40600443
0.023442766 0.045912612 0.07536622 -0.3625706 0.10047071 0.029469457 -0.2956664 -0.048760496
-0.049040876 -0.009606031 0.08481727 -0.16224769 -0.20697665 0.27194005 0.04941723 0.12453641
-0.010212986 -0.17511469 -0.07819979 0.14973366 -0.058083437 -0.058593415 0.039693613 0.041537512
-0.25165844 0.32515633 -0.10713543 0.029404106 0.08511558 -0.06373131 0.02201189 0.09868661
-0.1758045 -0.40708414 -0.19290398 0.048281133 0.2825807 0.06257583 0.029148791 0.03811242
-0.0050022868 -0.075267464 0.100206174 -0.19211663 -0.1266361 -0.03077679 0.16203317 0.036243536
0.06944537 -0.010259328 -0.011439676 0.039882988 0.067196555 -0.0065157954 0.015268476 -0.31312722
0.3690038 0.015397388 -0.0050985627 0.17461132 -0.05276289 -0.013024013 -0.016327476 0.05593918
0.016413176 0.10394824 -0.31842038 -0.027045622 -0.041181773 -0.0018552501 0.004042268 0.090225674
-0.08170116 0.0052901735 -0.43048665 -0.00077616173 -0.09543469 -0.16469021 -0.055754945 0.07384992
0.21590327 -0.01446497 -0.08108077 -0.02787977 -0.02969722 -0.07881818 0.088728614 -0.020369364
0.044803545 0.008340631 0.012204627 -0.30641657 0.02659365 0.020341892 -0.40557846 0.39319697
0.097703815 0.055691957 0.040916696 0.28876695 -0.072411954 -0.047282387 -0.07487592 0.02986829
0.0028756068 -0.25520292 -0.021417392 0.013793556 -0.01025925 -0.040630512 0.05257292 -0.370411
0.054308195 0.22337224 -0.037865702 -0.15513794 0.17969917 -0.016341804 -0.0797177 0.08916961
-0.055329796 0.013721118 -0.03555649 0.4797023 0.09654954 -0.04349854 0.031270623 -0.017650181
-0.034190077 0.13643157 0.06690147 0.420903 0.39984456 -0.09337881 0.074782275 0.08183678
-0.0032825475 -0.06862463 0.056157637 -0.07432941 -0.04028913 -0.0087225465 0.008462024 0.0065342593
0.056042135 0.0133085735 -0.42364812 -0.35709333 0.0008920899 0.016566442 0.07226779 -0.29200858
00000000: 928a 273d 96e7 903c b16a 903c 8a44 a83d
00000010: 8a8a edbb b219 6fbe 2b8c e4bc 66ed 21bd
00000020: e670 84be 82a0 9a3d f9e2 063e a2ea 263e
00000030: 1e06 17be 243e ccbd 925a 853d 377e 803d
00000040: cee4 f0b9 f023 15be fe90 453e 0c11 3bbe
00000050: 975c a2bc 9154 193c 53b8 e8bc f2ab ba3d
00000060: 2c3b 36be 4bd9 eabc e3b9 223d e8a6 adbd
00000070: cc74 98be 2f24 e03b 0060 0ebe 0bdb 9b3d
00000080: 2db3 84bb 5cb3 853d c6f5 fc3d c157 383d
00000090: 4b12 313d fa64 4abd 38f5 62bd fd57 8cbd
000000a0: c692 f13c 2595 933d a1d8 25bd 29da acbe
000000b0: 8737 9cbd e649 993e 55ad 2f3d 7ed8 203c
000000c0: c0f7 8e3d 5522 a4bd 23a0 98be 0a37 78bd
000000d0: e85a d23d bf89 a73e af10 15bd 2df4 c53c
000000e0: 7b18 f53d 4ab9 4c3d dc5a 93be 086a 973c
000000f0: 2238 7c3d 5e02 1cbe 5821 bebd d001 5d3d
00000100: 887f d73c 2481 3d3d 367b 6a3b 4116 61bd
00000110: 2144 143d a256 11be 560e 6ebe 89c1 47be
00000120: 284d b33d 1a01 853d 252c ed3c 9e64 1abe
00000130: df04 f23c 2fcd 8a3d c700 cdbe 9795 9c3d
00000140: 6c46 9ebb 5ab1 e8bc 676d e3be 8eca 2cbd
00000150: 56a3 b83e 35f9 e7bd 7213 40bc b83e 043e
00000160: 5619 75be 4bd1 863a 8dcc 1b3e c40f 82be
00000170: 6d66 5b3d 0f37 a0be de48 883e 4f32 1abe
00000180: bdfd 813d e0e5 70bd 9cb4 afbe 2a85 623e
00000190: 15f8 993d 6c3d 73be 65ff bb3d d0df cfbe
000001a0: 0b0b c03c dd0e 3c3d 9b59 9a3d dba2 b9be
000001b0: 96c3 cd3d ee69 f13c 9661 97be 16b9 47bd
000001c0: 16df 48bd 9d62 1dbc adb4 ad3d 4224 26be
000001d0: b0f1 53be ba3b 8b3e b969 4a3d f20c ff3d
000001e0: 5e54 27bc 4451 33be 3627 a0bd c853 193e
000001f0: e6e8 6dbd a6ff 6fbd c595 223d 3d23 2a3d
00000200: 60d9 80be e47a a63e d269 dbbd e1e0 f03c
00000210: 1451 ae3d 9085 82bd 4752 b43c 351c ca3d
00000220: 1806 34be 556d d0be 9f88 45be 70c2 453d
00000230: 6bae 903e c227 803d 72c9 ee3c c51b 1c3d
00000240: 39ea a3bb d425 9abd e538 cd3d 39ba 44be
00000250: e5ac 01be 9b1f fcbc 06ec 253e 1a74 143d
00000260: 6039 8e3d be16 28bc 7b6d 3bbc 585c 233d
00000270: 599e 893d 7482 d5bb a128 7a3c 3652 a0be
00000280: 11ee bc3e 5345 7c3c d811 a7bb 4fcd 323e
00000290: e61d 58bd ab62 55bc 33c1 85bc 7b20 653d
000002a0: ed74 863c d1e2 d43d ff07 a3be c88e ddbc
000002b0: 38ae 28bd dd2b f3ba 0075 843b 3dc8 b83d
000002c0: f052 a7bd 3159 ad3b bf68 dcbe 5577 4bba
000002d0: 4373 c3bd 8da4 28be 4c5f 64bd a03e 973d
000002e0: bf15 5d3e 7bfe 6cbc ad0d a6bd 1e64 e4bc
000002f0: 9647 f3bc 6d6b a1bd 59b7 b53d a7dd a6bc
00000300: ec83 373d 24a7 083c eaf5 473c a2e2 9cbe
00000310: edda d93c 0aa4 a63c fba7 cfbe 1d51 c93e
00000320: f018 c83d 401d 643d 4498 273d 43d9 933e
00000330: b84c 94bd 2dab 41bd 8c58 99bd 58ae f43c
00000340: ad74 3c3b f5a9 82be 8773 afbc 5efe 613c
00000350: 6a16 28bc 2e6c 26bd b456 573d 83a6 bdbe
00000360: 4572 5e3d b1bb 643e 1119 1bbd 7bdc 1ebe
00000370: 0f03 383e 3fdf 85bc 0943 a3bd 8e9e b63d
00000380: 7fa1 62bd 8ace 603c afa3 11bd 8a9b f53e
00000390: c4bb c53d 862b 32bd a015 003d 1d97 90bc
000003a0: e50a 0cbd b8b4 0b3e a303 893d 9980 d73e
000003b0: 6db8 cc3e 643d bfbd 7327 993d 0b9a a73d
000003c0: 0220 57bb 128b 8cbd 8d05 663d 053a 98bd
000003d0: 3706 25bd 03e9 0ebc 4da4 0a3c 571d d63b
000003e0: 708c 653d 340c 5a3c 68e8 d8be f0d4 b6be
000003f0: 24db 693a 59b6 873c 2301 943d 2682 95be

fc2.bias f4 [84]
0.10525932 0.19807547 0.31920382 0.17615847 0.31174493 0.34232026 0.23095788 0.31294394
0.14228497 0.4424504 0.09805217 0.14617987 0.20526066 0.06663861 0.49765387 0.23884597
0.2450853 0.29451272 0.03324057 0.18352063 -0.0041945167 0.35816005 0.062091455 0.14001106
0.17271343 0.11940785 0.1840187 0.20592491 0.1674561 0.12855364 0.27379543 0.16548471
0.29939148 0.06599013 0.4518033 0.30565384 0.22024488 0.3691439 0.29188305 0.20215258
0.21449389 0.07456716 0.24567643 0.2832811 0.16529156 0.41243386 0.1717006 0.06636151
0.20473897 0.06425255 0.37851992 0.32661816 0.27287278 0.29174864 0.519783 0.19275233
0.3698819 0.21451828 0.3489941 0.5515292 0.027397294 0.16204092 0.36517695 0.28904048
0.13037436 0.31539652 0.09183687 0.2570007 0.069360316 0.20691437 0.34549418 0.07003251
0.42857638 0.22768365 0.15744047 0.17446925 0.49080154 0.2379196 0.413346 -0.027682438
0.3303208 0.08518267 0.30085087 0.40337917
00000000: 3392 d73d 4cd4 4a3e af6e a33e e362 343e
00000010: 089d 9f3e 9a44 af3e 3980 6c3e 303a a03e
00000020: 27b3 113e dc88 e23e 93cf c83d 2db0 153e
00000030: da2f 523e d379 883d 7dcc fe3e 0a94 743e
00000040: a4f7 7a3e 5fca 963e 4427 083d d5ec 3b3e
00000050: 2872 89bb c160 b73e 9c53 7e3d 0f5f 0f3e
00000060: cadb 303e 1a8c f43d 666f 3c3e fbdd 523e
00000070: 9d79 2b3e 91a3 033e ea2e 8c3e d374 293e
00000080: d749 993e d525 873d c352 e73e a97e 9c3e
00000090: e087 613e 6e00 bd3e b271 953e 1601 4f3e
000000a0: 49a4 5b3e abb6 983d 9a92 7b3e 380a 913e
000000b0: 3142 293e 882a d33e 48d2 2f3e 8be8 873d
000000c0: 18a7 513e d796 833d 5dcd c13e 7f3a a73e
000000d0: fbb5 8b3e 1460 953e 8010 053f de60 453e
000000e0: 2961 bd3e aeaa 5b3e 5baf b23e 0531 0d3f
000000f0: 4a70 e03c 0eee 253e 79f8 ba3e 1dfd 933e
00000100: db80 053e a77b a13e f814 bc3d 9995 833e
00000110: c80c 8e3d 5ce1 533e 9de4 b03e 346d 8f3d
00000120: 5d6e db3e e725 693e 1338 213e 11a8 323e
00000130: 574a fb3e 32a1 733e 16a2 d33e 48c6 e2bc
00000140: cf1f a93e 4074 ae3d 2009 9a3e b787 ce3e

fc3.weight f4 [10, 84]
-0.1197002 -0.39960358 0.067849636 0.016046755 0.08371119 0.13774551 0.067572236 0.10523697
-0.2155467 0.118708536 -0.008462316 -0.059161592 -0.1961291 0.078660406 -0.16480926 0.056336295
-0.20421422 0.10259367 0.07103625 0.04139213 -0.113605894 -0.20703433 -0.12496385 -0.017981121
-0.07137155 -0.42672268 -0.21526271 -0.29750553 -0.26646525 0.12482672 -0.15161543 0.097488225
0.10342195 0.06383116 0.10303576 -0.19572222 -0.27758032 0.11200264 -0.21385327 0.12599769
-0.1754086 0.017427513 0.10391044 0.07485635 0.0014510491 0.08561138 -0.09982206 -0.20175068
-0.035290048 -0.382463 0.17062339 0.09657034 -0.3145628 0.09278893 0.091501914 0.09586713
-0.21238834 -0.27922577 0.07047674 0.09848125 0.030924171 0.098007046 0.10829132 0.12595232
-0.38651535 -0.13958678 -0.035168134 -0.010256586 -0.23117818 0.099232934 -0.21464936 -0.20665026
0.097508825 0.07816985 -0.04072595 -0.1501072 0.09130536 0.08451061 -0.15652949 0.019693393
0.12834395 -0.04647689 -0.28611487 -0.21235618 -0.12649924 -0.44709033 -0.48018 -0.31988066
-0.11521654 -0.42360428 0.15433177 -0.2701433 0.14572486 0.16711575 0.0359662 -0.04870667
-0.125326 0.14496207 -0.43289724 -0.4327688 0.14188002 -0.37876305 0.18798564 0.040942367
-0.2398051 0.12194413 0.069807984 0.21115884 -0.4873542 0.15367173 -0.1651319 -0.20164149
-0.65826225 -0.38395414 -0.18726361 -0.07588814 0.13448308 0.16661581 -0.41722643 -0.4319287
-0.23291242 -0.0113717085 -0.46605694 0.09630671 0.12025211 0.105848074 0.14570603 -0.15479705
0.08039182 0.12118256 -0.1818262 -0.12813029 -0.26057035 0.045798134 -0.26153725 -0.49857625
-0.22446351 0.13407402 -0.5586384 -0.23760872 -0.1600882 0.17090377 0.10288222 -0.394709
0.2061171 -0.56331307 0.06487465 0.12781923 0.1571252 0.09786487 -0.09748505 -0.30757815
-0.04168193 0.04905822 -0.1466498 0.063389346 -0.16070364 0.07051896 0.12252333 -0.26727298
-0.3619603 -0.37338364 0.18441983 0.13831288 -0.46648502 -0.28239068 -0.4162288 -0.40349334
-0.13978131 0.06947301 0.02412181 0.049150713 0.06355819 -0.17355268 0.100493 0.09367392
-0.20457305 0.0014731183 -0.35071433 -0.07553789 -0.20556706 -0.11122917 0.063595876 0.072679915
-0.12840834 0.088095665 0.07662286 -0.37375227 -0.020477075 0.096956946 -0.11488412 -0.49114296
0.092307635 -0.19863707 0.085881375 0.01127775 0.063298084 -0.22782412 -0.08206904 -0.309938
-0.1532252 0.023265958 0.07097521 0.08148144 -0.017922973 0.16813 0.08519595 -0.18483974
-0.13601014 -0.023161413 0.109458886 -0.2106632 -0.44448167 0.088433035 -0.14126761 -0.0340207
-0.04536061 -0.11400845 0.14625397 0.07880125 0.07653836 0.12334673 0.08923261 -0.25928226
0.07177354 0.0896361 -0.13559504 0.09239741 -0.021704003 0.11324571 0.10480043 -0.1458128
0.018161237 -0.083164014 -0.011329747 -0.024084734 -0.091175094 -0.3025714 -0.15346579 -0.50730157
0.09632964 -0.26585656 -0.032399554 0.11238938 0.10575862 -0.28892106 0.109961286 0.030740744
-0.11889969 -0.44760334 0.037489876 0.123375155 -0.1515411 -0.5095785 -0.33942664 0.012324355
00000000: 6125 f5bd d798 ccbe c0f4 8a3d 7c74 833c
00000010: c670 ab3d 290d 0d3e 5063 8a3d 7b86 d73d
00000020: 46b8 5cbe 761d f33d 87a5 0abc 6d53 72bd
00000030: 11d6 48be b518 a13d c2c3 28be e3c0 663d
00000040: 881d 51be a11c d23d 747b 913d cb8a 293d
00000050: 35aa e8bd cf00 54be 0ced ffbd 254d 93bc
00000060: 3f2b 92bd 657b dabe d46d 5cbe a552 98be
00000070: 226e 88be 27a5 ff3d 1341 1bbe e8a7 c73d
00000080: e3ce d33d e9b9 823d 6a04 d33d 686b 48be
00000090: 021f 8ebe a461 e53d 5afc 5abe 8a05 013e
000000a0: 509e 33be 25c4 8e3c ffce d43d 494e 993d
000000b0: 2131 be3a 0555 af3d 826f ccbd bb97 4ebe
000000c0: 4c8c 10bd 31d2 c3be e6b7 2e3e acc6 c53d
000000d0: 600e a1be 1f08 be3d 5b65 bb3d fc55 c43d
000000e0: 547c 59be aef6 8ebe 1c56 903d 8ab0 c93d
000000f0: b054 fd3c ebb7 c83d d7c7 dd3d a5f9 003e
00000100: 57e5 c5be d6ef 0ebe 760c 10bd 3d0b 28bc
00000110: f9b9 6cbe a33a cb3d 0bcd 5bbe 209c 53be
00000120: b5b2 c73d 8417 a03d 41d0 26bd b4b5 19be
00000130: 4efe ba3d e613 ad3d 4449 20be 0a54 a13c
00000140: 996c 033e 8d5e 3ebd a67d 92be e673 59be
00000150: 0489 01be 06e9 e4be 27da f5be 66c7 a3be
00000160: a6f6 ebbd a9e2 d8be 2609 1e3e 3950 8abe
00000170: e638 153e 6420 2b3e 4b51 133d a580 47bd
00000180: 7555 00be f070 143e b5a4 ddbe df93 ddbe
00000190: ff48 113e 3bed c1be 4f7f 403e 2fb3 273d
000001a0: 788f 75be d8bd f93d 7df7 8e3d 063a 583e
000001b0: 7d86 f9be 1f5c 1d3e 5618 29be 1b7b 4ebe
000001c0: e083 28bf a395 c4be 08c2 3fbe 3e6b 9bbd
000001d0: efb5 093e 569d 2a3e b49e d5be c225 ddbe
000001e0: 9880 6ebe 6750 3abc 049f eebe 743c c53d
000001f0: bd46 f63d e0c6 d83d f633 153e 1e83 1ebe
00000200: 77a4 a43d 902e f83d a630 3abe 9634 03be
00000210: 7a69 85be d396 3b3d 36e8 85be 6345 ffbe
00000220: c3d9 65be b34a 093e ed02 0fbf b34f 73be
00000230: 29ee 23be 6601 2f3e eab3 d23d 4c17 cabe
00000240: 5c10 533e 4935 10bf 00dd 843d 0be3 023e
00000250: 6ee5 203e 616d c83d 3ea6 c7bd e27a 9dbe
00000260: acba 2abd 46f1 483d 5d2b 16be 46d2 813d
00000270: 7f8f 24be 3f6c 903d 83ed fa3d 01d8 88be
00000280: dc52 b9be 242c bfbe 8dd8 3c3e e4a1 0d3e
00000290: 20d7 eebe 8395 90be f11b d5be ae96 cebe
000002a0: d522 0fbe de47 8e3d 1a9b c53c 4252 493d
000002b0: cc2a 823d cbb7 31be 46cf cd3d 1dd8 bf3d
000002c0: 997b 51be a615 c13a d490 b3be 9cb3 9abd
000002d0: 2c80 52be 1ecc e3bd 8e3e 823d 35d9 943d
000002e0: 7a7d 03be 806b b43d 72ec 9c3d 755c bfbe
000002f0: 8abf a7bc 5d91 c63d 5e48 ebbd 1777 fbbe
00000300: c90b bd3d 8467 4bbe 93e2 af3d 50c6 383c
00000310: 6da2 813d ba4a 69be d013 a8bd 32b0 9ebe
00000320: 11e7 1cbe 4098 be3c 735b 913d bedf a63d
00000330: 33d3 92bc 452a 2c3e 377b ae3d a146 3dbe
00000340: 3e46 0bbe 01bd bdbc fb2b e03d 18b8 57be
00000350: 1a93 e3be 611c b53d 75a8 10be 4a59 0bbd
00000360: 0ccc 39bd 437d e9bd 9ac3 153e 8d62 a13d
00000370: 25c0 9c3d 369d fc3d 96bf b63d a5c0 84be
00000380: 01fe 923d 2293 b73d 6dd9 0abe da3a bd3d
00000390: 98cc b1bc 5eed e73d 9ca1 d63d f34f 15be
000003a0: e0c6 943c e551 aabd 67a0 39bc 594d c5bc
000003b0: 02ba babd a3ea 9abe 2326 1dbe 84de 01bf
000003c0: 7948 c53d 5a1e 88be 65b5 04bd 672c e63d
000003d0: fa97 d83d 76ed 93be 6233 e13d 03d4 fb3c
000003e0: ae81 f3bd 442c e5be fc8e 193d 1dac fc3d
000003f0: 972d 1bbe bd73 02bf 54c9 adbe 17ec 493c

fc3.bias f4 [10]
-0.03055779 -0.54039806 -0.011431516 0.40704745 0.07316822 -0.27541885 0.17268485 0.17852318
0.113592505 -0.3305113
00000000: 5554 fabc 8757 0abf 414b 3bbc 8668 d03e
00000010: 38d9 953d b303 8dbe 4cd4 303e c8ce 363e
00000020: 30a3 e83d c738 a9be
