models/Dropout_best.pth (torch, 250837 bytes, 10 tensors)

conv1.weight f4 [6, 1, 5, 5]
0	0xbe0d9840	-0.1382761
1	0x3e7c76d7	0.24654709
2	0xbe2dba6e	-0.16965649
3	0xbc643b12	-0.013930099
4	0xbe8f7eba	-0.28026372
5	0xbc400419	-0.011719727
6	0x3dc0c5e1	0.094127424
7	0x3e059dba	0.13048449
8	0xbe680d87	-0.2266141
9	0xbe79ec71	-0.24406601
10	0x3ece3104	0.4027177
11	0xbdd8142b	-0.10550722
12	0xbe7e44ae	-0.24830887
13	0xbe9d7111	-0.30750325
14	0xbe5b41b2	-0.2141178
15	0x3ea08add	0.31355944
16	0x3e273908	0.1633035
17	0xbdc9f7bf	-0.09861707
18	0xbde2a718	-0.11067027
19	0xbd6c36db	-0.0576695
20	0x3e636c56	0.22209296
21	0x3cd07fc8	0.025451556
22	0x3da90843	0.08253529
23	0xbdaa1fb3	-0.083068274
24	0x3d11dbb7	0.035609927
25	0xbed03046	-0.4066183
26	0x3e0d81cc	0.13819045
27	0x3e03c589	0.12868322
28	0x3d17a73b	0.037024718
29	0xbdc3adc6	-0.09554629
30	0xbe01ef20	-0.12688875
31	0x3d0b539a	0.034015276
32	0x3e0fb674	0.14034444
33	0x3c694da4	0.014239702
34	0xbcc4a9cc	-0.024006747
35	0xbe1a542f	-0.15071176
36	0xbcf9fd47	-0.03051628
37	0x3d9a6896	0.075394794
38	0x3e45b60f	0.19307731
39	0x3dfa87aa	0.12232907
40	0xbd79cd7c	-0.06098698
41	0x3e453db3	0.19261818
42	0x3d2e1a73	0.042505693
43	0x3e52212f	0.20520471
44	0x3d451fbb	0.048125964
45	0xbcf89f88	-0.030349508
46	0x3dcf0314	0.10108009
47	0x3ea7ed5f	0.32798287
48	0x3e46ba42	0.19406989
49	0x3cb44ae6	0.02200837
50	0x3bc63403	0.0060486807
51	0xbd47d141	-0.048783544
52	0xb9e8336c	-0.000442888
53	0x3e6c429d	0.23072286
54	0xbec1d0d9	-0.3785465
55	0x3d85bc20	0.065300226
56	0xbe4db866	-0.20089874
57	0x3e60bb51	0.21946456
58	0x3de41c70	0.111382365
59	0xbf1f7fc7	-0.6230435
60	0xbe7af3fb	-0.24507134
61	0x3e68fa59	0.2275175
62	0x3e2263b0	0.1585834
63	0x3e5a4245	0.21314342
64	0xbec2955a	-0.3800457
65	0x3e2e5412	0.17024258
66	0x3e2f6690	0.17128968
67	0x3e34b6b5	0.17647822
68	0x3e9cacc8	0.30600572
69	0xbeafbc5f	-0.34323403
70	0x3b2e24ea	0.0026572295
71	0x3c7257df	0.014791458
72	0x3e666fe4	0.2250362
73	0x3ba71a8b	0.0050995997
74	0xbc2c08ba	-0.010500127
75	0x3e1abd42	0.15111259
76	0xbe152f31	-0.14568783
77	0xbd1ffc80	-0.039059162
78	0x3df574d8	0.11985177
79	0xbd3da375	-0.046298463
80	0x3e376c33	0.17912368
81	0xbeab8838	-0.33502364
82	0x3d6500a8	0.05590883
83	0x3c8f93b0	0.017526478
84	0x3daabc9a	0.08336754
85	0xbe1e7e81	-0.15477945
86	0xbe9b16a3	-0.30290708
87	0xbe8faa6f	-0.28059718
88	0x3e8d1a0b	0.27558932
89	0x3ee7fb15	0.45308748
90	0x3dae2ba1	0.08504415
91	0xbe8602f7	-0.26174137
92	0xbef0fa8c	-0.47066152
93	0x3ee75eaa	0.4518941
94	0x3e411195	0.18854363
95	0xbe672096	-0.22571024
96	0xbea3a978	-0.31965232
97	0x3e88ab79	0.26693323
98	0x3ea3eb17	0.32015297
99	0xbd95f34b	-0.07321795
100	0xbd9e7587	-0.0773726
101	0xbf0009a0	-0.50014687
102	0xbf047308	-0.51738024
103	0xbe96e5e7	-0.29472277
104	0xbe4120b4	-0.18860132
105	0x3deff665	0.11716918
106	0xbec0bde3	-0.37644872
107	0xbe3ad5d1	-0.18245627
108	0xbd678061	-0.056518916
109	0xbda2c253	-0.07947221
110	0x3c615856	0.013753971
111	0x3e585837	0.21127401
112	0x3e81a863	0.2532378
113	0x3e15ee0d	0.1464159
114	0x3e6a1500	0.22859573
115	0x3dd17f8b	0.10229405
116	0x3eb9f75b	0.3632153
117	0x3e37463a	0.17897883
118	0x3d2cafa7	0.042159703
119	0xbd95c1c9	-0.07312352
120	0xbd75523e	-0.059892885
121	0x3e99e68b	0.30058703
122	0x3e55c14d	0.2087452
123	0x3de2901b	0.11062642
124	0x3e3e8f31	0.1860931
125	0x3e0ed42b	0.13948123
126	0x3e095b41	0.13413717
127	0x3e233ab8	0.15940368
128	0x3d4ab2cc	0.04948692
129	0xbde618e7	-0.112352185
130	0xbe0d9983	-0.13828091
131	0xbca20fcc	-0.019782923
132	0x3e04eac1	0.12980177
133	0x3df09c89	0.11748607
134	0x3d96eb62	0.073691145
135	0xbe530264	-0.2060638
136	0xbe60dc16	-0.21958956
137	0xbe68c028	-0.22729552
138	0x3df4946c	0.11942372
139	0x3d351f1f	0.044219133
140	0xbe793276	-0.24335656
141	0xbf022561	-0.50838286
142	0xbeaae78a	-0.33379775
143	0xbe56e083	-0.20984082
144	0xbd89dd42	-0.06731655
145	0xbd8c0db7	-0.068385534
146	0xbd0a7686	-0.03380444
147	0xbe0b652b	-0.13612811
148	0xbdd8895b	-0.105730735
149	0x3ded92db	0.11600276

conv1.bias f4 [6]
0	0xbe8fde07	-0.2809908
1	0xbdf8958b	-0.12137898
2	0xbc974db9	-0.018469678
3	0xbcee706a	-0.029106338
4	0x3d45322b	0.048143547
5	0xbf5a834b	-0.8535659

conv2.weight f4 [16, 6, 5, 5]
0	0x3e447427	0.19184934
1	0xbf0021de	-0.5005168
2	0xbf45a086	-0.77198064
3	0x3dd1229b	0.102116786
4	0x3e724d82	0.2366238
5	0x3dd66d1c	0.1047003
6	0xbe83636b	-0.25661787
7	0xbd121966	-0.035668753
8	0x3e2e4252	0.17017487
9	0x3dc92fb5	0.098235525
10	0xbd08b783	-0.033378135
11	0xbe6425a3	-0.22279982
12	0x3d64dc11	0.055873934
13	0x3cec4618	0.028842017
14	0xbd55bfe2	-0.052184947
15	0xbd4297d8	-0.04750809
16	0x3b20deb3	0.0024546802
17	0xbe885577	-0.26627705
18	0x3d1fd993	0.039025854
19	0xbda07a08	-0.078357756
20	0xbd8dc8b0	-0.06923044
21	0x3e4ac69e	0.19802329
22	0xbe0c4e4b	-0.13701741
23	0x3cde395f	0.027126966
24	0xbe685ba3	-0.22691207
25	0xbe9fd5c2	-0.31217772
26	0xbc1681cc	-0.009186219
27	0xbda3656c	-0.07978329
28	0xbe48aa19	-0.19596137
29	0xbd86064c	-0.0654417
30	0xbe9c33f3	-0.30508384
31	0xbd5f4723	-0.0545112
32	0x3d7ffe80	0.06249857
33	0xbd89c5aa	-0.067271546
34	0xbdbe79c6	-0.0930057
35	0x3e1e864d	0.15480919
36	0x3d4ee50a	0.050511397
37	0xbcc2a17b	-0.02375864
38	0x3d3db3ef	0.046314176
39	0xbca625f5	-0.020281771
40	0x3aa9ff2c	0.0012969724
41	0xbde0ceec	-0.10976967
42	0x3e67fa43	0.22654061
43	0xbc49d738	-0.012319379
44	0x3cec5e89	0.028853672
45	0xba0a83e7	-0.0005283937
46	0xbd91b7e5	-0.07115153
47	0xbda531bc	-0.08066127
48	0x3de05886	0.109543845
49	0x3d9c11b0	0.07620561
50	0xbeaa0362	-0.33205706
51	0xbeb7aa2f	-0.35872027
52	0xbd10fcc1	-0.035397295
53	0xbd83afb1	-0.06429995
54	0x3e18dae0	0.14927244
55	0x3cf47156	0.029839199
56	0xbe95f321	-0.29287055
57	0xbe072aff	-0.13199995
58	0x3e828c97	0.25497887
59	0x3e6bdccf	0.2303345
60	0xbec13ef6	-0.37743348
61	0x3e950990	0.29108858
62	0x3de8c90e	0.11366473
63	0x3de5d55d	0.112223364
64	0xbd34a121	-0.044098977
65	0xbe470ed6	-0.19439253
66	0xbd2be3f8	-0.041965455
67	0xbdc0ed04	-0.09420207
68	0xbc748195	-0.014923473
69	0x3ce47273	0.027886605
70	0x3ca3e770	0.020007819
71	0xbd9dbcf9	-0.07702059
72	0xbcc189b7	-0.023625238
73	0x3d949e2e	0.07256733
74	0xbe5759ab	-0.210303
75	0x3d780e31	0.06056041
76	0x3e6727e1	0.22573806
77	0x3e109c38	0.14122093
78	0xbe0f7c06	-0.14012155
79	0x3d09ae25	0.033613343
80	0x3cbfd454	0.023416676
81	0xbca05b35	-0.01957474
82	0x3def27c4	0.116775066
83	0x3dfff3a0	0.1249764
84	0x3e14d110	0.14532876
85	0x3db692a2	0.08914687
86	0xbd8d4d5d	-0.068995215
87	0xbc7000cf	-0.01464863
88	0x3d3ea07a	0.04653976
89	0x3de8e46f	0.11371695
90	0x3daf2df8	0.0855369
91	0xbd9b723f	-0.0759015
92	0xbde8afd6	-0.11361663
93	0xbe237b1f	-0.15964936
94	0xbd877eb6	-0.06615965
95	0xbd9c9386	-0.07645325
96	0xbe4672a4	-0.1937967
97	0xbe7f908b	-0.24957483
98	0xbe99b859	-0.3002346
99	0xbc6ce02a	-0.014457742
100	0xbe3dcb4b	-0.18534581
101	0x3d230f7b	0.039809685
102	0xbcf991a7	-0.03046496
103	0xbe364451	-0.17799498
104	0xbe666284	-0.22498518
105	0x3edd67a0	0.43243122
106	0x3ef40e1d	0.47667018
107	0xbde46f78	-0.111540735
108	0xbddba5fe	-0.1072502
109	0x3e1e413a	0.1545457
110	0xbe061363	-0.13093333
111	0xbe98258f	-0.29716155
112	0xbdb4fe6d	-0.0883759
113	0xbca92cb5	-0.0206512
114	0xbef28c76	-0.47372788
115	0xbd3e2d88	-0.04643014
116	0x3e66664b	0.22499959
117	0xbc52a9f6	-0.012857905
118	0x3d6bb9cc	0.057550237
119	0x3e20fa9e	0.15720603
120	0x3e2ff5bf	0.17183588
121	0x3dc8eb4f	0.098105066
122	0xbe0c7945	-0.13718136
123	0xbd711389	-0.05885652
124	0x3e3df785	0.18551452
125	0x3e991090	0.2989545
126	0x3e6c7003	0.23089604
127	0xbc567e3e	-0.013091622
128	0xbe06681e	-0.13125655
129	0xbc417fc4	-0.011810247
130	0x3c717abd	0.014738736
131	0xbdade5e8	-0.08491117
132	0xbdc6ad1b	-0.09700986
133	0x3dab7b3e	0.08373116
134	0xbd207c68	-0.039181143
135	0x3cfac278	0.030610308
136	0x3d08ab17	0.03336629
137	0xbd841b9d	-0.06450579
138	0xbda966a2	-0.08271529
139	0xbd36dd33	-0.044644546
140	0x3e00c45f	0.1257491
141	0x3d99deb5	0.07513181
142	0xbd69fd1d	-0.057126153
143	0xbbcb02c4	-0.006195398
144	0x3d82a938	0.06379932
145	0xbe0249ad	-0.12723418
146	0x3d8d9533	0.06913223
147	0x3e65ace1	0.2242923
148	0xbe1ca7c7	-0.15298377
149	0xbe04addc	-0.12956947
150	0xbea6d805	-0.32586685
151	0xbef68568	-0.48148656
152	0xbe0375dd	-0.1283793
153	0xbc9d2f54	-0.019187607
154	0x3dbc985e	0.09208749
155	0xbd7009c1	-0.058603052
156	0xbdec15d3	-0.115276
157	0xbe0f4136	-0.1398972
158	0x3d977207	0.07394796
159	0x3e5397f1	0.2066343
160	0x3dbe5b10	0.092947125
161	0x3cd94d56	0.026526134
162	0xbd8aa59e	-0.0676987
163	0xbddbba79	-0.10728926
164	0xbdd53a18	-0.10411471
165	0xbe0f7391	-0.14008929
166	0x3e40961f	0.18807267
167	0x3e31c0b1	0.17358662
168	0x3d0b4151	0.033997837
169	0xbe4332ea	-0.19062391
170	0x3d260a74	0.040537313
171	0x3d516985	0.051126022
172	0xbd5ca696	-0.053869806
173	0x3e8ae5d2	0.27128464
174	0xbe2ac736	-0.16677555
175	0x3d2998c7	0.041405465
176	0xbd76225f	-0.060091373
177	0xbb5328a4	-0.0032220269
178	0xbd20aa3a	-0.03922484
179	0xbdc844f7	-0.09778779
180	0xbe23c0ce	-0.15991518
181	0xbcc00e1b	-0.023444226
182	0x3dc26713	0.09492316
183	0xbe00942c	-0.12556523
184	0xbe2afb90	-0.16697526
185	0xbd92ed0a	-0.07174118
186	0xbd34a3db	-0.044101577
187	0xbd9e38c1	-0.07725669
188	0xbd001e12	-0.031278677
189	0x3e1e125f	0.15436696
190	0xbce6fa86	-0.02819563
191	0x3cce46c8	0.025180236
192	0x3c479e59	0.012183749
193	0x3e36f612	0.17867306
194	0x3e44d6e3	0.19222598
195	0xbd8f09a0	-0.06984258
196	0x3d10e315	0.035372812
197	0xbe4d5cdc	-0.20054954
198	0xbdab8868	-0.08375627
199	0xbe94d7ff	-0.29071042
200	0x3db4c9c9	0.0882755
201	0xbd32a2fa	-0.043612458
202	0x3d5745d4	0.052556828
203	0x3d823349	0.06357438
204	0xbcd5020d	-0.026001954
205	0x3dc6605c	0.09686348
206	0xbd7b3924	-0.06133379
207	0x3d4a0a7b	0.0493264
208	0x3e1edd4f	0.1551411
209	0x3e03acb7	0.12858854
210	0x3e83cd21	0.25742438
211	0x3e2bb906	0.167698
212	0xbe327d02	-0.17430499
213	0xbdae81c8	-0.085208476
214	0x3ddaddf3	0.10686865
215	0xbd84be15	-0.06481568
216	0x3e37403a	0.17895594
217	0x3e127d2d	0.14305563
218	0xbd7c70aa	-0.061630882
219	0x3e19631e	0.14979216
220	0xbce4be0d	-0.027922655
221	0xbde95ae6	-0.113942906
222	0x3c579373	0.013157713
223	0xbe8cf62a	-0.27531558
224	0xbe0906ae	-0.13381454
225	0x3d70ff88	0.058837444
226	0xbe8c5316	-0.2740714
227	0xbdc5c273	-0.09656229
228	0xbbec71a2	-0.0072156945
229	0xbead8f9b	-0.33898625
230	0x3e15c5c7	0.14626227
231	0xbd95ae7f	-0.07308673
232	0x3dab86ff	0.08375358
233	0xbdf2cfe5	-0.11856059
234	0xbc92359f	-0.017847834
235	0x3de4a27e	0.111638054
236	0xbd11d402	-0.035602577
237	0x3d2fe24f	0.042940434
238	0x3d62b6cb	0.055350106
239	0x3e54681e	0.20742843
240	0x3e39dac8	0.18149865
241	0x3c623328	0.013806142
242	0x3dc76ca8	0.097375214
243	0xbe96086b	-0.29303297
244	0xbc29b474	-0.010357965
245	0x3b894e28	0.004190225
246	0x3d8fc7d7	0.07020538
247	0xbeb481c1	-0.35255244
248	0xbedd038f	-0.43166777
249	0xbe0aba72	-0.13547686
250	0xbe3655d5	-0.1780618
251	0x3d1ac07c	0.037781224
252	0xbc84dfe7	-0.016220046
253	0xbd0fdea5	-0.03512444
254	0xbe31ee78	-0.17376125
255	0x3e6a5c2b	0.22886722

conv2.bias f4 [16]
0	0xbe6415c2	-0.22273925
1	0xbc38659c	-0.011254694
2	0xbdd479ba	-0.1037478
3	0x3e6e2b89	0.23258795
4	0x3eab8ad9	0.3350437
5	0x3e596a4a	0.21231952
6	0x3dd76913	0.10518088
7	0xbe79531d	-0.24348111
8	0xbe130655	-0.14357884
9	0xbdf61165	-0.120150365
10	0x3ecfad08	0.405617
11	0x3d3b383c	0.045707926
12	0x3e684c55	0.22685368
13	0x3ddab74d	0.10679493
14	0xbedc68e3	-0.43048772
15	0x3cd79a0d	0.026318574

fc1.weight f4 [120, 400]
0	0xbddf5a14	-0.10905853
1	0x3d3d2501	0.046177868
2	0x3e95c2ac	0.29250085
3	0xbd3b6b3e	-0.04575657
4	0x3d97a68a	0.07404812
5	0xbd4a3a46	-0.04937198
6	0x3d889624	0.06669262
7	0x3e7e98d3	0.24862985
8	0xbe277d3d	-0.16356368
9	0xbcab1f10	-0.020888835
10	0xbcc91db8	-0.024550304
11	0x3dd344c1	0.10315848
12	0xbd6c8a67	-0.05774918
13	0xbe858707	-0.2607958
14	0x3c9a64c4	0.018846877
15	0x3dbecd72	0.09316529
16	0x3de61352	0.11234154
17	0xbd86d96c	-0.06584439
18	0x3e1a7fc2	0.15087798
19	0x3e086e6b	0.13323371
20	0x3dbfa0b1	0.09356821
21	0xbea361cc	-0.3191055
22	0xbe473c9f	-0.19456719
23	0xbea22288	-0.3166697
24	0x3bb1f140	0.0054303706
25	0x3c89d322	0.016824309
26	0xbd048d2c	-0.032361194
27	0x3d116f5d	0.035506595
28	0xbd3447e3	-0.04401387
29	0xbe4e6e59	-0.20159282
30	0xbe380922	-0.17972234
31	0x3c3f5acf	0.011679365
32	0xbd82a0a6	-0.063782975
33	0x3cf58cb6	0.029974323
34	0x3bbf0619	0.0058295843
35	0x3de91cfb	0.11382481
36	0xbd549a3d	-0.051904906
37	0xbe17bcd5	-0.14818127
38	0xbcb49088	-0.022041574
39	0xbdd6f3fe	-0.104957566
40	0x3df66fbd	0.12033031
41	0x3a535a42	0.00080624607
42	0x3d9fa8d5	0.07795874
43	0xbdca1bb3	-0.098685645
44	0xbd477252	-0.04869301
45	0xbdbe833e	-0.09302376
46	0xbead543a	-0.33853322
47	0xbe4f72de	-0.20258662
48	0xbd86f529	-0.06589729
49	0x3d39b834	0.045341685
50	0xbea0ef79	-0.31432703
51	0x3d5e0dd1	0.054212395
52	0x3e45ce80	0.19317055
53	0x3d40af0b	0.047041934
54	0xbd9f701d	-0.07785056
55	0xbda58106	-0.0808125
56	0x3d3c18be	0.045922033
57	0x3e0cc065	0.13745268
58	0xbca4c2af	-0.020112364
59	0x3bc4f9b4	0.0060112122
60	0xbe14c65a	-0.1452879
61	0x3c340034	0.010986377
62	0xbd68e4e7	-0.056858923
63	0x3da8769f	0.0822575
64	0x3c970a19	0.018437432
65	0xba20084a	-0.0006104751
66	0xbcfb0ce4	-0.030645795
67	0xbde8907c	-0.11355683
68	0x3c334dc2	0.010943832
69	0xbcc6b41a	-0.024255801
70	0x3e432a6f	0.19059156
71	0x3a346ad4	0.0006882374
72	0x3d785c29	0.060634766
73	0x3d5e8bd8	0.054332584
74	0x3d836f3f	0.06417703
75	0xbdba8446	-0.091072604
76	0xbe874751	-0.26421598
77	0xbd4cd4d4	-0.050007656
78	0xbe3f1c6c	-0.18663186
79	0xbd3aad6f	-0.045575555
80	0xbe324e79	-0.17412747
81	0xbdddea1c	-0.108356684
82	0xbda7adf9	-0.081874795
83	0xbe11ed68	-0.1425072
84	0xbde25e8f	-0.11053192
85	0x3e496345	0.19666775
86	0xbdb3f672	-0.0878724
87	0x3e36ea6b	0.17862861
88	0xbe4b9f6b	-0.19885032
89	0x3d96983c	0.07353255
90	0x3d4ada75	0.049524743
91	0xbe510405	-0.2041169
92	0xbc95dd0a	-0.018293876
93	0xbe1ebe37	-0.15502249
94	0xbde345b1	-0.11097277
95	0x3ce21a15	0.027600328
96	0x3d45fbb3	0.048335742
97	0xbe5c2fbb	-0.21502583
98	0xbe80286a	-0.25030833
99	0x3db3bcb4	0.08776227
100	0x3c6094a5	0.013707315
101	0xbe66a85b	-0.2252516
102	0xbe09513e	-0.13409898
103	0xbe3a8f0e	-0.18218634
104	0xbe7c7fa7	-0.2465807
105	0x3d03bfe6	0.03216543
106	0xbe88aab3	-0.26692733
107	0xbe4a19b9	-0.19736375
108	0x3dd89ed9	0.10577173
109	0x3cd333df	0.02578157
110	0xbdb0a564	-0.08625296
111	0xbd9454dd	-0.07242749
112	0xbe375b0e	-0.17905828
113	0xbcee8359	-0.029115366
114	0xbdcaf551	-0.09910072
115	0x3bce500d	0.006296164
116	0x3d4194cf	0.047261056
117	0xbe34ad10	-0.17644143
118	0xbdf257cb	-0.118331514
119	0x3d078de9	0.03309432
120	0x3de848cd	0.11342011
121	0x3d47fac6	0.04882314
122	0xbd365b21	-0.0445205
123	0x3daee41c	0.08539602
124	0x3dda36d7	0.10654991
125	0x3b1b8049	0.0023727587
126	0x3c3e07b5	0.011598517
127	0x3d586524	0.05283083
128	0x3b434790	0.0029797293
129	0x3d7153fd	0.058917988
130	0x3d6c989f	0.05776274
131	0x3d4091e6	0.04701414
132	0xbe93ee07	-0.28892538
133	0xbd9905de	-0.07471822
134	0x3d598878	0.053108662
135	0x3c896853	0.016773378
136	0xbe0f61b6	-0.14002118
137	0xbe95cd93	-0.29258403
138	0xbdc97741	-0.09837199
139	0xbdf084df	-0.11744093
140	0x3cdba20a	0.026810665
141	0xbde47499	-0.11155052
142	0xbe033e98	-0.12816846
143	0x3cd771fb	0.026299467
144	0x3deb13d4	0.11478391
145	0x3d886d38	0.06661457
146	0xbe86062b	-0.2617658
147	0xbef24111	-0.47315267
148	0x3d87eb38	0.06636661
149	0x3d0ddc79	0.034634087
150	0xbe7ae8ec	-0.24502915
151	0x3dfcbf80	0.12341213
152	0xbd327862	-0.043571837
153	0x3e7c70fd	0.24652477
154	0x3e177181	0.14789392
155	0xbd1329e7	-0.035928633
156	0x3c9162f3	0.017747378
157	0x3e6057fb	0.21908562
158	0x3dd9e828	0.106399834
159	0xbb678635	-0.0035327796
160	0xbd85f739	-0.065412946
161	0xbcd7a864	-0.026325412
162	0x3df1cb8e	0.11806403
163	0x3e0dffb1	0.1386707
164	0x3d15a5e1	0.036535148
165	0xbceae844	-0.028675206
166	0xbe48e0e2	-0.19617036
167	0x3e21c5a4	0.1579805
168	0x3c6fa7d1	0.014627413
169	0xbcdbc4ad	-0.02682718
170	0x3d3f38fd	0.046685208
171	0x3d7255b5	0.059163768
172	0x3e05f2cf	0.13080905
173	0xbd7debc7	-0.061992433
174	0x3bf147c8	0.0073632933
175	0x3db892d9	0.09012384
176	0xbdf7627f	-0.120793335
177	0xbc9f1bd5	-0.019422451
178	0x3dee8ac7	0.116475634
179	0xbe4c2542	-0.19936088
180	0x3c885230	0.016640753
181	0xbe895f3e	-0.26830477
182	0x3ea11935	0.31464544
183	0x3ee747ca	0.45171958
184	0xbe324381	-0.17408563
185	0x3d2379f8	0.03991124
186	0xbd228376	-0.039676152
187	0x3e3cb82c	0.18429631
188	0xbd22a252	-0.039705582
189	0xbe0710f2	-0.13190058
190	0xbc23240e	-0.009957327
191	0xbdf9af32	-0.12191619
192	0x3e4a4c3d	0.19755645
193	0x3e0e442d	0.13893194
194	0x3dcf50b6	0.10122816
195	0xbd828470	-0.06372917
196	0xbe08395b	-0.1330313
197	0xbd184bea	-0.037181772
198	0x3dc3caae	0.095601425
199	0x3dde6124	0.10858372
200	0x3e19be9e	0.15014121
201	0x3bb1cfbe	0.005426376
202	0x3e14b2c2	0.14521316
203	0xbc262133	-0.010139751
204	0xbce6baa9	-0.028165178
205	0xbc4f5188	-0.012653716
206	0xbd189a46	-0.0372565
207	0xbe1e090d	-0.1543314
208	0xbce89497	-0.028391166
209	0xbc154ec9	-0.009113022
210	0x3dd592d6	0.10428397
211	0xbdd07b8e	-0.10179816
212	0xbe272587	-0.1632291
213	0x3dd622eb	0.10455879
214	0x3dd2e89b	0.10298272
215	0xbd072ce9	-0.033001814
216	0x3ddd1664	0.10795286
217	0xbd2a2028	-0.041534573
218	0x3cacce92	0.021094594
219	0x3e074618	0.13210332
220	0x3e10068f	0.14065002
221	0x3d3d656b	0.046239298
222	0x3db6be96	0.0892307
223	0x3db676e8	0.08909398
224	0x3d671ed1	0.056425873
225	0xbcf0489b	-0.029331496
226	0x3d605e3e	0.054777376
227	0xbd637c2a	-0.055538334
228	0x3dc44dd3	0.09585156
229	0xbd982db1	-0.0743059
230	0x3dfb464f	0.1226927
231	0xbd16c87c	-0.03681229
232	0x3ba6ab86	0.005086365
233	0x3db01fdf	0.08599829
234	0xbc89c2dd	-0.01681655
235	0x3e036867	0.12832795
236	0xbe3917ef	-0.18075536
237	0xbddd8cfd	-0.10817907
238	0x3e2c0fdd	0.16802926
239	0x3e074eb3	0.13213615
240	0xbcff2301	-0.03114462
241	0xbba9c506	-0.0051809577
242	0x3c96ec1f	0.018423138
243	0x3e185e2f	0.14879678
244	0xbc688238	-0.014191203
245	0xbe039914	-0.12851363
246	0xbdaf2133	-0.08551254
247	0xbcf6dad0	-0.030133635
248	0x3d085d68	0.033292204
249	0xbd802b2d	-0.06258235
250	0xbdb2a9aa	-0.08723767
251	0x3ea5bb91	0.32369664
252	0xbcfad9b8	-0.030621395
253	0xbe2134f5	-0.15742858
254	0xbd0f2da2	-0.03495563
255	0xbcdddc97	-0.027082724

fc1.bias f4 [120]
0	0x3d456530	0.048192203
1	0xbd242e0b	-0.040082972
2	0xbb2d294f	-0.0026422327
3	0xbd7ff458	-0.062488884
4	0xbd3ac807	-0.045600917
5	0xbd192b67	-0.037394907
6	0x3e5f51a3	0.21808486
7	0xbd73393f	-0.059380766
8	0xbd99df0d	-0.07513247
9	0xbd96e530	-0.07367933
10	0x3cdd6cf9	0.027029501
11	0x3d4a8b95	0.049449522
12	0x3d99d3e1	0.07511116
13	0xbd0f82e0	-0.03503692
14	0xbd1f6d11	-0.038922373
15	0xbd68c4aa	-0.05682818
16	0x3dccd2f6	0.10001175
17	0x3cc45e12	0.023970637
18	0x3d1a8e21	0.0377332
19	0xbccd1f56	-0.025039356
20	0x3d5ba022	0.05361951
21	0xbc64ac83	-0.013957146
22	0xbb0139bf	-0.0019718257
23	0xbd663a7a	-0.05620811
24	0xbc0e6295	-0.008690496
25	0xbc27b57f	-0.010236143
26	0x3acff6b6	0.0015866372
27	0x3c171198	0.009220503
28	0x3d73c544	0.0595143
29	0x3c9f9fb5	0.019485334
30	0x3d335233	0.043779563
31	0x3a974424	0.0011540693
32	0xbb324884	-0.0027203867
33	0x3e15658c	0.14589518
34	0xbd468cd7	-0.04847416
35	0xbd864744	-0.065565616
36	0x3d01552b	0.031575363
37	0x39c62c26	0.00037798396
38	0xbc131254	-0.008976538
39	0xbd21738d	-0.03941684
40	0x3ac923e6	0.0015345782
41	0xbdb4010e	-0.08789264
42	0x3deb7cae	0.1149839
43	0xbd8b6e53	-0.06808152
44	0xbce03b01	-0.027371885
45	0xbbc64a71	-0.0060513546
46	0x3b0f7ce9	0.002189452
47	0xbd4ebd48	-0.05047348
48	0x3cbc12cb	0.02295818
49	0xbd158210	-0.03650099
50	0x3e0f876e	0.14016506
51	0x3ca73d2d	0.020414913
52	0xbce46344	-0.027879365
53	0x3dbc757d	0.092020966
54	0x3ddc77fb	0.10765072
55	0xbd420d64	-0.04737605
56	0xbe1cb616	-0.15303835
57	0x3d2c1bb6	0.042018615
58	0xbd97670e	-0.07392703
59	0xbd270e38	-0.040785044
60	0x3d95b247	0.07309394
61	0x3d623958	0.05523047
62	0xbc72485b	-0.014787759
63	0x3d5d8eee	0.054091386
64	0x3da5d5e1	0.08097435
65	0xbdcc5373	-0.09976854
66	0x3c733048	0.014843054
67	0x3c8e62f3	0.017381167
68	0xbd0401e0	-0.03222835
69	0xbca451ff	-0.02005863
70	0x3d93ef15	0.07223336
71	0xbc8a87dc	-0.016910486
72	0xb6be16ad	-5.665081e-06
73	0x3c03d0d7	0.008045397
74	0xbcf67de0	-0.030089319
75	0xbd32f6ef	-0.043692525
76	0x3df0160b	0.11722954
77	0x3dc1cee9	0.09463293
78	0xbdf75b17	-0.12077921
79	0x3cbfcbab	0.023412546
80	0xbd8eb61f	-0.069683306
81	0x3b5487d0	0.0032429583
82	0xbc199c6c	-0.009375673
83	0xbd217891	-0.03942162
84	0x3c6e2cfb	0.014537091
85	0xbd2fbd16	-0.042904936
86	0x3dfc9849	0.123337336
87	0xbd4e1a70	-0.05031818
88	0xbced7b25	-0.028989384
89	0x3c57ea06	0.013178354
90	0x3da3e7b5	0.08003179
91	0xbd301497	-0.042988386
92	0x3d9a0482	0.07520391
93	0xbd85763d	-0.06516693
94	0x3d4d74e7	0.050160315
95	0xbd3b2862	-0.04569281
96	0xbd70206f	-0.05862468
97	0x3d283a19	0.04107103
98	0xbc9a1e6e	-0.018813338
99	0x3c41f4a9	0.011838117
100	0x3c6e5b36	0.014548114
101	0xbd882c94	-0.066491276
102	0x3c406f5c	0.0117453
103	0x3cd9f2ad	0.026604975
104	0xbd6ad084	-0.057327762
105	0x3c188986	0.009310132
106	0xbb97ea8e	-0.0046361154
107	0xbdd7011a	-0.10498257
108	0xbcd5df28	-0.026107386
109	0xbda76be0	-0.081748724
110	0x3d608183	0.054811012
111	0x3dd152e1	0.10220886
112	0xbd6ab9bb	-0.057306033
113	0x3ced5f81	0.028976204
114	0xb984462c	-0.00025229284
115	0xbd70d8d7	-0.058800545
116	0xbb505031	-0.003178608
117	0x3d840e61	0.06448055
118	0x3a8e8240	0.0010872558
119	0xbd946d8e	-0.072474584

fc2.weight f4 [84, 120]
0	0x3ca135a7	0.019678904
1	0x3ce305ac	0.027712665
2	0x3d1c92f6	0.03822609
3	0x3d6b0121	0.057374123
4	0xbbed8a8a	-0.007249181
5	0xbe7a5857	-0.24447761
6	0xbd32acda	-0.043621875
7	0xbd21ed66	-0.03953304
8	0xbe828a8b	-0.25496325
9	0x3db331b6	0.08749716
10	0x3e25b4ac	0.16182202
11	0x3e1e6191	0.15466906
12	0xbdf698ce	-0.12040864
13	0xbdcc3e24	-0.0997279
14	0x3d855a92	0.065114155
15	0x3d745b51	0.0596574
16	0x3d0cfbca	0.034419812
17	0xbdd236e2	-0.10264374
18	0x3e3bdc55	0.18345769
19	0xbe21ca2e	-0.15799782
20	0xbc5fcbe7	-0.013659454
21	0x3c195491	0.009358541
22	0x3c4f2124	0.012642179
23	0x3dbaabf2	0.09114827
24	0xbe2d57c5	-0.16928013
25	0xbcead94b	-0.028668066
26	0x3d22b9e3	0.039728057
27	0xbdb0bd60	-0.086298704
28	0xbe9de9c1	-0.30842403
29	0x3c061bdc	0.008185353
30	0xbe075163	-0.1321464
31	0x3d9bdb0b	0.076101385
32	0xbb84b32d	-0.0040496797
33	0x3d51ac9d	0.051190007
34	0x3dfcd6f5	0.12345687
35	0x3d3857c1	0.045005564
36	0x3d43e687	0.04782727
37	0xbd4a64fa	-0.049412705
38	0xbd62f538	-0.05540964
39	0xbd9ff033	-0.07809486
40	0x3d064af2	0.032786317
41	0x3dbe6851	0.092972405
42	0xbd7ca71a	-0.061682798
43	0xbea26793	-0.31719646
44	0xbd9c3787	-0.076277785
45	0x3ea07dbe	0.31345934
46	0x3d0df258	0.034654945
47	0x3c20d87e	0.009817241
48	0x3d8ef7c0	0.06980848
49	0xbda42255	-0.08014361
50	0xbe887736	-0.2665345
51	0xbd78370a	-0.060599364
52	0x3e1f51c5	0.15558536
53	0x3ea77f25	0.3271419
54	0xbd5b1c71	-0.05349392
55	0x3cc5f42d	0.024164284
56	0x3e08d3d3	0.13362055
57	0x3d5b747d	0.05357789
58	0xbe8eb8f0	-0.2787547
59	0x3c976a08	0.018483177
60	0x3d609074	0.05482526
61	0xbe0f99d3	-0.14023523
62	0xbdbe2158	-0.092837036
63	0x3d6d8101	0.057984356
64	0x3cec0cb6	0.028814655
65	0x3ccfcb42	0.025365476
66	0x3cfc739c	0.030816846
67	0xbd611641	-0.054952864
68	0x3d6cceae	0.057814293
69	0xbe0ab40a	-0.13545242
70	0xbe6f4684	-0.23366743
71	0xbe3e200b	-0.18566911
72	0x3db34d28	0.08754951
73	0x3d85011a	0.06494351
74	0x3ced2c25	0.028951714
75	0xbe1703a0	-0.14747477
76	0xbbd2969e	-0.0064266464
77	0x3daccce8	0.0843752
78	0xbebd504c	-0.36975324
79	0x3d76e49a	0.060276605
80	0xbb9e466c	-0.0048301723
81	0xbd19b9dc	-0.037530765
82	0xbee5b0e6	-0.44861525
83	0xbd3a9665	-0.045553584
84	0x3eb952da	0.36196023
85	0xbdf1f523	-0.11814334
86	0xbd020139	-0.031739447
87	0x3de8d0b5	0.11367933
88	0xbe7366fc	-0.23769754
89	0x3b6bb191	0.0035963992
90	0x3e3b778c	0.18307322
91	0xbe6f740d	-0.23384114
92	0x3d17d6e4	0.03707017
93	0xbea12061	-0.31470016
94	0x3e8483e5	0.25881878
95	0xbdffa5a9	-0.12482769
96	0x3d81fdbd	0.06347225
97	0xbd6adc40	-0.057338953
98	0xbea592e3	-0.32338628
99	0x3e7c69e7	0.24649774
100	0x3d4da0e0	0.05020225
101	0xbe4cca0a	-0.19998947
102	0x3dbbff65	0.09179572
103	0xbecfa97e	-0.40559
104	0x3cc00b0b	0.023442766
105	0x3d7a967d	0.061178673
106	0x3d9a599b	0.07536622
107	0xbeb66b15	-0.35628572
108	0x3dbea6fb	0.09309193
109	0x3d111d70	0.035428464
110	0xbe927455	-0.2860438
111	0xbc27470a	-0.010209808
112	0xbd2a4615	-0.04157074
113	0xbd0e4ae0	-0.034739375
114	0x3dadb4ad	0.08481727
115	0xbe1b7eea	-0.15185133
116	0xbe483a7f	-0.19553564
117	0x3e816d98	0.25278926
118	0x3d4a69b9	0.04941723
119	0x3e0129c9	0.12613596
120	0x3a639b46	0.00086825003
121	0xbdff8f9e	-0.12478565
122	0xbda9b79c	-0.08286974
123	0x3e189424	0.14900261
124	0xbd6de8e6	-0.058083437
125	0xbcb8846d	-0.022524083
126	0x3d5dc25d	0.054140437
127	0x3d2a233d	0.041537512
128	0xbe6dfe89	-0.23241629
129	0x3ea2548b	0.31705126
130	0xbddf5257	-0.10904377
131	0x3ce0bde1	0.027434291
132	0x3d9f5db8	0.07781547
133	0xbd828590	-0.06373131
134	0x3cb45247	0.02201189
135	0x3daa3bec	0.083122104
136	0xbe4dc3ef	-0.20094274
137	0xbeca5213	-0.39515743
138	0xbe4ab278	-0.19794643
139	0x3d4e86de	0.050421588
140	0x3e8426c9	0.2581084
141	0x3d8027c2	0.06257583
142	0x3d495cc2	0.049160726
143	0x3d1c1bc5	0.03811242
144	0x3c3e3fc2	0.011611881
145	0xbd9a25d4	-0.075267464
146	0x3dcd38e5	0.100206174
147	0xbe31a773	-0.17349033
148	0xbe2b5bef	-0.16734289
149	0xbd097edf	-0.03356826
150	0x3e1df195	0.15424187
151	0x3d14741a	0.036243536
152	0x3d8e3960	0.06944537
153	0x3c1be2d4	0.009514529
154	0xbc3cc64f	-0.01152189
155	0x3d235c58	0.039882988
156	0x3d151cfe	0.036404602
157	0xbbd58274	-0.0065157954
158	0x3c7a28a1	0.015268476
159	0xbe9c1f2a	-0.30492526
160	0x3ebc6bfd	0.3680114
161	0x3c292009	0.010322579
162	0xbc9a518f	-0.018837718
163	0x3e2af867	0.1669632
164	0xbd581de6	-0.05276289
165	0x3bb93e8b	0.0056532077
166	0x3c2be1fb	0.01049089
167	0x3d65207b	0.05593918
168	0x3c8674ed	0.016413176
169	0x3dd4e2d1	0.10394824
170	0xbea2f048	-0.31823945
171	0xbcdd8ec8	-0.027045622
172	0xbd0296c0	-0.031882048
173	0xbd14e355	-0.036349613
174	0xbd5a9de9	-0.05337325
175	0x3db8c83d	0.090225674
176	0xbdad0164	-0.08447531
177	0x3cec4d30	0.0288454
178	0xbed7ccfb	-0.42148575
179	0xba4b7755	-0.00077616173
180	0xbdb1253b	-0.08649679
181	0xbe2597c0	-0.1617117
182	0xbd645f4c	-0.055754945
183	0x3db919fa	0.09038158
184	0x3e695064	0.22784573
185	0xbc4c8991	-0.01248397
186	0xbd83e08d	-0.06439314
187	0xbce4641e	-0.02787977
188	0xbc98d575	-0.018656472
189	0xbda7bdaa	-0.081904724
190	0x3dd54d20	0.10415101
191	0xbc0df724	-0.00866488
192	0x3d3783ec	0.044803545
193	0x3c08a724	0.008340631
194	0x3c47f5ea	0.012204627
195	0xbead3142	-0.33826643
196	0x3d064816	0.03278359
197	0x3cb1a77a	0.021686304
198	0xbec8fd4c	-0.3925575
199	0x3ecd60c3	0.40112886
200	0x3dc818f0	0.097703815
201	0x3d4bd5df	0.04976451
202	0x3cd58309	0.026063459
203	0x3e95da7c	0.29268253
204	0xbd852efd	-0.06503103
205	0xbd4d3c52	-0.050106354
206	0xbd6b604d	-0.057464886
207	0x3cc4d454	0.024027027
208	0x3d2745f6	0.040838204
209	0xbe8257d1	-0.25457624
210	0xbc9115ec	-0.017710648
211	0x3d1dadc3	0.03849579
212	0xbd1f466e	-0.038885526
213	0xbc171728	-0.0092218295
214	0x3d721689	0.059103522
215	0xbec292d9	-0.3800266
216	0x3d5e7245	0.054308195
217	0x3e69aa54	0.22818881
218	0xbb87d4e8	-0.0041452534
219	0xbdfce9ca	-0.12349279
220	0x3e315e06	0.17321023
221	0xbca76259	-0.020432638
222	0xbda34309	-0.0797177
223	0x3d978c05	0.073997535
224	0xbd62a17f	-0.055329796
225	0x3caea291	0.021317752
226	0xbd11a3af	-0.03555649
227	0x3ef6eb80	0.48226547
228	0x3da86508	0.08222395
229	0xbd145e5d	-0.036222804
230	0x3d7acfc3	0.061233293
231	0xbd2f56f6	-0.04280754
232	0xbd17be38	-0.03704664
233	0x3e10f144	0.14154536
234	0x3d8903a3	0.06690147
235	0x3ed8ac58	0.42318988
236	0x3ed2baca	0.41158134
237	0xbdb9af9e	-0.090666994
238	0x3d992773	0.074782275
239	0x3db2137b	0.08695122
240	0xbbc291f3	-0.0059378087
241	0xbdb364e1	-0.087594755
242	0x3d2e8046	0.0426028
243	0xbd9ad9fb	-0.07561108
244	0xbd250637	-0.04028913
245	0xbb348c8b	-0.002754959
246	0x3c16507c	0.009174462
247	0x3bd61d57	0.0065342593
248	0x3d87f6a4	0.0663884
249	0x38c6baa9	9.476144e-05
250	0xbee058b4	-0.43817675
251	0xbebe940b	-0.37222323
252	0xbcdfcf29	-0.027320461
253	0x3c87b659	0.016566442
254	0x3d940123	0.07226779
255	0xbe97b4b3	-0.2963005

fc2.bias f4 [84]
0	0x3dd8fce6	0.105951115
1	0x3e383b00	0.17991257
2	0x3e9cc663	0.30620107
3	0x3e0885c2	0.13332275
4	0x3e99a2f1	0.30007127
5	0x3ea21263	0.31654653
6	0x3e77dd61	0.24205543
7	0x3e9eb431	0.3099685
8	0x3e193298	0.14960706
9	0x3ee00dc9	0.43760517
10	0x3dba278e	0.09089576
11	0x3e1ab48e	0.15107939
12	0x3e6293bc	0.22126669
13	0x3d9a853c	0.07544944
14	0x3f02a423	0.510317
15	0x3e7d6234	0.24744493
16	0x3e705345	0.23469265
17	0x3e97a8cb	0.29620966
18	0x3d4621f3	0.04837222
19	0x3e38a55c	0.1803183
20	0xb98610d8	-0.0002557102
21	0x3eb6bfe2	0.3569327
22	0x3d7d6937	0.06186792
23	0x3dcb865b	0.09937736
24	0x3e206f4e	0.1566746
25	0x3e021b05	0.1270562
26	0x3e33bb56	0.17551932
27	0x3e2cfef8	0.16894138
28	0x3e1e9020	0.15484667
29	0x3dd1c729	0.10243065
30	0x3e9276b8	0.286062
31	0x3e1b5d3f	0.1517229
32	0x3e9ce7a0	0.30645466
33	0x3d807177	0.06271642
34	0x3ee0cbb5	0.43905416
35	0x3ea0c02b	0.31396613
36	0x3e75eccf	0.24016117
37	0x3ec8260c	0.39091527
38	0x3e997f38	0.29979873
39	0x3e4e7e62	0.20165399
40	0x3e66dd8a	0.22545448
41	0x3da419d1	0.080127366
42	0x3e7b68cc	0.24551696
43	0x3e816ae1	0.25276855
44	0x3e2f5d76	0.17125496
45	0x3ed60704	0.41802227
46	0x3e323940	0.17404652
47	0x3d9db00f	0.07699596
48	0x3e5e3807	0.2170106
49	0x3d760e59	0.060072277
50	0x3eceac5f	0.40365884
51	0x3eae6715	0.3406302
52	0x3e85713b	0.2606295
53	0x3e968986	0.29401797
54	0x3f001fc1	0.5004845
55	0x3e352d54	0.17693073
56	0x3ec477e0	0.38372707
57	0x3e6d6930	0.23184657
58	0x3ead674f	0.3386788
59	0x3f0c5b05	0.54826385
60	0x3c6ec091	0.014572279
61	0x3e267162	0.1625419
62	0x3eba0a88	0.3633616
63	0x3e991a3e	0.29902834
64	0x3e0a2cf6	0.13493714
65	0x3ea1f480	0.3163185
66	0x3d7be9ad	0.061502147
67	0x3e90aff7	0.2825925
68	0x3d741524	0.059590474
69	0x3e5a4dc4	0.21318728
70	0x3eace33d	0.3376712
71	0x3d3f349f	0.046681043
72	0x3ed8931f	0.42299744
73	0x3e649ead	0.22326155
74	0x3e338a20	0.1753316
75	0x3e2bebdb	0.1678919
76	0x3efcab91	0.49349645
77	0x3e71e670	0.23623061
78	0x3ec948a1	0.39313224
79	0xbc75499c	-0.014971163
80	0x3e994ebf	0.2994289
81	0x3dbd1630	0.092327476
82	0x3e9c3951	0.3051248
83	0x3ecea275	0.4035832

fc3.weight f4 [10, 84]
0	0xbdf07ba8	-0.117423356
1	0xbed9188a	-0.42401534
2	0x3d20c1d7	0.03924736
3	0x3bf16723	0.007367031
4	0x3da8fa92	0.082509175
5	0x3e0b08ad	0.13577528
6	0x3d60ea47	0.054910924
7	0x3dd1ce3d	0.10244415
8	0xbe61f5f8	-0.22066486
9	0x3e02df24	0.12780434
10	0x3bbf5d9d	0.005840017
11	0xbd524416	-0.051334463
12	0xbe6b44df	-0.22975491
13	0x3da8cb53	0.08241906
14	0xbe32efd9	-0.17474307
15	0x3d84d3ba	0.06485696
16	0xbe40e499	-0.18837203
17	0x3dc3d30a	0.09561737
18	0x3d929d82	0.071589485
19	0x3d884fab	0.066558205
20	0xbdac6aa0	-0.084187746
21	0xbe56b6ed	-0.20968218
22	0xbdf2dea5	-0.11858872
23	0xbd0612d3	-0.032732796
24	0xbd962e23	-0.07333019
25	0xbed14949	-0.40876225
26	0xbe6cf912	-0.23141888
27	0xbe960e87	-0.29307958
28	0xbe8310ad	-0.2559866
29	0x3dea6121	0.11444307
30	0xbe2462cf	-0.16053317
31	0x3dc092b4	0.094029814
32	0x3ddff5ca	0.109355524
33	0x3d9da1c7	0.07696872
34	0x3db77620	0.089580774
35	0xbe521337	-0.20515142
36	0xbe97fcd4	-0.2968508
37	0x3dc78d7c	0.09743783
38	0xbe640e6c	-0.22271127
39	0x3dff6bf1	0.1247176
40	0xbe374e91	-0.17901064
41	0x3b8bf1ca	0.004270767
42	0x3dcfcc59	0.10146398
43	0x3d924b5b	0.07143279
44	0x3be46ede	0.006971224
45	0x3dc42d29	0.09578926
46	0xbdd15c23	-0.10222652
47	0xbe490233	-0.19629745
48	0xbd44f62f	-0.04808634
49	0xbec87852	-0.39154297
50	0x3e2ba6f7	0.16762911
51	0x3dd3e5c5	0.103465594
52	0xbea165fe	-0.31523126
53	0x3dbf173c	0.093306035
54	0x3dcab5fe	0.098979935
55	0x3dacc263	0.08435514
56	0xbe584c33	-0.21122818
57	0xbe9ba9b2	-0.30402905
58	0x3d9ea484	0.077462226
59	0x3db6fd2b	0.08935007
60	0x3d09a35e	0.033603065
61	0x3db8376a	0.089949444
62	0x3dfef681	0.12449361
63	0x3de91e89	0.11382777
64	0xbec2846b	-0.37991652
65	0xbe22c431	-0.15895154
66	0xbce26f65	-0.027641008
67	0x3a82f5b0	0.0009991433
68	0xbe60ef73	-0.21966343
69	0x3ddc54e2	0.107583776
70	0xbe46c69f	-0.19411705
71	0xbe60f07f	-0.21966742
72	0x3dc02ca2	0.09383513
73	0x3d75ebb2	0.06003923
74	0xbd136e0a	-0.035993613
75	0xbe1bce99	-0.1521553
76	0x3dc393f0	0.09549701
77	0x3dc153c1	0.09439803
78	0xbe172a62	-0.14762262
79	0x3bdbe970	0.0067111775
80	0x3dda9169	0.10672266
81	0xbd480fae	-0.04884308
82	0xbe8de874	-0.2771641
83	0xbe50aad8	-0.20377672
84	0xbe002566	-0.12514266
85	0xbedccae1	-0.43123534
86	0xbef3d06f	-0.4761996
87	0xbe94895c	-0.29011047
88	0xbde3bffb	-0.11120602
89	0xbedaf164	-0.4276229
90	0x3e151339	0.14558114
91	0xbe831e34	-0.2560898
92	0x3e16664d	0.14687462
93	0x3e23dae3	0.16001467
94	0x3cf42a21	0.029805245
95	0xbcd2384d	-0.025661612
96	0xbe03ecb9	-0.12883271
97	0x3e17ed13	0.1483653
98	0xbedcfd08	-0.43161798
99	0xbed6290d	-0.41828194
100	0x3e0834f2	0.13301447
101	0xbecee886	-0.40411776
102	0x3e33169a	0.1748909
103	0x3d8f9d7a	0.07012458
104	0xbe6a8ea3	-0.22905974
105	0x3de82cd1	0.11336673
106	0x3d874633	0.06605186
107	0x3e400b6e	0.1875436
108	0xbef0fca1	-0.4706774
109	0x3dfbf103	0.12301829
110	0xbe122f72	-0.14275911
111	0xbe4a4428	-0.19752562
112	0xbf235722	-0.6380483
113	0xbebaa738	-0.36455703
114	0xbe4ae6a3	-0.19814543
115	0xbd83f332	-0.0644287
116	0x3e00f9f5	0.12595351
117	0x3e315c0d	0.17320271
118	0xbed8f4ab	-0.42374167
119	0xbee069ce	-0.43830723
120	0xbe7302e7	-0.23731576
121	0x3c0171ac	0.007900637
122	0xbee78132	-0.45215756
123	0x3dc9f9c7	0.09862094
124	0x3da5d927	0.08098059
125	0x3dbe180b	0.092819296
126	0x3e09d2e0	0.13459349
127	0xbe107c67	-0.14109956
128	0x3d2e6f83	0.042586815
129	0x3e05b818	0.13058507
130	0xbe3acc64	-0.18242031
131	0xbe006b78	-0.12540996
132	0xbe866004	-0.2624513
133	0x3d011542	0.031514414
134	0xbe807f8b	-0.25097308
135	0xbeeea0ce	-0.4660706
136	0xbe826331	-0.25466302
137	0x3e02ceed	0.12774248
138	0xbf10a653	-0.5650379
139	0xbe5d2bfb	-0.21598808
140	0xbe25b26b	-0.16181342
141	0x3e27f647	0.16402541
142	0x3dd60c36	0.10451548
143	0xbec508a0	-0.38483143
144	0x3e4e2a74	0.20133382
145	0xbf0d3fdc	-0.55175567
146	0x3d9988b9	0.07496781
147	0x3e01da9c	0.12681049
148	0x3e3089a3	0.17240004
149	0x3dbfc6fc	0.09364125
150	0xbd7114fc	-0.058857903
151	0xbea1bef7	-0.31591007
152	0xbcd83fd0	-0.026397616
153	0x3d52544b	0.05134992
154	0xbe0d22d6	-0.1378282
155	0x3d676e18	0.056501478
156	0xbe23c2ef	-0.1599233
157	0x3d76b6eb	0.060233038
158	0x3e0f3752	0.13985947
159	0xbe8dc8df	-0.27692315
160	0xbeaa7621	-0.3329325
161	0xbeca4d88	-0.39512277
162	0x3e3159ab	0.17319362
163	0x3e052df4	0.13005811
164	0xbee4bbcd	-0.4467453
165	0xbe879d6f	-0.264873
166	0xbedf3df3	-0.4360195
167	0xbed44b28	-0.4146359
168	0xbddee482	-0.10883428
169	0x3d6883b6	0.056766234
170	0x3d2ba9a6	0.041909836
171	0x3c8f0b81	0.01746154
172	0x3d96b68d	0.073590375
173	0xbe28252e	-0.16420433
174	0x3de0933d	0.109655835
175	0x3db614a0	0.08890653
176	0xbe5b569f	-0.21419762
177	0x3830b9c0	4.2134663e-05
178	0xbeb81bf3	-0.35958824
179	0xbd883354	-0.06650415
180	0xbe43c5a1	-0.19118358
181	0xbdd99c9f	-0.10625576
182	0x3d8b3dde	0.067989096
183	0x3da488a5	0.080338754
184	0xbe058c11	-0.13041712
185	0x3db85368	0.090002835
186	0x3d838b6e	0.064230785
187	0xbebfdeba	-0.37474614
188	0xbd03628b	-0.0320764
189	0x3dde5df7	0.10857766
190	0xbddac1eb	-0.10681518
191	0xbeeef493	-0.4667097
192	0x3d79e6b9	0.06101105
193	0xbe4d6e7a	-0.20061675
194	0x3d928d8f	0.071559064
195	0x39061875	0.00012788347
196	0x3d87667d	0.06611345
197	0xbe7a684e	-0.24453852
198	0xbdc3e9da	-0.09566088
199	0xbea6d083	-0.32580957
200	0xbe108815	-0.14114411
201	0x3ce82aca	0.028340716
202	0x3d78fe81	0.06078959
203	0x3d98d289	0.074620314
204	0xbb0889d5	-0.0020834107
205	0x3e22fe77	0.15917383
206	0x3dc5c67c	0.096569985
207	0xbe349986	-0.1763669
208	0xbe0ed2b8	-0.1394757
209	0xbc2d7b5e	-0.010588495
210	0x3dfc94c3	0.123330615
211	0xbe4e7b7a	-0.2016429
212	0xbee2c8db	-0.44293866
213	0x3dcfeda3	0.101527475
214	0xbe1311de	-0.14362285
215	0xbd10fc08	-0.035396606
216	0xbd209218	-0.039201826
217	0xbdf796b9	-0.12089295
218	0x3e1ac7e9	0.15115322
219	0x3d95d97c	0.073168725
220	0x3d86e9ef	0.06587588
221	0x3df86c57	0.12130039
222	0x3dced0ff	0.100984566
223	0xbe80e080	-0.2517128
224	0x3d8afe05	0.06786732
225	0x3dd058ca	0.10173185
226	0xbe09a94c	-0.13443488
227	0x3daf2426	0.08551817
228	0xbd33abc2	-0.043864973
229	0x3dec3fc7	0.11535602
230	0x3db4dd1c	0.08831236
231	0xbe1f1331	-0.15534665
232	0x3c294378	0.010331027
233	0xbdcf2d14	-0.1011602
234	0xbd034b7f	-0.03205442
235	0xbc0935eb	-0.008374671
236	0xbde9b32c	-0.114111274
237	0xbea021be	-0.31275743
238	0xbe3c0897	-0.18362652
239	0xbef9f305	-0.48818222
240	0x3dc8897d	0.09791849
241	0xbe86a04a	-0.26294166
242	0xbd613deb	-0.05499069
243	0x3df5486d	0.11976705
244	0x3da9b111	0.08285726
245	0xbe8fee79	-0.28111628
246	0x3de7e594	0.113230854
247	0x3cd6f7a7	0.026241137
248	0xbde220bc	-0.110414
249	0xbee2c3b8	-0.44289947
250	0x3d6b3b4e	0.057429604
251	0x3dee72a1	0.116429575
252	0xbe218532	-0.15773466
253	0xbefe10e9	-0.49622276
254	0xbea85df2	-0.32884175
255	0x3d23304a	0.039840974

fc3.bias f4 [10]
0	0xbd1f4589	-0.038884673
1	0xbf0a14e6	-0.5393814
2	0xbbf30491	-0.007416316
3	0x3ecebbea	0.40377742
4	0x3d9e4e61	0.07729793
5	0xbe83e63d	-0.25761595
6	0x3e30cad3	0.17264871
7	0x3e26863b	0.16262142
8	0x3df01d4e	0.117243394
9	0xbea6818e	-0.32520717
