models/Weight_Decay_best.pth (torch, 250917 bytes, 10 tensors)

conv1.weight f4 [6, 1, 5, 5]
0	0xbd76941c	-0.06019984
1	0xbdcf6d55	-0.10128275
2	0x3e4b8932	0.19876555
3	0xbd6d1418	-0.05788049
4	0x3d8c539a	0.06851883
5	0xbef7b87b	-0.48382935
6	0x3ddc5666	0.10758667
7	0x3ebff6fd	0.37493125
8	0xbb7d250e	-0.0038626823
9	0x3c2ef7c8	0.010679193
10	0xbf240a5b	-0.640783
11	0xbc538c3d	-0.012911853
12	0x3f0dfa67	0.5546021
13	0x3dc62160	0.096743345
14	0x3b45ae0c	0.0030163554
15	0xbed5e296	-0.41774434
16	0x3e2bb697	0.16768871
17	0x3ecde9ad	0.40217343
18	0xbd0a1eb4	-0.033720687
19	0xbddf156a	-0.10892756
20	0xbecf848b	-0.4053081
21	0x3e6213b9	0.22077836
22	0x3e832a6e	0.2561831
23	0xbd9be7c9	-0.07612569
24	0xbb644e08	-0.003483655
25	0xbecbcfe4	-0.39807045
26	0xbe534a17	-0.20633732
27	0xbe151c6a	-0.1456162
28	0x3f06c100	0.52638245
29	0x3e15eea4	0.14641815
30	0xbe9e6ca5	-0.30942264
31	0xbf29518e	-0.6614007
32	0x3ec4b158	0.38416553
33	0x3f11f510	0.5701456
34	0xbe8a5ca4	-0.27023804
35	0xbda15270	-0.07877052
36	0x3e3f41b4	0.18677408
37	0xbdadd0fc	-0.08487126
38	0x3e8aa36c	0.27077806
39	0xbe26d072	-0.16290453
40	0x3d419df3	0.047269773
41	0x3d3bbbcf	0.045833405
42	0xbd7987b9	-0.06092045
43	0x3e2c6d9a	0.16838685
44	0x3c89c1d0	0.01681605
45	0x3cc04139	0.0234686
46	0xbdeae287	-0.11468988
47	0x3d8dc58d	0.069224454
48	0xbd9254c7	-0.07145076
49	0x3dbd298d	0.09236441
50	0xbd6739ac	-0.056451485
51	0xbe8e83c5	-0.27834907
52	0xbe85023b	-0.25978264
53	0xbe3ba67a	-0.18325225
54	0xbd0048a4	-0.031319275
55	0xbcc8221c	-0.024430327
56	0xbe26289f	-0.16226433
57	0xbe74581a	-0.23861733
58	0xbe707baa	-0.23484674
59	0x3d629e7b	0.05532692
60	0xbc84c9f2	-0.016209576
61	0xbe809428	-0.25113034
62	0xbe79165b	-0.24324934
63	0xbe7985b8	-0.24367416
64	0xbd71fae5	-0.059077162
65	0x3e98a0b5	0.2981011
66	0xbd93bd57	-0.07213848
67	0x3d7613ce	0.06007748
68	0xbe47a9a6	-0.1949831
69	0xbbd64780	-0.006539285
70	0x3cbd4a84	0.02310682
71	0x3e59d614	0.2127307
72	0xbdeaed9a	-0.114711
73	0xbde76299	-0.11298103
74	0xbdd27f41	-0.10278178
75	0xbc9bf534	-0.01903782
76	0x3b71d7c8	0.0036902297
77	0x3c258c03	0.010104182
78	0x3e3257b3	0.17416267
79	0x3e7e259f	0.24819039
80	0xbd4860ef	-0.048920568
81	0x3d3729be	0.044717543
82	0x3cfe211d	0.031021649
83	0x3ee74221	0.4516764
84	0x3e6aa674	0.2291506
85	0x3eaad425	0.33364978
86	0x3e4f1ced	0.20225878
87	0x3ce80cf0	0.028326482
88	0x3e772899	0.2413658
89	0xbda06896	-0.07832448
90	0x3eaf7d18	0.34275126
91	0x3eaa2285	0.3322946
92	0xbd1baf50	-0.038008988
93	0x3daa3b7d	0.08312128
94	0xbd23ab44	-0.039958254
95	0xbcef5888	-0.02921702
96	0x3e3feee1	0.18743469
97	0xbec982cc	-0.39357603
98	0x3e661a03	0.2247086
99	0xbe1f3a6c	-0.1554963
100	0xbcb1bddf	-0.021696983
101	0x3e3115d4	0.17293483
102	0x3e21ecf5	0.15813048
103	0x3e42e381	0.19032098
104	0x3e4dcd20	0.2009778
105	0xbd80ae11	-0.062832005
106	0x3e153d95	0.14574273
107	0x3dd7e582	0.10541822
108	0xbb972794	-0.0046128724
109	0xbe381885	-0.17978103
110	0xbdfe5e07	-0.12420278
111	0xbee5780d	-0.44818154
112	0xbf1b465c	-0.60654235
113	0xbefa5395	-0.48891893
114	0x3bf0edb3	0.0073525547
115	0xbce61f0f	-0.028090982
116	0xbee69cda	-0.45041543
117	0xbe9fe01c	-0.3122567
118	0xbde90ead	-0.11379752
119	0x3ec12637	0.37724468
120	0xbd66ad10	-0.05631739
121	0x3e714bb9	0.23564042
122	0x3eef38ab	0.46722922
123	0x3ee35b78	0.44405723
124	0x3dfe0111	0.12402547
125	0x3eb14b24	0.3462764
126	0x3ed170e8	0.40906453
127	0x3eb066c4	0.34453404
128	0x3dc398bc	0.09550616
129	0x3d96f8a9	0.07371647
130	0x3e439e36	0.19103321
131	0x3df833a2	0.12119223
132	0x3e0e3fff	0.138916
133	0x3dc188b4	0.09449902
134	0x3e3faa25	0.18717249
135	0x3d82fb2b	0.06395563
136	0x3e1df937	0.15427099
137	0xbd24c132	-0.040223308
138	0xbc10b81b	-0.008832957
139	0xbe3fbc22	-0.1872411
140	0xbe08571e	-0.13314483
141	0xbee07136	-0.43836373
142	0xbefa9d96	-0.48948354
143	0xbf100153	-0.5625202
144	0xbeb52aba	-0.3538416
145	0xbdbf8e1a	-0.093532756
146	0xbe94307e	-0.28943247
147	0xbe9056f0	-0.28191328
148	0xbe88e441	-0.26736644
149	0xbdf95109	-0.12173659

conv1.bias f4 [6]
0	0xbc80e29e	-0.01573306
1	0x3bdfc2eb	0.006828656
2	0xbebe020a	-0.3711093
3	0xbe14a26b	-0.14515083
4	0xbcee1458	-0.029062435
5	0xbea0ee00	-0.3143158

conv2.weight f4 [16, 6, 5, 5]
0	0xbe930961	-0.28718093
1	0xbb84636e	-0.0040401733
2	0x3b4e422d	0.003147255
3	0xbea6e884	-0.3259927
4	0x3e03b307	0.12861262
5	0xbdb3b048	-0.08773857
6	0x3c4d2ffa	0.012523646
7	0xbb5f8ec3	-0.0034112192
8	0x3e326a68	0.17423403
9	0x3c538fdd	0.012912718
10	0x3df21678	0.11820692
11	0x3ca0c6c9	0.019626038
12	0x3dc79ad8	0.09746331
13	0x3dfbbd28	0.12291938
14	0x3d7b4a46	0.06135013
15	0xbe100cfd	-0.14067455
16	0xbe848a37	-0.258867
17	0x3dd08515	0.101816334
18	0x3e37f8cd	0.17966004
19	0x3d3dd97b	0.046349984
20	0xbefe1f92	-0.4963346
21	0xbf062afa	-0.5240933
22	0xbd9671e8	-0.07345945
23	0x3d326b22	0.0435592
24	0xbdd8a6b6	-0.105786726
25	0xbe1ec12a	-0.15503374
26	0x3d08c98c	0.033395335
27	0x3dca682c	0.098831505
28	0xbe1f74b3	-0.15571861
29	0xbeb599d2	-0.35468918
30	0xbe0bb065	-0.13641508
31	0x3e6350f4	0.2219885
32	0x3c61f2a1	0.013790757
33	0xbe7425a0	-0.23842478
34	0x3d705d10	0.0586825
35	0x3e676027	0.22595273
36	0xbd41fe57	-0.047361698
37	0x3d803e76	0.062619135
38	0x3e479c4b	0.19493215
39	0xbe0d380c	-0.13790911
40	0x3e882104	0.2658769
41	0xbe354cd5	-0.1770509
42	0x3e15502f	0.14581369
43	0x3dd42e3d	0.10360382
44	0x3c6d9072	0.0144997705
45	0xbe910c06	-0.28329486
46	0xbe80746e	-0.2508883
47	0x3e2d056d	0.16896601
48	0xbd9424da	-0.072335914
49	0x3d978a17	0.073993854
50	0xbde0d4a3	-0.10978057
51	0xbddd0959	-0.107927985
52	0xbe06b802	-0.13156131
53	0xbe313672	-0.17305925
54	0xbca0b853	-0.019619143
55	0x3c8d25ea	0.017229993
56	0xbc965d4b	-0.018355032
57	0xbd77c23e	-0.06048798
58	0x3d5471d0	0.051866353
59	0x3d24e603	0.04025842
60	0x3d5d3bd7	0.054012146
61	0x3bdf8661	0.006821439
62	0x3dc94cfb	0.09829136
63	0xbd3e959d	-0.0465294
64	0x3d9f7a8d	0.077870466
65	0xbbedb2e9	-0.007253994
66	0x3e215e04	0.1575852
67	0x3e10d098	0.14142072
68	0x3d74bb1a	0.059748746
69	0xbcbba79f	-0.022907076
70	0xbd042c87	-0.032269027
71	0x3d238d4e	0.03992968
72	0x3e378fae	0.17925903
73	0x3e3b26fa	0.18276587
74	0xbc87dd72	-0.016585086
75	0xbe05128e	-0.1299536
76	0xbd246af9	-0.04014108
77	0xbe5b6a55	-0.21427281
78	0x3c7b2eaf	0.015330954
79	0xbe08f403	-0.13374333
80	0x3caeba71	0.021329137
81	0x3c5957d6	0.013265571
82	0xbe16b401	-0.14717104
83	0x3d287b50	0.041133225
84	0xbe8138ee	-0.25238746
85	0xbe0a5a59	-0.13511027
86	0xbdb82307	-0.08991056
87	0xbdf31270	-0.11868751
88	0x3dd93374	0.10605517
89	0xbeb9c977	-0.36286518
90	0xbcf02a2f	-0.02931699
91	0x3db69e36	0.08916895
92	0xbd6c7afc	-0.057734475
93	0x3dbf5bbd	0.093436696
94	0xbe88b119	-0.26697615
95	0xbdb5d826	-0.08879118
96	0xbd7da66f	-0.0619263
97	0x3ca4c9ed	0.020115817
98	0xbd1f08f6	-0.038826905
99	0xbed37918	-0.41303325
100	0x3d79457d	0.060857285
101	0xbda33fc9	-0.079711504
102	0xbebb1e05	-0.3654634
103	0x3dd970e5	0.10617236
104	0x3dbbff6b	0.091795765
105	0xbba74fa0	-0.0051059276
106	0xbe1ca458	-0.15297067
107	0x3c18d4fd	0.009328124
108	0xbdd5bce8	-0.10436422
109	0xbd30861e	-0.043096654
110	0xbdeba0df	-0.11505293
111	0xbd73f2a2	-0.059557565
112	0x3d1755a7	0.03694692
113	0x3c9e20e7	0.019302798
114	0xbce3aca5	-0.027792284
115	0xbe0ee92b	-0.13956134
116	0xbd290474	-0.041264012
117	0x3b4bf6f5	0.003112254
118	0x3da36597	0.07978361
119	0x3ddbfda9	0.10741741
120	0xbe598657	-0.21242653
121	0xbbca0792	-0.006165453
122	0xbd143970	-0.03618759
123	0x3dd45d02	0.10369302
124	0x3e2f66e3	0.17129092
125	0xbce71f6d	-0.028213227
126	0xbd95da80	-0.07317066
127	0xbd9a2a31	-0.075275786
128	0xbb03e3c8	-0.0020124782
129	0x3e1e21f6	0.15442643
130	0x3b75deb1	0.0037516768
131	0x3b8a0a5b	0.0042126602
132	0x3e0f359b	0.13985293
133	0xbe09bce7	-0.13450967
134	0x3d790b54	0.06080182
135	0xbe677e2b	-0.22606723
136	0x3e075485	0.13215835
137	0x3e54e77a	0.20791426
138	0xbdaa5c9f	-0.08318447
139	0x3c5e21b9	0.013557845
140	0xbbb1e1d7	-0.0054285335
141	0x3e11c98d	0.14237042
142	0x3dd02fb9	0.101653524
143	0x3e1471df	0.14496563
144	0x3e6a5334	0.22883302
145	0x3d8e6dcf	0.06954538
146	0x3ddcc6aa	0.1078008
147	0xbe11378b	-0.14181344
148	0xbadee5e8	-0.0017005773
149	0xbcfeda6c	-0.031110011
150	0xbe90bee4	-0.28270638
151	0xbe83d85e	-0.25751013
152	0xbe76bb0c	-0.2409479
153	0xbdc3ff86	-0.095702216
154	0xbe212203	-0.1573563
155	0xbe155ee0	-0.14586973
156	0xbd549f58	-0.051909775
157	0xbe96ad03	-0.29428872
158	0xbd9eea03	-0.07759478
159	0xbe8e225b	-0.27760586
160	0xbe4f2707	-0.20229732
161	0xbdb19eee	-0.086728916
162	0xbebffb93	-0.37496623
163	0x3da72faf	0.08163392
164	0xbe2bc458	-0.16774118
165	0xbe8a963e	-0.2706775
166	0xbeb7d659	-0.35905722
167	0xbecbfa18	-0.39839244
168	0x3e4370a1	0.19085933
169	0xbb312b75	-0.002703396
170	0xbf0bd0fc	-0.5461576
171	0xbecf4127	-0.40479395
172	0xbebb12f1	-0.3653789
173	0xbcb98a1f	-0.02264887
174	0xbc88d58c	-0.01670339
175	0xbe138a18	-0.14408147
176	0xbe82852e	-0.25492233
177	0xbe24b26e	-0.1608369
178	0xbe2c050c	-0.167988
179	0xbe4d01e1	-0.20020248
180	0xbd2ed08c	-0.042679355
181	0xbcc8919d	-0.024483496
182	0xbdfd8b44	-0.123800784
183	0xbe82c878	-0.2554357
184	0xbde84cdb	-0.11342784
185	0x3dfdbd14	0.123895794
186	0xbdae2033	-0.08502235
187	0xbd5bd106	-0.053666137
188	0x3cfdaba7	0.03096564
189	0x3d89ec4e	0.06734525
190	0x3e650f82	0.22369197
191	0xbe84234e	-0.25808185
192	0xbdedbc16	-0.1160814
193	0x3e0eb205	0.13935097
194	0xbded51ff	-0.11587905
195	0xbdbfbfde	-0.09362768
196	0xbebdcb30	-0.37069082
197	0xbd5138cd	-0.05107956
198	0x3dee394f	0.116320245
199	0xbdf2b5f3	-0.1185111
200	0x3d471538	0.04860422
201	0xbd848d60	-0.06472278
202	0xbcada99f	-0.021199046
203	0x3e065b5a	0.13120785
204	0x3d094d24	0.033520833
205	0x3dc0de0d	0.09417353
206	0x3b2f5cc4	0.0026758173
207	0x3db87363	0.09006383
208	0x3dc33083	0.09530737
209	0x3df68d2e	0.12038647
210	0x3d66bad6	0.056330524
211	0xbc580833	-0.013185549
212	0x3e2482f2	0.16065577
213	0x3e37acd6	0.17937025
214	0x3e9adba8	0.3024571
215	0xbc77e593	-0.015130418
216	0x3dd32fa3	0.1031182
217	0x3e07dfe5	0.13269003
218	0xbae73f03	-0.001764268
219	0x3e5551b4	0.20831949
220	0xbd2f0e36	-0.042738162
221	0x3e0666c3	0.13125138
222	0x3e191bea	0.14952055
223	0xbd7754c3	-0.06038357
224	0x3d492635	0.049108703
225	0xbe8387cd	-0.25689545
226	0xbd9e3c69	-0.07726366
227	0xbc4bd7b4	-0.012441564
228	0x3e1b62bf	0.15174387
229	0x3e5090e1	0.20367767
230	0xbe03b43f	-0.12861727
231	0x3d50fe18	0.051023573
232	0x3cb9ed77	0.02269624
233	0x3d5b8eea	0.05360309
234	0x3e20e5f2	0.15712717
235	0xbbad08f3	-0.005280608
236	0x3ca7761d	0.020442063
237	0x3e252923	0.16128974
238	0x3e061aee	0.1309621
239	0x3e2dd169	0.16974415
240	0xbddf6f07	-0.10909849
241	0x3dcbbd79	0.099482484
242	0x3e025e98	0.12731397
243	0x3daaff54	0.08349481
244	0x3ddff4ff	0.10935401
245	0xbe02f17c	-0.12787431
246	0xbd95bdda	-0.07311602
247	0xbd7593c6	-0.05995538
248	0xbd98b06a	-0.07455523
249	0x3d527198	0.051377863
250	0x3c350704	0.011049036
251	0x3d440e3e	0.047865145
252	0xbe865f40	-0.26244545
253	0xbe389d89	-0.18028845
254	0x3d794510	0.06085688
255	0x3e773814	0.24142486

conv2.bias f4 [16]
0	0xbe3ad67f	-0.18245886
1	0x3dce5e07	0.10076528
2	0xbe26dce1	-0.16295196
3	0x3da5d004	0.080963165
4	0xbe1dde4a	-0.15416828
5	0xbd3407a2	-0.04395259
6	0xbcdccde6	-0.026953649
7	0xbe4bc2cd	-0.1989853
8	0xbe05a35e	-0.13050601
9	0xbd3163c0	-0.04330802
10	0x3dacd707	0.08439451
11	0xbd8f61b5	-0.07001058
12	0x3c34f405	0.011044507
13	0x3e1580ae	0.14599869
14	0xbc543bf6	-0.012953749
15	0x3ea43e58	0.32078815

fc1.weight f4 [120, 400]
0	0xbd6968fc	-0.056984887
1	0xbda08f94	-0.07839885
2	0x3d156743	0.03647543
3	0x3d939192	0.072055
4	0x3b8c592b	0.0042830906
5	0xbd037744	-0.032096162
6	0x3d08de3b	0.03341506
7	0xbd0c33e4	-0.034229174
8	0x3dce5598	0.100749195
9	0xbd85f1ea	-0.06540282
10	0xbd155b07	-0.036463764
11	0x3a201333	0.00061063765
12	0x3d050846	0.032478593
13	0x3d69aa97	0.057047453
14	0xbd8ee1df	-0.06976675
15	0xbdcf9a4e	-0.10136853
16	0x3d0cce8a	0.03437666
17	0x3d747750	0.059684098
18	0xbd61df38	-0.05514452
19	0x3d85c741	0.06532145
20	0xbd2f07a1	-0.042731885
21	0x3d27901e	0.040908925
22	0x3c59c888	0.013292439
23	0x3c98c62a	0.01864918
24	0x3d1b4964	0.037911788
25	0xbd6c0405	-0.05762102
26	0xba833edc	-0.001001324
27	0xbd0f6ecf	-0.035017785
28	0xbd62dc94	-0.05538614
29	0x3db174dd	0.08664868
30	0xbcc14dc6	-0.023596656
31	0xbdc661b2	-0.09686603
32	0xbc857f52	-0.016296063
33	0xbd80d52e	-0.06290661
34	0xbd88d976	-0.066821024
35	0xbd377321	-0.04478753
36	0xbdc43cfa	-0.09581943
37	0x3da082ec	0.07837471
38	0xbcd3c82d	-0.025852287
39	0x3d8b92bb	0.06815096
40	0xbc8438d8	-0.016140386
41	0xbd53428b	-0.051577132
42	0x3d8dbc15	0.069206394
43	0xbd838d7a	-0.06423469
44	0xbd98e856	-0.074661896
45	0xbdaaa646	-0.083324954
46	0x3c17372b	0.009229462
47	0x3d20e592	0.039281435
48	0x3d3df8ae	0.046379738
49	0xbd1122e5	-0.03543367
50	0x3e161ad6	0.14658675
51	0x3ce241a1	0.027619185
52	0x3d5c4c0c	0.05378346
53	0xbe005069	-0.12530674
54	0xbc5d1dd4	-0.013495881
55	0x3e204c15	0.15654023
56	0xbd73f972	-0.05956406
57	0x3d8426f1	0.0645274
58	0xbd7d1ef8	-0.061797112
59	0x3d94c65f	0.07264399
60	0x3dd3f419	0.10349292
61	0xbcfb226d	-0.030656064
62	0xbc1af7b2	-0.009458469
63	0xbdd0caa0	-0.10194898
64	0xbd1207dd	-0.03565203
65	0xbbe81759	-0.0070828614
66	0x3c83c14d	0.016083384
67	0x3c8903e2	0.016725484
68	0xbd611a34	-0.05495663
69	0xbcd2073a	-0.025638212
70	0x3d9ee4ba	0.0775847
71	0x3d380997	0.04493102
72	0xbc0fe920	-0.008783609
73	0x3dcbe9c1	0.099566944
74	0xbced826b	-0.028992852
75	0xbd98fe92	-0.074704304
76	0xbc11646b	-0.008874039
77	0xbd654f7b	-0.055984
78	0x3e2ccd15	0.16875108
79	0xbda1a511	-0.07892812
80	0xbd2c4ef6	-0.04206749
81	0x3c0d5b64	0.008627746
82	0xbd39fac6	-0.04540517
83	0xbe2c0012	-0.16796902
84	0x3dc85b63	0.09783056
85	0xbb412026	-0.0029468625
86	0xbe154383	-0.14576535
87	0x3e137f84	0.14404112
88	0x3d45288f	0.048134383
89	0xbd94f5f9	-0.07273478
90	0x3db43383	0.087988876
91	0xbe338453	-0.17530946
92	0x3df62d64	0.12020376
93	0xbc257ee5	-0.010101055
94	0xbddba8de	-0.10725568
95	0x3d618f00	0.055068016
96	0xbe126160	-0.14294958
97	0x3ca94116	0.020660918
98	0x3da0f081	0.078583725
99	0x3d093226	0.03349509
100	0xbd1a6623	-0.03769506
101	0xbc873c9b	-0.016508391
102	0x3cb3a647	0.021929873
103	0xbac4d59d	-0.0015017275
104	0x3d1e50bb	0.03865121
105	0xbe15d014	-0.14630157
106	0xbd67347f	-0.05644655
107	0x3cfa3459	0.03054254
108	0xbc3b45ec	-0.011430245
109	0xbb1c7194	-0.0023871409
110	0xbe7461cf	-0.23865436
111	0x3b500c0f	0.0031745469
112	0x3d51f300	0.051257133
113	0xbcbc5880	-0.022991419
114	0xbd26ddae	-0.040738754
115	0xbd0ebaa6	-0.03484597
116	0xbcf351e7	-0.02970214
117	0x3cfc40fd	0.030792708
118	0xbcc346a4	-0.023837395
119	0xbdb98174	-0.09057894
120	0xbd2611a5	-0.04054417
121	0xbc32257b	-0.010873194
122	0x3db5394d	0.0884882
123	0xbc524075	-0.012832751
124	0x39fcc2bb	0.0004821027
125	0xbcff82a5	-0.031190226
126	0x3ce9e1ea	0.028550107
127	0x3d3ef432	0.0466196
128	0x3e1e717e	0.15472981
129	0xbd33bbd5	-0.043880302
130	0x3d046dea	0.032331385
131	0xbe954f66	-0.2916214
132	0x3da49ab7	0.08037322
133	0x3d043f9e	0.032287233
134	0x3c84a682	0.016192678
135	0xbd130b3b	-0.035899382
136	0xbdcbf2b6	-0.09958403
137	0xbd132429	-0.035923157
138	0x3d397121	0.045273904
139	0xbc3a3937	-0.01136618
140	0x3c7ba499	0.015359067
141	0xbd36963b	-0.044576865
142	0x3cee0c49	0.029058592
143	0x3e03f91e	0.12888
144	0x3ca7af05	0.020469198
145	0xbdf75ae9	-0.120778866
146	0xba7b2c59	-0.00095814985
147	0x3c9e4aaf	0.019322721
148	0x3e45bfc6	0.19311437
149	0x3d81e35a	0.06342192
150	0x3d7cc38e	0.061709933
151	0xbc8b6a91	-0.017018588
152	0xbaabc8ff	-0.0013106166
153	0x3dbfc0b4	0.09362927
154	0x3d9cc276	0.07654278
155	0x3d3d3fa5	0.046203274
156	0x3d903bb6	0.07042639
157	0x3dc8a810	0.097976804
158	0x3cb3d9c3	0.021954423
159	0x3cad037e	0.02111983
160	0x3b693418	0.0035584029
161	0x3caf2508	0.021379963
162	0x3d3f8c02	0.04676438
163	0x3dc1f640	0.094707966
164	0xbccd6095	-0.025070468
165	0xbd8f3c2c	-0.06993899
166	0xbd86e5ce	-0.065868005
167	0xbd6c4906	-0.057686828
168	0x3daf5a7d	0.08562181
169	0x3d11b627	0.035574105
170	0x3d958b76	0.07301991
171	0xbd103c8e	-0.035214
172	0x3d772c19	0.06034479
173	0x3da60b55	0.0810763
174	0x3dbc4c84	0.09194282
175	0xbb824857	-0.0039759087
176	0xbdbde040	-0.09271288
177	0x3d1f2fb2	0.038863845
178	0xbde41edc	-0.111386985
179	0xbdb2d411	-0.08731855
180	0xbc1a1515	-0.00940444
181	0xbdbe5401	-0.09293366
182	0x3e291dc9	0.16515268
183	0x3de3c78a	0.111220434
184	0x3d0a737a	0.033801533
185	0xbdb1b9c1	-0.08678008
186	0xbe566acf	-0.20939182
187	0xbc33653f	-0.010949432
188	0x3d69b0b7	0.057053294
189	0xbdf9bf93	-0.12194743
190	0xbc8a325a	-0.016869713
191	0xbe1bf06f	-0.15228437
192	0x3ce5eafe	0.028066155
193	0xbd92382e	-0.07139622
194	0xbda179df	-0.07884573
195	0xbbe8b642	-0.007101805
196	0x3dbd6cff	0.09249305
197	0x3e0fb347	0.14033233
198	0xbdc59558	-0.09647626
199	0xbce386a7	-0.027774168
200	0xbcb629fd	-0.022236818
201	0xbddcfd97	-0.10790556
202	0xbd244878	-0.040108174
203	0xbdb15cfa	-0.08660312
204	0x3df833bf	0.12119245
205	0xbdbaba96	-0.0911762
206	0xbca7994e	-0.020458844
207	0x3e23ce36	0.15996632
208	0x3e1b3061	0.15155174
209	0xbcca2d77	-0.024679882
210	0xbdce9bda	-0.1008832
211	0x3d20a096	0.039215647
212	0x3da9b3b2	0.08286227
213	0x3dd70075	0.10498134
214	0xbca5c079	-0.02023338
215	0xbdaa5fef	-0.08319079
216	0x3c720b7d	0.014773247
217	0x3d0318cd	0.032006074
218	0x3d78bc25	0.060726304
219	0xbbdffedd	-0.006835802
220	0x3deebfcb	0.11657675
221	0x3c99cd40	0.018774629
222	0xbce703bd	-0.028200025
223	0xbe24c84b	-0.1609203
224	0x3dd0788a	0.10179241
225	0xbe088b07	-0.13334285
226	0xbc21a8b5	-0.009866883
227	0xbe44824d	-0.19190331
228	0x3da48923	0.08033969
229	0x3d27ff71	0.041015092
230	0xbe292cd5	-0.16521008
231	0x3dcb81ff	0.09936904
232	0x3d1d3a1b	0.03838549
233	0x3e05f1a8	0.13080466
234	0xbd2b5755	-0.041831333
235	0x3daac0d9	0.08337564
236	0x3d99570d	0.07487307
237	0xbc09573b	-0.008382614
238	0xbdf18b37	-0.11794131
239	0xbd3d8fae	-0.0462796
240	0x3df1c505	0.118051566
241	0x3cbb478c	0.022861265
242	0xbd2bbd77	-0.041928735
243	0x3cbaec35	0.02281771
244	0xbcfd2517	-0.030901475
245	0x3d7f4b39	0.062327597
246	0xbd5bb036	-0.053634845
247	0x3c3f8363	0.01168904
248	0xbb6d603e	-0.0036220695
249	0xbe349600	-0.17635345
250	0xbcd2a77a	-0.025714625
251	0x3da3a141	0.07989741
252	0xbd7c2034	-0.06155415
253	0xbd16a51b	-0.03677855
254	0xbbdd26ff	-0.0067490335
255	0xbd3b0383	-0.045657646

fc1.bias f4 [120]
0	0xbc046404	-0.008080486
1	0x3d1a37ac	0.03765075
2	0x3cb590ef	0.022163836
3	0xb94aae8e	-0.00019329248
4	0x395308dc	0.00020125828
5	0x3d174088	0.036926776
6	0x3d4a75b5	0.04942866
7	0xbdbf06ba	-0.09327455
8	0xbbb32eac	-0.00546821
9	0x9dd72282	-5.6945706e-21
10	0x3d31ad90	0.043378413
11	0xbc0c6688	-0.008569367
12	0x8d8ea8a5	-8.792025e-31
13	0x801bea82	-2.563684e-39
14	0xbcc18140	-0.023621202
15	0xbc9ff44a	-0.019525666
16	0x3cd4aaea	0.025960404
17	0x3c936d00	0.017996311
18	0xba241493	-0.00062591693
19	0x3dbb0e53	0.091335915
20	0xbcdd05fd	-0.026980394
21	0xbc90f2ad	-0.017693842
22	0x3ddab0e2	0.10678269
23	0x3d94af1e	0.072599635
24	0xbc81be39	-0.015837776
25	0x3d78e943	0.06076933
26	0x3d728b7e	0.05921506
27	0x3d63e783	0.05564071
28	0x3d56716e	0.05235427
29	0xbd23008e	-0.03979545
30	0xbb98a8f9	-0.004658815
31	0xbc98ad6f	-0.018637387
32	0x3cf57929	0.029965
33	0xa9249014	-3.6540283e-14
34	0x3d4f0fc5	0.05055215
35	0xbc6c35e1	-0.014417143
36	0xbc51d5b5	-0.012807299
37	0xb21fc8db	-9.300687e-09
38	0xbd6eb184	-0.05827476
39	0x3d9366bc	0.071973294
40	0xbd1e64e5	-0.03867044
41	0x3d493fb6	0.049133025
42	0xbd22bf00	-0.039732933
43	0x3dd7d4fd	0.10538671
44	0x3cc09548	0.023508683
45	0xbd0e2abd	-0.034708727
46	0xa97079fd	-5.3396513e-14
47	0xa62d4d83	-6.012648e-16
48	0x3d8e0df9	0.06936259
49	0x3cf807c9	0.03027715
50	0xbc79b6c9	-0.015241333
51	0xbb1112b6	-0.0022136397
52	0x3da002a4	0.07813004
53	0x3a7b87b3	0.0009595111
54	0xbcc7def9	-0.024398314
55	0x3bb3e2c2	0.005489678
56	0x3d84bb18	0.06480998
57	0x3ce81038	0.028328046
58	0xbc1de404	-0.009636883
59	0xbc7a75d0	-0.015286878
60	0x3db5fbc3	0.0888591
61	0xbb4df575	-0.0031426821
62	0xbc250d67	-0.010073996
63	0x3ad8012e	0.0016479844
64	0x3d2b428b	0.041811507
65	0xbd183b5a	-0.037165977
66	0x3aa5a18f	0.0012636649
67	0x3d9c111d	0.076204516
68	0x3d31d507	0.04341605
69	0x3d356385	0.044284362
70	0x3d1b25ef	0.037877973
71	0xb95d7a3b	-0.00021121737
72	0x3b77171d	0.0037702986
73	0xb4934423	-2.743046e-07
74	0x3d67865a	0.056524612
75	0xbd9e010e	-0.07715045
76	0x3ccfab56	0.025350254
77	0x3b973233	0.0046141385
78	0xbd3f80da	-0.04675374
79	0x3d9071f5	0.070529856
80	0x3d6dc9da	0.05805383
81	0xbd833084	-0.06405738
82	0x3d20e673	0.039282274
83	0x3cd2a466	0.025713157
84	0x3cc1eb39	0.023671733
85	0xbd8b0994	-0.06788936
86	0xbb6e1e44	-0.0036333958
87	0x3d694974	0.056954816
88	0xbc17bc66	-0.009261226
89	0x3d57f285	0.05272152
90	0x39ebb570	0.00044957874
91	0x3d08fa4e	0.033441834
92	0x3d3714f9	0.044697735
93	0x3d15f23c	0.036607966
94	0x3d86c726	0.06580953
95	0x3db5469e	0.0885136
96	0x3d3bb278	0.045824498
97	0xbbd52662	-0.0065048197
98	0x97cf217f	-1.3385517e-24
99	0xbd376636	-0.04477521
100	0x3d2de769	0.042457018
101	0x91442b91	-1.5475099e-28
102	0xab6b53ce	-8.3605074e-13
103	0x3d37ae39	0.044843886
104	0xbd3660f4	-0.044526055
105	0x3d832d8e	0.06405173
106	0x3bd49290	0.006487198
107	0x3b998347	0.004684839
108	0xbbb9ebae	-0.005673847
109	0xbd159aa9	-0.03652445
110	0x02710a07	1.7708761e-37
111	0x3c3a8d4b	0.011386226
112	0x2f5b6d13	1.9956685e-10
113	0x3cb9db6f	0.022687642
114	0xbcf4c5cc	-0.029879473
115	0x3db8d257	0.09024494
116	0x3d662fd1	0.056197945
117	0x3e2495a4	0.16072708
118	0xbd45b612	-0.04826934
119	0xbc9b25e2	-0.018938962

fc2.weight f4 [84, 120]
0	0x002693a3	3.542711e-39
1	0x8411fb10	-1.715995e-36
2	0xa74d125c	-2.8459418e-15
3	0x803642e0	-4.983107e-39
4	0x802c6c7f	-4.079683e-39
5	0x800155f4	-1.2267e-40
6	0x001219e1	1.662323e-39
7	0x803fa41b	-5.844506e-39
8	0x0055e43f	7.887896e-39
9	0x003642de	4.983104e-39
10	0x090f5fdf	1.7258077e-33
11	0x81b29117	-6.5595067e-38
12	0x0011e14f	1.642029e-39
13	0x0028dd5b	3.752827e-39
14	0xa1aeb3ae	-1.1838259e-18
15	0x80279fb9	-3.638882e-39
16	0x800c69c8	-1.139973e-39
17	0x8518e46d	-7.188961e-36
18	0x803316d6	-4.691802e-39
19	0x803f9053	-5.83741e-39
20	0x802c9200	-4.093137e-39
21	0x803c0b39	-5.514156e-39
22	0xa55e5984	-1.928576e-16
23	0x0f4328eb	9.622123e-30
24	0x0029342b	3.78397e-39
25	0x87b4f681	-2.7228272e-34
26	0x8022f580	-3.210476e-39
27	0x801f6b18	-2.885318e-39
28	0xa566a05f	-2.0003656e-16
29	0x0009a963	8.87284e-40
30	0x80085d65	-7.68188e-40
31	0x0022f918	3.211765e-39
32	0x983f4688	-2.472178e-24
33	0x004bf42a	6.975252e-39
34	0xa48bb4fd	-6.058825e-17
35	0x80410a27	-5.972949e-39
36	0xa0c579e7	-3.3453766e-19
37	0x8004cc05	-4.4053e-40
38	0x0001f0ee	1.78265e-40
39	0x8bc36065	-7.5256306e-32
40	0x0224e3f6	1.2114239e-37
41	0x000a71df	9.59204e-40
42	0xa3608230	-1.2170633e-17
43	0x8006b350	-6.15338e-40
44	0x802d4593	-4.157556e-39
45	0x80072054	-6.54446e-40
46	0x8017dc29	-2.191195e-39
47	0x8020ff87	-3.030402e-39
48	0x83099f52	-4.0443572e-37
49	0x979a33a0	-9.965049e-25
50	0x0013753c	1.78693e-39
51	0x0000da71	7.8362e-41
52	0x90aac845	-6.736174e-29
53	0x9157d12a	-1.7024963e-28
54	0x80422493	-6.074263e-39
55	0x000526ef	4.73144e-40
56	0x0010103d	1.475193e-39
57	0x9205eaf7	-4.2257017e-28
58	0x0008779c	7.77592e-40
59	0x8009c49b	-8.97048e-40
60	0x9826e9b2	-2.1572983e-24
61	0x814c707c	-3.7549586e-38
62	0x001d0b40	2.667265e-39
63	0xa699d7ff	-1.0675054e-15
64	0x9fb110e6	-7.499037e-20
65	0x80010679	-9.4157e-41
66	0x940e7aac	-7.193361e-27
67	0x80256707	-3.434873e-39
68	0xa6e6f442	-1.6025662e-15
69	0x80235fec	-3.248653e-39
70	0xa7207400	-2.2267344e-15
71	0x80132f5a	-1.761861e-39
72	0x800ac90a	-9.90474e-40
73	0x000ef684	1.37413e-39
74	0x88df4f8e	-1.34400275e-33
75	0x000ec462	1.356146e-39
76	0x9c2c40a8	-5.699359e-22
77	0x0004e92a	4.50985e-40
78	0x00209771	2.993063e-39
79	0x8014c1b3	-1.906196e-39
80	0x0016363f	2.039841e-39
81	0x00157340	1.96989e-39
82	0x001927c6	2.310155e-39
83	0xa42f5720	-3.8020874e-17
84	0x9e871b56	-1.4304987e-20
85	0xa60a60a4	-4.800934e-16
86	0x80032f09	-2.9238e-40
87	0x8009f78b	-9.15321e-40
88	0x8045be44	-6.404904e-39
89	0x003a1e38	5.337299e-39
90	0x001c8636	2.61954e-39
91	0x0026a95d	3.550505e-39
92	0x0413ba98	1.7365447e-36
93	0x00862b5b	1.232151e-38
94	0x0017c005	2.1811e-39
95	0x0042b88c	6.127346e-39
96	0x800b64ab	-1.046303e-39
97	0xacfadc4a	-7.1298844e-12
98	0x018f97a6	5.274751e-38
99	0x0a106c61	6.9537316e-33
100	0xa1e7c8c7	-1.5706314e-18
101	0x0178f860	4.5728606e-38
102	0x8011623a	-1.59644e-39
103	0x8006a885	-6.11466e-40
104	0xa4a156ce	-6.996967e-17
105	0x8028bff0	-3.742274e-39
106	0x8ba75219	-6.4449587e-32
107	0x803c9555	-5.5637e-39
108	0xa44808fd	-4.33757e-17
109	0x8f38db95	-9.11419e-30
110	0x800dbcdd	-1.261613e-39
111	0x802e3c7c	-4.24613e-39
112	0x00399e60	5.291438e-39
113	0x8218ba3e	-1.1220645e-37
114	0x800574ce	-5.01079e-40
115	0x8039259e	-5.248118e-39
116	0x9e35e8e6	-9.6302225e-21
117	0x09ca99d5	4.8774394e-33
118	0x000d3d00	1.215744e-39
119	0xabc2934f	-1.3825415e-12
120	0x3d4c1232	0.04982204
121	0x3c3a96a2	0.011388453
122	0x3e0d4c79	0.13798703
123	0xbcc9d062	-0.024635497
124	0xbc59058c	-0.013245951
125	0xbe043c7a	-0.12913695
126	0xbe078f08	-0.13238156
127	0xbd8dc4b0	-0.06922281
128	0xbdbf1351	-0.09329856
129	0x3ae47c58	0.0017432077
130	0xbe2893e8	-0.16462672
131	0x3d143490	0.03618294
132	0x39f32992	0.00046379544
133	0x9f6b7538	-4.9860147e-20
134	0x3e364fa9	0.17803825
135	0x3e706e1d	0.23479505
136	0xbe00940a	-0.12556472
137	0x3db8443c	0.0899739
138	0x3c9120ac	0.017715774
139	0x3c2d5a19	0.010580563
140	0xbe471203	-0.19440465
141	0x3dfdb633	0.12388267
142	0x3e342739	0.17593087
143	0xbe1f6d85	-0.15569122
144	0xbdd3fdc3	-0.103511356
145	0x3d8b961f	0.06815743
146	0x3d2b5411	0.04182822
147	0xbcc46086	-0.023971807
148	0xbe218eeb	-0.15777175
149	0xbbe64055	-0.007026712
150	0x3e2cf5bf	0.1689062
151	0x3ca6072d	0.020267094
152	0xbdfd29f6	-0.12361519
153	0xbc1c4d79	-0.009539955
154	0x3dbac01c	0.09118673
155	0xbe0f3d7b	-0.13988297
156	0x3dbb91b7	0.09158652
157	0x3a80bbda	0.0009821609
158	0x3d960d93	0.07326808
159	0xbe1cfb58	-0.15330255
160	0xbd214167	-0.039369013
161	0x3db2d110	0.08731282
162	0x3c9f5e34	0.0194541
163	0x3cb9e462	0.02269191
164	0x3e32533b	0.17414562
165	0xbe71401c	-0.23559612
166	0xbb0aaf5f	-0.0021161658
167	0xbba8f1c2	-0.005155773
168	0xbd13486b	-0.035957735
169	0xbd033c2b	-0.032039803
170	0xbcf5a9ee	-0.029988255
171	0xbd366fda	-0.044540264
172	0xbe7bf96f	-0.2460687
173	0xbd8a82a9	-0.06763203
174	0xbaf5fd7a	-0.0018767559
175	0x3e0057c9	0.12533487
176	0x3d25338f	0.040332373
177	0xbd9c9c35	-0.076469816
178	0xbcb2ab81	-0.021810295
179	0xbb8cfa90	-0.0043023303
180	0xbd00ecf0	-0.03147596
181	0x3ce44218	0.027863547
182	0x3d0ca410	0.03433615
183	0xbd84e992	-0.064898625
184	0x3d71cde5	0.059034247
185	0xbd236870	-0.03989452
186	0x3d9ab63f	0.07554292
187	0x3e95bf25	0.29247394
188	0x3e3c5a2d	0.18393774
189	0xbda425ef	-0.08015048
190	0x3b70db3f	0.0036751775
191	0xbba255f2	-0.004954093
192	0xbe34da2c	-0.17661351
193	0x3c448e3a	0.0119968
194	0x3e6298e7	0.2212864
195	0x3e2acf1d	0.1668057
196	0xbd9f34a0	-0.07773709
197	0x3e5d2846	0.21597394
198	0x3deca109	0.115541525
199	0xbe40a8be	-0.1881437
200	0xbe0db0e6	-0.13837013
201	0x3e5e124b	0.21686666
202	0x3cb2ead1	0.021840485
203	0x3de99383	0.11405089
204	0x3e21b7ac	0.15792722
205	0xbe167df1	-0.1469648
206	0x3b53662a	0.003225694
207	0xb809b9f7	-3.283654e-05
208	0xbd347f1e	-0.04406654
209	0x3e72a844	0.23697
210	0xbde57745	-0.112043895
211	0xbd1820bf	-0.037140604
212	0xbd94ba9a	-0.07262154
213	0x3e918fe8	0.28430104
214	0xbc50ba32	-0.012739705
215	0x3db90d1a	0.09035702
216	0x3d065a70	0.03280109
217	0x3e1d0795	0.15334924
218	0xb94e74d8	-0.00019689219
219	0x3d72fbab	0.05932204
220	0x3d954d18	0.07290095
221	0xb9155064	-0.00014239695
222	0x3aa3eca2	0.0012506435
223	0xbeba5b55	-0.36397806
224	0x3d1f6f0e	0.03892427
225	0xbd84a66d	-0.06477056
226	0x3c260a3a	0.010134274
227	0x3df68a03	0.120380424
228	0x3d8cd669	0.06876833
229	0xbe593fdd	-0.21215768
230	0x395413c0	0.00020225253
231	0xbe0754c4	-0.1321593
232	0x36bd15eb	5.6351905e-06
233	0x3e35155d	0.1768393
234	0xbd8f8bae	-0.07009064
235	0xbd0c0827	-0.034187462
236	0xbe0aeb61	-0.13566352
237	0x3db7e022	0.08978297
238	0xbe59b8de	-0.21261927
239	0xbd0be752	-0.03415615
240	0x3d9e9be8	0.077445805
241	0xbbf86a25	-0.007581013
242	0xbe1c18c1	-0.15243818
243	0xbb8c5005	-0.004282
244	0xbde754e9	-0.11295492
245	0xbe0722fb	-0.13196938
246	0xbe6040e1	-0.2189975
247	0xbd52ff3c	-0.05151294
248	0x3dc52d3b	0.09627768
249	0xb1129809	-2.1332218e-09
250	0xbcfb115c	-0.030647926
251	0xbbb7aa18	-0.0056049936
252	0x3319dd5a	3.5824407e-08
253	0x001fec26	2.931614e-39
254	0x3e0a19be	0.13486382
255	0x3e9aa6da	0.30205423

fc2.bias f4 [84]
0	0x802c7484	-4.08256e-39
1	0x3d5c98bc	0.053856596
2	0xbda21a0e	-0.07915126
3	0x3d15b829	0.036552582
4	0x3c74a70e	0.014932407
5	0x3d5c2ccc	0.05375366
6	0xbcaa0061	-0.020752134
7	0xbac91f34	-0.0015344382
8	0xb924a5a6	-0.00015701968
9	0xae187794	-3.4667005e-11
10	0xad1c0b08	-8.870023e-12
11	0xbd3b3960	-0.045709014
12	0x3d9d8cca	0.07692869
13	0xba3780a2	-0.0007000064
14	0x3be05238	0.0068457387
15	0x3e288bda	0.16459599
16	0x3d87676d	0.06611524
17	0xbb7cb05f	-0.0038557274
18	0x3d667f0e	0.056273513
19	0x3d21b1e6	0.039476298
20	0x3c5a874e	0.013337923
21	0xbd1a8d6e	-0.037732534
22	0xbb55f645	-0.0032648009
23	0x3ba74a8f	0.0051053236
24	0x3cf8da02	0.030377392
25	0x3dc30dfd	0.095241524
26	0x3dd92afe	0.10603903
27	0x3c8490b7	0.016182287
28	0x3b439d91	0.0029848556
29	0xbb9dfe6e	-0.00482159
30	0x3d6aed00	0.057354927
31	0xbd1b4cd6	-0.037915073
32	0xbc968ceb	-0.018377742
33	0xbc14e721	-0.009088309
34	0xbc2e26d1	-0.010629372
35	0xbd47b7ce	-0.048759274
36	0xbc85ba2a	-0.016324122
37	0x3d9ac37b	0.07556816
38	0x3dc25c37	0.09490245
39	0x3d7a7c67	0.061153796
40	0xbb6d0157	-0.0036164129
41	0xbd162c8a	-0.03666357
42	0x3dddd030	0.10830724
43	0xbcdf58b4	-0.027263977
44	0x3bb8703d	0.005628614
45	0x3d9b070d	0.07569704
46	0x3d7b0550	0.061284363
47	0xbb200eca	-0.0024422877
48	0xbd3352c9	-0.043780122
49	0x3d5eb3f8	0.05437085
50	0x3cb7f569	0.022455888
51	0xaee15bf3	-1.0248149e-10
52	0x3df2c6e4	0.118543416
53	0xbbfd0c6d	-0.0077224285
54	0x3dace09a	0.08441277
55	0x3d2b0922	0.041756757
56	0x3db08a07	0.086200766
57	0x3d82c22c	0.063846916
58	0x3e2aa91d	0.16666074
59	0x3d1d646f	0.03842586
60	0xbcb340c7	-0.021881474
61	0x3d52b008	0.051437408
62	0x3dec2d0d	0.1153203
63	0xa7e491cc	-6.3440786e-15
64	0xbcf5bc10	-0.029996902
65	0xba651a3a	-0.0008739565
66	0xbc4c43eb	-0.012467365
67	0x3e1ececc	0.15508574
68	0xb61e806e	-2.361859e-06
69	0x3de80a64	0.11330107
70	0x3d00a3f6	0.031406365
71	0xb16b3b22	-3.4230614e-09
72	0x3d4f144b	0.050556462
73	0xbb899e77	-0.0041997987
74	0xbc7b4192	-0.015335457
75	0xbc950380	-0.018190145
76	0x3d69d566	0.05708828
77	0x3dadcce5	0.08486346
78	0x3e075cdb	0.13219015
79	0x3e0e37e1	0.13888504
80	0x3d874958	0.06605786
81	0xbc051e8d	-0.00812496
82	0xbcdf9ef9	-0.027297484
83	0xbbcb3995	-0.0062019327

fc3.weight f4 [10, 84]
0	0x231a8a87	8.377691e-18
1	0xbe21708c	-0.1576559
2	0xbbe9417f	-0.0071184034
3	0x3d6371cc	0.055528447
4	0x3f100053	0.56250495
5	0x3ca79bf7	0.020460112
6	0xbc8abe9d	-0.016936595
7	0x3b18a6a2	0.002329268
8	0x3af9cbe8	0.0019057961
9	0xbb5c22c7	-0.0033590065
10	0xb2c6de66	-2.3151369e-08
11	0xbcea2c57	-0.028585596
12	0xbe640644	-0.22268015
13	0xbb7efc13	-0.0038907572
14	0xbc28e57f	-0.010308622
15	0x3d5e027a	0.05420158
16	0x3e03d324	0.12873513
17	0x3dde86f3	0.10865583
18	0xbce7d47a	-0.028299559
19	0xbe2fc8eb	-0.17166488
20	0xbd87bf39	-0.0662827
21	0x3c83a515	0.016069928
22	0x3c3a6f59	0.011379086
23	0x3e213477	0.1574267
24	0x3e081ac4	0.1329146
25	0x3e03e400	0.12879944
26	0x3e5fcb40	0.21854877
27	0x3c7bb741	0.015363515
28	0xbe6b9e22	-0.23009542
29	0xb9ddc052	-0.00042295695
30	0x3d8ed3b0	0.0697397
31	0xbc8a1e88	-0.016860262
32	0x3e20db28	0.15708601
33	0xbc5a6f80	-0.013332248
34	0x3d52b295	0.05143984
35	0x3e2d6131	0.16931607
36	0xb9b2416a	-0.00033999543
37	0xbe0400ba	-0.12890902
38	0xbe10191c	-0.14072078
39	0x3d8a1fda	0.067443565
40	0x3bc0e646	0.0058868257
41	0x3c0226fc	0.007943865
42	0x3dca90df	0.09890913
43	0x3abe9214	0.0014539384
44	0x3e8a1a1d	0.26973048
45	0xbea486e5	-0.32134166
46	0xbed494fd	-0.4151992
47	0xb93d0f76	-0.00018030204
48	0x3d267dd0	0.040647328
49	0x3e10203c	0.14074796
50	0x3e0816c1	0.1328993
51	0x399e9918	0.00030250172
52	0xbc32c60d	-0.010911477
53	0xbe63a3ad	-0.22230406
54	0xbd561264	-0.052263632
55	0xbe5f3386	-0.21796998
56	0xbe1750bc	-0.14776891
57	0xbe79b192	-0.24384144
58	0x3e5ce553	0.21571855
59	0xbefb6de7	-0.49107286
60	0xbd986edf	-0.07443022
61	0x3cb021d9	0.021500515
62	0x3dc244ed	0.09485803
63	0xbaaeb134	-0.0013327957
64	0x3d3edd50	0.04659778
65	0x3c05ad9d	0.008159068
66	0x3c1a82a9	0.009430566
67	0x3d9ccabb	0.07655855
68	0xb9dfbb30	-0.0004267334
69	0xbe5919d9	-0.21201266
70	0x3e108c7c	0.1411609
71	0xbbbd908c	-0.0057850536
72	0x3e0c657c	0.13710588
73	0xba955dfd	-0.0011395809
74	0xbbd463be	-0.0064816168
75	0xbe521049	-0.20514025
76	0xbd052323	-0.032504212
77	0xbe9e77dd	-0.30950823
78	0xbe7db8e9	-0.24777569
79	0x3dbf7273	0.09348001
80	0xbd872f56	-0.066008255
81	0xbbf2d12f	-0.0074101905
82	0xbc703a04	-0.0146622695
83	0xbe2ae405	-0.16688545
84	0x800d6442	-1.229827e-39
85	0xbd66cb71	-0.05634636
86	0xbe6f3244	-0.23359019
87	0x3dc06edb	0.09396144
88	0xbd1d005c	-0.03833042
89	0x3e74dfed	0.23913546
90	0x3d1be499	0.038059805
91	0xbabcd991	-0.0014408102
92	0xb5bd1d7a	-1.4090176e-06
93	0xb5061fd8	-4.996523e-07
94	0xaf8b13ad	-2.5297933e-10
95	0x3d86dfd5	0.06585661
96	0xbea6e158	-0.325938
97	0xb934c48a	-0.00017239354
98	0xbe5273c6	-0.20551977
99	0x3e43ad08	0.19108975
100	0xbe79f307	-0.24409114
101	0xbe2b48f6	-0.16727051
102	0xbec683c9	-0.3877242
103	0xbed4390e	-0.4144978
104	0xbc6f4fd0	-0.014606431
105	0x3d53a3e7	0.05166998
106	0x3c989b7a	0.018628825
107	0x3e2f69ea	0.17130247
108	0xbef40287	-0.47658178
109	0xbe99a97f	-0.30012128
110	0xbd951775	-0.07279865
111	0xbd8dd9bf	-0.069262974
112	0x3e853290	0.2601514
113	0xbbed61b9	-0.0072443155
114	0xbf160898	-0.58606863
115	0xbc5f2859	-0.0136204595
116	0x3dce311c	0.100679606
117	0xb9672535	-0.00022043737
118	0x3e3e87bd	0.18606468
119	0x3e953fce	0.29150242
120	0x3ba3229e	0.004978492
121	0xbe3a7919	-0.18210258
122	0xbe38279a	-0.17983857
123	0x3c6ad6da	0.014333451
124	0x3a1e8142	0.00060464826
125	0x3c417a76	0.011808982
126	0xbb9cf0fc	-0.0047894698
127	0xbb9239f4	-0.004462475
128	0xbe80f6b2	-0.25188214
129	0x3cb5dc33	0.022199726
130	0xbe8a7adc	-0.2704686
131	0x37e372f0	2.711403e-05
132	0x3e4354a1	0.19075252
133	0x3e1a7f5c	0.15087646
134	0x3d0fbfa6	0.03509488
135	0xac8547be	-3.7880523e-12
136	0x3c33ddf5	0.010978212
137	0xbe494a8a	-0.1965734
138	0x3e49f3c9	0.19721903
139	0xbeea3467	-0.45743105
140	0x3d964696	0.07337682
141	0x3e2babbe	0.16764733
142	0xbe7be89d	-0.24600454
143	0xbe4b0639	-0.19826593
144	0x3de8797b	0.113512956
145	0xbe887e8c	-0.26659048
146	0xbebed133	-0.3726898
147	0x38ac0070	8.2016806e-05
148	0xbed7c1fa	-0.4214018
149	0xb9f4228b	-0.00046565043
150	0x3ee07622	0.43840128
151	0xbedb58e1	-0.42841247
152	0x39b14717	0.00033813037
153	0x3dfb3573	0.12266054
154	0xbf4a35d2	-0.78988373
155	0x3a97f7dd	0.0011594255
156	0xbeb876a1	-0.36028007
157	0xbc468eea	-0.012119034
158	0x3c897b6a	0.016782481
159	0x3df03b81	0.117300995
160	0xbe8b59f3	-0.27217063
161	0x3dbf3d98	0.0933792
162	0x3d23ed9b	0.04002152
163	0x3e3ae84e	0.1825268
164	0x3bb3bfd6	0.005485515
165	0x3a75bbf5	0.0009374016
166	0x3bb5adc7	0.0055443975
167	0xbcf465d8	-0.02983372
168	0xa4d8f3cf	-9.4088096e-17
169	0xbf015262	-0.5051633
170	0xbe962951	-0.29328397
171	0xbda9dbdf	-0.0829389
172	0xbe84c220	-0.25929356
173	0x3d5273be	0.05137991
174	0xbc7c4e84	-0.015399579
175	0x3c40b5aa	0.011762062
176	0x3985d0ce	0.00025523308
177	0xbb0f0c50	-0.0021827407
178	0xadd59820	-2.4282854e-11
179	0x3e3a86ac	0.18215436
180	0x3e0da550	0.13832593
181	0xbc18b491	-0.009320394
182	0x3e0e3c2d	0.13890143
183	0x3d9541dc	0.07287952
184	0x3e459685	0.192957
185	0x3d40f3f0	0.047107637
186	0xbdb1f7e3	-0.08689859
187	0xbdf3bc3e	-0.11901139
188	0xbec3ef3b	-0.38268456
189	0x3dfa63a8	0.12226039
190	0xbb662276	-0.0035115755
191	0xbdb19981	-0.08671857
192	0xbc865c43	-0.016401416
193	0xbe520b5f	-0.2051215
194	0x3e17a08d	0.14807339
195	0x3ea87019	0.32898024
196	0xbd0dc0eb	-0.03460781
197	0xbcbd7054	-0.023124851
198	0x3dc61715	0.09672371
199	0x3c4671d4	0.0121121
200	0x3e0fded4	0.14049846
201	0x3bc08c7f	0.0058761234
202	0x3dce76e7	0.100812726
203	0x3bc9176f	0.0061368267
204	0x3c206402	0.009789469
205	0x3da85965	0.08220176
206	0xbecde00d	-0.4021
207	0xbcef1966	-0.029186916
208	0x3ba6fedc	0.0050962996
209	0x3c2ff27c	0.010738965
210	0xbf1ee53a	-0.6206852
211	0xbaaa20d4	-0.0012979754
212	0xbcf4f550	-0.02990213
213	0x3d4b674f	0.04965907
214	0xbd8aa89c	-0.06770441
215	0x3b0d0d63	0.0021522872
216	0xbe95e002	-0.29272467
217	0xbde028a8	-0.109452546
218	0x3dda54ca	0.106607035
219	0x3c0303a3	0.0079964725
220	0x3db7c20b	0.08972558
221	0x3e3697a9	0.17831291
222	0x3e2a7231	0.16645123
223	0x3e154492	0.14576939
224	0xbdee1dc2	-0.116267696
225	0xbebc80a7	-0.36816904
226	0x3e85abae	0.26107544
227	0x3e2b0734	0.16701967
228	0xbde22d35	-0.11043779
229	0x3e541cf9	0.20714177
230	0x3c5ceddf	0.013484447
231	0xbafd2669	-0.0019313815
232	0xbdeb46d5	-0.114881195
233	0x3bcbca82	0.006219209
234	0xbd3ab6e4	-0.045584574
235	0x3e0acd2e	0.13554832
236	0x39393c7f	0.00017665511
237	0xbe3e8d18	-0.1860851
238	0xbe970a23	-0.2949992
239	0xbb5bf805	-0.003356458
240	0xbd8f3f2a	-0.069944695
241	0x3c9b7eca	0.018981356
242	0x3cb41d10	0.021986514
243	0xbe89b5c0	-0.26896477
244	0xbe7543db	-0.23951666
245	0x3c0ce4de	0.008599488
246	0xbd1cc597	-0.038274374
247	0x3d6cfaf7	0.057856526
248	0xbd6ac6a7	-0.057318356
249	0xbcdf9671	-0.027293416
250	0x3cb2b12d	0.021813
251	0x3d6e5a8e	0.05819183
252	0x8007c261	-7.12578e-40
253	0x3e2ae130	0.16687465
254	0xbed47950	-0.41498804
255	0xbec4cfce	-0.38439792

fc3.bias f4 [10]
0	0xbe022460	-0.12709188
1	0xbdbdd295	-0.09268681
2	0x3d81bd6c	0.063349575
3	0x3c9448f3	0.018101191
4	0xbd7f114d	-0.06227236
5	0xbd821863	-0.06352308
6	0x3da0f740	0.07859659
7	0x3d8b63b6	0.06806128
8	0x3ddf882b	0.10914644
9	0x3c7ac7b2	0.0153064
