models/Weight_Decay_final.pth (torch, 250933 bytes, 10 tensors)

conv1.weight f4 [6, 1, 5, 5]
-0.05624673 -0.10677715 0.19379133 -0.06031896 0.053017788 -0.5068354 0.1077201 0.386934
-0.008282459 0.00023451097 -0.6775318 -0.011799024 0.58767915 0.09979728 0.0031529733 -0.44799763
0.17010106 0.42448887 -0.030643199 -0.110148035 -0.41676563 0.23747765 0.26054996 -0.07983552
-0.002935157 -0.41743883 -0.23357433 -0.12994963 0.5561378 0.13164257 -0.32313 -0.70226926
0.4184661 0.6062701 -0.28672186 -0.083247304 0.18466015 -0.080535054 0.28263825 -0.167156
0.05202531 0.0462551 -0.07781166 0.17687334 0.033485293 0.023687147 -0.11142891 0.07502026
-0.07050331 0.101916045 -0.052282676 -0.27600405 -0.2681286 -0.16783758 -0.013222062 -0.04352937
-0.17022175 -0.23800085 -0.23450543 0.061252695 -0.017173454 -0.24893095 -0.23533629 -0.24626692
-0.047819704 0.31009603 -0.071309455 0.06450886 -0.19227278 -0.008984722 0.013257337 0.22021134
-0.10384715 -0.11676391 -0.118677616 -0.030907495 0.007645727 -0.0096211545 0.16851902 0.2515445
-0.066922896 0.05366302 0.034640405 0.49205238 0.24332406 0.33404052 0.21339105 0.024359277
0.26136836 -0.101449534 0.37269995 0.34569347 -0.047305305 0.08756502 -0.04546596 -0.03918574
0.20403156 -0.4094754 0.23841599 -0.15705875 -0.027926428 0.18463744 0.17744505 0.19645883
0.18930107 -0.07526561 0.15151763 0.11597022 0.0073797475 -0.18885687 -0.101685934 -0.48505914
-0.6624083 -0.5100204 0.017078685 -0.02766794 -0.44492802 -0.33192256 -0.11522943 0.37765506
-0.06497883 0.25066265 0.49643221 0.47716802 0.13497102 0.35789752 0.43771303 0.34572062
0.09707429 0.07636385 0.19516751 0.1318865 0.12708898 0.08423193 0.18651727 0.076371424
0.18950766 -0.059412565 -0.020960452 -0.1988884 -0.12249385 -0.47068033 -0.5121292 -0.6002045
-0.374212 -0.08778485 -0.29145068 -0.29371864 -0.28861848 -0.12034867
00000000: f962 66bd faad dabd 3c71 463e 0411 77bd
00000010: 2e29 593d f7bf 01bf 5b9c dc3d 371c c63e
00000020: 27b3 07bc 0fe7 7539 b972 2dbf b250 41bc
00000030: 2472 163f 8462 cc3d 1da2 4e3b f25f e5be
00000040: f92e 2e3e 9b56 d93e 7207 fbbc 4b95 e1bd
00000050: 4e62 d5be 572d 733e ce66 853e ce80 a3bd
00000060: c35b 40bb 8bba d5be 1c2e 6fbe 8411 05be
00000070: 0c5f 0e3f 4fcd 063e 4c71 a5be ebc7 33bf
00000080: 3041 d63e 8434 1b3f 35cd 92be 907d aabd
00000090: 8d17 3d3e 90ef a4bd f6b5 903e f12a 2bbe
000000a0: 7e18 553d fd75 3d3d b85b 9fbd 491e 353e
000000b0: e027 093d 8c0b c23c d734 e4bd 39a4 993d
000000c0: 0a64 90bd 5cb9 d03d 5c26 56bd 6750 8dbe
000000d0: 2748 89be 9ddd 2bbe 59a1 58bc da4b 32bd
000000e0: 9c4e 2ebe 7fb6 73be 3122 70be 1be4 7a3d
000000f0: 58af 8cbc c1e7 7ebe fffb 70be 652d 7cbe
00000100: 98de 43bd e8c4 9e3e b10a 92bd 391d 843d
00000110: 28e3 44be a834 13bc 4d35 593c 157f 613e
00000120: d1ad d4bd eb21 efbd 400d f3bd b731 fdbc
00000130: 0289 fa3b 0ca2 1dbc 4090 2c3e 71ca 803e
00000140: df0e 89bd c1cd 5b3d 19e3 0d3d 4aee fb3e
00000150: f129 793e 5c07 ab3e 2f83 5a3e 1b8d c73c
00000160: 13d2 853e c6c4 cfbd 87d2 be3e bcfe b03e
00000170: 35c3 41bd 4a55 b33d 843a 3abd 3a81 20bd
00000180: a6ed 503e c2a6 d1be 5223 743e 02d4 20be
00000190: f7c5 e4bc 9911 3d3e 28b4 353e 812c 493e
000001a0: 24d8 413e db24 9abd 7027 1b3e cb81 ed3d
000001b0: cfd1 f13b b263 41be b740 d0bd ac59 f8be
000001c0: 9793 29bf b290 02bf 99e8 8b3c e0a7 e2bc
000001d0: 9bcd e3be c1f1 a9be 68fd ebbd 015c c13e
000001e0: 9f13 85bd db56 803e 5d2c fe3e 5e4f f43e
000001f0: d835 0a3e 583e b73e ec1b e03e 4b02 b13e
00000200: e3ce c63d a664 9c3d fed9 473e 410d 073e
00000210: 9d23 023e ca81 ac3d 62fe 3e3e 9f68 9c3d
00000220: 4c0e 423e 975a 73bd 41b5 abbc 67a9 4bbe
00000230: 0ede fabd 03fd f0be e61a 03bf 01a7 19bf
00000240: b798 bfbe 8bc8 b3bd 0639 95be 4a62 96be
00000250: cdc5 93be 5d79 f6bd

conv1.bias f4 [6]
-0.016756315 0.012286836 -0.3838591 -0.18866737 -0.019986413 -0.32451382
00000000: 8a44 89bc ba4e 493c 2e89 c4be 0532 41be
00000010: 8cba a3bc ad26 a6be

conv2.weight f4 [16, 6, 5, 5]
-0.32154652 -0.025015475 -0.013847672 -0.34569252 0.16953664 -0.12264029 0.0103055285 -0.01578582
0.18407388 0.027652849 0.14097151 0.06090943 0.1181649 0.16578157 0.06725522 -0.13336289
-0.24735995 0.117600575 0.19060023 0.028963413 -0.51006377 -0.54696 -0.06507778 0.035701975
-0.1319166 -0.20486382 0.039111514 0.10941924 -0.14882956 -0.41733858 -0.18572989 0.22391056
0.012664563 -0.24243158 0.053140145 0.2475437 -0.03239682 0.061952803 0.23521037 -0.14010258
0.28948057 -0.1798377 0.14597717 0.13053852 0.04667672 -0.30405742 -0.25766018 0.17608851
-0.08558699 0.098670766 -0.10529061 -0.13346861 -0.16847737 -0.20367837 -0.012825258 0.037442204
-0.019556358 -0.073655866 0.055767354 0.052515518 0.07516242 0.017622557 0.1053899 -0.0637117
0.067853294 0.012021255 0.19025597 0.17536047 0.08062941 -0.027671684 -0.048586413 0.04010934
0.19278392 0.2017826 -0.010529341 -0.119369894 -0.027749596 -0.18895982 0.033684917 -0.14453813
0.0318726 0.027933622 -0.16238405 0.057934754 -0.2543758 -0.14090323 -0.113634355 -0.14286278
0.11306969 -0.37607667 -0.050989125 0.08910293 -0.034271218 0.118228324 -0.2661035 -0.11858324
-0.06692524 0.03367323 -0.059992604 -0.44874156 0.06959579 -0.046695504 -0.39743865 0.1586124
0.10047686 0.058241617 -0.13730305 -0.013215916 -0.11754275 -0.048391625 -0.084805705 -0.06534065
0.04111993 0.047839187 -0.005645188 -0.15159105 -0.058471132 0.008906053 0.081571504 0.13758856
-0.20805344 -0.0098822005 -0.026121015 0.115803204 0.20811749 -0.035593156 -0.090116076 -0.08703586
0.013294651 0.17187782 0.014428229 0.022614455 0.13030118 -0.1525281 0.06863804 -0.26257932
0.13403217 0.21354634 -0.10125914 0.006333538 -0.00187817 0.14366096 0.11165782 0.16302845
0.24256197 0.08545009 0.10115286 -0.17840911 -0.0065577254 -0.041771337 -0.30022907 -0.2741069
-0.24710347 -0.08722984 -0.15344544 -0.17062846 -0.05688915 -0.33243632 -0.06383184 -0.28505516
-0.26495597 -0.08242214 -0.3847866 0.093638904 -0.1718228 -0.31504524 -0.37106445 -0.40729713
0.21214522 -0.005644968 -0.63126963 -0.42401797 -0.4054634 -0.017333264 -0.0065923333 -0.14862561
-0.2638691 -0.17153199 -0.20761886 -0.21758932 -0.057826355 -0.02798072 -0.12031177 -0.25959072
-0.12112435 0.123887576 -0.083702445 -0.0665441 0.031396195 0.08861795 0.22451334 -0.25427416
-0.1377639 0.15555453 -0.1301549 -0.12776496 -0.38097286 -0.06936663 0.120341286 -0.1311962
0.06969472 -0.071399584 -0.02848462 0.1579326 0.04093234 0.109236166 0.0029561936 0.083929956
0.108181536 0.14180608 0.058024716 -0.017091755 0.158742 0.1911101 0.31749326 -0.008289266
0.102437586 0.14621942 -0.0006940145 0.22924572 -0.03917814 0.110827066 0.15310168 -0.07798434
0.062576815 -0.26872832 -0.07842243 -0.012206287 0.1572807 0.20590511 -0.12845346 0.05749585
0.023398075 0.057815425 0.16653728 -0.009539477 0.024828626 0.17458953 0.14525795 0.1633406
-0.11209381 0.10511047 0.14602882 0.09342065 0.10361808 -0.13841324 -0.081054606 -0.06438778
-0.08921324 0.05385378 -0.006523882 0.036836132 -0.30645737 -0.19838767 0.05759683 0.2454331
00000000: bfa1 a4be 41ed ccbc 59e1 62bc 9cfe b0be
00000010: 039b 2d3e d52a fbbd 85d8 283c 4451 81bc
00000020: dd7d 3c3e 3a88 e23c d65a 103e 2b7c 793d
00000030: 7000 f23d a5c2 293e 1bbd 893d 4890 08be
00000040: ed4b 7dbe 92d8 f03d b52c 433e ae44 ed3c
00000050: 8a93 02bf 9205 0cbf 8047 85bd 3c3c 123d
00000060: 2515 07be d2c7 51be 6533 203d 3217 e03d
00000070: c766 18be 67ad d5be fa2f 3ebe cf48 653e
00000080: 077f 4f3c fc3f 78be 7ba9 593d 187c 7d3e
00000090: 87b2 04bd 39c2 7d3d fdda 703e 0d77 0fbe
000000a0: cc36 943e 6027 38be 0a7b 153e e4ab 053e
000000b0: 1730 3f3d 6aad 9bbe 09ec 83be 8c50 343e
000000c0: 3b48 afbd e613 ca3d 9aa2 d7bd ffab 08be
000000d0: 5585 2cbe 1091 50be 0821 52bc ff5c 193d
000000e0: a834 a0bc e3d8 96bd 4f6c 643d 831a 573d
000000f0: c1ee 993d 2e5d 903c a9d6 d73d 487b 82bd
00000100: abf6 8a3d ccf4 443c 76d2 423e b291 333e
00000110: 0821 a53d baaf e2bc 8c02 47bd b149 243d
00000120: 2669 453e 19a0 4e3e 4283 2cbc 3478 f4bd
00000130: 1f53 e3bc af7e 41be 32f9 093d ce01 14be
00000140: d88c 023d 0dd5 e43c 0148 26be fe4c 6d3d
00000150: 8b3d 82be f048 10be 21b9 e8bd 9f4a 12be
00000160: 1591 e73d 1f8d c0be f9d9 50bd 997b b63d
00000170: fa5f 0cbd b121 f23d b83e 88be c5db f2bd
00000180: 1a10 89bd f1ec 093d ceba 75bd 74c1 e5be
00000190: 3d88 8e3d c943 3fbd 147d cbbe 4a6b 223e
000001a0: d0c6 cd3d c38e 6e3d 2c99 0cbe 9287 58bc
000001b0: 41ba f0bd 4c36 46bd 9dae adbd 52d1 85bd
000001c0: 5f6d 283d 06f3 433d 45fb b8bb af3a 1bbe
000001d0: 6d7f 6fbd b2ea 113c f60e a73d 04e4 0c3e
000001e0: f60b 55be f4e8 21bc bdfb d5bc 3b2a ed3d
000001f0: c01c 553e 21ca 11bd c78e b8bd db3f b2bd
00000200: cfd1 593c bd00 303e 6164 6c3c f341 b93c
00000210: ac6d 053e 5430 1cbe 1a92 8c3d cc70 86be
00000220: bb3f 093e e4ab 5a3e f460 cfbd 9189 cf3b
00000230: ed2c f6ba dc1b 133e dbac e43d eef0 263e
00000240: 2a62 783e 7500 af3d 3b29 cf3d e1b0 36be
00000250: 30e2 d6bb 6c18 2bbd a0b7 99be bd57 8cbe
00000260: b108 7dbe 8fa5 b2bd cd20 1dbe 3ab9 2ebe
00000270: 9904 69bd 1835 aabe 45ba 82bd c0f2 91be
00000280: 4fa8 87be f0cc a8bd c002 c5be c1c5 bf3d
00000290: 51f2 2fbe 9c4d a1be 29fc bdbe 4089 d0be
000002a0: 993c 593e 6cf9 b8bb e39a 21bf e218 d9be
000002b0: e698 cfbe 7dfe 8dbc 8004 d8bb 5031 18be
000002c0: da19 87be 15a6 2fbe 0a9a 54be bccf 5ebe
000002d0: 54db 6cbd d337 e5bc 0466 f6bd 13e9 84be
000002e0: 0b10 f8bd c5b8 fd3d 306c abbd 4648 88bd
000002f0: 4c99 003d 547d b53d d3e6 653e 3930 82be
00000300: fb11 0dbe b049 1f3e 5347 05be d1d4 02be
00000310: e00e c3be 1710 8ebd 7e75 f63d 4c58 06be
00000320: 1bbc 8e3d f239 92bd 9458 e9bc 15b9 213e
00000330: aba8 273d 36b7 df3d b3bc 413b 78e3 ab3d
00000340: 488e dd3d 9d35 113e 53ab 6d3d 0204 8cbc
00000350: 438d 223e 5eb2 433e 7a8e a23e b4cf 07bc
00000360: ccca d13d 8bba 153e 86ee 35ba 64bf 6a3e
00000370: 4279 20bd 4df9 e23d b0c6 1c3e 41b6 9fbd
00000380: 4628 803d c296 89be f09b a0bd e1fc 47bc
00000390: 310e 213e cad8 523e 4e89 03be c580 6b3d
000003a0: 52ad bf3c decf 6c3d c088 2a3e 774b 1cbc
000003b0: 6765 cb3c 99c7 323e 80be 143e c242 273e
000003c0: 7191 e5bd 2844 d73d 9488 153e 5353 bf3d
000003d0: b735 d43d 33bc 0dbe f5ff a5bd bedd 83bd
000003e0: 6eb5 b6bd c895 5c3d 4ac6 d5bb 7ce1 163d
000003f0: fbe7 9cbe 2326 4bbe a7ea 6b3d d152 7b3e

conv2.bias f4 [16]
-0.1752704 0.11531474 -0.16927144 0.08057367 -0.15941517 -0.03587707 -0.034333117 -0.2085196
-0.1451624 -0.048575666 0.109307 -0.06538679 0.01452215 0.15097356 0.0062147444 0.36796096
00000000: 157a 33be 222a ec3d 7e55 2dbe cf03 a53d
00000010: bb3d 23be d6f3 12bd e2a0 0cbd 2986 55be
00000020: 74a5 14be 47f7 46bd 59dc df3d 82e9 85bd
00000030: 50ee 6d3c d098 1a3e 0ea5 cb3b 6165 bc3e

fc1.weight f4 [120, 400]
-0.06336084 -0.073726475 -0.0006748188 0.12131032 0.002291711 0.01779195 0.08064977 -0.023347517
0.09378461 -0.05615548 -0.014178414 -0.01179001 0.06541412 0.03817091 -0.11717777 -0.12318195
-0.008943376 0.035874795 -0.08327416 0.049245946 -0.047414217 0.028144334 0.022869578 -0.017569596
0.011217096 -0.067220345 0.037933398 -0.004318905 -0.075975075 0.089287855 -0.022242201 -0.10063196
-0.04432535 -0.077197865 -0.08550441 -0.04338695 -0.09114831 0.03120146 0.024080489 0.069610864
-0.0024908055 -0.045162957 0.02546841 -0.07349927 -0.06999359 -0.11599745 -0.032092866 0.040474672
0.06659872 -0.03930021 0.18248335 0.005493386 0.073845975 -0.1442477 -0.027741667 0.18214628
-0.10187437 0.08232733 -0.049152244 0.06173441 0.08090055 -0.059056435 -0.009634785 -0.08564245
-0.04358014 -0.049385175 0.02821275 0.0018130189 -0.034259018 -0.023078442 0.06939734 -0.0009860534
-0.0048631444 0.13404167 -0.011313168 -0.0722704 -0.048478834 -0.108098894 0.19694388 -0.06677486
0.00022112414 0.007263126 -0.046972763 -0.22680652 0.15965864 0.02053836 -0.1638602 0.16151918
0.087564565 -0.058370415 0.07637117 -0.17397447 0.18070906 -0.024877245 -0.06700934 0.07811128
-0.14275762 -0.024538618 0.089427605 -0.005568752 -0.030282894 -0.01375814 0.035034396 -0.0318671
0.0236816 -0.124433935 -0.047122117 -0.0033904598 0.012412802 -0.023373036 -0.25256363 0.02578494
0.076636195 0.001161841 -0.05018725 -0.03243549 -0.02369382 0.09045849 -0.043895666 -0.109596856
-0.034718715 -0.01857338 0.10508358 -0.060466465 0.03452568 -0.06036149 -0.014604204 0.05448044
0.16632834 -0.037803106 0.018827934 -0.31189346 0.061569117 0.03520297 0.060940523 -0.060137406
-0.07149088 -0.057362378 0.03096237 -0.023379458 0.0030801971 -0.019599635 0.009700524 0.123090155
0.026907738 -0.124569036 0.015359238 -0.0005625907 0.1868379 0.018384833 0.093241945 -0.0540038
-0.048702914 0.11283917 0.121031255 0.053167798 0.04987296 0.101368144 -0.00089216966 0.025619226
0.00486219 0.011199199 0.0528485 0.098557025 -0.012123381 -0.09571334 -0.078594275 -0.069683425
0.118041344 0.08005202 0.07772022 -0.034435134 0.059909966 0.11856613 0.108117096 0.013132065
-0.10331207 0.044192642 -0.15433007 -0.07473575 -0.018096138 -0.10201548 0.15203112 0.19399846
0.035448547 -0.0872248 -0.20044677 0.028786555 0.043242216 -0.11944926 -0.05239299 -0.11386203
0.006840754 -0.05458081 -0.103764676 -0.0017613855 0.1427851 0.13749099 -0.0919295 -0.080593824
0.021604551 -0.09504144 -0.052081008 -0.05828928 0.144532 -0.03822776 0.0028791707 0.19620873
0.15705629 -0.07266391 -0.04454439 0.0617526 0.08907168 0.1097225 -0.07403977 -0.06401048
0.03392079 -0.024192536 0.051584758 -0.0520543 0.14067309 0.031189352 -0.040891666 -0.18375772
0.13874239 -0.18960047 -0.0036712424 -0.2533535 0.09881928 0.047492605 -0.18615736 0.11301816
0.03523155 0.15856105 -0.051010367 0.08014549 0.10976664 0.009247717 -0.12778988 -0.04605974
0.13933378 0.016653426 -0.049387243 0.040388774 -0.015129934 0.07910922 -0.06846423 0.009263499
-0.002004137 -0.17943063 -0.048193894 0.06640972 0.00042162355 -0.055479765 -0.02293444 -0.06618167
00000000: 54c3 81bd e8fd 96bd 53e6 30ba 8c71 f83d
00000010: 8830 163b 6cc0 913c b52b a53d 4b43 bfbc
00000020: 2512 c03d 4a03 66bd 944c 68bc e32a 41bc
00000030: d7f7 853d 1a59 1c3d e6fa efbd d146 fcbd
00000040: 3d87 12bc 73f1 123d a58b aabd 1eb6 493d
00000050: 6935 42bd f28e e63c fb58 bb3c 1dee 8fbc
00000060: e9c7 373c d2aa 89bd 0d60 1b3d 9a85 8dbb
00000070: d298 9bbd 8ddc b63d 4735 b6bc 2118 cebd
00000080: 808e 35bd ea19 9ebd f01c afbd 84b6 31bd
00000090: f7ab babd 349a ff3c 7244 c53c 2490 8e3d
000000a0: c83c 23bb cbfc 38bd 21a3 d03c c986 96bd
000000b0: cd58 8fbd 1290 edbd cf73 03bd c5c8 253d
000000c0: e964 883d 42f9 20bd eadc 3a3e dd01 b43b
000000d0: 8f3c 973d abb5 13be 7e42 e3bc 8e84 3a3e
000000e0: 82a3 d0bd 3b9b a83d dd53 49bd 38dd 7c3d
000000f0: 30af a53d 29e5 71bd 38db 1dbc 4f65 afbd
00000100: 1781 32bd 1c48 4abd 6d1e e73c d2a2 ed3a
00000110: 2f53 0cbd 000f bdbc 3120 8e3d 763e 81ba
00000120: 035b 9fbb 3842 093e de5a 39bc 8102 94bd
00000130: be91 46bd f462 ddbd a8ab 493e 42c1 88bd
00000140: 8fdd 6739 84ff ed3b 8366 40bd f83f 68be
00000150: 8e7d 233e 1040 a83c f8ca 27be 4965 253e
00000160: 0d55 b33d d115 6fbd 7d68 9c3d 5d26 32be
00000170: cc0b 393e 5dcb cbbc 313c 89bd cff8 9f3d
00000180: 0e2f 12be 3605 c9bc d225 b73d 147a b6bb
00000190: d513 f8bc d269 61bc 3a80 0f3d 1487 02bd
000001a0: eaff c13c 38d7 febd 1f03 41bd 7a32 5ebb
000001b0: 115f 4b3c cf78 bfbc 0550 81be f03a d33c
000001c0: 70f3 9c3d ea48 983a 2591 4dbd 14db 04bd
000001d0: 8b19 c2bc 4d42 b93d f1cb 33bd 5174 e0bd
000001e0: 3635 0ebd 3327 98bc 0f36 d73d afab 77bd
000001f0: cd6a 0d3d 9c3d 77bd 7946 6fbc e226 5f3d
00000200: fa51 2a3e 6ed7 1abd 0a3d 9a3c 80b0 9fbe
00000210: e62f 7c3d fd30 103d c59c 793d a452 76bd
00000220: cf69 92bd d0f4 6abd cca4 fd3c 4786 bfbc
00000230: 22dd 493b 6a8f a0bc f2ee 1e3c b116 fc3d
00000240: 9e6d dc3c 0d1e ffbd 50a5 7b3c d37a 13ba
00000250: 6f52 3f3e ca9b 963c a2f5 be3d 1733 5dbd
00000260: b57c 47bd 3918 e73d 3cdf f73d 7ac6 593d
00000270: 9747 4c3d 1a9a cf3d 7ee0 69ba 69df d13c
00000280: 0253 9f3b d87c 373c ab77 583d 44d8 c93d
00000290: 25a1 46bc 5b05 c4bd 09f6 a0bd 2fb6 8ebd
000002a0: a9bf f13d 50f2 a33d c72b 9f3d db0b 0dbd
000002b0: 2764 753d cdd2 f23d 7f6c dd3d df27 573c
000002c0: 4795 d3bd 5803 353d b408 1ebe 0f0f 99bd
000002d0: 5a3e 94bc 7eed d0bd 0cae 1b3e 88a7 463e
000002e0: 7f32 113d eaa2 b2bd eb41 4dbe c8d1 eb3c
000002f0: c01e 313d d0a1 f4bd 089a 56bd 7f30 e9bd
00000300: 6728 e03b 2190 5fbd 9382 d4bd 4ade e6ba
00000310: 4236 123e 70ca 0c3e 8945 bcbd 600e a5bd
00000320: 07fc b03c 16a5 c2bd e552 55bd bdc0 6ebd
00000330: 3200 143e b694 1cbd 78b0 3c3b f1ea 483e
00000340: 5dd3 203e d1d0 94bd 2e74 36bd 4bf0 7c3d
00000350: 376b b63d 31b6 e03d 2aa2 97bd ed17 83bd
00000360: 87f0 0a3d 6d2f c6bc 8a4a 533d e436 55bd
00000370: 9b0c 103e d080 ff3c 057e 27bd fc2a 3cbe
00000380: 7c12 0e3e a026 42be 3a99 70bb 8db7 81be
00000390: c361 ca3d 9b87 423d 09a0 3ebe 1176 e73d
000003a0: f54e 103d d45d 223e 3ff0 50bd 5223 a43d
000003b0: 55cd e03d bd83 173c 5adb 02be 23a9 3cbd
000003c0: 84ad 0e3e c46c 883c 474a 4abd b36e 253d
000003d0: 8be3 77bc 0404 a23d f936 8cbd eec5 173c
000003e0: d757 03bb aabc 37be f666 45bd d201 883d
000003f0: 5b0d dd39 c03e 63bd 02e1 bbbc 418a 87bd

fc1.bias f4 [120]
-0.011063152 0.031071695 0.023783423 -7.532783e-07 0.002230664 0.038178016 0.04409642 -0.108354844
-0.027303088 -1.834846e-39 0.043302096 -0.00035239212 -0.0341735 -0.008230543 -0.029674713 -0.02085802
0.026292264 0.01493372 -5.9191896e-10 0.10865552 -0.036419805 -0.018125428 0.120376185 0.078144416
-0.024192814 0.065948136 0.065229766 0.047297616 0.0363043 -0.0044548064 0.0049963156 -0.0014393446
0.028113622 -4.89663e-40 0.049206216 -0.019581858 -0.014418387 9.8319495e-37 -0.05645002 0.06753684
-0.03617236 0.043156367 -0.03162655 0.10602072 0.03483641 -0.028796125 -1.76999e-39 -0.019842898
0.07495501 0.020593122 -0.001020679 0.002200803 0.079536445 -0.007044275 -0.024865938 0.0062438403
0.068108484 0.022321125 -2.2557399e-11 -2.3231078e-05 0.092104614 -5.6908215e-07 -0.0071668276 0.0063187424
0.024938686 -0.029885637 -0.008974048 0.076164424 0.029176328 0.034353495 0.030688947 -2.761721e-12
0.004044459 -4.107534e-08 0.059164077 -0.08986868 0.028611246 -0.00862609 -0.05112021 0.062998585
0.05809349 -0.079455175 0.04144809 0.021684477 0.024958774 -0.06708677 -0.004404388 0.06984202
-0.01648949 0.06380078 0.0075575053 0.04360813 0.026440928 0.037585784 0.071909316 0.10177767
0.039948154 -0.020811835 -8.881326e-18 -0.051063232 0.038240016 -2.40248e-39 -5.46293e-40 0.054377254
-0.05495564 0.05445224 -0.004990598 0.0051674764 -0.0016132417 -0.039874226 -0.033941653 0.01732983
-9.479226e-08 0.013131362 -0.03731047 0.09999664 0.054663625 0.17102572 -0.051315445 -0.026996633
00000000: 3942 35bc 118a fe3c 74d5 c23c e434 4ab5
00000010: 5530 123b 8d60 1c3d 739e 343d 25e9 ddbd
00000020: baaa dfbc cefa 1380 8a5d 313d 45c1 b8b9
00000030: 83f9 0bbd 66d9 06bc 6218 f3bc 70de aabc
00000040: e062 d73c 90ac 743c 98b4 22b0 c986 de3d
00000050: ef2c 15bd c77b 94bc ca87 f63d 2e0a a03d
00000060: 0230 c6bc d10f 873d 2f97 853d 25bb 413d
00000070: d1b3 143d a0f9 91bb 22b8 a33b 64a8 bcba
00000080: 8a4e e63c fb54 0580 758c 493d 226a a0bc
00000090: 193b 6cbc 2e48 a703 2338 67bd c150 8a3d
000000a0: 7829 14bd bbc4 303d d78a 01bd 6421 d93d
000000b0: a0b0 0e3d dae5 ebbc 0346 1380 938d a2bc
000000c0: 0382 993d e8b2 a83c 4ec8 85ba 593b 103b
000000d0: 01e4 a23d a9d3 e6bb a7b3 cbbc 2199 cc3b
000000e0: 767c 8b3d cbda b63c bf6a c6ad 5ce0 c2b7
000000f0: 58a1 bc3d 07c3 18b5 b5d7 eabb 740d cf3b
00000100: 374c cc3c b9d2 f4bc e307 13bc 18fc 9b3d
00000110: 3203 ef3c 40b6 0c3d 6367 fb3c be56 42ac
00000120: 6287 843b d06a 30b3 0856 723d 120d b8bd
00000130: 2262 ea3c 7254 0dbc 6d63 51bd 6705 813d
00000140: 70f3 6d3d 65b9 a2bd 79c5 293d a5a3 b13c
00000150: 5876 cc3c ca64 89bd af52 90bb 5509 8f3d
00000160: f814 87bc fca9 823d f3a4 f73b 709e 323d
00000170: a59a d83c 8df3 193d 3145 933d d070 d03d
00000180: ada0 233d 957d aabc e0d4 23a3 ae27 51bd
00000190: 90a1 1c3d 2329 1a80 d8f2 0580 afba 5e3d
000001a0: 2a19 61bd 5009 5f3d 2c88 a3bb ef53 a93b
000001b0: 6973 d3ba 2853 23bd 6706 0bbd 4af7 8d3c
000001c0: 9990 cbb3 ed24 573c ddd2 18bd 0acb cc3d
000001d0: f7e6 5f3d 5e21 2f3e 2530 52bd 0b28 ddbc

fc2.weight f4 [84, 120]
0.0011023582 -0.0041806656 -0.0018623292 -4.983107e-39 -3.4540298e-10 -0.0007825609 -0.026050625 -0.023377579
-0.0033663718 4.983104e-39 -0.012262809 -6.666633e-38 -1.5810429e-17 6.6528136e-38 0.00918175 0.004524871
5.6708926e-05 0.015406091 -4.691802e-39 -6.16185e-05 -0.012733657 -0.019188693 -0.026824111 -0.007806266
-0.0023078362 -0.017039623 -0.0022763028 -0.0067248307 -0.0016175195 8.87284e-40 -0.0046222466 3.211765e-39
-0.015596532 6.975252e-39 -0.009473721 -0.0122965155 -0.009175031 -4.4053e-40 0.0038727673 -0.0033672021
-0.008748336 -0.00060366996 -0.0065904097 0.00016419186 -0.011512204 -0.00024938135 -2.191195e-39 0.00013713063
0.010545066 -0.0019115824 1.78693e-39 -0.00030946737 -0.028321901 -0.020226395 -0.0018827998 -0.015545134
-0.001418348 -0.011422823 7.77592e-40 -8.97048e-40 -0.014069748 -3.9024582e-38 -0.011216865 -0.006758528
-0.021746049 -0.012662583 -8.357377e-06 -0.00024486834 -0.0067652096 -0.00831674 -0.005172223 -1.761861e-39
-0.0011447368 -8.414543e-32 0.0008158804 -0.0044610766 -0.0018017391 -0.00013003917 -0.007973237 -0.018447245
0.006749307 -0.0064200344 0.01200468 -0.008660048 -0.020483613 -0.010237197 2.9247593e-30 -0.003633702
-0.0010363864 -6.642768e-05 -0.00040853303 -0.0005412425 -0.013864124 -0.00030671965 -6.032196e-07 -0.0026169985
-0.0037221604 0.025609538 5.8550084e-38 -0.012434381 -0.00024430235 -9.431855e-38 -1.59644e-39 -0.011404932
-0.00999961 -0.005665302 0.00220007 -0.012454552 -0.00844723 -0.0033992443 -0.0046441113 -0.0015291482
3.262548e-39 -0.006249737 -0.018030386 -0.018354855 -0.010226422 -0.005011204 2.4214066e-06 -0.017566783
0.10961543 0.036424387 0.13969828 -0.0066249985 -0.04739285 -0.1185829 -0.12653802 -0.04948166
-0.08556173 9.108926e-07 -0.18666945 0.02346509 0.005769748 -0.021228373 0.18453494 0.27449876
-0.13916105 0.06195495 0.0038189732 0.04927849 -0.2458784 0.13626547 0.19915059 -0.13414912
-0.111559175 0.105258204 0.051142555 -0.010434755 -0.16772507 -0.0060420646 0.18081994 0.01655989
-0.11088917 -0.0004274842 0.08203833 -0.14503989 0.10071673 3.6033705e-06 0.042146124 -0.15682717
-0.00400501 0.06348729 0.017386744 0.06500296 0.20166893 -0.21617137 -8.607805e-06 0.032777794
-0.0327546 -0.03376765 -0.010458908 -0.02078906 -0.25286913 -0.06605539 -0.0043540057 0.1393732
-0.019916117 -0.050542224 -0.012409192 -0.0026844125 -0.0157884 0.011165884 0.048478037 -0.047599617
0.07426765 -0.05076508 0.079421416 0.3094674 0.22030504 -0.025848214 0.012493019 -0.00071796915
-0.23259145 0.0022569313 0.26686034 0.19425735 -0.08373319 0.23130181 0.1134205 -0.23875663
-0.1141263 0.20397472 0.008267846 0.13441473 0.1785655 -0.15634978 -0.0037934263 0.027361613
-0.06661809 0.27466556 -0.11998406 -0.046754796 -0.044357687 0.26385808 -0.013998363 0.10704637
0.0011893053 0.18453482 -1.5520229e-08 0.031896815 0.078190245 -5.236411e-10 8.52565e-08 -0.39312127
0.08001834 -0.07292518 0.04994248 0.12728481 0.08923409 -0.24438976 -0.00034889512 -0.1461019
-4.038539e-05 0.18065698 -0.07174836 -0.03341881 -0.14081268 0.10949617 -0.22863212 -0.011014986
0.09443767 -0.011750173 -0.17668876 -4.848006e-05 -0.13699977 -0.13626002 -0.19635011 -0.06555656
0.08678006 -2.0984711e-31 -0.05603515 -0.0018516998 -0.00045642292 0.00564053 0.09313385 0.31997392
00000000: 017d 903a f7fd 88bb 6619 f4ba e042 3680
00000010: 26e3 bdaf c624 4dba 1f68 d5bc 5682 bfbc
00000020: 599e 5cbb de42 3600 f3e9 48bc a77b b581
00000030: 52d3 91a3 581b b501 0d6f 163c 5e45 943b
00000040: bfda 6d38 d469 7c3c d616 3380 2e39 81b8
00000050: d4a0 50bc 9b31 9dbc 3dbe dbbc b5cb ffbb
00000060: 113f 17bb ae96 8bbc 062e 15bb f85b dcbb
00000070: f302 d4ba 63a9 0900 3776 97bb 18f9 2200
00000080: 9988 7fbc 2af4 4b00 aa37 1bbc 5377 49bc
00000090: df52 16bc 05cc 0480 41ce 7d3b 47ac 5cbb
000000a0: 2e55 0fbc 9b3f 1eba 5df4 d7bb eb2a 2c39
000000b0: af9d 3cbc 66bf 82b9 29dc 1780 b9ca 0f39
000000c0: 36c5 2c3c 108e faba 3c75 1300 0240 a2b9
000000d0: 5503 e8bc d3b1 a5bc 47c8 f6ba 05b1 7ebc
000000e0: dde7 b9ba cb26 3bbc 9c77 0800 9bc4 0980
000000f0: cd84 66bc 5478 5481 f1c6 37bc a476 ddbb
00000100: c524 b2bc b976 4fbc a936 0cb7 ac61 80b9
00000110: b1ae ddbb f042 08bc c07b a9bb 5a2f 1380
00000120: fe0a 96ba 3b74 da8b cfe0 553a 392e 92bb
00000130: 5528 ecba 205b 08b9 2ea2 02bc ad1e 97bc
00000140: 4a29 dd3b 275f d2bb 47af 443c e0e2 0dbc
00000150: 40cd a7bc ebb9 27bc e048 6d0e 6723 6ebb
00000160: 5bd7 87ba 174f 8bb8 6030 d6b9 2be2 0dba
00000170: 5a26 63bc 37cf a0b9 efec 21b5 f381 2bbb
00000180: 7def 73bb 18cb d13c 7463 9f01 93b9 4bbc
00000190: b515 80b9 3861 0082 3a62 1180 c0db 3abc
000001a0: 67d5 23bc ffa3 b9bb 0d2f 103b 2d0e 4cbc
000001b0: 4066 0abc dbc5 5ebb a12d 98bb b36d c8ba
000001c0: a886 2300 98ca ccbb 76b4 93bc ec5c 96bc
000001d0: b98c 27bc 0735 a4bb 737f 2236 37e8 8fbc
000001e0: 0e7e e03d bd31 153d 110d 0f3e 8416 d9bb
000001f0: 011f 42bd 97db f2bd 2f93 01be 48ad 4abd
00000200: fd3a afbd 1084 7435 4726 3fbe dc39 c03c
00000210: 2710 bd3b 20e7 adbc baf6 3c3e 1a8b 8c3e
00000220: 3c80 0ebe 79c4 7d3d bd47 7a3b 3ed8 493d
00000230: 8cc7 7bbe 2d89 0b3e 22ee 4b3e 635e 09be
00000240: 2379 e4bd 9d91 d73d db7a 513d 89f6 2abc
00000250: 1fc0 2bbe 83fc c5bb dd28 393e 9ba8 873c
00000260: dc19 e3bd f51f e0b9 b603 a83d 5685 14be
00000270: 9344 ce3d 6fd1 7136 6aa1 2c3d 4d97 20be
00000280: 753c 83bb a005 823d a56e 8e3c 4620 853d
00000290: 4d82 4e3e 075c 5dbe 3e6a 10b7 0242 063d
000002a0: b029 06bd f34f 0abd d75b 2bbc d24d aabc
000002b0: 1078 81be 0c48 87bd 0cac 8ebb d9b7 0e3e
000002c0: 2027 a3bc 5d05 4fbd ec4f 4bbc f8ec 2fbb
000002d0: ad56 81bc 1df1 363c e890 463d d1f7 42bd
000002e0: a319 983d 0bef 4fbd b2a7 a23d 8372 9e3e
000002f0: a597 613e a2bf d3bc 85af 4c3c 1836 3cba
00000300: 742c 6ebe 06e9 133b eba1 883e 66eb 463e
00000310: 4f7c abbd 62da 6c3e 0249 e83d 9e7c 74be
00000320: 0dbb e9bd c0de 503e dc75 073c 04a4 093e
00000330: e0d9 363e 281a 20be 229b 78bb 7625 e03c
00000340: 116f 88bd f7a0 8c3e 34ba f5bd f581 3fbd
00000350: 68b0 35bd 6818 873e 6459 65bc 213b db3d
00000360: 77e2 9b3a b2f6 3c3e 5851 85b2 3ca6 023d
00000370: 3522 a03d f7ef 0fb0 4216 b733 3147 c9be
00000380: a8e0 a33d cc59 95bd 7c90 4c3d f356 023e
00000390: 5dc0 b63d 4f41 7abe e9eb b6b9 bd9b 15be
000003a0: 7b63 29b8 25fe 383e cef0 92bd 2ae2 08bd
000003b0: 3331 10be 873f e03d 8a1e 6abe 3378 34bc
000003c0: 8a68 c13d cc83 40bc e6ed 34be 1157 4bb8
000003d0: ab49 0cbe bf87 0bbe 0110 49be 8542 86bd
000003e0: beb9 b13d d532 888c 1d85 65bd bcb4 f2ba
000003f0: 0c4c efb9 32d4 b83b f6bc be3d 9fd3 a33e

fc2.bias f4 [84]
-0.018792834 0.05885218 -0.085659906 0.029501023 0.017303431 0.0461241 -0.0037365633 -2.9368548e-05
-0.020555668 -1.388426e-39 -2.832222e-39 -0.053523872 0.052610558 -0.00030906405 0.0005466421 0.16561522
0.061237905 0.011477764 0.06252435 0.03126478 0.029344803 -0.038672578 -3.1897883e-07 -0.008494767
0.03194802 0.08619605 0.09224166 0.01571584 -0.007244096 -8.3859895e-08 0.063092396 -9.049297e-07
-0.0303763 -0.00037104363 -0.0076197553 -0.04843131 -0.014411967 0.07792504 0.1023464 0.06735619
-1.9142522e-05 -0.0012842895 0.10873106 -2.042185e-05 0.015201971 0.08560166 0.06747087 -6.024173e-12
-0.049891546 0.07175094 0.01575021 6.04502e-40 0.119938254 -0.009043031 0.08769011 0.051924136
0.09281234 0.06186691 0.16566607 0.030024188 0.0014280359 0.04910686 0.12115544 -4.05203e-05
-0.022605922 -5.099556e-08 -0.018211424 0.1513101 -0.033584543 0.1241846 0.008629633 -0.0052026403
0.047983866 -0.0055627 -1.1077701e-05 -0.025680134 0.06432805 0.09244972 0.13459948 0.15472144
0.08384834 -0.0011682766 -0.0033193792 -0.0042937263
00000000: 6ef3 99bc fc0e 713d 766e afbd 21ac f13c
00000010: edbf 8d3c a0ec 3c3d 21e1 74bb 7a5c f6b7
00000020: 5c64 a8bc 5e1e 0f80 15d7 1e80 d93b 5bbd
00000030: 2b7e 573d e009 a2b9 884c 0f3a 0997 293e
00000040: 99d4 7a3d 3b0d 3c3c c40c 803d 7f0f 003d
00000050: 8364 f03c 2367 1ebd 1e40 abb4 a32d 0bbc
00000060: eddb 023d 8e87 b03d 32e9 bc3d 81be 803c
00000070: e25f edbb 7716 b4b3 9636 813d 4cea 72b5
00000080: b8d7 f8bc a288 c2b9 24af f9bb e95f 46bd
00000090: 2c20 6cbc 2a97 9f3d fd9a d13d 0bf2 893d
000000a0: 4194 a0b7 9b55 a8ba 64ae de3d 974f abb7
000000b0: b011 793c ec4f af3d 2b2e 8a3d edf4 d3ac
000000c0: 145b 4cbd 28f2 923d 9606 813c 1b95 0600
000000d0: 30a2 f53d 3929 14bc df96 b33d 67ae 543d
000000e0: 6514 be3d 2868 7d3d 5ea4 293e 49f5 f53c
000000f0: ef2c bb3a 4624 493d 5820 f83d 57f4 29b8
00000100: 0e30 b9bc 3606 5bb3 2030 95bc 09f1 1a3e
00000110: f28f 09bd 7f54 fe3d 4e63 0d3c e97a aabb
00000120: bb8a 443d 4f47 b6bb 5dda 39b7 255f d2bc
00000130: 6dbe 833d 4756 bd3d 72d4 093e 4c6f 1e3e
00000140: aeb8 ab3d dc20 99ba f189 59bb 63b2 8cbb

fc3.weight f4 [10, 84]
-0.006569091 -0.16344455 -0.005199118 0.07602755 0.60096043 0.018287897 -0.008735134 0.0004735721
0.03214679 -1.6315214e-05 -1.6084705e-24 -0.053192526 -0.2464303 -0.0010308109 -0.034282986 0.036174886
0.1374262 0.111900724 -0.020494996 -0.23304358 -0.09172588 0.010184236 0.00780023 0.15987684
0.12952106 0.1391467 0.24772455 0.021796055 -0.25928655 -0.00013738667 0.07836293 -0.003477268
0.1791601 0.00048833987 0.059264936 0.20637049 -0.020737153 -0.14733967 -0.15968429 0.073935576
0.00025839472 0.0057921065 0.10842738 0.00082743797 0.30995178 -0.3691707 -0.5392494 -1.9315982e-10
0.05042651 0.14378478 0.14139353 1.8261025e-07 -0.019562894 -0.2669697 -0.055342678 -0.2568295
-0.15918691 -0.2828917 0.23569223 -0.5803083 -0.043954827 0.021219818 0.11853549 -0.0015778244
0.03835001 8.203863e-05 -0.03198989 0.07515875 0.026445322 -0.24080904 0.14958885 -0.0066686487
0.14187717 0.009670838 -0.0021536518 -0.25065863 -0.031725947 -0.36921617 -0.27552798 0.104288936
-0.08113659 -0.0018436562 -0.00982269 -0.14566211 -2.4619025e-05 -0.08193695 -0.25140747 0.115906164
0.006618759 0.25894067 0.0050551617 -6.031319e-08 0.020037029 -5.5968065e-14 3.4306595e-36 0.095641434
-0.34057668 5.3806118e-05 -0.21502225 0.19123594 -0.24552286 -0.19550209 -0.43777323 -0.46031022
-0.043191068 0.08749351 0.00011968035 0.1791595 -0.51818657 -0.3257552 -0.09377771 -0.10649721
0.2760336 -1.2378864e-05 -0.6201631 -2.9817948e-10 0.11413194 -1.1713822e-05 0.19464397 0.3036669
0.0072774594 -0.17296892 -0.17899984 0.008042507 1.6143847e-06 0.0010408252 0.0043362286 -2.4273754e-15
-0.288305 0.030238414 -0.2958308 5.73665e-15 0.204711 0.15445761 0.033053707 6.79111e-40
0.021031637 -0.22433195 0.20732845 -0.48737833 0.09240489 0.20625865 -0.2675928 -0.21528941
0.1292519 -0.2992828 -0.41010576 -0.0009469249 -0.4264448 -2.5830948e-06 0.4830441 -0.4946564
0.036724705 0.12396107 -0.8067967 -0.0026872873 -0.3704547 -0.007209497 0.0010009187 0.14299728
-0.2951468 0.098143816 0.033861753 0.18736553 -0.013620982 1.619936e-05 0.0022838758 -0.022349475
-0.00038487892 -0.5984497 -0.31719363 -0.07821283 -0.25746605 0.058855463 -0.009559629 0.0005530353
0.0069512483 -4.7121517e-05 -7.57136e-40 0.20479563 0.17300828 0.02236741 0.1552581 0.08587871
0.20588242 0.049402203 -0.081987925 -0.12849073 -0.45256615 0.12684377 -0.0014571917 -0.11010172
-0.016407771 -0.22432493 0.15414236 0.3545917 -0.029595917 -0.008381444 0.10182019 0.0012285014
0.16265258 -0.00016453773 0.12791446 0.022463119 0.010026217 0.0882815 -0.45014235 -0.025609903
0.0007031811 0.0043529617 -0.691632 -0.0006101363 -0.03473052 0.06380437 -0.057951596 4.887538e-07
-0.3667587 -0.10911029 0.10152325 4.7857015e-05 0.09206581 0.19010228 0.1785318 0.15686534
-0.10731878 -0.39707902 0.27578366 0.21050827 -0.18024491 0.23401426 0.009626799 0.0049979216
-0.11227108 0.0017403236 -0.025987666 0.14077349 0.02195598 -0.22475609 -0.33194828 -0.012137182
-0.08592943 0.026764335 0.009254854 -0.22535427 -0.25781107 0.019067314 -0.01615232 0.07530049
-0.06505993 -0.011123788 0.015893549 0.040662088 0.002828071 0.18172868 -0.45757803 -0.42862004
00000000: 8841 d7bb 025e 27be 5d5d aabb 55b4 9b3d
00000010: 8bd8 193f 80d0 953c cf1d 0fbc c549 f839
00000020: 5aac 033d a8dc 88b7 15e6 f897 68e0 59bd
00000030: 3958 7cbe 461c 87ba 516c 0cbd 1e2c 143d
00000040: 74b9 0c3e 352c e53d 1fe5 a7bc faa2 6ebe
00000050: c7da bbbd c8db 263c 1299 ff3b c1b6 233e
00000060: 2ba1 043e 797c 0e3e 81ab 7d3e a48d b23c
00000070: 35c1 84be 740f 10b9 be7c a03d e0e2 63bb
00000080: bf75 373e ef03 003a cabf 723d c952 533e
00000090: f6e0 a9bc 36e0 16be 4784 23be 896b 973d
000000a0: 2779 8739 b6cb bd3b 2d0f de3d 6ce8 583a
000000b0: 00b2 9e3e f103 bdbe 400c 0abf a861 54af
000000c0: 078c 4e3d 513c 133e 77c9 103e 8613 4434
000000d0: 5d42 a0bc 41b0 88be 01af 62bd 287f 83be
000000e0: e501 23be 2ed7 90be 4e59 713e 168f 14bf
000000f0: fa09 34bd 2fd5 ad3c bcc2 f23d 00cf ceba
00000100: e614 1d3d 270c ac38 d507 03bd d5ec 993d
00000110: dca3 d83c a596 76be d22d 193e ae84 dabb
00000120: 4048 113e 6f72 1e3c 4824 0dbb 5456 80be
00000130: 11f3 01bd e709 bdbe 0112 8dbe 7095 d53d
00000140: f12a a6bd d6a6 f1ba 59ef 20bc 7328 15be
00000150: f484 ceb7 8fce a7bd 7bb8 80be 3660 ed3d
00000160: 2de2 d83b df93 843e c5a5 a53b 8785 81b3
00000170: b224 a43c c90e 7ca9 93ec 9104 a8df c33d
00000180: 1160 aebe e1ad 6138 cb2e 5cbe 5bd3 433e
00000190: 586a 7bbe b331 48be d023 e0be c8ad ebbe
000001a0: 1ee9 30bd cc2f b33d e6fc fa38 9775 373e
000001b0: e0a7 04bf 63c9 a6be 870e c0bd 361b dabd
000001c0: 4754 8d3e d1ae 4fb7 02c3 1ebf 08ed a3af
000001d0: 02be e93d 7b86 44b7 c050 473e 3a7a 9b3e
000001e0: c177 ee3b c41e 31be bc4b 37be b8c4 033c
000001f0: d6ad d835 4c6c 883a ec16 8e3b 2ce9 2ea7
00000200: b79c 93be 8db6 f73c 2277 97be 42af ce27
00000210: c39f 513e 232a 1e3e 5363 073d 1665 0700
00000220: 8a4a ac3c 46b7 65be e94d 543e a789 f9be
00000230: c63e bd3d 7835 533e ec01 89be d474 5cbe
00000240: 9c5a 043e 983b 99be 62f9 d1be 0e3b 78ba
00000250: f956 dabe 3b59 2db6 8e51 f73e 9b43 fdbe
00000260: a56c 163d 4ddf fd3d 3b8a 4ebf 331d 30bb
00000270: 3dac bdbe a53d ecbb 4231 833a e16d 123e
00000280: 7b1d 97be a0ff c83d 9fb2 0a3d c0dc 3f3e
00000290: 8a2a 5fbc dce3 8737 14ad 153b 3f16 b7bc
000002a0: 93c9 c9b9 0034 19bf 3467 a2be 0c2e a0bd
000002b0: 97d2 83be 6d12 713d fd9f 1cbc 92f9 103a
000002c0: 4cc7 e33b 58a4 45b8 963e 0880 f2b5 513e
000002d0: 1529 313e dc3b b73c fbfb 1e3e 2de1 af3d
000002e0: d7d2 523e f759 4a3d 49e9 a7bd 1393 03be
000002f0: c0b6 e7be 55e3 013e 3dff beba 037d e1bd
00000300: 9769 86bc 6fb5 65be 7fd7 1d3e 0b8d b53e
00000310: 2373 f2bc 5352 09bc 1b87 d03d ab05 a13a
00000320: 668e 263e c387 2cb9 02fc 023e 9304 b83c
00000330: 0145 243c eecc b43d 0f79 e6be dccb d1bc
00000340: af55 383a 4aa3 8e3b cb0e 31bf 8ef1 1fba
00000350: 9741 0ebd deab 823d a75e 6dbd e832 0335
00000360: ccc7 bbbe 3775 dfbd 6ceb cf3d 14ba 4838
00000370: 008d bc3d 2caa 423e 0ad1 363e 4fa1 203e
00000380: f3c9 dbbd f14d cbbe 8433 8d3e 7b8f 573e
00000390: 1f92 38be 6fa1 6f3e b9b9 1d3c 9bc5 a33b
000003a0: 61ee e5bd 921b e43a 16e4 d4bc ed26 103e
000003b0: 07dd b33c 7626 66be 20f5 a9be 08db 46bc
000003c0: c5fb afbd e140 db3c aca1 173c 45c3 66be
000003d0: d0ff 83be 0e33 9c3c df51 84bc 2537 9a3d
000003e0: 243e 85bd 8c40 36bc 3033 823c 4a8d 263d
000003f0: 2857 393b 1517 3a3e ab47 eabe 1674 dbbe

fc3.bias f4 [10]
-0.12409642 -0.092594035 0.058960672 0.027916051 -0.06377977 -0.07603072 0.079592906 0.060623355
0.10130971 0.023366148
00000000: 4426 febd f1a1 bdbd bf80 713d 34b0 e43c
00000010: f89e 82bd feb5 9bbd 9b01 a33d 3250 783d
00000020: 777b cf3d 5d6a bf3c
